outputs/trained_models/placement_model_20250802_074710.pth (torch, 314287 bytes, 12 tensors)

layer1.weight f4 [128, 15]
0	0x3e70111c	0.23444027
1	0x3ccdffcb	0.025146386
2	0x3cbf2541	0.023333194
3	0xbd862a29	-0.0655101
4	0x3de78ac7	0.113057666
5	0x3d249c2b	0.040187996
6	0x3c4e25a8	0.01258222
7	0x3e53fed6	0.20702681
8	0xbcfb9bd1	-0.030713947
9	0xbe83cb19	-0.2574089
10	0x3e337173	0.17523746
11	0x3e97a811	0.29620412
12	0x3ea054b9	0.31314638
13	0xbee0f0bf	-0.43933675
14	0xbe59d59d	-0.21272893
15	0xbf066de7	-0.5251145
16	0xbe624e28	-0.22100127
17	0xbe6c255e	-0.2306113
18	0xbe4e46d1	-0.20144202
19	0xbe958399	-0.29201964
20	0xbdc918e1	-0.098191984
21	0x3e258787	0.16164981
22	0x3df24ded	0.118312694
23	0x3d3c2295	0.045931417
24	0x3e773705	0.24142082
25	0x3de48164	0.11157492
26	0xbe4c5a71	-0.19956376
27	0xbe4a213d	-0.19739242
28	0xbde45bc6	-0.11150317
29	0x3f0d9b50	0.55315113
30	0xbe63d877	-0.22250544
31	0x3c348d20	0.011019975
32	0xbe9281ac	-0.28614557
33	0x3e351309	0.17683043
34	0x3e665c49	0.22496141
35	0xbea87581	-0.32902148
36	0x3df6d62d	0.120525695
37	0x3cff6e05	0.031180391
38	0x3b2d518c	0.002644631
39	0x3df8350c	0.12119493
40	0xbd7c6325	-0.06161799
41	0xbc6bae07	-0.014384753
42	0xbe2b0d44	-0.16704279
43	0x3e09c872	0.1345537
44	0xbf0fe424	-0.5620749
45	0xbd117a7d	-0.035517205
46	0x3e93f05b	0.28894314
47	0xbeb705ac	-0.35746515
48	0x3da40814	0.08009353
49	0x3b2b5333	0.002614212
50	0xbe92359a	-0.2855652
51	0x3da93d3f	0.08263635
52	0x3e95e356	0.29275006
53	0xbe13bf9b	-0.1442856
54	0xbe913804	-0.2836305
55	0xbe2a569a	-0.16634598
56	0xbe0c2399	-0.13685454
57	0x3c01ece7	0.007930017
58	0x3e22110d	0.15826817
59	0xbf9737ed	-1.1813942
60	0x3d482bc1	0.048869852
61	0xbf107e7f	-0.5644302
62	0xbc6b0258	-0.0143438205
63	0xbe6feb25	-0.23429544
64	0x3d9197e5	0.0710905
65	0xbd9e95f4	-0.07743445
66	0x3e89088a	0.26764327
67	0x3e4dbbed	0.20091219
68	0xbeaf17bf	-0.34197804
69	0xbe903970	-0.2816882
70	0xbde0d536	-0.10978167
71	0x3df30f4c	0.11868152
72	0x3ebe37c7	0.3715193
73	0xbe81255b	-0.25223812
74	0xbf2a039e	-0.6641177
75	0x3ea5fb79	0.3241842
76	0xbe862bbe	-0.26205248
77	0x3d934e25	0.07192639
78	0x3e496e57	0.19670998
79	0xbe622c82	-0.22087291
80	0xbe227dcf	-0.15868305
81	0x3df12543	0.11774685
82	0xbe1b81ad	-0.15186186
83	0xbda61c18	-0.08110827
84	0x3dea09fa	0.11427684
85	0x3e54282c	0.2071845
86	0xbeb7ea93	-0.35921153
87	0x3e569552	0.20955399
88	0xbe506216	-0.20349917
89	0x3edeb5ef	0.4349818
90	0xbe26f056	-0.16302618
91	0x3e23eb48	0.16007721
92	0x3dd14bf8	0.10219568
93	0x3e598936	0.21243748
94	0xbd973fe0	-0.0738523
95	0x3aeb97d3	0.0017974324
96	0xbe2d5512	-0.16926983
97	0x3da4c9da	0.08046313
98	0xbe238b07	-0.15971003
99	0xbef56423	-0.4792796
100	0xbf07db32	-0.5306884
101	0xbf2f3394	-0.68438077
102	0x3eb398c5	0.3507749
103	0xbf363727	-0.71177906
104	0x3f547ecc	0.83005977
105	0xbd7897a2	-0.060691483
106	0x3e17a99b	0.14810793
107	0x3d00e9ab	0.031472843
108	0xbed15fcf	-0.4089341
109	0xbe61ad34	-0.22038728
110	0xbe987ac8	-0.29781175
111	0x3d98897c	0.07448098
112	0xbe6231cd	-0.2208931
113	0x3e90da71	0.28291658
114	0xbe483de5	-0.19554861
115	0x3b9bfdf4	0.004760498
116	0x3eaf4b58	0.3423717
117	0xbe719219	-0.23590888
118	0x3e523b85	0.20530517
119	0xbe7d6056	-0.2474378
120	0xbe4803d0	-0.19532704
121	0xbed772e5	-0.42079845
122	0xbede1dfd	-0.43382254
123	0xbf123f63	-0.5712797
124	0xbee5ccce	-0.44882816
125	0x3deb6226	0.1149333
126	0xbd087c7c	-0.033321843
127	0x3daa8d42	0.08327724
128	0xbe91c8a6	-0.28473395
129	0xbe3405f0	-0.1758039
130	0x3d90a267	0.07062226
131	0x3e905b90	0.28194857
132	0x3e9e4015	0.30908266
133	0x3ef6ffb3	0.48241958
134	0x3d9551ff	0.0729103
135	0x3e674924	0.22586495
136	0xbe518ac9	-0.20463099
137	0x3e9dfdd0	0.30857706
138	0x3e5fc4ad	0.2185237
139	0xbeccff08	-0.40038323
140	0xbe99d968	-0.3004868
141	0x3c766411	0.015038506
142	0xbea00974	-0.31257212
143	0xbdff6ec9	-0.124723025
144	0xbedaa496	-0.42703694
145	0xbe14b00a	-0.14520279
146	0xbeee5595	-0.4654967
147	0x3b524cab	0.0032089155
148	0x3e9d3004	0.30700696
149	0xbe9d551e	-0.30729002
150	0x3e5f8d45	0.21831234
151	0xbd1ba8fa	-0.038002945
152	0x3d1fdae8	0.039027125
153	0x3dcfe475	0.101509966
154	0xbe278143	-0.16357903
155	0x3df0aa88	0.11751276
156	0x3da7b421	0.08188654
157	0xbe299954	-0.16562396
158	0x3e38213f	0.17981432
159	0xbe0ce6c3	-0.13759904
160	0x3d3eee67	0.046614077
161	0xbd8aa62f	-0.06769978
162	0xbf3f39ac	-0.74697375
163	0xbd78a029	-0.060699616
164	0x3e881e52	0.26585633
165	0x3cf43706	0.029811393
166	0xba80d492	-0.0009828976
167	0x3d4bd13d	0.049760092
168	0x3e4f8461	0.20265342
169	0xbdbcec3e	-0.09224747
170	0x3d87ec42	0.066368595
171	0x3e47e0b5	0.19519313
172	0xbdff9947	-0.12480407
173	0x3da8eb71	0.08248032
174	0xbe338892	-0.17532566
175	0xbe3478da	-0.17624226
176	0xbf2386f0	-0.63877773
177	0xbef77ea5	-0.4833881
178	0xbe26d07f	-0.16290472
179	0x3f284938	0.6573672
180	0x3d956025	0.07293729
181	0x3e1f466c	0.15554208
182	0xbe0821f7	-0.13294207
183	0x3e391130	0.18072963
184	0x3e1bd721	0.15218784
185	0xbe0fc2de	-0.1403918
186	0x3d00bc56	0.03142961
187	0x3e2b8c45	0.16752727
188	0x3e046b01	0.12931444
189	0xbe0c0f47	-0.13677703
190	0x3e0bdd29	0.13658585
191	0xbf0cff9a	-0.5507752
192	0xbdb7adbe	-0.089686856
193	0xbf4f1a63	-0.8089964
194	0x3e5b74ce	0.21431276
195	0xbdbc2e5b	-0.09188529
196	0x3c939a1f	0.018017827
197	0xb9dbab7a	-0.00041898695
198	0xbd0b83bc	-0.03406118
199	0x3d606742	0.054785974
200	0xbe7bdd4e	-0.2459614
201	0x3e7a784c	0.24459952
202	0x3dbbeb50	0.09175742
203	0xbe817a0e	-0.25288433
204	0xbdcd92e7	-0.10037785
205	0x3d20bcc3	0.039242517
206	0x3ebf75d0	0.3739457
207	0xbf2d4358	-0.67680883
208	0x3f0c2eb1	0.54758745
209	0xbe496983	-0.19669156
210	0xbc23da4a	-0.010000775
211	0xbe3394ee	-0.17537281
212	0x3de2db9f	0.11077046
213	0x3e53d214	0.20685607
214	0xbe8edf56	-0.27904767
215	0xbeb58c1e	-0.35458463
216	0xbe81587f	-0.2526283
217	0xbe81abb7	-0.2532632
218	0x3e01f9f7	0.1269301
219	0x3e725b58	0.23667657
220	0xbd7111fc	-0.05885504
221	0xbf1c3443	-0.61017245
222	0x3ee6034a	0.44924384
223	0x3e8eaee0	0.27867794
224	0xbe47fdf4	-0.19530469
225	0x3cda6e4e	0.026663925
226	0xbd0d607b	-0.03451584
227	0x3d810ff6	0.063018724
228	0xbe145124	-0.14484078
229	0xbdcbaaea	-0.09944709
230	0x3e621bc1	0.220809
231	0x3d68bc66	0.056820296
232	0x3df5a28e	0.119938955
233	0x398b9df4	0.0002662983
234	0xbe91c57b	-0.28470978
235	0x3d5046e8	0.05084887
236	0xbf3d0f40	-0.73851395
237	0x3e97f495	0.2967879
238	0xbec1598b	-0.37763628
239	0x3ec8a44f	0.39187858
240	0xbd18e472	-0.037327237
241	0x3d29b988	0.041436702
242	0xbed8f5e9	-0.42375115
243	0x3e6c8435	0.23097308
244	0xbec1b810	-0.3783574
245	0x3cb065eb	0.021532973
246	0x3d85df25	0.06536702
247	0x3e7a5d06	0.24449548
248	0xbe2bd62d	-0.1678092
249	0xbf3f54f0	-0.7473898
250	0xbe8be31a	-0.27321702
251	0x3e08a3bd	0.13343711
252	0x3edb5e97	0.42845604
253	0xbf03e680	-0.5152359
254	0xbf353704	-0.7078707
255	0x3ec0ad3c	0.37632167

layer1.bias f4 [128]
0	0xbe557579	-0.20845594
1	0xbea526fb	-0.32256302
2	0xbee4ca5f	-0.44685647
3	0xbe777d12	-0.24168804
4	0x3deef74e	0.116682634
5	0xbeae5dff	-0.34056088
6	0xbe288b1e	-0.16459319
7	0xbe01fa19	-0.12693061
8	0x3e5a0ee4	0.21294743
9	0x3c59e3d5	0.013298948
10	0xbd5c48ef	-0.053780492
11	0xbe1a6be3	-0.15080218
12	0xbeef72e1	-0.46767333
13	0x3e5dd7d7	0.21664368
14	0x3e5704b3	0.20997886
15	0x3e6c5d6e	0.23082516
16	0xbe90a240	-0.28248787
17	0x3d861b20	0.065481424
18	0x3e8d7194	0.27625716
19	0x3e19eec5	0.1503249
20	0xbea236f7	-0.3168256
21	0xbdb7fd44	-0.089838535
22	0xbea76e72	-0.3270145
23	0xbe9fadb8	-0.31187224
24	0xbe377008	-0.1791383
25	0xbbdbff55	-0.0067137876
26	0xbed7ea59	-0.4217098
27	0xbec99022	-0.39367777
28	0x3f3229a6	0.695948
29	0xbe0a72e4	-0.1352039
30	0xbf0116a0	-0.5042515
31	0xbf252736	-0.64512956
32	0x3e39b978	0.18137157
33	0xbea9a8a6	-0.3313648
34	0xbea2ec0c	-0.31820714
35	0xbd9d037f	-0.076666825
36	0x3e62e6c5	0.22158344
37	0xbf159c53	-0.58441657
38	0xbe4d9601	-0.20076753
39	0x3ee00763	0.43755636
40	0xbeb6715d	-0.35633364
41	0x3d5a2ee4	0.053267375
42	0x3ed9e250	0.42555475
43	0xbd9bcf1c	-0.07607862
44	0xbee4671c	-0.44609916
45	0xbda12b62	-0.07869603
46	0xbe55bafd	-0.20872112
47	0xbdb0a607	-0.08625417
48	0x3e4d101c	0.20025676
49	0xbed8e242	-0.4236012
50	0x3e89706a	0.26843578
51	0xbd427f92	-0.04748494
52	0x3e984caf	0.29746005
53	0x3dba683a	0.09101911
54	0xbf0744fe	-0.5283965
55	0x3e2cb210	0.168648
56	0xbf13c307	-0.57719463
57	0xbea3e701	-0.3201218
58	0xbe222762	-0.15835336
59	0x3e36b5ad	0.17842741
60	0xbf159658	-0.5843253
61	0x3ea426b1	0.3206077
62	0xbe996a60	-0.2996397
63	0xbe6c8557	-0.2309774
64	0xbf025c93	-0.5092251
65	0xbe838adf	-0.25691888
66	0xbe551d89	-0.20812048
67	0xbe2c1c73	-0.16807728
68	0xbedbe641	-0.42949107
69	0xbe93b5cc	-0.28849638
70	0xbeec4dae	-0.46153015
71	0xbe57dd54	-0.21080524
72	0xbc05a7db	-0.008157696
73	0x3e129b4b	0.14317052
74	0xbee09eda	-0.43871194
75	0x3ec822ef	0.39089152
76	0xbdf0e753	-0.117628716
77	0xbea72ef3	-0.32653007
78	0x3ea69801	0.32537845
79	0xbf23d681	-0.6399918
80	0xbf047e77	-0.5175547
81	0xbf215ae2	-0.630293
82	0x3de83f56	0.11340205
83	0xbf416ead	-0.755595
84	0xbea13231	-0.31483606
85	0xbe0cb119	-0.13739432
86	0xbe9a2728	-0.30108
87	0xbf1165a0	-0.5679569
88	0xbd03b9ee	-0.03215974
89	0x3ddb93e9	0.10721571
90	0xbedcec24	-0.4314891
91	0xbd7718af	-0.060326274
92	0xbeaff0ac	-0.34363306
93	0x3e0d4127	0.13794385
94	0x3da89752	0.08231987
95	0x3e711d7c	0.23546404
96	0x3ea21aa9	0.31660965
97	0xbe7fbaf5	-0.24973662
98	0xbe773f2e	-0.24145195
99	0xbe9c6948	-0.30549073
100	0xbe284c7a	-0.16435423
101	0x3cd2b22c	0.025719725
102	0xbe496c0e	-0.19670126
103	0xbdba1799	-0.09086532
104	0xbeffbb65	-0.49947658
105	0x3d6f1d82	0.05837775
106	0x3c06f834	0.008237887
107	0xbe972eb1	-0.2952781
108	0xbe1a1e95	-0.15050729
109	0xbf16e400	-0.5894165
110	0x3e3f317a	0.18671218
111	0x3dca742d	0.0988544
112	0xbe80368d	-0.2504162
113	0xbea4accd	-0.32163087
114	0x3e7c827e	0.24659154
115	0x3e7c28d5	0.24624951
116	0xbd33701a	-0.04380808
117	0xbef22053	-0.47290286
118	0x3e4b066b	0.19826667
119	0x3d5a4556	0.05328878
120	0xbeabc23e	-0.33546633
121	0xbe62bf8f	-0.22143386
122	0xbdaef01e	-0.085418925
123	0xbea364f0	-0.31912947
124	0x3d084afb	0.033274632
125	0x3e84f0d3	0.25964984
126	0xbdb62033	-0.0889286
127	0xbe1d962a	-0.15389314

layer2.weight f4 [256, 128]
0	0xbe3f08ba	-0.18655673
1	0xbd82eef9	-0.06393237
2	0x3d829b01	0.06377221
3	0xbc813225	-0.015770981
4	0xbd96c77f	-0.073622696
5	0x3d9e9758	0.0774371
6	0xbc965a5c	-0.018353634
7	0xbd84dcee	-0.064874515
8	0x3d924b29	0.07143242
9	0x3c8fcac6	0.017552745
10	0xbdc418f6	-0.095750734
11	0x3d92b6a0	0.07163739
12	0xbe0f8a43	-0.14017586
13	0xbd81485d	-0.0631263
14	0x3bf9b5c3	0.0076205446
15	0xbe49fede	-0.1972613
16	0xbd80cccb	-0.06289061
17	0xbe63cfa9	-0.22247185
18	0x3e97c8a6	0.2964527
19	0x3dbfae6c	0.0935944
20	0xbdaf2482	-0.08551885
21	0x3d9a1748	0.07523972
22	0x3e13fb18	0.14451253
23	0x3db45103	0.08804514
24	0xbde8c3e2	-0.11365487
25	0x3e156c5d	0.14592119
26	0x3d32eb1d	0.043681253
27	0x3d8d5adb	0.06902095
28	0xbe4b6762	-0.19863656
29	0x3cdff6b1	0.027339311
30	0x3d9f9500	0.07792091
31	0xbe12cfdf	-0.14337109
32	0xbdfadbc6	-0.1224895
33	0xbe29be9f	-0.16576622
34	0xbded50de	-0.1158769
35	0x3e91db49	0.28487614
36	0x3daed7d7	0.08537262
37	0xbecb0c41	-0.39657786
38	0x3cb82c07	0.022481931
39	0xbdd9eecc	-0.1064125
40	0xbde70ece	-0.11282121
41	0xbe94a2da	-0.29030496
42	0xbea54505	-0.3227922
43	0xbe639092	-0.22223118
44	0xbdbf785e	-0.0934913
45	0x3c7bb04c	0.015361857
46	0x3e36356c	0.17793816
47	0x3dd68de4	0.10476282
48	0xbd847fce	-0.06469689
49	0xbe84b2e3	-0.2591773
50	0x3dd557a7	0.10417109
51	0xbd5f3af8	-0.054499596
52	0x3da5f68f	0.08103668
53	0xbb7fd568	-0.0039037112
54	0x3e802973	0.25031623
55	0x3e1764ac	0.14784497
56	0xbd3009a2	-0.042977937
57	0xbce38e89	-0.027777927
58	0xbc6b00fa	-0.014343495
59	0x3ccf1ced	0.025282348
60	0xbd0b9846	-0.034080766
61	0xbcae6a24	-0.021290846
62	0x3dadb9d8	0.084827125
63	0x3e053421	0.13008167
64	0x3dbd6fbb	0.092498265
65	0xbe555019	-0.20831336
66	0xbdcd1d26	-0.10015325
67	0xbea8a63c	-0.32939327
68	0x3e1194dd	0.14216943
69	0x3aca168e	0.0015418099
70	0xbd3a9e8b	-0.045561355
71	0xbe10bead	-0.14135237
72	0xbe092f16	-0.13396868
73	0xbe641f85	-0.22277649
74	0xbe1b9b27	-0.15195905
75	0xbec55d5a	-0.38547784
76	0x3e6ee18e	0.2332823
77	0xbd772848	-0.06034115
78	0x3e01d636	0.12679371
79	0x3cd692cb	0.026193043
80	0xbc4ebfaf	-0.012618943
81	0x3dd151e6	0.10220699
82	0x3c8c23b9	0.017106878
83	0xbe1daf62	-0.15398934
84	0xbe47fed2	-0.195308
85	0x3e2e895b	0.17044584
86	0x3d5b38cf	0.053520974
87	0xbec88507	-0.39163992
88	0x3ea36fa4	0.31921113
89	0xb9fd1e87	-0.00048278665
90	0x3da85749	0.08219773
91	0xbe1f8784	-0.15579039
92	0xbd97e4d1	-0.0741669
93	0x3e556418	0.20838964
94	0xbe16ddb2	-0.14733008
95	0x3d849362	0.064734235
96	0x3d07c2c2	0.03314472
97	0xbeb6b634	-0.35685885
98	0xbc0b1747	-0.0084894365
99	0xbdd16b78	-0.10225576
100	0x3d2ff1b8	0.04295513
101	0xbeab7755	-0.3348948
102	0xbe8fbe0c	-0.28074682
103	0x3ca6cb86	0.02036072
104	0xbdfeee3e	-0.12447785
105	0xbdf2bd86	-0.11852555
106	0x3acca5cf	0.001561338
107	0x3d9e11ba	0.07718225
108	0xbd584053	-0.05279572
109	0x3d11e11a	0.035615064
110	0x3e24385b	0.16037123
111	0xbee29245	-0.4425222
112	0x3d68e12f	0.056855377
113	0xbe10924a	-0.14118305
114	0x3c1d5208	0.009602077
115	0xbda358ec	-0.07975945
116	0xbddec4ef	-0.10877406
117	0xbe8d3ae1	-0.27583984
118	0xbe16aaf0	-0.14713645
119	0x3d8cc6ab	0.068738304
120	0x3c666246	0.014061516
121	0x3e2ff14a	0.17181888
122	0x3cf24072	0.029571746
123	0x3e4833df	0.19551037
124	0xbe63283d	-0.22183318
125	0x3e180e6c	0.14849252
126	0x3e13035e	0.14356753
127	0xbe67d111	-0.22638346
128	0x3d4bc9f4	0.049753144
129	0xbe4042bd	-0.18775459
130	0xbe11654a	-0.14198795
131	0x3b74beb4	0.0037345113
132	0xbe366159	-0.17810573
133	0xbe0f9cf8	-0.14024723
134	0x3ccfc2ac	0.025361381
135	0x3e0ca582	0.13735011
136	0xbeae7832	-0.34076077
137	0x3dbea396	0.09308545
138	0xbe01bc9a	-0.12669602
139	0xbe12695a	-0.14298001
140	0xbd956e6a	-0.072964504
141	0x3e243227	0.16034757
142	0xbe3c81d3	-0.18408899
143	0x3ddc04f7	0.107431345
144	0xbe0704cd	-0.13185425
145	0xbbe46b5a	-0.006970805
146	0xbdba8d03	-0.09108927
147	0x3e122f7f	0.14275931
148	0xbdc231bf	-0.094821446
149	0x3d92863b	0.07154509
150	0xbeaeb71d	-0.3412408
151	0xbd39c5c0	-0.045354605
152	0xbdaaeaf7	-0.08345597
153	0xbe718050	-0.23584104
154	0xbe034738	-0.12820137
155	0xbe6eea3a	-0.23331538
156	0xbe17dce7	-0.14830361
157	0xbd5897c6	-0.052879117
158	0x3cf74bc2	0.030187491
159	0x3e54a470	0.20765853
160	0x3e0785bd	0.13234611
161	0xbd535f01	-0.051604275
162	0x3df49846	0.11943106
163	0xbd3df76c	-0.046378538
164	0x3d4298e4	0.04750909
165	0xbd776964	-0.060403243
166	0x3e466400	0.19374084
167	0x3d773796	0.060355745
168	0x3d9baf52	0.07601799
169	0x3dab0466	0.08350448
170	0x3d6e8798	0.05823478
171	0xbe40d370	-0.18830657
172	0xbe39b59a	-0.18135682
173	0xbef59965	-0.47968593
174	0x3e1c4a99	0.15262832
175	0xbebe51dd	-0.37171832
176	0xbe4cc319	-0.19996299
177	0xbe823047	-0.25427458
178	0xbedae819	-0.427552
179	0xbea474b2	-0.3212028
180	0x3dc1e806	0.09468083
181	0xbc0776c8	-0.008268066
182	0x3e71772c	0.23580617
183	0x3d870180	0.06592083
184	0xbbdde50c	-0.0067716893
185	0xbe376ef0	-0.17913413
186	0xbc2dd81d	-0.010610607
187	0xbd156c37	-0.036480155
188	0xbe17608a	-0.1478292
189	0x3d1b60f4	0.03793426
190	0xbe07dd5e	-0.13268039
191	0x3cffa0f4	0.031204678
192	0xbcb7b310	-0.02242425
193	0xbe2a4f8c	-0.16631907
194	0xbe27fa86	-0.16404161
195	0xbce07522	-0.027399603
196	0xbe9ff50e	-0.3124165
197	0x3a267501	0.00063498324
198	0xbd5a6547	-0.05331924
199	0xbdb482fd	-0.088140465
200	0xbe56e91c	-0.20987362
201	0x3dbfd7e1	0.093673475
202	0xbe63befc	-0.22240824
203	0xbcf53416	-0.029932063
204	0xbed630b4	-0.41834033
205	0xbddc42d4	-0.10754934
206	0x3e4550a3	0.19269042
207	0xbe994d13	-0.29941615
208	0x3e14c8b2	0.14529684
209	0xbebf0433	-0.3730789
210	0x3da1409c	0.078736514
211	0xbe17b09f	-0.1481347
212	0xbc292383	-0.010323408
213	0xbec0b940	-0.37641335
214	0x3e207abe	0.15671822
215	0xbdd3af7c	-0.10336205
216	0xbe7c877e	-0.24661061
217	0x3d27d6bb	0.040976267
218	0x3d8368ac	0.06416449
219	0xbddb9088	-0.107209265
220	0x3beacba9	0.0071653915
221	0x3e002e94	0.12517768
222	0xbdda479d	-0.106581904
223	0xbd69209e	-0.05691587
224	0x3c5160b3	0.012779403
225	0xbd9fe937	-0.07808154
226	0xbd142d68	-0.036176115
227	0xbc58dfaa	-0.013236919
228	0xbe0d4e12	-0.13799313
229	0x3dc59724	0.096479684
230	0x3e0cdcae	0.13756058
231	0x3d7feff1	0.062484685
232	0x3ddda427	0.10822325
233	0x3dd97c73	0.1061944
234	0xbdaa8bf7	-0.083274774
235	0xbcbbc770	-0.022922248
236	0xbdfa77ee	-0.12229906
237	0xbdb80f73	-0.08987322
238	0x3c8498a7	0.016186072
239	0x3e0423b1	0.1290424
240	0xbdb4bed1	-0.08825458
241	0x3e0c3dcf	0.13695453
242	0xbec33053	-0.38122806
243	0xbda28d14	-0.07937065
244	0x3df2ad36	0.118494436
245	0xbe9266f3	-0.2859417
246	0xbdd2805a	-0.10278387
247	0x3dc6648f	0.09687149
248	0x3d44a0c4	0.04800488
249	0xbdfaf083	-0.12252905
250	0x3de4d160	0.111727476
251	0xbd3f0d31	-0.04664344
252	0xbcb2c62d	-0.021823013
253	0xbf01fdac	-0.507777
254	0xbb85ba8b	-0.0040810755
255	0x3d69874e	0.057013802

layer2.bias f4 [256]
0	0xbe4d7323	-0.20063452
1	0x3e65aee6	0.2243
2	0x3e9fa092	0.31177193
3	0x3e321568	0.17390978
4	0x3e0df2cc	0.13862151
5	0x3d11dbe4	0.035610095
6	0xbcb232da	-0.021752764
7	0xbe18aa0c	-0.14908618
8	0x3d58163b	0.052755576
9	0xbd853f9b	-0.065062724
10	0x3c85018d	0.016236091
11	0xbe8379f8	-0.25678992
12	0x3e769e46	0.24083814
13	0x3ea8bf0a	0.3295825
14	0x3dcfe120	0.10150361
15	0x3e3e6871	0.18594529
16	0x3e2b67bc	0.1673879
17	0x3cae0801	0.021244051
18	0x3eaa77ee	0.33294624
19	0xbe254bda	-0.16142216
20	0x3d226a0c	0.039651915
21	0xbf0bfd07	-0.54682964
22	0x3db519df	0.08842825
23	0xbcbf23ab	-0.023332438
24	0xbe97a873	-0.29620704
25	0x3e228037	0.15869223
26	0xbeecbcf9	-0.46237925
27	0xbe7fd6f1	-0.24984337
28	0xbdd4589e	-0.10368465
29	0xbe98bb9b	-0.29830632
30	0xbc6f1fdc	-0.014594998
31	0xbe471f26	-0.19445476
32	0x3df6bb2f	0.12047421
33	0x3d8ff4e2	0.070291296
34	0xbf04baab	-0.5184733
35	0x3da39471	0.07987297
36	0x3db67bcb	0.089103304
37	0x3e731a3d	0.23740478
38	0xbe40f2a8	-0.18842566
39	0x3d88dbd6	0.066825554
40	0xbe8b44f6	-0.2720105
41	0xbebc952d	-0.36832562
42	0x3e4b5e36	0.19860157
43	0x3e4d94ac	0.20076245
44	0xbe96b3bb	-0.29433998
45	0x3db3ad5c	0.087733
46	0x3e86006c	0.26172197
47	0x3c5db091	0.013530866
48	0x3e22cd4d	0.15898629
49	0x3bea0c2e	0.007142565
50	0xbd833371	-0.06406296
51	0x3e211c67	0.15733491
52	0xbd8f5b2f	-0.06999814
53	0x3e1f5790	0.15560746
54	0x3dcd437d	0.10022638
55	0x3e0b39c0	0.13596249
56	0xbe1509b5	-0.14554484
57	0x3ea766bc	0.32695568
58	0x3e49e847	0.19717513
59	0x3e1986cc	0.14992827
60	0x3d871152	0.065951005
61	0xbec6fce8	-0.38864827
62	0xbeca54c5	-0.395178
63	0xbd911076	-0.07083218
64	0xbe8ff0f1	-0.2811351
65	0xbe3263d4	-0.17420894
66	0xbda773e0	-0.08176398
67	0x3e1866c1	0.14882948
68	0x3e19b0ac	0.15008801
69	0xbdda81e8	-0.10669309
70	0x3d93b90f	0.072130315
71	0xbdbf6b7c	-0.09346673
72	0x3ea56a8a	0.32307845
73	0x3da059e4	0.07829645
74	0xbd8b8c0a	-0.0681382
75	0x3df04892	0.11732592
76	0xbeaeea65	-0.34163204
77	0xbe442937	-0.19156347
78	0x3de2f3f2	0.11081685
79	0x3d3b8f06	0.045790695
80	0x3e54dd86	0.2078763
81	0x3e0e8d36	0.13921055
82	0xbed715cd	-0.4200882
83	0xbe2766b0	-0.16347766
84	0x3e408855	0.18802007
85	0x3dba8c30	0.0910877
86	0xbeaafe1b	-0.33396992
87	0xbde21048	-0.11038262
88	0x3e81bbbf	0.2533855
89	0x3e61fbc6	0.220687
90	0x3b51be1b	0.003200418
91	0xbec5a7d1	-0.38604596
92	0xbc96f742	-0.018428449
93	0xbe8508ed	-0.25983372
94	0xbd0b8c4b	-0.03406934
95	0x3e633b92	0.22190693
96	0x3e7832ef	0.2423818
97	0xbe724e81	-0.2366276
98	0x3d55fe12	0.052244253
99	0x3e98b44f	0.29825065
100	0x3de9f0fd	0.11422918
101	0xbe70a370	-0.23499846
102	0x3cebe655	0.028796354
103	0xbe17cb3d	-0.14823623
104	0x3eec1645	0.4611074
105	0xbf1d112e	-0.6135434
106	0x3cd511fc	0.026009552
107	0xbddbc624	-0.10731152
108	0xbeaf9c9d	-0.34299174
109	0x3e6f6589	0.23378576
110	0x3e8df18d	0.2772335
111	0x3d98169e	0.07426189
112	0x3e535d48	0.20641053
113	0xbed6382f	-0.4183974
114	0x3d1b9538	0.037984103
115	0x3d92ebc8	0.07173878
116	0xbeae1f82	-0.34008414
117	0x3ebaedbb	0.365095
118	0x3d1e0932	0.038582988
119	0xbe01e503	-0.12685017
120	0x3d8c38dc	0.068467826
121	0xbe9a10d5	-0.30090967
122	0xbd97bdf4	-0.074092776
123	0x3d9493d1	0.07254756
124	0xbdc4c6f9	-0.096082635
125	0x3e5ccbb5	0.21562083
126	0x3e431267	0.19049989
127	0x3c81aeec	0.01583048
128	0x3e5e185b	0.21688978
129	0xbed26412	-0.41091973
130	0x3e9497b8	0.29022002
131	0xbc9d91a8	-0.019234493
132	0xbed193f8	-0.40933204
133	0xbee45874	-0.44598734
134	0x3e980286	0.29689425
135	0x3dfe65aa	0.12421735
136	0x3de962e3	0.11395814
137	0x3eb5c69c	0.3550309
138	0xbd799064	-0.060928717
139	0x3dca5db9	0.098811574
140	0x3e916820	0.28399754
141	0xbe1dcac2	-0.15409377
142	0xbe3b2d6d	-0.18279047
143	0x3eac4f7e	0.33654398
144	0x3cd4a7f3	0.02595899
145	0x3d07f5cf	0.033193406
146	0xbe9f2573	-0.3108326
147	0xbdf14347	-0.1178041
148	0x3d726105	0.059174556
149	0xbc2a7185	-0.010403042
150	0xbd88e212	-0.066837445
151	0xbe2a2f38	-0.16619575
152	0x3dff0daf	0.12453782
153	0xbe122b0f	-0.14274238
154	0xbee05035	-0.43811193
155	0x3e89c2cb	0.26906428
156	0xbe5729ce	-0.21012041
157	0x3ebf87dd	0.37408343
158	0xbf011b56	-0.50432336
159	0xbd9dd247	-0.07706123
160	0xbc3b84b3	-0.011445212
161	0xbd731ac6	-0.059351705
162	0x3e97e47f	0.29666516
163	0x3e8454ce	0.2584595
164	0xbe3e248a	-0.18568626
165	0xbe05b0bf	-0.13055705
166	0xbed91d25	-0.42405048
167	0x3dbaf9ce	0.09129678
168	0x3e74a0ca	0.23889461
169	0x3e1eb690	0.1549933
170	0xbd9f5235	-0.077793516
171	0x3ea29f34	0.31762087
172	0x3e0b4da4	0.13603836
173	0xbdaff481	-0.08591557
174	0x3e55d29b	0.20881121
175	0xbc7444a1	-0.0149089405
176	0x3d9479b8	0.072497785
177	0xbeaaa5d6	-0.33329648
178	0x3cc2b713	0.023768937
179	0xbe9e9a0f	-0.30976912
180	0xbe334867	-0.17508088
181	0x3e8d623d	0.27614012
182	0x3e980c8d	0.29697075
183	0xbd91833e	-0.071051106
184	0x3eec398f	0.46137664
185	0x3e9557e8	0.2916863
186	0xbe056cf8	-0.1302985
187	0xbe1b5e35	-0.15172656
188	0xbc1c4bda	-0.009539569
189	0x3e8f5929	0.2799771
190	0x3db8a76b	0.090163074
191	0xbdfca0d4	-0.12335363
192	0x3dcb6f43	0.09933331
193	0xbe0ec0a8	-0.1394068
194	0x3a8de479	0.0010825536
195	0xbde184b7	-0.110116415
196	0xbe0ff078	-0.14056575
197	0xbe1d2349	-0.15345491
198	0xbd3fc2e4	-0.04681672
199	0xbdd47ff6	-0.10375969
200	0xbe05f389	-0.13081183
201	0xbc77e7c2	-0.015130939
202	0x3e11d54a	0.1424152
203	0x3dcb30f1	0.09921444
204	0xbe3218ec	-0.1739232
205	0xbdb08080	-0.086182594
206	0x3e448545	0.19191463
207	0xbf1cb6fa	-0.612167
208	0x3e9d8ee8	0.3077309
209	0x3ea8d389	0.3297389
210	0x3ea32d2b	0.31870398
211	0xbd851206	-0.06497578
212	0xbccb1725	-0.02479131
213	0x3e0a13c5	0.13484104
214	0x3e9f4df7	0.3111417
215	0x3e837527	0.25675318
216	0x3e03a33e	0.1285524
217	0x3cfb96dd	0.030711586
218	0x3de7922f	0.11307179
219	0xbc3dc135	-0.011581709
220	0x3e95ecfa	0.2928236
221	0xbd7bad80	-0.06144476
222	0x3ea38209	0.31935146
223	0xbe1da03e	-0.15393159
224	0xbe7c6a0f	-0.24649833
225	0xbc7e2dca	-0.015513847
226	0x3e8f8a6a	0.2803529
227	0xbe9e7f3d	-0.3095645
228	0x3ea1aa1d	0.315751
229	0xbf3431a9	-0.70388275
230	0xbe01b743	-0.12667565
231	0x3bc52fdd	0.0060176686
232	0x3e4ea407	0.20179759
233	0x3e096c1e	0.1342015
234	0x3daeba4a	0.085316256
235	0xbe689fdd	-0.22717233
236	0xbcf983cb	-0.030458352
237	0xbe8efbd1	-0.27926496
238	0xbe2026ff	-0.15639876
239	0x3ddb146f	0.10697257
240	0xbe175d8c	-0.14781779
241	0xbe035fc2	-0.12829497
242	0x3df720a7	0.12066775
243	0x3e25f6b5	0.16207393
244	0x3e8e0a9d	0.27742472
245	0xbb3199fd	-0.002709984
246	0xbe14922a	-0.14508882
247	0x3eade812	0.33966118
248	0x3e0b149b	0.13582079
249	0xbecf9e1b	-0.40550312
250	0xbebd5958	-0.36982226
251	0xbe9749ec	-0.29548585
252	0xbe5b66ed	-0.21425982
253	0xbe021281	-0.12702371
254	0xbe88fe2f	-0.26756427
255	0xbe70a9a6	-0.23502216

layer3.weight f4 [128, 256]
0	0xbc4a48ca	-0.012346456
1	0x3c8126b9	0.015765535
2	0xbd892fb5	-0.066985525
3	0xbe147d76	-0.14500985
4	0xbdb23e72	-0.08703317
5	0xbe350ca6	-0.17680606
6	0x3e3810cc	0.17975157
7	0x3d49940d	0.049213458
8	0x3d5c110e	0.053727202
9	0x3cf5db36	0.030011754
10	0xbd84066e	-0.06446539
11	0x3d09291f	0.03348648
12	0xbd444ecc	-0.04792671
13	0xbd7e7404	-0.06212236
14	0x3e0e1fc3	0.13879304
15	0xbd1ffc87	-0.03905919
16	0xbe9094d3	-0.28238544
17	0x3e437d4c	0.19090766
18	0x3e05dc5e	0.13072345
19	0xbd96153a	-0.073282674
20	0x3d050e79	0.032484505
21	0xbd844814	-0.0645906
22	0xbc904953	-0.017613089
23	0xbe57ad52	-0.2106221
24	0xbe41d9f8	-0.18930805
25	0x3d012e4e	0.0315383
26	0x3e1fd132	0.15607145
27	0x3cec416a	0.028839786
28	0x3c33c7a8	0.010972895
29	0xbe2a246f	-0.16615461
30	0x3c85dfbb	0.016342035
31	0x3da4eab4	0.080525786
32	0x3db987fa	0.090591386
33	0xbe96af10	-0.29430437
34	0xbc79a611	-0.015237347
35	0xbd91a66c	-0.071118206
36	0x3deaad5f	0.11458849
37	0x3dfff87c	0.124985665
38	0xbe7d180b	-0.24716203
39	0xbe3a0fd3	-0.18170099
40	0xbee4cd9b	-0.44688115
41	0xbe70e5fc	-0.23525232
42	0x3dda480f	0.10658275
43	0xbd96bd43	-0.073603176
44	0xbd5c4161	-0.053773288
45	0x3dd0fae7	0.10204106
46	0x3caed67a	0.021342505
47	0x3e622943	0.22086053
48	0xbd4227fc	-0.047401413
49	0xbcb08f3d	-0.021552676
50	0x3d833b0b	0.06407746
51	0x3a2c7f77	0.0006580273
52	0x3e019e3f	0.12658022
53	0x3e55d179	0.20880689
54	0x3e26e26c	0.1629731
55	0xbdbbe486	-0.09174447
56	0xbe1fac28	-0.15593016
57	0x3b164d7e	0.0022934373
58	0x3da88c20	0.08229852
59	0x3e879df8	0.26487708
60	0xbb67d154	-0.0035372572
61	0xbd48d903	-0.049035084
62	0xbd0ef67b	-0.03490303
63	0xbe7d6ea7	-0.24749242
64	0xbd86af58	-0.06576413
65	0xbe04252b	-0.12904803
66	0xbdf98be3	-0.121848844
67	0x3e4d2c72	0.20036486
68	0x3e35bfdd	0.17748971
69	0xbd5d051a	-0.053959943
70	0xbdab7e34	-0.08373681
71	0xbce83e2f	-0.028349964
72	0xbdb105bb	-0.08643671
73	0x3e4edf85	0.20202453
74	0xbd2d8d4a	-0.042371072
75	0xbd895c2c	-0.067070335
76	0xbd73a2f6	-0.059481584
77	0x3d87bcc8	0.06627804
78	0x3dee8a3f	0.11647462
79	0xbd8b5f2d	-0.06805263
80	0xbc8c1cbf	-0.017103551
81	0x3d891ca2	0.066949144
82	0xbea50ef2	-0.32237965
83	0x3dfea038	0.12432903
84	0x3e0e94a7	0.13923894
85	0x3e5fd3ae	0.21858093
86	0xbeb15fb6	-0.34643334
87	0xbd5ee98c	-0.054421946
88	0x3e333952	0.17502335
89	0x3e58fd24	0.21190315
90	0x3d6147a3	0.05499996
91	0xbe21eedb	-0.15813772
92	0x3d9ac801	0.07557679
93	0xbcf92573	-0.030413365
94	0xbc42f680	-0.0118995905
95	0x3d406ead	0.04698055
96	0xbdd51eb0	-0.10406244
97	0xbea80568	-0.32816625
98	0xbd0a7124	-0.033799306
99	0x3e77c0eb	0.24194686
100	0x3e3475d5	0.17623074
101	0xbde71f52	-0.11285271
102	0xbd231f83	-0.039824974
103	0x3c5a97dd	0.013341871
104	0x3d61beaa	0.055113472
105	0x3ad96dfe	0.0016588566
106	0xbe523e98	-0.2053169
107	0x3c860048	0.016357556
108	0x3dfcf111	0.12350667
109	0x3cf26ef7	0.029593928
110	0x3d16b92f	0.0367977
111	0xbe5f0ab5	-0.21781428
112	0xbdf18136	-0.11792223
113	0xbd9df0e0	-0.07711959
114	0x3e219c5b	0.15782301
115	0x3cd26603	0.025683409
116	0xbe7ecc9c	-0.2488274
117	0x3dbe0448	0.0927816
118	0x3ce14ed8	0.027503416
119	0x3d2fda75	0.042932946
120	0x3e1d038a	0.15333381
121	0xbc625f3c	-0.013816651
122	0x3d7ebd1c	0.062192068
123	0xbd87378b	-0.06602391
124	0xbe5c9cbf	-0.21544169
125	0x3d4fa7c4	0.050697103
126	0xbdbd4f9a	-0.092436984
127	0xbd6e3599	-0.058156583
128	0x3d673a46	0.05645206
129	0xbcb5d64e	-0.022196915
130	0xbb7d88dc	-0.003868631
131	0xbd52c7a7	-0.051459935
132	0xbdd9fb0a	-0.10643585
133	0xbe08916d	-0.13336726
134	0xbce63133	-0.028099632
135	0xbd51bc02	-0.05120469
136	0xbe04623f	-0.12928103
137	0x3e1453a2	0.14485028
138	0xbb80dc66	-0.0039325235
139	0x3d809482	0.062783256
140	0x3d9a80ca	0.07544096
141	0x3dabdda7	0.08391886
142	0xbe4fa9ce	-0.20279619
143	0x3d96e069	0.073670216
144	0x3e232375	0.15931495
145	0xbe59ab37	-0.2125672
146	0x3e571a46	0.21006116
147	0x3ccf9722	0.02534062
148	0xbe0f919d	-0.14020391
149	0x3dbb6188	0.09149462
150	0xbddff710	-0.10935795
151	0x3e58d84d	0.21176262
152	0x3df59c1a	0.11992665
153	0x3e2cfd07	0.16893397
154	0xbe6013c0	-0.21882534
155	0xbd939952	-0.07206978
156	0xbd386791	-0.045020644
157	0xbdc58df3	-0.09646215
158	0x3df6b7e6	0.120467946
159	0x3d6aadac	0.057294533
160	0x3d0b147c	0.033955082
161	0xbbbbf6e2	-0.005736218
162	0xbc52233b	-0.012825782
163	0xbd9308b5	-0.07179395
164	0xbe81dff6	-0.2536618
165	0xbddb9049	-0.107208796
166	0xbce3e9eb	-0.027821502
167	0x3e0db768	0.13839495
168	0xbbd353d6	-0.006449203
169	0xbad00f0d	-0.0015873626
170	0x3c564230	0.013077304
171	0x3dd2da54	0.10295549
172	0x3d961e33	0.07329979
173	0x3e07eea4	0.13274628
174	0x3db250d7	0.08706825
175	0xbc5c1802	-0.013433458
176	0xbe19499e	-0.14969489
177	0xbd81f379	-0.06345267
178	0x3d60e77b	0.054908257
179	0xbe1c3daf	-0.15257905
180	0x3c100f86	0.008792764
181	0x3cef0faf	0.029182283
182	0x3da74663	0.08167722
183	0x3b8cbfed	0.0042953403
184	0xbe0246da	-0.1272234
185	0x3e2f1df6	0.17101273
186	0x3e0ab3b1	0.1354511
187	0xbe8b8902	-0.27252966
188	0xbe0cb3c3	-0.13740449
189	0xbc0cfa6b	-0.008604626
190	0x3dfc6f49	0.123259135
191	0x3d0985dd	0.033574928
192	0xbd873645	-0.06602148
193	0x3d352d68	0.044232756
194	0x3dd7c125	0.10534886
195	0xbe0cfc9d	-0.1376824
196	0xbe0bafb3	-0.13641243
197	0x3d07cb75	0.033153016
198	0xbd098029	-0.03356949
199	0xbd84b11b	-0.06479093
200	0xbdbca918	-0.092119396
201	0xbe6204f4	-0.22072202
202	0x3e01beae	0.12670395
203	0x3d88abdb	0.06673404
204	0xbeb7d044	-0.35901082
205	0x3d3a24e7	0.04544535
206	0xbceb71dd	-0.028740818
207	0xbe4382a3	-0.19092803
208	0x3e16cefd	0.14727397
209	0xbe9ebb58	-0.31002307
210	0xbe48a6cc	-0.19594878
211	0xbdcb7686	-0.09934716
212	0xbb9127b8	-0.0044297837
213	0x3d0ec924	0.03485979
214	0x3d0f6458	0.035007805
215	0x3e0eb76b	0.13937156
216	0x3e5a7f10	0.21337533
217	0x3df06e24	0.11739758
218	0x3d1cd366	0.038287543
219	0xbe80558b	-0.25065264
220	0xbd820eab	-0.06350454
221	0x3ce4d037	0.027931316
222	0x3d851896	0.0649883
223	0x3e576513	0.2103465
224	0xbe9f4098	-0.3110397
225	0x3d6f654e	0.05844622
226	0x3d8fa7b5	0.070144095
227	0xbdeb9825	-0.11503629
228	0xbbdc61ff	-0.006725549
229	0xbca8d6e3	-0.020610278
230	0xbc80464d	-0.015658522
231	0xbe2a620d	-0.16638966
232	0xbe6212e1	-0.22077514
233	0xbe1516d7	-0.14559494
234	0x3e4bff96	0.19921717
235	0xbd80d3a7	-0.062903695
236	0x3e37fea1	0.17968227
237	0x3e82342a	0.25430423
238	0xbc83c40b	-0.016084692
239	0x3d9bb17f	0.07602214
240	0xbeb45837	-0.35223553
241	0x3d8f37a8	0.069930375
242	0x3e276854	0.16348392
243	0x3e54006b	0.20703284
244	0x3d4e926a	0.0504326
245	0xbca52c1a	-0.02016263
246	0x3d2defea	0.042465128
247	0xbe05d359	-0.13068904
248	0x3baafbe9	0.0052180183
249	0xbd78d7f0	-0.06075281
250	0x3d5ab13b	0.053391676
251	0xbee62517	-0.44950172
252	0x3db1894a	0.08668764
253	0x3d03141a	0.032001592
254	0xbd8ffb0e	-0.07030307
255	0x3d681437	0.056659903

layer3.bias f4 [128]
0	0x3e0b4202	0.13599399
1	0x3d3f288a	0.04666952
2	0x3de1ea5e	0.1103103
3	0x3e18c618	0.14919317
4	0x3e119494	0.14216834
5	0x3e7e7941	0.24850942
6	0x3cb6a84c	0.022297047
7	0xbd6f36b2	-0.05840177
8	0x3c5f9174	0.013645519
9	0x3d9ced36	0.07662432
10	0x3e21bb23	0.15794043
11	0x3d1faa2f	0.03898066
12	0xbd80afa3	-0.062835
13	0x3e41624c	0.18885154
14	0x3e13a72a	0.14419237
15	0xbe560b0b	-0.2090265
16	0x3dc5cec8	0.09658581
17	0x3d539b53	0.0516618
18	0xbcdfb580	-0.027308226
19	0x3df42963	0.119219564
20	0x3e0f31d8	0.13983858
21	0x3e40fa85	0.18845566
22	0xbe04da43	-0.12973885
23	0x3e99e000	0.3005371
24	0xbe4a1674	-0.19735128
25	0x3d5ff388	0.05467561
26	0x3d9d17c4	0.076705486
27	0x3e4eab29	0.2018248
28	0x3c54162a	0.012944737
29	0xbdf10fde	-0.117706046
30	0x3e34e4c5	0.17665394
31	0x3c8cc39e	0.017183121
32	0x3e1a40d9	0.150638
33	0x3dd5cf49	0.10439927
34	0x3ea69d64	0.32541955
35	0xbdd2cde9	-0.102931805
36	0xbd3526a1	-0.044226293
37	0x3d43a48e	0.047764353
38	0xbeea7a1f	-0.45796296
39	0x3d65c3e4	0.05609502
40	0x3eac2ed4	0.33629477
41	0xbe822003	-0.25415048
42	0xbc9ced53	-0.019156134
43	0xbd872399	-0.065985866
44	0xbe55ed2e	-0.20891258
45	0x3da061c3	0.078311466
46	0xbd4119bd	-0.047143687
47	0xbd597271	-0.053087655
48	0xbe15c2f8	-0.14625156
49	0xbdf74e44	-0.12075475
50	0x3e0d66de	0.13808772
51	0x3d19a3ad	0.03750961
52	0x3dea5433	0.11441841
53	0xbdb91b31	-0.090383895
54	0x3e6ea81c	0.23306316
55	0x3d453966	0.048150443
56	0x3e196a4a	0.14981952
57	0x3e4388ab	0.19095103
58	0xbc9d57a2	-0.019206826
59	0x3c795efd	0.015220401
60	0x3ebe1604	0.37126172
61	0xbd40b18a	-0.047044314
62	0x3e9ea078	0.30981803
63	0x3da712aa	0.08157857
64	0x3d81b097	0.0633251
65	0x3e507fea	0.20361295
66	0xbcd54a30	-0.026036352
67	0xbe8445f9	-0.25834635
68	0x3e489995	0.19589837
69	0x3e00f65b	0.12593977
70	0xbe75b43b	-0.23994534
71	0x3e7ad461	0.24495079
72	0x3e32fadd	0.17478509
73	0xbe9fe10c	-0.31226385
74	0x3e80ecb5	0.25180593
75	0x3ddda249	0.10821969
76	0x3dfcc32f	0.12341916
77	0x3e21e961	0.15811683
78	0xbe9a54ea	-0.3014291
79	0x3da94c9f	0.082665674
80	0x3e22b5a8	0.15889609
81	0xbd148950	-0.036263764
82	0x3c8e6d20	0.01738602
83	0x3cf79da5	0.030226538
84	0xbd8828ef	-0.066484325
85	0xbcb88ec2	-0.02252901
86	0x3d6e8b2c	0.058238193
87	0xbe3a8973	-0.18216495
88	0x3e150448	0.14552414
89	0x3e741356	0.23835501
90	0xbe0c383b	-0.13693325
91	0xbdb1559e	-0.08658908
92	0xbcd951ce	-0.026528265
93	0x3e422aff	0.18961714
94	0xbd998e04	-0.074977905
95	0xbeb68a24	-0.35652268
96	0x3dca436e	0.098761424
97	0x3e066541	0.13124563
98	0x3e7500e2	0.23926118
99	0x3e648a74	0.2231844
100	0xbd10b269	-0.035326395
101	0x3e2a3954	0.16623431
102	0x3dc77dd6	0.09740798
103	0x3e0cec80	0.13762093
104	0xbe9e72bc	-0.3094691
105	0xbda73dc6	-0.08166079
106	0x3dd2ef85	0.10299591
107	0x3e7f6dda	0.24944249
108	0x3dafa18d	0.08575735
109	0x3e5dddc6	0.21666631
110	0xb8a86954	-8.030483e-05
111	0xbd1659f1	-0.03670687
112	0x3daf2b44	0.08553174
113	0x3e66d8ab	0.2254359
114	0x3e274f16	0.16338763
115	0x3dd31676	0.103070185
116	0x3c4febc5	0.012690489
117	0x3da1a612	0.078930035
118	0x3e316c4a	0.17326465
119	0x3e17df46	0.14831266
120	0x3e4f5f7b	0.20251267
121	0xbdf1fb2a	-0.11815484
122	0x3e13b474	0.14424306
123	0xbd129715	-0.035788614
124	0x3e2f8f2a	0.17144457
125	0xbe8560a1	-0.26050285
126	0xbd1d7ba3	-0.038447987
127	0x3d0f55d9	0.03499398

layer4.weight f4 [64, 128]
0	0xbeb82f3b	-0.35973534
1	0x3d9d4b79	0.07680411
2	0xbe749748	-0.23885834
3	0xbcafbd33	-0.021452522
4	0xbd06c350	-0.03290111
5	0xbe02e2e8	-0.1278187
6	0xbec3eb9c	-0.38265693
7	0x3d0a1e35	0.033720214
8	0xbdfe7792	-0.1242515
9	0x3cc4d26a	0.024026114
10	0xbe992ff9	-0.29919413
11	0xbedb3444	-0.42813313
12	0xbde76b21	-0.1129973
13	0xbc37fd82	-0.011229875
14	0x3eadd727	0.3395321
15	0x3d8ba341	0.068182476
16	0x3d9af4bc	0.07566211
17	0x3dfafa70	0.122547984
18	0x3e161a7d	0.14658542
19	0x3ddef675	0.10886852
20	0xbbe27630	-0.0069110617
21	0x3e17e3d3	0.14833002
22	0x3d828d7f	0.063746445
23	0x3e4d985c	0.20077652
24	0x3e11ff6e	0.14257595
25	0xbe4c445f	-0.19947957
26	0x3d29bfca	0.04144267
27	0x3e2ac63c	0.16677183
28	0xbc45b074	-0.0120659955
29	0xbec9de49	-0.39427403
30	0x3dbb2a36	0.091389105
31	0xbd09ff34	-0.033690646
32	0x3e833c99	0.2563217
33	0x3dc409f6	0.095722124
34	0x3d99da3b	0.07512327
35	0x3e7e9766	0.24862441
36	0xbdf01da8	-0.117244065
37	0xbeabc9c6	-0.33552378
38	0xbd31a5f2	-0.04337115
39	0xbe8c8ebf	-0.27452657
40	0xbd01e204	-0.031709686
41	0xbe907e0e	-0.28221172
42	0xbe318d97	-0.17339168
43	0xbdfb29dd	-0.12263844
44	0x3db87c24	0.09008053
45	0xbdb4d9ae	-0.088305816
46	0x3d227993	0.039666723
47	0xbe826015	-0.2546393
48	0xbe3d023f	-0.18457888
49	0x3d7361b1	0.059419338
50	0xbe8476ae	-0.25871795
51	0xbe1325d7	-0.14369904
52	0xbd62b952	-0.055352516
53	0x3c1fa398	0.009743594
54	0x3d3d69b5	0.04624339
55	0xbd1afdd5	-0.03783973
56	0xbe805b42	-0.25069624
57	0xbe6b30dd	-0.22967859
58	0x3e872d69	0.26401833
59	0xbdde4aad	-0.10854087
60	0x3dcd1a82	0.100148216
61	0x3b318b83	0.0027091212
62	0xbdcb7eb5	-0.09936277
63	0xbd0aa04e	-0.033844285
64	0xbc9f53c1	-0.019449117
65	0xbec70777	-0.38872883
66	0xbee5545d	-0.44790927
67	0xbe3d1a05	-0.18466957
68	0x3db826f9	0.089918084
69	0x3d125e64	0.03573455
70	0x3e18b0ee	0.14911243
71	0x3e12db5c	0.14341491
72	0x3d287271	0.041124765
73	0x3de1fba1	0.110343225
74	0xbe681ee1	-0.2266803
75	0x3de96c8c	0.11397657
76	0xbe16f4fc	-0.14741892
77	0x3d75a99f	0.059976216
78	0xbdcff81a	-0.101547435
79	0xbdc31087	-0.09524637
80	0xbe97446c	-0.2954439
81	0xbe9881ed	-0.29786626
82	0xbe188beb	-0.14897124
83	0x3e30dbb0	0.17271304
84	0x3af5075d	0.0018694211
85	0x3b5dab23	0.003382393
86	0xbea15b48	-0.31514955
87	0x3d9e5cd6	0.07732551
88	0x3dbb7faa	0.09155209
89	0x3dce4e22	0.100734964
90	0xbd624d9d	-0.0552498
91	0xbeed20ba	-0.4631403
92	0xbea2cfbb	-0.3179911
93	0xbe2bafb5	-0.16766246
94	0xbbb0b2df	-0.005392417
95	0x3d043b1d	0.032282937
96	0xbe28de4b	-0.16491048
97	0xbe727e8a	-0.23681083
98	0xbdd7cebb	-0.105374776
99	0x3dd3e5cd	0.103465654
100	0x3df7a7e8	0.120925725
101	0x3d286edb	0.041121345
102	0x3e5a24ec	0.21303147
103	0xbe883e35	-0.2660996
104	0xbd61d782	-0.055137165
105	0x3da4ebea	0.080528095
106	0xbdb27ffc	-0.08715817
107	0xbe9364da	-0.2878788
108	0x3e2beda7	0.16789876
109	0xbe510a81	-0.20414163
110	0xbe928c0a	-0.28622466
111	0xbdf2c25b	-0.118534766
112	0x3e18b954	0.14914447
113	0x3dc50fcc	0.09622154
114	0xbe32d54c	-0.17464179
115	0xbba75374	-0.005106384
116	0xbe499048	-0.19683945
117	0xbd1ec730	-0.03876418
118	0xbeadc1ec	-0.33937013
119	0xbd2c4f15	-0.042067606
120	0x3d466f53	0.04844601
121	0xbe5fedcf	-0.2186806
122	0x3d996057	0.074890785
123	0xbe30bac5	-0.17258747
124	0xbd3f0840	-0.046638727
125	0x3df4ffca	0.119628504
126	0xbab6d0cb	-0.0013947723
127	0xbea72bea	-0.3265069
128	0x3dc8e365	0.09808997
129	0x3d2a4f8e	0.041579776
130	0x3d0ba469	0.03409234
131	0x3e9fcee9	0.31212547
132	0x3e217c15	0.1576999
133	0x3e61390e	0.21994421
134	0xbe43e147	-0.19128905
135	0xbea4252d	-0.32059613
136	0xbe7fdcf4	-0.2498663
137	0x3dcac77a	0.099013284
138	0xbc1e6771	-0.009668217
139	0xbd65419a	-0.055970766
140	0xbcbf4a8a	-0.023350973
141	0x3ddbd10d	0.10733233
142	0x3e17383c	0.14767545
143	0x3bae7564	0.0053240526
144	0x3e249ae2	0.16074708
145	0x3c0fbe12	0.008773344
146	0xbe7243d9	-0.23658694
147	0xbc74dfe4	-0.014945958
148	0x3e1c0022	0.15234426
149	0x3e79240c	0.24330157
150	0xbe34282f	-0.17593454
151	0x3d867da7	0.06566935
152	0x3bd649a4	0.0065395404
153	0x3cf7a27a	0.030228842
154	0x3dba19b4	0.09086934
155	0x3ee48697	0.44633934
156	0x3dc4aca1	0.09603239
157	0x3dcb18c1	0.09916831
158	0x3d864e27	0.06557875
159	0xbe583ddd	-0.21117349
160	0xbdd03799	-0.101668544
161	0x3e2343f4	0.15943891
162	0x3d82f8a9	0.063950844
163	0xbe3fd933	-0.18735199
164	0xbd81c3c1	-0.06336165
165	0xbca203b4	-0.019777156
166	0xbea8ca4e	-0.32966846
167	0xbdf745d6	-0.12073867
168	0xbd72fcd0	-0.059323132
169	0xbeb124a2	-0.3459826
170	0x3beb8fc5	0.0071887695
171	0x3daa4c7e	0.08315371
172	0xbe443ef5	-0.19164641
173	0xbd8cc59e	-0.0687363
174	0xbe6337ae	-0.22189209
175	0xbc062198	-0.00818672
176	0x3d1ba600	0.038000107
177	0xbdc5d3e0	-0.096595526
178	0xbd2acfc9	-0.041702066
179	0xbe048d0b	-0.12944429
180	0xbe17bd22	-0.14818242
181	0xbe0b6ce4	-0.13615757
182	0x3cc3b6a5	0.023890803
183	0x3dde29a1	0.10847784
184	0x3e027e29	0.12743439
185	0x3d92bcd8	0.07164925
186	0x3d0a12fc	0.03370951
187	0xbce58a10	-0.028019935
188	0x3ef95529	0.48697785
189	0xbbe65082	-0.0070286402
190	0x3ea913d2	0.33022934
191	0xbd4f967a	-0.050680615
192	0x3dfc78c6	0.12327723
193	0x3c6c8395	0.0144356685
194	0x3d280291	0.041018073
195	0xbe540adb	-0.20707266
196	0x3dd65be1	0.10466743
197	0xbd964476	-0.07337277
198	0xbe07ea93	-0.13273077
199	0x3d5443a6	0.051822327
200	0x3e169de0	0.14708662
201	0xbdb6b47e	-0.08921145
202	0x3d4ce066	0.05001869
203	0x3d2ff321	0.042956475
204	0xbe2223ac	-0.1583392
205	0x3cbbae5e	0.022910293
206	0xbd8ef7a9	-0.06980831
207	0x3ae73bbc	0.0017641704
208	0x3c7ba49d	0.015359071
209	0xbd9beec3	-0.076138996
210	0xbdb655ea	-0.089031056
211	0x3c1fa39a	0.0097435955
212	0x3dbf7c1c	0.09349844
213	0xbe5772bd	-0.21039863
214	0x3dbab93f	0.09117364
215	0xbe9285ec	-0.286178
216	0x3dba1153	0.090853356
217	0xbdd2e706	-0.102979705
218	0xbe7a6961	-0.24454261
219	0x3e66dc0d	0.2254488
220	0xbd78d948	-0.06075409
221	0x3c5ea113	0.013588208
222	0xbdbd4b2d	-0.09242854
223	0xbe2e775e	-0.17037722
224	0x3d04938e	0.03236728
225	0x3cb51771	0.022105904
226	0x3e19f303	0.15034108
227	0xbd76f752	-0.060294457
228	0x3e98126c	0.29701555
229	0x3be20a48	0.0068981983
230	0x3d987c47	0.07445579
231	0xbe1570f6	-0.14593872
232	0xbe82ba7a	-0.25532895
233	0x3dd98cae	0.10622536
234	0xbda0b9ea	-0.0784796
235	0x3d651f4e	0.055938058
236	0xbe20492a	-0.1565291
237	0x3dcb5b87	0.09929567
238	0xba9f1160	-0.0012135915
239	0xbe99c058	-0.3002956
240	0xbe138d0b	-0.14409272
241	0x3ec11794	0.377133
242	0xbd94d880	-0.072678566
243	0xbe00e753	-0.12588243
244	0x3d319b03	0.04336072
245	0xbde974ce	-0.11399232
246	0x3baf00b3	0.0053406595
247	0x3d834cd7	0.064111404
248	0x3e9af038	0.30261397
249	0x3d9c4ff9	0.07632441
250	0xbcb838b7	-0.022487981
251	0x3d7fc155	0.062440235
252	0xbd7f618c	-0.062348887
253	0xbe59369b	-0.21212237
254	0xbb5dfb8d	-0.003387186
255	0xbe7f1346	-0.24909696

layer4.bias f4 [64]
0	0x3e7f6b18	0.24943197
1	0x3d11f9d4	0.035638645
2	0xbe00ee50	-0.12590909
3	0x3e5c65d4	0.2152322
4	0x3e19d2c5	0.15021808
5	0x3dab3320	0.08359361
6	0x3d2861d9	0.04110894
7	0x3de79d15	0.11309258
8	0x3eaaffde	0.33398336
9	0x3d955835	0.07292215
10	0x3b91bd8e	0.0044476455
11	0x3e59853b	0.2124223
12	0x3dccfc7c	0.10009095
13	0x3d6ed172	0.05830521
14	0x3e0d7364	0.1381355
15	0x3e734f2c	0.2376067
16	0x3e925d72	0.28586918
17	0x3ddab826	0.10679655
18	0xbd77edf6	-0.06052967
19	0x3e2e6246	0.17029676
20	0x3e75cc51	0.24003722
21	0xbd97dff7	-0.07415765
22	0x3e0ad442	0.13557532
23	0xbc69f7a1	-0.014280231
24	0xbb2982d9	-0.0025865345
25	0x3e13aa08	0.1442033
26	0x3db3bbb4	0.08776036
27	0x3e285e87	0.1644231
28	0x3e47c7f3	0.19509868
29	0x3e1bedbe	0.1522741
30	0x3e996b88	0.29964852
31	0x3e4773b6	0.19477734
32	0x3c4115ca	0.01178498
33	0x3dba6125	0.0910056
34	0x3e3096c6	0.17245016
35	0x3d9b9cb6	0.075982496
36	0xbc80f8cb	-0.015743634
37	0x3e764ad1	0.24051978
38	0xbe09a5c3	-0.1344214
39	0xbdbd4366	-0.09241371
40	0x3e89b2c6	0.26894206
41	0x3ddb0c64	0.10695723
42	0x3ec54cc4	0.3853513
43	0x3e9c0135	0.3046967
44	0xbcacfec5	-0.021117577
45	0x3ec7c48f	0.3901715
46	0xbdf5a07f	-0.11993503
47	0xbda6c6bc	-0.08143374
48	0x3d663916	0.056206785
49	0x3e4ab7c8	0.1979667
50	0x3e2a0cad	0.16606398
51	0xbd501d74	-0.05080934
52	0x3d8075ed	0.062724926
53	0x3ec9ee7f	0.3943977
54	0x3e123cb1	0.14280964
55	0x3e4ada09	0.19809736
56	0x3e08a74e	0.13345072
57	0xbdcd31e0	-0.100192785
58	0x3ebc0ca2	0.36728388
59	0x3e292065	0.16516264
60	0x3cb710be	0.02234685
61	0x3e7a8cac	0.24467725
62	0x3f002124	0.5005057
63	0x3ddb1902	0.10698129

slot_head.weight f4 [13, 64]
0	0x3e55f2c5	0.2089339
1	0xbd2ed235	-0.042680938
2	0x3e66d320	0.22541475
3	0xbe5355bf	-0.20638178
4	0xbe6a6666	-0.22890624
5	0x3e0e0ab4	0.1387127
6	0x3cc2b6d6	0.023768824
7	0xbea8eacb	-0.32991633
8	0xbd2191f0	-0.039445817
9	0xbf028dae	-0.50997436
10	0xbe921688	-0.28532815
11	0xbe734f37	-0.23760687
12	0xbdf6c4fc	-0.120492905
13	0x3ddbd798	0.107344806
14	0x3e267885	0.16256912
15	0xbe9ee198	-0.3103149
16	0xbe66dea3	-0.22545867
17	0x3d0f5f41	0.03500295
18	0x3d3d5fa0	0.046233773
19	0x3dcdc3e9	0.100471325
20	0x3d739d44	0.059476152
21	0x3cd1c990	0.025608808
22	0x3d614964	0.05500163
23	0xbec9aedd	-0.39391223
24	0x3e0acfd5	0.13555844
25	0xbcb7c24d	-0.022431517
26	0xbc50adc7	-0.012736744
27	0x3e53b579	0.20674695
28	0xbee5eb5c	-0.44906127
29	0xbea77c31	-0.32711938
30	0xbf03c8df	-0.5147838
31	0xbe053ae4	-0.13010746
32	0x3e835070	0.25647306
33	0xbd7a3e7f	-0.061094757
34	0xbeb85cce	-0.36008304
35	0x3dbf3cf1	0.093377955
36	0x3dbaa0c0	0.09112692
37	0xbead165a	-0.33806115
38	0xbda0ef2e	-0.0785812
39	0x3e32dacf	0.17466281
40	0xbe4e9c19	-0.20176734
41	0x3c8a223d	0.01686203
42	0x3e6caedb	0.23113577
43	0xbe08a7de	-0.13345286
44	0xbc7c884d	-0.015413356
45	0xbcddcd31	-0.027075382
46	0xbd79a597	-0.060948934
47	0xbed5ed5f	-0.41782662
48	0xbf03808c	-0.5136802
49	0xbe3f6a13	-0.18692808
50	0xbe76006c	-0.24023598
51	0x3d42fa07	0.047601726
52	0x3dcf7e6b	0.10131534
53	0xbe709fa2	-0.23498395
54	0xbf2ed51d	-0.68293935
55	0xbdf6d213	-0.12051787
56	0x3e0fa3c9	0.14027323
57	0xbe7c0587	-0.24611484
58	0x3d5db63d	0.054128874
59	0xbf188d84	-0.59590936
60	0xbe36885a	-0.17825451
61	0x3d91c923	0.07118442
62	0xbe832558	-0.2561443
63	0xbd07a2e5	-0.033114333
64	0xbee34888	-0.44391274
65	0x3de679fe	0.11253737
66	0xbf49439a	-0.78618777
67	0xbe460cb3	-0.19340782
68	0x3e02ffd8	0.12792909
69	0xbe55bbfb	-0.2087249
70	0xbf04f915	-0.5194257
71	0x3e13ab8c	0.14420909
72	0xbea2fac6	-0.3183195
73	0xbf058045	-0.5214885
74	0x3d851827	0.06498747
75	0x3dbbe053	0.09173646
76	0xbf450f96	-0.7697691
77	0xbe906c39	-0.28207567
78	0x3d2e7a0a	0.042596854
79	0x3e066507	0.13124476
80	0x3e08425f	0.13306569
81	0x3d1392bb	0.036028605
82	0xbcb3915e	-0.021919902
83	0x3d97c5b9	0.074107595
84	0x3e64f0e8	0.22357523
85	0xbe41c951	-0.18924452
86	0x3cfd5e32	0.030928705
87	0x3dff8de1	0.12478233
88	0xbf234005	-0.6376956
89	0x3d28c1bf	0.041200396
90	0x3c46600b	0.012107859
91	0x3dc9ac8e	0.09847365
92	0x3e26ea35	0.1630028
93	0xbde38cf9	-0.11110873
94	0x3dfa0de1	0.122096784
95	0xbd7555d4	-0.059896305
96	0xbdc189c2	-0.09450103
97	0x3e51397a	0.20432082
98	0x3e1dc680	0.15407753
99	0xbcf10f93	-0.029426372
100	0xbf657034	-0.89624333
101	0x3de37a2b	0.11107286
102	0xbdfd7bd5	-0.12377135
103	0xbef2445e	-0.47317785
104	0x3e2b9031	0.16754223
105	0x3e188071	0.14892747
106	0xbd8fa1c2	-0.07013275
107	0x3deb5106	0.11490063
108	0x3d3bf7f8	0.04589078
109	0x3d8832bd	0.066503026
110	0x3d874af0	0.0660609
111	0xbe9c0763	-0.30474386
112	0x3e2a88ab	0.16653697
113	0x3df62b39	0.12019963
114	0x3e2dd78f	0.1697676
115	0xbeeb8057	-0.45996353
116	0xbf21d241	-0.63211447
117	0x3e4593bf	0.19294642
118	0x3e7ad9e1	0.24497177
119	0xbecb5993	-0.39716777
120	0x3d99e111	0.07513631
121	0x3e002741	0.12514974
122	0x3e6e89fb	0.23294823
123	0x3e078b7e	0.13236806
124	0x3e9419fc	0.28926075
125	0xbf5e6303	-0.8686983
126	0x3e0a0431	0.13478161
127	0x3e62e1da	0.22156468
128	0x3e31bd5e	0.17357394
129	0xbeaab100	-0.33338165
130	0x3e233f6a	0.1594216
131	0x3e1417b2	0.14462164
132	0x3bb5b8cc	0.005545711
133	0x3dfb4887	0.12269693
134	0x3e1309cd	0.14359207
135	0xbdc7ab02	-0.09749414
136	0x3e032745	0.12807949
137	0x3e07bed7	0.13256393
138	0xbdc2bf17	-0.09509104
139	0x3e33e959	0.17569484
140	0x3e31d065	0.17364652
141	0x3d40bbca	0.04705409
142	0x3dba4ede	0.09097074
143	0xbd010b3a	-0.031504847
144	0xbe0a8921	-0.13528873
145	0xbb39ed0c	-0.002837005
146	0x3d57f93d	0.052727927
147	0x3db4d880	0.088303566
148	0xbe1a83a2	-0.15089276
149	0x3e242d90	0.16033006
150	0xbad3eb5b	-0.0016168164
151	0xbd632b19	-0.055461023
152	0x3e0c6151	0.13708998
153	0x3ce0be5c	0.02743452
154	0x3ac188c2	0.0014765488
155	0x3de89afb	0.11357685
156	0xbe833b28	-0.2563107
157	0xbd862bdd	-0.06551335
158	0xbdd0b7c9	-0.10191304
159	0xbe0d70e4	-0.13812596
160	0x3e827f53	0.25487766
161	0xbce34de9	-0.027747111
162	0xbebd2eac	-0.3694967
163	0x3d318a39	0.04334471
164	0x3db5317a	0.088473275
165	0xbec2fb88	-0.38082528
166	0xbecfecc3	-0.40610322
167	0x3e2e9721	0.17049839
168	0xbe77af1c	-0.24187893
169	0xbe88da0a	-0.2672885
170	0x3e4d700f	0.20062278
171	0x3c89c180	0.0168159
172	0xbe70af5b	-0.23504393
173	0xbe607c35	-0.21922381
174	0xbde8fd77	-0.113764696
175	0x3e135177	0.14386545
176	0xbe1e8a06	-0.1548234
177	0x3d4d6ed1	0.05015451
178	0xbf0ef4bf	-0.558422
179	0x3d99e3d2	0.075141564
180	0x3e12b9a1	0.14328624
181	0xbf2f2ef9	-0.6843105
182	0xbe04702f	-0.1293342
183	0x3deb5f55	0.114927925
184	0x3e07f30f	0.13276313
185	0xbec3d6d9	-0.38249853
186	0xbed066c0	-0.40703392
187	0x3df0172e	0.11723171
188	0xbea9c7cd	-0.33160248
189	0x3e135cca	0.14390865
190	0xbf2208be	-0.6329459
191	0xbebc5520	-0.36783695
192	0x3e9bc2f1	0.30422166
193	0x3dcdae80	0.10043049
194	0x3e3d0541	0.18459035
195	0xbdc8f72b	-0.098127685
196	0xbe81feac	-0.25389612
197	0x3de75842	0.11296131
198	0xbe0c8483	-0.13722424
199	0xbf1375e8	-0.57601786
200	0x3d4e1d94	0.050321177
201	0x3d850a5d	0.06496117
202	0xbeeaa762	-0.45830828
203	0xbd24c301	-0.040225033
204	0x3db8749d	0.09006617
205	0x3c389d2b	0.0112679405
206	0x3e6e200a	0.2325441
207	0xbf06bf4e	-0.5263566
208	0xbeec6b10	-0.46175432
209	0xbe1249c5	-0.14285953
210	0xbe1335a3	-0.1437593
211	0x3dcbae08	0.09945303
212	0x3ec38c93	0.38193187
213	0xbcdbf937	-0.026852233
214	0x3d688aaf	0.056772884
215	0x3d56be25	0.05242743
216	0x3d787e44	0.06066729
217	0xbd3cd89b	-0.04610501
218	0xbe635822	-0.22201589
219	0x3f10f815	0.56628543
220	0x3d80e5bc	0.06293818
221	0x3df27447	0.118385844
222	0x3c7a26c0	0.015268028
223	0x3eb145a5	0.34623447
224	0x3e957f4d	0.29198685
225	0xbe07ab46	-0.1324893
226	0xbdb02eae	-0.086026534
227	0x3d1c51e9	0.038164053
228	0x3d6a0013	0.057128977
229	0x3da08cd2	0.07839359
230	0xbe35a362	-0.17738107
231	0x3e560ba4	0.20902878
232	0xbbf24b5c	-0.0073942374
233	0x3ece8897	0.40338585
234	0x3d64eac6	0.05588796
235	0xbe0b1c59	-0.13585033
236	0xbc8dee96	-0.01732568
237	0x3d8fb77f	0.07017421
238	0xbd12ec20	-0.035869718
239	0xbc147a07	-0.009062297
240	0xbea0afef	-0.31384227
241	0xbf10497c	-0.5636213
242	0x3e107641	0.1410761
243	0x3d79127c	0.060808644
244	0x3d8a3352	0.0674807
245	0x3e4165ed	0.18886538
246	0xbef32f41	-0.4749699
247	0xbe45d69a	-0.19320145
248	0xbe028fde	-0.12750193
249	0xbc93b093	-0.018028533
250	0x3e3ec09a	0.18628159
251	0xbe9e4267	-0.30910036
252	0xbdd2bb3f	-0.102896206
253	0x3d55873f	0.052130934
254	0xbd04af7c	-0.032393917
255	0x3d1016e4	0.03517808

slot_head.bias f4 [13]
0	0xbf010c88	-0.50409746
1	0x3d045906	0.032311462
2	0xbf12e1cb	-0.5737578
3	0x3e92f71e	0.2870416
4	0x3dd80f9a	0.10549851
5	0x3e35e2f1	0.17762353
6	0xbcb23407	-0.021753324
7	0xbe4dfcbd	-0.20115943
8	0xbc81b65f	-0.015834032
9	0x3f26729f	0.6501865
10	0xbdaa4c76	-0.08315365
11	0xbea02ac5	-0.3128263
12	0xbf4d1a8b	-0.80118626
