outputs/trained_models/placement_model_20250804_040708.pth (torch, 584899 bytes, 16 tensors)

layer1.weight f4 [128, 15]
-0.040857587 0.38458183 -0.21414348 0.0775103 0.15731467 0.20888676 -0.19043198 -0.033700746
-0.22176926 0.01848813 0.15159954 0.022550503 0.34209177 -0.44925356 -0.47589904 -0.08603909
0.62027633 0.09110187 0.07842105 0.16189897 -0.05940142 -0.07551855 0.057150595 -0.21507095
0.0032747102 -0.044741068 -0.025373448 -0.042049047 0.24836016 -0.60329527 0.008695597 0.5915391
-0.2561964 0.16943322 0.0038321365 0.018922731 0.11409566 0.15116052 0.11900046 0.06063768
-0.021964097 0.10903524 -0.4525104 0.24317555 0.2738449 -0.027632536 -0.13495661 -0.15017568
-0.35425302 -0.2615107 0.09457628 0.26666087 0.26653996 0.058427718 0.18569654 -0.29639226
-0.29766148 0.06787878 -0.20505449 -0.42457375 0.1861267 -0.050877698 -0.031207062 0.06774245
-0.16463892 0.13992783 -0.05337378 -0.1605961 -0.20862313 0.14238037 0.09546698 -0.18702538
0.3757264 -0.3242253 -0.022823134 0.21723577 -0.09683105 -0.047456555 0.05970531 -0.12595688
-0.24756655 -0.22650777 -0.093363434 -0.11676119 0.18165144 -0.059153978 -0.39477867 -0.33134237
-0.035878956 0.34473586 0.0288273 -0.16254666 0.20680274 -0.052271638 0.10378365 0.24017134
0.3355276 -0.060155276 -0.16021489 0.03599437 -0.18429431 -0.12616122 0.4443717 -0.26514995
-0.25981286 0.065600015 0.067001686 0.08412353 -0.34482038 -0.023107445 -0.28848833 -0.15270825
-0.10497355 0.13064432 0.32922146 -0.005185552 -0.36133143 -0.058367457 0.39938352 -0.58769274
0.09258183 -0.025006771 0.20193374 -0.110780366 0.171862 0.04029731 0.24224955 -0.07072727
0.06683008 -0.09265094 0.07253526 -0.6320947 0.17380692 -0.27626356 0.08984135 0.27523926
-0.17275938 -0.017981384 0.26809582 0.025753006 -0.008902207 -0.14188603 0.027452081 0.19969404
0.3005048 0.01796729 -0.13315637 -0.25138888 0.37419382 -0.787464 -0.03069161 -0.16919261
0.12448624 -0.033587296 0.093226306 -0.18807146 -0.065846704 -0.11889582 0.0001475152 0.028059814
-0.09343898 -0.53072405 -0.23545025 -0.35214156 0.39575157 0.20703194 -0.05736446 -0.1312694
0.21765764 -0.027637273 0.011523486 0.033158235 -0.4683503 -0.26336396 -0.29910794 0.067215
-0.14436108 -0.08642625 -0.12836169 -0.34177688 0.3325501 -0.17939442 0.00198602 0.012637109
-0.17511031 0.21412686 0.32412878 -0.14314644 -0.21328671 -0.083884366 0.16921657 0.005591186
0.5699599 -0.30444837 -0.053958166 -0.13050498 0.4795007 -0.071602434 -0.044409614 -0.0042907083
-0.01036245 -0.15451947 -0.32590628 -0.15165216 0.06385747 0.048699357 0.21019563 0.38042194
-0.28690147 -0.11644903 -0.08866829 0.041009553 0.043902263 0.20922065 0.063923225 -0.09703294
0.13990168 -0.25108334 -0.03577851 0.18939684 -0.2040014 -0.14929956 -0.27882314 0.013238863
-0.06889495 0.32420117 -0.07834477 0.12622781 0.20366421 0.033516146 -0.1694887 0.3760549
0.046253674 0.13223852 0.16648082 0.22957796 0.48538196 0.01939094 -0.35877463 -0.51357454
0.37759626 0.2125354 -0.011912472 -0.03522464 -0.14368364 0.17393047 0.22959898 0.068387106
0.09475752 0.3215983 -0.065913856 0.29410446 0.044519186 -0.14286365 -0.2467605 0.050339006
00000000: 495a 27bd e9e7 c43e 6e48 5bbe b8bd 9e3d
00000010: 1917 213e 69e6 553e 9a00 43be cb09 0abd
00000020: 7b17 63be 6b74 973c e93c 1b3e d5bb b83c
00000030: a726 af3e 9004 e6be 0aa9 f3be 4335 b0bd
00000040: 6eca 1e3f 9e93 ba3d 379b a03d d8c8 253e
00000050: e74e 73bd 78a9 9abd be16 6a3d 8f3b 5cbe
00000060: 859c 563b 6942 37bd fadb cfbc 9f3b 2cbd
00000070: 2052 7e3e 8f71 1abf fa77 0e3c 1b6f 173f
00000080: 2d2c 83be e77f 2d3e 9524 7b3b d803 9b3c
00000090: fcaa e93d d3c9 1a3e 83b6 f33d 375f 783d
000000a0: 0dee b3bc de4d df3d 71af e7be 0303 793e
000000b0: 6635 8c3e a15d e2bc 1132 0abe a7c7 19be
000000c0: a760 b5be bbe4 85be 35b1 c13d c687 883e
000000d0: ed77 883e e751 6f3d 3c27 3e3e bac0 97be
000000e0: 1667 98be 0804 8b3d cef9 51be bb61 d9be
000000f0: ff97 3e3e 2265 50bd f4a5 ffbc 8ebc 8a3d
00000100: 1b97 28be 3e49 0f3e 779e 5abd 4e73 24be
00000110: 4da1 55be 29cc 113e 3184 c33d 9583 3fbe
00000120: 365f c03e dc00 a6be 95f7 babc 0e73 5e3e
00000130: 5c4f c6bd ce61 42bd 8e8d 743d d7fa 00be
00000140: 1682 7dbe a7f1 67be 5435 bfbd 7e20 efbd
00000150: d602 3a3e 714b 72bd 6e20 cabe b5a5 a9be
00000160: d0f5 12bd 3881 b03e 3b27 ec3c a272 26be
00000170: 19c4 533e c91a 56bd 868c d43d 7aef 753e
00000180: 46ca ab3e 6165 76bd 5f0f 24be d56e 133d
00000190: a6b7 3cbe 6830 01be b084 e33e bcc1 87be
000001a0: 3106 85be 4d59 863d 2e38 893d f548 ac3d
000001b0: 4c8c b0be d34b bdbc beb4 93be 8d5f 1cbe
000001c0: 5ffc d6bd a0c7 053e b78f a83e 90eb a9bb
000001d0: 6f00 b9be b712 6fbd ff7b cc3e 0873 16bf
000001e0: 8b9b bd3d 00db ccbc b8c7 4e3e d1e0 e2bd
000001f0: 98fc 2f3e cb0e 253d 4410 783e 75d9 90bd
00000200: 35de 883d c7bf bdbd 5e8d 943d f5d0 21bf
00000210: 71fa 313e 6b72 8dbe befe b73d 29ec 8c3e
00000220: d6e7 30be b24d 93bc db43 893e f8f7 d23c
00000230: 90da 11bc 924a 11be 30e3 e03c 987c 4c3e
00000240: c4db 993e 2330 933c 255a 08be 0bb6 80be
00000250: 5596 bf3e 3e97 49bf f96c fbbc d440 2dbe
00000260: a4f2 fe3d d592 09bd 6fed be3d ce95 40be
00000270: a3da 86bd a77f f3bd 4fae 1a39 b2dd e53c
00000280: f05c bfbd 88dd 07bf df19 71be e64b b4be
00000290: f39f ca3e 2e00 543e fff6 6abd 7c6b 06be
000002a0: a5e1 5e3e 9067 e2bc 01cd 3c3c eed0 073d
000002b0: 9ccb efbe a4d7 86be ad24 99be 05a8 893d
000002c0: 64d3 13be 3f00 b1bd 3f71 03be 61fd aebe
000002d0: 0244 aa3e 2cb3 37be e327 023b e00b 4f3c
000002e0: 1e50 33be 1244 5b3e 35f4 a53e fb94 12be
000002f0: d567 5abe 91cb abbd 1c47 2d3e 4536 b73b
00000300: e4e8 113f a8e0 9bbe 3d03 5dbd 19a3 05be
00000310: 1e81 f53e 4ca4 92bd dbe6 35bd 1299 8cbb
00000320: 44c7 29bc 5a3a 1ebe 30dd a6be b44a 1bbe
00000330: b5c7 823d fa78 473d 863d 573e aac6 c23e
00000340: c0e4 92be d47c eebd b897 b5bd a2f9 273d
00000350: dcd2 333d f03d 563e 2eea 823d 35b9 c6bd
00000360: 6342 0f3e ff8d 80be 7d8c 12bd 3ff1 413e
00000370: bee5 50be fce1 18be e8c1 8ebe d1e7 583c
00000380: cc18 8dbd b2fd a53e 3973 a0bd dd41 013e
00000390: 5a8d 503e 3a48 093d 728e 2dbe 458a c03e
000003a0: 7e74 3d3d 8969 073e f379 2a3e 7c16 6b3e
000003b0: fc83 f83e c0d9 9e3c 4fb1 b7be 9f79 03bf
000003c0: 4c54 c13e e1a2 593e 872c 43bc b647 10bd
000003d0: ce21 13be d41a 323e ff1b 6b3e 8a0e 8c3d
000003e0: 3b10 c23d 88a8 a43e d8fd 86bd dc94 963e
000003f0: c059 363d d94a 12be c9ae 7cbe 4630 4e3d

layer1.bias f4 [128]
-0.33425263 -0.0017490664 0.06206327 -0.2406775 0.06299802 -0.005969482 -0.12949795 -0.16553825
-0.29215527 -0.058800202 0.10862584 -0.111465864 -0.28356087 -0.21621574 -0.048961245 0.05288671
0.020043818 -0.08211957 -0.17585455 -0.30966055 0.082118995 0.02919156 0.17331703 -0.13347486
0.023832079 -0.22835453 0.17848751 -0.261603 -0.19322015 -0.26676387 -0.02764962 -0.07083318
-0.20937166 -0.016737776 -0.018083747 0.05466292 -0.09934043 -0.16137287 -0.050072778 0.13803063
-0.20330134 -0.23380968 0.043370064 0.20878373 0.18798026 0.12563421 0.030449774 0.07656649
-0.038463905 -0.10740001 -0.114925325 0.046994787 0.018457256 -0.21267226 -0.16057037 -0.22705765
-0.1638847 -0.32128796 -0.25954616 -0.0045505045 -0.1839393 -0.13287818 -0.012274999 -0.13926259
-0.20418675 -0.22271967 0.16441008 0.025014646 0.2419591 -0.24673408 0.1740969 0.033548653
0.052569482 -0.19053651 0.047001757 -0.25798196 -0.17552744 -0.21558432 -0.04071303 -0.26869228
-0.008160269 -0.020870956 0.03112736 -0.032991823 -0.033298634 0.082155444 -0.31304625 -0.34118012
0.04087027 0.02177806 0.020704616 -0.2175347 -0.2934073 -0.14688097 0.12623502 -0.10965865
-0.2723023 0.0012531971 0.032390792 -0.13530909 -0.074585006 -0.16648309 -0.11909485 -0.061780892
-0.15826438 -0.04816032 -0.18416853 -0.12426843 -0.019642808 0.008870766 -0.17128679 -0.23275682
0.21444882 -0.12468814 0.045252383 -0.03939247 0.013058961 0.1551949 0.18030456 0.070476055
-0.06507298 -0.076000586 -0.3377231 -0.15641776 0.16343218 0.055929877 -0.24324954 -0.25408033
00000000: 2923 abbe ee40 e5ba 0e36 7e3d 2a74 76be
00000010: 1b05 813d a59b c3bb 1c9b 04be dc82 29be
00000020: 6095 95be 7bd8 70bd 3977 de3d 3748 e4bd
00000030: e42e 91be a967 5dbe 968b 48bd bc9f 583d
00000040: ef32 a43c 4e2e a8bd 3713 34be d48b 9ebe
00000050: 012e a83d 2323 ef3c 057a 313e a2ad 08be
00000060: 7e3b c33c c5d5 69be 6ec5 363e d4f0 85be
00000070: 81db 45be 4695 88be 7581 e2bc fc10 91bd
00000080: 8665 56be a91d 89bc 5e24 94bc 3ae6 5f3d
00000090: ff72 cbbd ee3e 25be 1d19 4dbd e757 0d3e
000000a0: 3a2e 50be ce6b 6fbe cfa4 313d 67cb 553e
000000b0: e67d 403e 41a6 003e ce71 f93c e4ce 9c3d
000000c0: 548c 1dbd 89f4 dbbd f85d ebbd 9b7d 403d
000000d0: ac33 973c c2c6 59be 8f6c 24be cd81 68be
000000e0: 64d1 27be db7f a4be 3ce3 84be 661c 95bb
000000f0: 955a 3cbe 3811 08be 141d 49bc da9a 0ebe
00000100: 5516 51be a010 64be 1e5b 283e 84eb cc3c
00000110: 20c4 773e dca7 7cbe 7546 323e 506a 093d
00000120: 1953 573d 011c 43be ea84 403d 3616 84be
00000130: 77bd 33be 23c2 5cbe b5c2 26bd 0992 89be
00000140: a6b2 05bc 91f9 aabc cefe fe3c 6f22 07bd
00000150: 2664 08bd 1d41 a83d 9947 a0be 29af aebe
00000160: 9667 273d e767 b23c ba9c a93c 6bc1 5ebe
00000170: 7b39 96be f767 16be c143 013e b794 e0bd
00000180: 356b 8bbe 5142 a43a 35ac 043d 778e 0abe
00000190: 06c0 98bd 8b7a 2abe 00e8 f3bd f60d 7dbd
000001a0: 0f10 22be c143 45bd ad96 3cbe 7280 febd
000001b0: f4e9 a0bc b056 113c ce65 2fbe ce57 6ebe
000001c0: 7998 5b3e 7f5c ffbd 905a 393d 005a 21bd
000001d0: 41f5 553c 69eb 1e3e c2a1 383e c055 903d
000001e0: fc44 85bd 32a6 9bbd 0bea acbe fa2b 20be
000001f0: c45a 273e ba16 653d 6816 79be d116 82be

layer2.weight f4 [256, 128]
-0.0117232725 -0.005270475 -0.07241247 0.02061889 0.03482115 0.09505527 -0.04230744 -0.2497195
0.19135435 -0.16579327 0.06587298 -0.09402567 0.055026177 -0.23802826 -0.20153342 -0.0761954
-0.125005 -0.31983253 0.032133702 0.055881552 -0.14313674 -0.08094105 0.020774689 -0.19603154
-0.16429174 0.07566901 0.14062396 -0.117531456 -0.33934146 -0.10417004 -0.07850592 0.02130646
-0.12462227 0.010911987 0.034222834 0.12801042 0.03692443 0.12670666 -0.0338696 0.06828247
-0.13557005 -0.21217659 -0.006798038 0.0064584184 0.022263736 0.13677226 0.047184505 -0.0009985046
-0.13532147 -0.01706325 -0.038141053 -0.061447453 0.03977761 0.09632056 0.119755685 0.005502142
-0.039776478 -0.07376662 -0.010896283 0.0063827243 -0.04977729 0.14183821 0.08860867 -0.10849826
-0.033524465 -0.1822049 0.016603032 -0.055853646 0.06702765 0.12917572 -0.010101328 -0.017068883
-0.07979244 -0.1624632 -0.22032455 0.23519936 -0.23170269 -0.047286566 -0.09378479 0.06928164
0.056820184 -0.10490373 0.079580426 0.025797404 0.077938035 -0.046784673 0.093993284 0.005122016
0.083008885 -0.19882031 -0.017798955 -0.04630823 -0.17372724 0.00624965 -0.0023590035 -0.12601806
-0.032731928 -0.032324616 -0.21925496 0.0123143615 0.07478777 -0.21910769 0.14929402 -0.053716626
-0.09336469 -0.031141998 -0.16036536 -0.13699865 -0.022218097 0.14246096 -0.07601233 0.14582601
-0.03755637 -0.063073024 0.067165345 -0.05228972 0.08279998 -0.14683318 0.012425808 -0.007813828
0.09373186 -0.1253527 -0.04642669 0.16899164 0.09404261 0.07077312 -0.116707936 -0.15848118
0.008612336 -0.08090419 -0.22451027 -0.025646554 0.08306999 0.08163104 -0.2006917 0.015938902
-0.09396723 -0.052938726 0.029204208 0.17489524 0.040535063 0.14403985 0.06089786 -0.11383106
0.12696162 -0.020503068 -0.17068747 -0.0644347 0.11508926 0.027321536 -0.03396008 0.10343955
-0.069017015 0.020333452 0.076023415 -0.024547229 0.020061389 0.00396435 0.08567058 -0.13316876
-0.20940682 -0.013338083 -0.09360114 -0.04346323 0.12936439 -0.17947905 -0.018423261 -0.15563145
-0.069467075 0.055744972 -0.19923297 -0.0042544496 -0.050108273 -0.20507553 -0.01169065 -0.21669331
-0.22729586 -0.07953673 -0.08290939 0.063998386 0.14621364 0.03675909 0.05632214 -0.06726211
0.018173985 -0.19693637 -0.012823002 -0.18625781 -0.12919138 0.0789243 0.06644027 -0.07530927
-0.10697249 -0.01990565 0.07698801 -0.0009811956 0.07507694 -0.013811999 -0.044996228 0.0845258
0.05407779 0.05941206 0.15812117 0.08230874 -0.3040482 0.12192997 0.09076567 0.021877903
0.080405205 0.06341461 -0.1148767 -0.030002082 -0.05422713 0.08654749 -0.0025764776 0.2284124
0.022546653 0.09324244 0.10574745 -0.16845067 0.046958853 -0.041846696 -0.15590267 -0.06394724
-0.1511453 -0.064370826 -0.014770352 -0.25795358 0.11661414 -0.09802638 0.09238011 -0.1041826
0.077654034 -0.026068509 -0.0107122315 0.005645711 0.13507938 -0.104621686 -0.0369663 -0.078306854
0.0988588 -0.07892953 0.04185466 -0.03200538 -0.15386954 0.18810564 -0.10401145 0.041788578
0.09452523 0.047613043 -0.06747193 -0.13054506 0.1244463 0.03611893 0.008714007 -0.13236944
00000000: f812 40bc f3b3 acbb fd4c 94bd f2e8 a83c
00000010: 9fa0 0e3d 56ac c23d 914a 2dbd 78b6 7fbe
00000020: 65f2 433e b6c5 29be 6ae8 863d 8890 c0bd
00000030: 2163 613d aebd 73be c75e 4ebe 550c 9cbd
00000040: 5001 00be 17c1 a3be a19e 033d 0ee4 643d
00000050: 7092 12be 6cc4 a5bd ae2f aa3c 7ebc 48be
00000060: 183c 28be 5bf8 9a3d baff 0f3e 55b4 f0bd
00000070: 2abe adbe 1a57 d5bd b6c7 a0bd e38a ae3c
00000080: f639 ffbd 31c8 323c 3e2d 0c3d 2a15 033e
00000090: 123e 173d 64bf 013e daba 0abd aed7 8b3d
000000a0: e0d2 0abe d244 59be 13c2 debb 24a1 d33b
000000b0: 7062 b63c 070e 0c3e 8a44 413d 41e0 82ba
000000c0: b691 0abe 3bc8 8bbc cb39 1cbd 53b0 7bbd
000000d0: d9ed 223d b743 c53d 7842 f53d 504b b43b
000000e0: a9ec 22bd f412 97bd 5386 32bc 2c26 d13b
000000f0: 46e3 4bbd 093e 113e 7678 b53d 5634 debd
00000100: f350 09bd ec93 3abe 1503 883c cbc6 64bd
00000110: cb45 893d a446 043e 0a80 25bc 0bd4 8bbc
00000120: 386a a3bd c15c 26be c29c 61be 1ad8 703e
00000130: 7843 6dbe 8faf 41bd 3d12 c0bd 88e3 8d3d
00000140: 48bc 683d c4d7 d6bd 10fb a23d 1455 d33c
00000150: fa9d 9f3d 49a1 3fbd 8d7f c03d 96d6 a73b
00000160: 9000 aa3d 8d97 4bbe 1dcf 91bc b3ad 3dbd
00000170: 8ee5 31be ddc9 cc3b 8399 1abb e10a 01be
00000180: ea11 06bd d166 04bd 5f84 60be 2dc2 493c
00000190: 552a 993d c45d 60be 88e0 183e f705 5cbd
000001a0: fd35 bfbd 811d ffbc d136 24be 6049 0cbe
000001b0: ba02 b6bc 49e1 113e 5aac 9bbd 6a53 153e
000001c0: b5d4 19bd 6e2c 81bd fc8d 893d bf2d 56bd
000001d0: 0993 a93d 705b 16be 9e95 4b3c 9205 00bc
000001e0: 7df6 bf3d 755c 00be ea29 3ebd 250c 2d3e
000001f0: 6999 c03d 7ff1 903d 9204 efbd e448 22be
00000200: c11a 0d3c 19b1 a5bd 05e6 65be b918 d2bc
00000210: 9920 aa3d 2d2e a73d 2082 4dbe 4d92 823c
00000220: e471 c0bd 47d6 58bd aa3d ef3c bd17 333e
00000230: 1808 263d 2f7f 133e 0970 793d 4220 e9bd
00000240: 3a02 023e 0df6 a7bc b2c8 2ebe 57f6 83bd
00000250: ebb3 eb3d 6ad1 df3c ba19 0bbd 1dd8 d33d
00000260: cb58 8dbd 5792 a63c 2ab2 9b3d 4517 c9bc
00000270: c857 a43c 61e7 813b 0f74 af3d 645d 08be
00000280: be6e 56be fa87 5abc f4b1 bfbd 8006 32bd
00000290: 1978 043e 5bc9 37be 61ec 96bc da5d 1fbe
000002a0: c144 8ebd d754 643d ba03 4cbe e968 8bbb
000002b0: 553e 4dbd 52ff 51be 248a 3fbc dae4 5dbe
000002c0: 3fc0 68be 27e4 a2bd 66cc a9bd 9611 833d
000002d0: 07b9 153e b390 163d 0bb2 663d b8c0 89bd
000002e0: 9ce1 943c b0a9 49be 9217 52bc 5eba 3ebe
000002f0: bf4a 04be 10a3 a13d d611 883d bf3b 9abd
00000300: 6514 dbbd 2c11 a3bc e4ab 9d3d 769b 80ba
00000310: f0c1 993d b94b 62bc f74d 38bd dd1b ad3d
00000320: ac80 5d3d 0f5a 733d 84ea 213e 7c91 a83d
00000330: 35ac 9bbe 6cb6 f93d 5ae3 b93d 4a39 b33c
00000340: 7cab a43d 85df 813d 7a44 ebbd edc6 f5bc
00000350: 441d 5ebd cf3f b13d 1fda 28bb f1e4 693e
00000360: c2b3 b83c e4f5 be3d 1e92 d83d 557e 2cbe
00000370: ed57 403d 7167 2bbd f3a4 1fbe c5f6 82bd
00000380: d5c5 1abe dad4 83bd 59ff 71bc 7e12 84be
00000390: 65d3 ee3d 0ec2 c8bd c831 bd3d b05d d5bd
000003a0: 1409 9f3d a08d d5bc 5b82 2fbc a8ff b83b
000003b0: 4052 0a3e e543 d6bd fa69 17bd 585f a0bd
000003c0: 7c76 ca3d cea5 a1bd cb6f 2b3d 1318 03bd
000003d0: fa8f 1dbe c49e 403e f503 d5bd 802a 2b3d
000003e0: 7296 c13d e505 433d b92e 8abd 9bad 05be
000003f0: b4dd fe3d 71f1 133d 32c5 0e3c db8b 07be

layer2.bias f4 [256]
0.092960626 0.012352159 -0.1416774 0.06285461 0.0037320931 0.090823375 -0.03959385 0.15839463
-0.00532719 0.08874001 -0.09372798 0.0680781 0.10769585 0.021348134 0.015979595 -0.004267451
0.021986129 -0.040974665 0.040277768 -0.025093894 -0.04432705 0.02426365 -0.024385441 0.028934164
-0.17903869 0.01809959 0.064454705 0.11387611 0.029620828 -0.052284546 -0.036217816 -0.030658238
-0.0004527657 -0.12075113 -0.031376913 0.1883631 0.14042741 0.028151607 0.03937297 -0.04800241
-0.04363328 -0.045807067 -0.16012749 0.023684073 -0.09293418 -0.030695375 -0.06832194 0.081485875
-0.17226505 -0.04097854 0.05569153 -0.017935794 -0.07079331 0.25135043 -0.051822763 -0.09144058
-0.08156847 0.13486217 -0.15250787 0.033692747 -0.039321665 -0.00011310163 0.07609116 0.14507681
0.020874452 -0.13768949 -0.11502691 0.06926928 0.08629375 0.0072499653 -0.019290304 -0.1855995
0.14883813 -0.01350258 0.008324546 -0.07034437 -0.033831675 -0.027697377 -0.00198387 -0.15578233
0.020668343 0.0371006 -0.017953658 0.021285322 0.076713525 -0.08987086 -0.13022384 -0.03441956
0.11273965 0.02875419 -0.0045745783 0.009641807 0.0951782 0.13422853 0.09564579 -0.11374641
0.19323882 0.06175924 0.031005507 -0.023799665 0.06396793 0.04351137 0.09270409 -0.00021407986
-0.048915528 0.009976294 0.0579835 -0.0054521915 -0.055523373 -0.053658627 -0.04377488 0.0070529785
0.05244268 0.045556057 0.017808106 -0.07413362 0.038293235 0.13843939 -0.051753677 -0.13735187
0.024397701 -0.05345061 0.09641379 0.1658383 0.089587376 -0.12910394 0.13276716 -0.12680638
-0.0116443 0.0479518 -0.06280146 -0.2771037 0.05759723 -0.035665732 0.030506792 0.12235944
-0.13410941 -0.0004767699 0.006678565 0.12819119 0.062922865 0.043411974 0.03540528 0.1290495
-0.08344168 0.06575554 -0.028497808 -0.008095719 0.063059226 0.06448725 -0.1980125 -0.041068435
-0.118292496 -0.040047437 0.038428526 0.087388545 0.02599824 -0.24099207 -0.049270976 -0.1629185
-0.05593992 0.065028414 -0.009208281 -0.03213504 -0.12648332 0.13759552 0.14331257 0.065674916
-0.08546737 -0.035704806 -0.03666405 -0.008025328 -0.06452516 -0.08971301 0.08505143 0.039364062
-0.042205542 -0.082726434 0.15803342 -0.042003505 -0.13980585 0.026998658 0.05601766 0.016402332
-0.1105572 0.00411493 0.03848159 0.1267555 0.06928541 -0.11623662 0.17520158 -0.09810598
-0.14644697 0.060832314 -0.11001464 0.0068780943 -0.1133291 0.045092277 -0.059631456 -0.11130079
-0.07179576 0.15414855 -0.11586843 -0.09991034 0.16379532 0.024361689 -0.06856466 -0.0660701
0.010850302 0.031440575 -0.12190112 -0.015607498 0.011261568 -0.12250176 -0.01983025 -0.12104141
-0.10837383 0.012859028 -0.013474018 0.039912995 -0.12884271 -0.012530113 0.08510455 0.1148229
-0.017312841 0.114634514 -0.06532294 -0.058799237 0.14262502 0.056182805 0.095367536 -0.12679288
0.048481517 0.04426688 -0.07328526 -0.025831435 -0.016791388 -0.15774517 0.07582186 0.10463211
-0.0500379 -0.019903705 0.00285786 0.033598177 0.06869485 0.02190194 0.06629932 0.0040004626
-0.028397825 0.061155133 -0.03520377 -0.02531743 -0.025220202 0.12467171 0.16299245 -0.042693146
00000000: 2462 be3d b660 4a3c e113 11be ebb9 803d
00000010: 2296 743b 9b01 ba3d 292d 22bd 3432 223e
00000020: b58f aebb 53bd b53d 75f4 bfbd 886c 8b3d
00000030: a48f dc3d 48e2 ae3c a4e7 823c f9d5 8bbb
00000040: 411c b43c 0dd5 27bd 4dfa 243d b691 cdbc
00000050: 4890 35bd 90c4 c63c fac3 c7bc 5707 ed3c
00000060: eb55 37be 9745 943c d400 843d e137 e93d
00000070: 61a7 f23c 5228 56bd 2259 14bd fc26 fbbc
00000080: 2f61 edb9 5e4c f7bd 1485 00bd 42e2 403e
00000090: 34cc 0f3e 339e e63c 8d45 213d 2d9e 44bd
000000a0: cfb8 32bd 31a0 3bbd 76f8 23be 1a05 c23c
000000b0: 4654 bebd de74 fbbc 60ec 8bbd 11e2 a63d
000000c0: 4066 30be 1dd9 27bd cd1c 643d 16ee 92bc
000000d0: 15fc 90bd 01b1 803e 1b44 54bd 3345 bbbd
000000e0: 5f0d a7bd 4f19 0a3e 062b 1cbe 6801 0a3d
000000f0: c10f 21bd fa30 edb8 afd5 9b3d 048f 143e
00000100: e600 ab3c 79fe 0cbe 3b93 ebbd 0ddd 8d3d
00000110: c7ba b03d 1e91 ed3b b306 9ebc cc0d 3ebe
00000120: 0669 183e ed39 5dbc ad63 083c b610 90bd
00000130: 1593 0abd 9ce5 e2bc d103 02bb 6785 1fbe
00000140: a850 a93c ccf6 173d 8d13 93bc 8e5e ae3c
00000150: fb1b 9d3d 370e b8bd 6659 05be 86fb 0cbd
00000160: 0ce4 e63d e88d eb3c 58e6 95bb abf8 1d3c
00000170: caec c23d 3473 093e f1e1 c33d e1f3 e8bd
00000180: 66e0 453e 42f7 7c3d 43ff fd3c 84f7 c2bc
00000190: 9e01 833d fa38 323d a4db bd3d a07a 60b9
000001a0: a65b 48bd 9c73 233c 1b80 6d3d 4ca8 b2bb
000001b0: 7a6c 63bd 26c9 5bbd 4a4d 33bd ac1c e73b
000001c0: 23ce 563d fd98 3a3d 4ee2 913c 5ed3 97bd
000001d0: 5ed9 1c3d 0ec3 0d3e aafb 53bd f8a5 0cbe
000001e0: b0dd c73c 07ef 5abd 9874 c53d 84d1 293e
000001f0: 9679 b73d d333 04be 1df4 073e 88d9 01be
00000200: bcc7 3ebc 1b69 443d 0d9e 80bd 89e0 8dbe
00000210: 13eb 6b3d 3b16 12bd 61e9 f93c 9697 fa3d
00000220: fa53 09be f9f6 f9b9 ddd7 da3b 8d44 033e
00000230: b4dd 803d c1d0 313d 2005 113d 8d25 043e
00000240: 79e3 aabd d7aa 863d 3c74 e9bc e8a3 04bc
00000250: 3225 813d e411 843d cac3 4abe 6037 28bd
00000260: 5643 f2bd c808 24bd 3b67 1d3d c4f8 b23d
00000270: 43fa d43c a0c6 76be 5dd0 49bd 1bd4 26be
00000280: 4221 65bd 9e2d 853d 54de 16bc 08a0 03bd
00000290: d884 01be d7e5 0c3e 88c0 123e 9280 863d
000002a0: 8409 afbd 343f 12bd 0b2d 16bd aa7c 03bc
000002b0: c425 84bd 74bb b7bd 722f ae3d 363c 213d
000002c0: b8df 2cbd 7a6c a9bd 83d3 213e de0b 2cbd
000002d0: 4429 0fbe 4a2c dd3c c672 653d 2f5e 863c
000002e0: d06b e2bd 89d6 863b df9e 1d3d 32cc 013e
000002f0: 82e5 8d3d 770d eebd 0b68 333e caeb c8bd
00000300: 32f6 15be 4e2b 793d 5b4f e1bd a361 e13b
00000310: 1619 e8bd aeb2 383d 1d40 74bd abf1 e3bd
00000320: a809 93bd 1ed9 1d3e 6d4c edbd cb9d ccbd
00000330: f6b9 273e 2a92 c73c a16b 8cbd c34f 87bd
00000340: 77c5 313c d5c7 003d 4ba7 f9bd 97b6 7fbc
00000350: 7182 383c 34e2 fabd 0c73 a2bc 8fe4 f7bd
00000360: 19f3 ddbd acae 523c 21c2 5cbc cf7b 233d
00000370: 58ef 03be 1a4b 4dbc 4b4b ae3d 4528 eb3d
00000380: a9d3 8dbc 80c5 ea3d 09c8 85bd 78d7 70bd
00000390: 4b0c 123e f11f 663d 0e50 c33d fed5 01be
000003a0: 8e94 463d 3051 353d 9516 96bd 729c d3bc
000003b0: 188e 89bc f387 21be 7e48 9b3d 5c49 d63d
000003c0: 8bf4 4cbd 180d a3bc ef4a 3b3b 3e9e 093d
000003d0: e3af 8c3d b36b b33c f0c7 873d 5016 833b
000003e0: 8ea2 e8bc ce7d 7a3d d431 10bd 8066 cfbc
000003f0: 999a cebc e253 ff3d 7ee7 263e 02df 2ebd

layer3.weight f4 [256, 256]
0.042252574 -0.04292726 -0.024895713 0.024493683 -0.10580769 -0.121380046 -0.0013633457 -0.08115143
0.065117955 -0.046486173 0.16825362 0.07972853 -0.164177 0.1070013 -0.25132942 -0.032550108
-0.030598449 0.04740836 -0.21999137 -0.13216104 -0.022879895 -0.09814659 -0.045222998 0.08082844
0.11115071 -0.0006611258 -0.17005828 -0.28235704 0.013266325 -0.11923872 0.24003543 -0.038867753
0.017525429 -0.10608123 -0.048802532 -0.2444285 0.013168938 -0.02287172 0.029805293 -0.1477238
-0.10713762 0.0492992 -0.0877221 0.03036851 -0.15507875 0.009091456 0.01455165 -0.02397892
0.054364543 -0.12148513 0.116642386 -0.10046068 0.13135944 -0.003703989 -0.15697943 0.26383838
0.017570289 0.12053226 -0.03245496 0.06484568 -0.12901597 0.05529522 -0.056186665 0.12812413
-0.030924592 -0.093161434 -0.028899891 -0.037776 -0.07508652 0.050286382 -0.022914499 -0.0660974
-0.04688743 0.05662566 0.027425285 0.08087256 0.090029694 0.04441947 -0.13360165 -0.15102781
0.14833856 0.0020207816 -0.053874906 -0.24159019 0.11702531 -0.034572117 -0.079226494 -0.20121482
-0.07132686 0.08972898 0.1955059 0.1364548 0.14505765 -0.1695453 -0.06132442 -0.004415823
0.053376798 -0.034813505 -0.048825677 -0.20824458 -0.14669824 -0.15758613 0.096593045 0.20275426
0.016990362 -0.28030047 0.13580577 0.2016624 -0.14115064 0.073156394 -0.021664139 -0.16359974
0.09070891 -0.16242896 0.20108059 0.03453217 -0.09006215 -0.04444632 0.016716849 0.078869574
0.056692492 -0.04487564 0.042468023 -0.049774196 -0.08576459 0.09731458 0.08008053 -0.018825697
-0.103616245 -0.17730623 -0.2250919 -0.20091528 0.11579938 0.10524881 -0.10719472 0.15752092
0.064457744 -0.054423854 -0.114930525 0.13327669 0.009588098 -0.018005023 -0.115887836 -0.042902585
-0.113011226 -0.055026177 -0.021930998 -0.051802527 0.07406135 -0.041176748 0.08306443 0.2325859
0.09212321 -0.22761375 -0.124827765 0.030767767 -0.00802326 -0.0343707 0.0733721 -0.050286654
0.0852637 0.0032897994 -0.0741445 -0.14754204 -0.17083453 0.025448678 -0.07025288 -0.11867395
-0.07602614 -0.005991931 -0.2433956 -0.012722546 -0.057030514 0.0419919 0.00783556 -0.023140999
-0.046939235 0.036827814 -0.13057187 -0.13419686 -0.072624154 0.14107297 -0.18230945 0.05305847
0.0050439937 0.111307696 0.13016345 -0.035993263 0.046574622 0.015166248 0.12436748 0.0018398839
-0.2674129 0.099383965 -0.027044818 -0.04691014 0.021688245 -0.2007306 0.022386236 -0.008415759
-0.20518018 0.096984334 0.04010144 -0.07676288 -0.07798402 0.07309534 -0.158857 -0.007105657
-0.012741632 -0.14549746 -0.027893817 0.15985748 0.019591482 0.17646238 0.08535597 -0.046667024
-0.006276293 -0.2092588 -0.20966825 0.08035993 -0.11713881 -0.28107846 -0.07428816 0.071509175
0.0030238954 -0.00015891812 0.12532865 -0.044940732 -0.014760504 -0.13637894 0.036503565 -0.16972539
0.063567 0.010482967 -0.099891715 0.14224155 -0.006911588 -0.1603515 -0.016444547 0.0662784
-0.017268425 -0.08962811 -0.09622271 -0.042695668 -0.0058174296 -0.1395463 0.18857221 0.051868107
-0.16486213 -0.17165259 -0.121366516 -0.07203491 -0.22771774 -0.18199855 -0.20026186 0.077886626
00000000: 0911 2d3d 7fd4 2fbd 18f2 cbbc faa6 c83c
00000010: b4b1 d8bd 1a96 f8bd 4ab2 b2ba b932 a6bd
00000020: 905c 853d 4968 3ebd ad4a 2c3e b648 a33d
00000030: 041e 28be 7f23 db3d 40ae 80be 4353 05bd
00000040: 99a9 fabc 452f 423d 6b45 61be 3955 07be
00000050: 9e6e bbbc 1401 c9bd c03b 39bd 6289 a53d
00000060: fca2 e33d 674f 2dba c223 2ebe 1a91 90be
00000070: 005b 593c 6e33 f4bd d9cb 753e cb33 1fbd
00000080: 7d91 8f3c 1e41 d9bd 2ae5 47bd 774b 7abe
00000090: 88c2 573c 795d bbbc 3b2a f43c e844 17be
000000a0: f86a dbbd f5ed 493d a5a7 b3bd 62c7 f83c
000000b0: f7cc 1ebe 55f4 143c 0b6a 6e3c 716f c4bc
000000c0: 5bad 5e3d 32cd f8bd 34e2 ee3d 54be cdbd
000000d0: 1783 063e a0be 72bb 37bf 20be d315 873e
000000e0: 91ef 8f3c 9ed9 f63d 7eef 04bd d0cd 843d
000000f0: c31c 04be 3e7d 623d fd23 66bd f932 033e
00000100: 9255 fdbc 6ccb bebd 77bf ecbc 02bb 1abd
00000110: f6c6 99bd 18f9 4d3d 30b7 bbbc 135e 87bd
00000120: 090d 40bd 4ff0 673d feaa e03c 83a0 a53d
00000130: 7d61 b83d 31f1 353d dfce 08be 09a7 1abe
00000140: 10e6 173e 176f 043b efab 5cbd 6b63 77be
00000150: f7aa ef3d 7e9b 0dbd 8041 a2bd 420b 4ebe
00000160: d113 92bd d4c3 b73d b332 483e cfba 0b3e
00000170: fe89 143e 489d 2dbe 512f 7bbd 9cb2 90bb
00000180: a1a1 5a3d 9b98 0ebd 6ffd 47bd 113e 55be
00000190: 1038 16be 425e 21be 93d2 c53d d09e 4f3e
000001a0: 5f2f 8b3c 8b83 8fbe ab10 0b3e 9780 4e3e
000001b0: cb89 10be 05d3 953d fe78 b1bc b186 27be
000001c0: 98c5 b93d c753 26be 12e8 4d3e 9b71 0d3d
000001d0: 8172 b8bd 580d 36bd c6f1 883c 5f86 a13d
000001e0: 6336 683d 85cf 37bd f3f2 2d3d 07e0 4bbd
000001f0: 58a5 afbd de4c c73d 4301 a43d 5938 9abc
00000200: c134 d4bd c48f 35be 7e7e 66be bcbc 4dbe
00000210: 3a28 ed3d b08c d73d e888 dbbd 2a4d 213e
00000220: 6c02 843d 8ceb 5ebd b260 ebbd af79 083e
00000230: 6617 1d3c 457f 93bc 9a56 edbd 9fba 2fbd
00000240: 6e72 e7bd 2163 61bd a3a8 b3bc e32e 54bd
00000250: 7aad 973d f3a8 28bd af1d aa3d 002b 6e3e
00000260: 18ab bc3d 9413 69be b3a5 ffbd af0c fc3c
00000270: fe73 03bc 4bc8 0cbd 1d44 963d 61f9 4dbd
00000280: bc9e ae3d ad99 573b 12d9 97bd 4315 17be
00000290: 3fef 2ebe bf79 d03c bee0 8fbd 540b f3bd
000002a0: 98b3 9bbd f657 c4bb b23c 79be 3a72 50bc
000002b0: d498 69bd b3ff 2b3d b860 003c 3192 bdbc
000002c0: 5b43 40bd c3d8 163d a2b4 05be e76a 09be
000002d0: f9bb 94bd 6f75 103e 54af 3abe d753 593d
000002e0: 1648 a53b 4af5 e33d 9149 053e ac6d 13bd
000002f0: 08c5 3e3d db7b 783c 61b4 fe3d 4228 f13a
00000300: 58ea 88be d289 cb3d 188d ddbc d924 40bd
00000310: 8cab b13c 538c 4dbe 5763 b73c 40e2 09bc
00000320: c11a 52be b99f c63d 6841 243d db35 9dbd
00000330: 16b6 9fbd 02b3 953d 69ab 22be 92d6 e8bb
00000340: 47c2 50bc 49fd 14be 9381 e4bc aeb1 233e
00000350: 517e a03c 8eb2 343e 1ccf ae3d ec25 3fbd
00000360: 5da9 cdbb f047 56be 46b3 56be bf93 a43d
00000370: 79e6 efbd 84e9 8fbe 6424 98bd 6773 923d
00000380: 8c2c 463b 42a3 26b9 2756 003e c613 38bd
00000390: 0ad6 71bc eca6 0bbe c384 153d 7ecc 2dbe
000003a0: 6a2f 823d c0c0 2b3c 0794 ccbd c5a7 113e
000003b0: 9a7a e2bb 2f33 24be b7b6 86bc f8bc 873d
000003c0: 8376 8dbc f18e b7bd 6a10 c5bd a7e1 2ebd
000003d0: 23a0 bebb 3ae5 0ebe 1319 413e a773 543d
000003e0: 9ed1 28be b2c5 2fbe 028f f8bd 0a87 93bd
000003f0: d72e 69be d45d 3abe 7211 4dbe 0683 9f3d

layer3.bias f4 [256]
0.060335796 0.014887785 -0.02656892 -0.061492197 -0.07392946 -0.021252804 -0.071296476 0.018774968
-0.014325293 0.016536204 -0.11212303 -0.14023213 -0.07493983 0.053763404 -0.062233813 0.09601553
-0.026002528 -0.13788928 -0.12106202 0.08281164 -0.054320224 0.11869034 -0.036085237 -0.008435418
0.014612518 -0.046920296 0.041099064 0.01386012 -0.060292296 0.037647445 -0.15609077 -0.0920845
-0.03164839 0.04708448 -0.05360657 -0.15471199 -0.05956283 -0.11140189 -0.14497212 0.10721104
-0.053223867 0.03858715 0.021210782 -0.05269215 -0.02302519 -0.06530781 -0.1906258 -0.08473041
-0.0129235275 -0.08786056 -0.099368945 0.046809006 -0.0041120974 -0.08241821 -0.051616725 0.08892319
-0.070160806 -0.056088373 -0.1187605 -0.1704035 -0.06500796 -0.09746705 0.057949226 -0.10426734
0.09255816 -0.1609202 -0.04377326 -0.045894258 -0.102569364 -0.07187389 0.043529805 -0.12640668
0.15455061 -0.009477018 -0.1299129 -0.0020173735 0.069970526 0.09688164 -0.06896567 0.053051602
-0.063073315 -0.025542513 -0.08221035 -0.18496618 0.034527283 0.108205445 -0.13873546 0.031996783
0.14307591 0.055830102 0.071508706 0.094858594 -0.09209307 0.07063963 0.0053807376 -0.10931542
-0.03893307 -0.09621343 -0.143576 -0.030831829 -0.004711638 0.1024499 -0.0019739692 -0.10637759
-0.012502375 0.01759541 -0.16231671 -0.03615461 0.009792198 0.015106344 0.09363319 0.090240516
-0.10485326 0.10385329 0.10496669 0.020518573 0.022936735 -0.09992695 0.015676638 -0.18119098
-0.108271286 0.049316887 -0.043304022 -0.18122678 0.0892457 -0.05851873 0.06265252 -0.028103363
-0.026332838 0.044528067 0.07884541 -0.12795766 -0.08416502 0.11635634 -0.039018404 0.027344625
-0.1066077 0.0235522 -0.08034012 0.062256563 -0.14678702 0.010481946 -0.04432113 -0.036317237
-0.18745929 0.020083692 0.13175377 0.0780258 0.046153612 -0.11652513 -0.1620061 -0.045008175
0.17928399 0.050627008 -0.042522084 -0.026103849 -0.04267433 -0.08070307 -0.05841761 0.03438585
-0.068187624 0.018951157 0.009312414 -0.12821972 -0.039253537 -0.07123345 -0.09580128 0.0463207
-0.036366653 0.04424913 -0.017301196 0.01967342 -0.050649546 -0.09843002 -0.20384435 0.03363771
0.048372857 0.032705013 -0.1462538 -0.12742569 -0.028616522 0.028773177 -0.112004004 -0.049997065
0.04154803 -0.036713947 -0.011187892 -0.02771105 -0.031512223 -0.065422595 -0.013337439 -0.11479663
0.009903748 -0.04985124 0.020304995 0.033254795 -0.085477136 0.050320573 -0.054315895 -0.114324376
0.09451902 -0.13437723 -0.06843552 -0.024755646 -0.06261592 0.09194739 -0.035570443 -0.032677185
0.008394315 0.03845684 -0.087989144 0.08562008 -0.025574476 -0.050768457 0.11166782 -0.110531315
-0.048094857 -0.047410596 -0.015750553 0.06848884 -0.039365634 0.007355929 -0.07164711 0.016751729
0.055341624 -0.04782774 -0.04709938 -0.012029874 -0.084720396 -0.0655546 0.00662106 -0.048651658
0.053515602 -0.028200902 -0.064874604 0.13146883 -0.103845134 -0.09777221 0.08270836 -0.004521807
0.0016019446 -0.069791794 -0.04285293 -0.1921648 0.08691217 -0.08986532 -0.029679606 0.10192266
-0.13706937 0.050800364 -0.14657257 0.019707626 -0.10949955 -0.15960096 0.034620233 -0.018900696
00000000: ab22 773d e5eb 733c 10a7 d9bc 3edf 7bbd
00000010: 5468 97bd 5c1a aebc e303 92bd f6cd 993c
00000020: a2b4 6abc ef76 873c c2a0 e5bd 0399 0fbe
00000030: 0e7a 99bd 0437 5c3d e2e8 7ebd caa3 c43d
00000040: 4103 d5bc d932 0dbe 5def f7bd 2699 a93d
00000050: e27e 5ebd ec13 f33d 1dce 13bd b534 0abc
00000060: 5869 6f3c 7f2f 40bd 7e57 283d 8f15 633c
00000070: 0ef5 76bd 3534 1a3d 42d6 1fbe cc96 bcbd
00000080: bea1 01bd a8db 403d 9092 5bbd d26c 1ebe
00000090: 27f8 73bd ad26 e4bd 9273 14be 7691 db3d
000000a0: 4501 5abd 8f0d 1e3d 3cc2 ad3c b9d3 57bd
000000b0: 539f bcbc 1ac0 85bd 6933 43be 2387 adbd
000000c0: 34bd 53bc 3df0 b3bd f281 cbbd cdba 3f3d
000000d0: c6be 86bb e1ca a8bd 0f6c 53bd 5d1d b63d
000000e0: 78b0 8fbd ecbc 65bd b438 f3bd 417e 2ebe
000000f0: e522 85bd ce9c c7bd 2b5c 6d3d 1d8a d5bd
00000100: 228f bd3d 44c8 24be 974b 33bd 9efb 3bbd
00000110: e30f d2bd 9e32 93bd 4f4c 323d c170 01be
00000120: 8442 1e3e 7f45 1bbc e307 05be e935 04bb
00000130: b54c 8f3d e269 c63d e03d 8dbd a34c 593d
00000140: 952c 81bd 883e d1bc e65d a8bd c667 3dbe
00000150: 7b6c 0d3d d19a dd3d ab10 0ebe 0f0f 033d
00000160: 7e82 123e 1bae 643d 2873 923d 3945 c23d
00000170: 4b9b bcbd 83ab 903d e650 b03b c3e0 dfbd
00000180: 4878 1fbd 8c0b c5bd 9605 13be 0893 fcbc
00000190: 1664 9abb 41d1 d13d b55d 01bb 7edc d9bd
000001a0: c3d6 4cbc 4024 903c 5a36 26be db16 14bd
000001b0: 756f 203c 9980 773c c2c2 bf3d 05d0 b83d
000001c0: 4ebd d6bd 09b1 d43d c7f8 d63d 9116 a83c
000001d0: d2e5 bb3c 80a6 ccbd 4b6c 803c 218a 39be
000001e0: 56bd ddbd 8100 4a3d 8f5f 31bd 8393 39be
000001f0: 73c6 b63d 56b1 6fbd f74f 803d 0639 e6bc
00000200: f7b7 d7bc 1063 363d b479 a13d 5507 03be
00000210: b65e acbd 3c4c ee3d c3d1 1fbd d601 e03c
00000220: 2355 dabd 8bf0 c03c 5c89 a4bd bd00 7f3d
00000230: 564f 16be 78bc 2b3c 138a 35bd 62c1 14bd
00000240: 54f5 3fbe 8e86 a43c 76ea 063e fecb 9f3d
00000250: 920b 3d3d baa4 eebd ede4 25be 7e5a 38bd
00000260: 3996 373e 445e 4f3d a32b 2ebd bdd7 d5bc
00000270: 47cb 2ebd a747 a5bd 4e47 6fbd 2dd8 0c3d
00000280: f4a5 8bbd 753f 9b3c 1893 183c 084c 03be
00000290: 51c8 20bd d8e2 91bd 7633 c4bd c6ba 3d3d
000002a0: 33f5 14bd 933e 353d 3dbb 8dbc 272a a13c
000002b0: e675 4fbd ae95 c9bd 93bc 50be b2c7 093d
000002c0: 9e22 463d b1f5 053d 8ec3 15be e17b 02be
000002d0: 326d eabc bab5 eb3c 5b62 e5bd b9c9 4cbd
000002e0: 442e 2a3d 5d61 16bd 6c4d 37bc 4902 e3bc
000002f0: f612 01bd 48fc 85bd 4685 5abc 7f1a ebbd
00000300: 5443 223c d030 4cbd a956 a63c 2e36 083d
00000310: a30e afbd f21c 4e3d 587a 5ebd e622 eabd
00000320: 3093 c13d 2f9a 09be ec27 8cbd 5acc cabc
00000330: c73c 80bd ea4e bc3d 50b2 11bd 83d8 05bd
00000340: 4f88 093c eb84 1d3d a733 b4bd 9559 af3d
00000350: 9081 d1bc 96f2 4fbd 19b2 e43d 3e5e e2bd
00000360: 1dff 44bd 9d31 42bd 4e07 81bc e043 8c3d
00000370: dc3d 21bd 010a f13b b8bb 92bd ec3a 893c
00000380: e6ad 623d 05e7 43bd 48eb 40bd f318 45bc
00000390: e381 adbd 7d41 86bd 7af5 d83b f646 47bd
000003a0: 2d33 5b3d 9405 e7bc fadc 84bd c49f 063e
000003b0: c2ac d4bd cc3c c8bd 0063 a93d ab2b 94bb
000003c0: 57f8 d13a 00ef 8ebd 8e86 2fbd d9c6 44be
000003d0: 02ff b13d 4f0b b8bd a522 f3bc d4bc d03d
000003e0: ea5b 0cbe 0b14 503d 1f17 16be e371 a13c
000003f0: 4d41 e0bd 6f6e 23be f2cd 0d3d a2d5 9abc

layer4.weight f4 [128, 256]
-0.0033628312 -0.012039646 0.23286739 -0.08506438 -0.042385843 0.005719491 -0.013195893 0.043818712
0.16056557 0.083157375 -0.085934214 0.089318395 0.0030583963 0.2593452 -0.05406174 0.052814677
0.15158108 0.05187556 0.006832712 0.1368557 0.12356434 -0.007838144 0.04455205 -0.01588099
-0.1659059 0.22882871 0.0659035 0.07194761 0.029227408 0.06408469 0.037501205 0.065466516
-0.053381536 0.062040187 -0.024580246 -0.11844088 -0.077533305 -0.043583363 -0.16961351 0.20777111
-0.047843363 0.08766025 -0.09757162 -0.05320336 -0.016663881 -0.05081852 -0.008106512 -0.08600151
-0.07232422 -0.028756212 0.07157676 -0.050633837 0.033620093 -0.022948496 0.023234135 0.07464392
0.018069923 0.087451205 0.025915207 -0.034754384 0.022521403 -0.1021393 -0.05608251 -0.057470627
-9.534257e-05 0.23918332 0.13299406 0.023560675 0.13462067 -0.05840438 -0.08624756 0.122818895
0.12867455 0.0541978 -0.20495825 -0.02829868 0.030127184 -0.096114 -0.0011368828 -0.04665934
-0.041856173 0.24887049 0.14507955 0.101901926 -0.04518488 -0.033545364 -0.06042411 0.008394677
0.0020578024 -0.1592767 -0.008892572 0.001967886 0.12823421 -0.064134635 -0.021710657 0.026940687
-0.064848065 -0.07502711 0.06875595 0.08896359 -0.0002836762 -0.039248895 0.11829918 -0.06665523
0.103428796 -0.16007562 0.04458421 0.061205424 -0.008547112 0.10733441 0.24053754 -0.058331255
0.023228196 -0.059014224 -0.11167851 -0.13162073 -0.040138464 -0.09246868 0.05281298 0.09656165
0.011876039 0.053590212 0.10984824 0.062124655 0.08092329 -0.025943536 0.03238637 0.057087798
-0.123147234 0.00040720263 -0.12422272 0.18493876 0.040243253 -0.032602075 -0.028901946 -0.047099512
0.05981687 -0.09511174 -0.0040232223 0.10049813 -0.090440534 -0.07380908 0.01760486 -0.13479939
-0.11178982 -0.10258747 0.13129282 0.076855205 0.11897021 -0.047834337 -0.042709604 0.020928089
-0.02692616 -0.2592567 -0.0029577191 -0.008746416 0.029286703 -0.040668003 -0.14834927 -0.07891173
0.058832828 0.042255428 0.0098886145 0.047866482 0.006663762 -0.09081483 0.033427265 0.054513633
0.16945605 0.022594163 -0.02543788 -0.0405211 0.092588454 -0.041263964 -0.16401194 -0.024286164
0.18607134 0.03683687 -0.034735523 -0.045774374 0.11068221 0.19518676 0.07979264 -0.09465865
0.16740613 -0.06966064 -0.0023682893 -0.14934726 -0.009599661 0.055697087 0.026300693 0.06517429
0.04426709 0.06935793 -0.021944154 0.054475773 -0.04983532 -0.022565322 -0.06524053 -0.101028234
0.104947485 0.121470675 0.110105544 0.10997984 -0.004063447 -0.063983254 0.0135174235 0.048846472
-0.052210476 -0.085258976 0.08023018 0.11263767 0.044275403 0.15750925 -0.06156971 -0.091059424
0.118105926 -0.05700517 0.1120592 0.033746097 0.045921676 -0.047467213 0.055585835 0.12721251
0.0801403 -0.06159674 -0.0018640762 0.16109319 0.18381236 0.060066074 -0.13220988 -0.07108375
-0.08708157 0.048773818 -0.016867226 -0.033619363 -0.09007265 -0.00858171 -0.116571926 0.099666335
-0.19178864 -0.069509186 -0.033517852 0.07208395 -0.105539195 0.0034434083 -0.107339434 -0.095040195
0.021818358 0.07232296 0.002213748 -0.032949727 -0.071077056 -0.022723757 0.15101238 0.100055866
00000000: f262 5cbb ef41 45bc ca74 6e3e 3c36 aebd
00000010: c79c 2dbd 916a bb3b 9633 58bc 407b 333d
00000020: 4d6b 243e 6a4e aa3d 47fe afbd 90ec b63d
00000030: 606f 483b e5c8 843e d86f 5dbd 3454 583d
00000040: 1238 1b3e 787b 543d f1e4 df3b e723 0c3e
00000050: 4d0f fd3d 8f6b 00bc 367c 363d da18 82bc
00000060: 3ce3 29be 1352 6a3e 6af8 863d 4559 933d
00000070: 516e ef3c d53e 833d dd9a 193d 4f13 863d
00000080: 99a6 5abd da1d 7e3d 835c c9bc 2291 f2bd
00000090: c8c9 9ebd 7884 32bd 2aaf 2dbe f3c1 543e
000000a0: 67f7 43bd 3887 b33d a1d3 c7bd c4eb 59bd
000000b0: b182 88bc 1527 50bd 2dd1 04bc 8f21 b0bd
000000c0: b81e 94bd 2692 ebbc d696 923d 6d65 4fbd
000000d0: 39b5 093d 7cfe bbbc 8355 be3c e9de 983d
000000e0: 6007 943c 9e19 b33d 214c d43c 9d5a 0ebd
000000f0: ce7e b83c 692e d1bd c6b6 65bd 5266 6bbd
00000100: a7f2 c7b8 79ec 743e 982f 083e 5102 c13c
00000110: 00da 093e 6e39 6fbd 90a2 b0bd 7988 fb3d
00000120: 43c3 033e 83fe 5d3d 93e0 51be a2d2 e7bc
00000130: 49cd f63c 6bd7 c4bd 7503 95ba dd1d 3fbd
00000140: 6171 2bbd e8d7 7e3e bc8f 143e f5b1 d03d
00000150: c813 39bd dd66 09bd 467f 77bd d489 093c
00000160: 32dc 063b 6e19 23be 26b2 11bc a6f7 003b
00000170: d44f 033e 0559 83bd 8cda b1bc b7b2 dc3c
00000180: 10cf 84bd d0a7 99bd ebcf 8c3d 8b32 b63d
00000190: 60ba 94b9 73c3 20bd d746 f23d 8a82 88bd
000001a0: 7ad2 d33d ddea 23be ef9d 363d 8ab2 7a3d
000001b0: 3009 0cbc 25d2 db3d 794f 763e c1ec 6ebd
000001c0: 0f49 be3c e6b8 71bd b4b7 e4bd 96c7 06be
000001d0: 3b68 24bd 3860 bdbd 6c52 583d 1dc2 c53d
000001e0: b893 423c 6981 5b3d 1df8 e03d 6c76 7e3d
000001f0: 1cbb a53d 8a87 d4bc 92a7 043d e5d4 693d
00000200: 9e34 fcbd d07d d539 7b68 febd 9660 3d3e
00000210: 1cd6 243d c189 05bd c6c3 ecbc 6beb 40bd
00000220: 8902 753d f2c9 c2bd 3cd5 83bb f7d1 cd3d
00000230: e338 b9bd 3729 97bd 1138 903c da08 0abe
00000240: 10f2 e4bd 6119 d2bd a071 063e 4366 9d3d
00000250: a7a6 f33d f0ed 43bd 44f0 2ebd 6271 ab3c
00000260: 4094 dcbc 4bbd 84be 4bd6 41bb 214d 0fbc
00000270: abea ef3c 7e93 26bd dfe8 17be 799c a1bd
00000280: b1fa 703d 0714 2d3d db03 223c a50f 443d
00000290: b05b da3b 20fd b9bd 07eb 083d b049 5f3d
000002a0: e385 2d3e 6517 b93c 1a63 d0bc 74f9 25bd
000002b0: 049f bd3d 6704 29bd bff2 27be c7f3 c6bc
000002c0: 7c89 3e3e 42e2 163d d646 0ebd e97d 3bbd
000002d0: 5bad e23d 0adf 473e 536a a33d 65dc c1bd
000002e0: 836c 2b3e 3daa 8ebd 4d35 1bbb 7dee 18be
000002f0: e647 1dbc a122 643d 8d74 d73c 197a 853d
00000300: 6851 353d 880b 8e3d 3ac4 b3bc fd21 5f3d
00000310: 1f20 4cbd e9da b8bc d49c 85bd e4e7 cebd
00000320: b5ee d63d 9ec5 f83d 047f e13d 1c3d e13d
00000330: aa26 85bb a709 83bd 2f78 5d3c 3d13 483d
00000340: a7da 55bd 429c aebd b84f a43d 94ae e63d
00000350: 205a 353d 1b4a 213e 8530 7cbd 5d7d babd
00000360: 85e1 f13d 417e 69bd 4b7f e53d 5939 0a3d
00000370: 5e18 3c3d fb6c 42bd f9ad 633d ff43 023e
00000380: 9920 a43d dd4c 7cbd 0554 f4ba 9df5 243e
00000390: 4f39 3c3e d807 763d 0762 07be 5b94 91bd
000003a0: d257 b2bd 0ec7 473d 232d 8abc 75b4 09bd
000003b0: 0278 b8bd 4d9a 0cbc 43bd eebd dd1d cc3d
000003c0: 3e64 44be d55a 8ebd 044a 09bd c0a0 933d
000003d0: ef24 d8bd ceaa 613b c7d4 dbbd 6fa4 c2bd
000003e0: 6abc b23c 0f1e 943d 8714 113b 4bf6 06bd
000003f0: d990 91bd 2c27 babc fda2 1a3e 17ea cc3d

layer4.bias f4 [128]
0.04210151 -0.06192086 -0.1263644 0.060256124 -0.025222305 0.066385634 -0.07661712 -0.082916394
0.2212196 -0.11506582 0.1830104 0.03765165 -0.02893461 0.0073382617 -0.119093 -0.060320836
0.055133652 0.13780843 -0.016544398 -0.062041324 0.11306298 0.0965524 0.20434773 -0.112279214
-0.076848306 -0.020156344 -0.016303413 -0.063005276 0.0034115317 -0.051365823 -0.018548932 0.21448494
-0.046457604 -0.15389301 -0.112996675 0.03110299 0.017865779 0.07390973 0.07197423 -0.13608775
-0.07995233 -0.1112103 0.042212922 0.067941315 0.16225754 0.04763914 0.0041439715 0.058465682
0.06838516 0.015204935 0.02437994 -0.01403625 -0.00032775835 0.14015211 0.012174278 0.021303019
0.1291504 -0.1301655 0.01063324 -0.06879972 -0.053114206 -0.021754982 0.0058693043 -0.08226492
0.027673842 -0.054174628 0.15601045 -0.026143122 -0.01748103 0.0033728573 0.020054791 -0.006464249
-0.009226205 0.11325693 0.22240363 -0.07852345 0.13063338 0.08336612 -0.013196796 0.027392475
0.06420895 0.32484204 -0.025831182 -0.070013046 0.19520682 0.073724724 0.1573425 0.020595998
0.007962476 0.08705199 0.103936896 -0.042315263 0.048915245 0.066614576 0.13740554 -0.05048921
-0.016416626 0.061302006 -0.10166007 -0.08834733 0.029323649 -0.08691708 0.08220244 -0.05279271
-0.018538319 0.2039566 -0.03326233 -0.058052935 0.11959573 0.02644875 0.06023879 -0.016385084
0.022344587 0.0035316253 0.06911298 -0.051609267 0.07511341 -0.054895684 0.24014731 0.15500994
0.1487233 -0.016053105 0.10208386 0.0882557 -0.048497405 0.046065632 -0.02451082 0.16476297
00000000: a272 2c3d baa0 7dbd ab65 01be 20cf 763d
00000010: 029f cebc 31f5 873d 70e9 9cbd 12d0 a9bd
00000020: 6487 623e a1a7 ebbd 1467 3b3e 9e38 1a3d
00000030: 4608 edbc cd75 f03b 08e7 f3bd fb12 77bd
00000040: d3d3 613d a71d 0d3e 1e88 87bc 0b1f 7ebd
00000050: 908d e73d 44bd c53d 8840 513e a5f2 e5bd
00000060: a562 9dbd eb1e a5bc bc8e 85bc e908 81bd
00000070: 0194 5f3b f864 52bd eef3 97bc f1a1 5b3e
00000080: 544a 3ebd 2196 1dbe cd6a e7bd b3cb fe3c
00000090: 415b 923c fc5d 973d 3a67 933d 965a 0bbe
000000a0: 0cbe a3bd 3ac2 e3bd 75e7 2c3d d124 8b3d
000000b0: d726 263e 4221 433d 27ca 873b b679 6f3d
000000c0: 850d 8c3d 1f1e 793c 71b8 c73c 4df8 65bc
000000d0: fbd6 abb9 0984 0f3e 9f76 473c ab83 ae3c
000000e0: 0140 043e 1b4a 05be 0b37 2e3c dee6 8cbd
000000f0: 488e 59bd 8137 b2bc 4b53 c03b 837a a8bd
00000100: 41b4 e23c 37e6 5dbd 34c1 1f3e 1a2a d6bc
00000110: 6134 8fbc 280b 5d3b f249 a43c 0dd2 d3bb
00000120: 8229 17bc 40f3 e73d c7bd 633e e7d0 a0bd
00000130: c2c4 053e dbbb aa3d 6037 58bc 2f66 e03c
00000140: fb7f 833d b251 a63e ea9b d3bc 0063 8fbd
00000150: 4ce4 473e fdfc 963d 641e 213e f0b8 a83c
00000160: 0c75 023c 5048 b23d dedc d43d c552 2dbd
00000170: 5a5b 483d 396d 883d 0ab4 0c3e c6cd 4ebd
00000180: 297c 86bc d017 7b3d 2833 d0bd 72ef b4bd
00000190: 2638 f03c 9501 b2bd c159 a83d 2b3d 58bd
000001a0: acdd 97bc 00da 503e 153e 08bd eac8 6dbd
000001b0: 9bee f43d 0dab d83c f3bc 763d 033a 86bc
000001c0: ff0b b73c d772 673b 1b8b 8d3d 3d64 53bd
000001d0: 0fd5 993d 4cda 60bd 2de9 753e edba 1e3e
000001e0: ec4a 183e cd81 83bc 5811 d13d 68bf b43d
000001f0: 37a5 46bd 51af 3c3d eaca c8bc a0b7 283e

layer5.weight f4 [64, 128]
0.07684057 -0.15118448 0.10071307 0.02453707 0.011837929 -0.03821427 0.01303924 0.09902126
0.0718929 0.0031924194 -0.05796265 -0.21062356 0.16217881 -0.01307414 0.022128792 0.21431643
0.08457324 -0.0013331405 -0.019558037 0.046502687 -0.033206075 0.026488435 -0.113869734 -0.033228826
0.12902905 0.12270282 0.036256466 0.10579591 -0.2709488 0.01903802 0.08674933 0.049156737
-0.031615663 -0.10194816 -0.049784753 0.1918359 -0.07175326 0.0371565 -0.06315902 0.08106997
-0.044281404 -0.033522997 -0.1535769 -0.13873309 -0.1341918 -0.05511576 -0.088629864 -0.21482868
-0.010133889 -0.11000046 0.0235444 0.036798116 -0.03376435 0.0568746 -0.16789807 0.17094235
-0.10022637 -0.06561866 0.14916249 -0.113866016 -0.21033594 0.11072844 0.026402904 -0.044550363
0.014266132 -0.1820872 0.050481476 0.21610397 0.16767138 -0.14701527 -0.12765284 0.08317399
0.004303777 -0.05175715 0.053711396 0.066359766 -0.016603388 -0.0022706103 -0.13559541 0.017741188
0.012205054 0.022685153 0.012270192 0.024657054 -0.014797724 -0.15744773 0.0883389 -0.039865866
-0.059283078 0.058350757 0.022370204 0.054931585 -0.1519501 0.07953395 0.033321474 -0.26368305
-0.15841636 0.070970036 0.043185085 -0.03774052 -0.093663685 -0.040700424 0.1358312 0.08198592
-0.13907093 0.033596564 0.04773437 -0.017204914 -0.007276458 -0.17217109 0.107189536 -0.0689698
0.018384848 -0.02647061 -0.031226005 -0.27421847 -0.009732251 -0.07580463 0.08869242 -0.005562758
-0.11036646 0.082823224 -0.105870485 -0.04129491 0.11750756 0.21480975 0.052874923 0.029660285
0.014225903 -0.16591048 -0.008079363 -0.23129755 -0.088954665 0.071006425 -0.06830014 -0.13337103
0.02447505 -0.021049682 0.0035489395 0.28855565 0.034711085 0.08915931 -0.09739869 -0.0029287292
-0.06434875 0.053855292 0.042007115 -0.049129937 -0.110128105 -0.021003796 -0.1406452 0.08954494
-0.012405063 -0.08161151 -0.11920936 -0.1491522 -0.060698237 -0.028486041 -0.11095929 0.20010513
-0.09570068 0.050950054 -0.18760148 -0.03993485 0.045190956 0.06432329 0.26422402 -0.03405573
-0.08492476 -0.09852573 -0.032496765 0.15787978 0.191137 0.13968185 -0.07107792 0.22842976
0.049797446 0.148933 -0.15349542 0.05506772 -0.013655458 0.11245044 -0.08999226 -0.100549944
-0.008151018 -0.017570287 -0.22713068 0.11014227 0.046918914 -0.02932173 0.01631403 -0.012167208
-0.009857736 0.29374665 0.018368803 -0.12387076 0.033575382 -0.026906434 -0.16900356 0.011250386
-0.09695713 0.19004653 0.2050706 -0.017977245 -0.13239671 -0.09157307 -0.18367907 0.05303589
0.025916988 0.21303634 -0.01982019 0.022531152 0.13255967 -0.12874402 0.020087486 -0.12571728
-0.049383625 0.13519342 0.1397857 -0.00051523146 -0.016985407 0.1946742 -0.13898496 -0.00755317
0.087737165 -0.14601439 -0.131461 0.06301753 0.1864297 -0.057557326 -0.07781976 -0.1264113
-0.048299216 -0.014270812 -0.044887446 -0.059239935 0.109777994 -0.02016196 -0.04405907 0.15662183
-0.06619982 -0.06788928 -0.015467235 -0.009843967 -0.0027659198 0.004932232 0.2912146 0.14573893
0.28157565 0.029085917 0.098253176 0.28300634 -0.040716164 -0.22239242 -0.10467067 -0.0054454394
00000000: 975e 9d3d 1bd0 1abe a742 ce3d f701 c93c
00000010: dff3 413c 9186 1cbd 89a2 553c a9cb ca3d
00000020: 963c 933d e937 513b 3e6a 6dbd b4ad 57be
00000030: 3412 263e eb34 56bc 7147 b53c c475 5b3e
00000040: bc34 ad3d c6bc aeba 2d38 a0bc 9a79 3e3d
00000050: 1803 08bd 46fe d83c 8934 e9bd f31a 08bd
00000060: 3120 043e 9e4b fb3d a981 143d 87ab d83d
00000070: cdb9 8abe 9ff5 9b3c a2a9 b13d 9358 493d
00000080: 6d7f 01bd 32ca d0bd 19eb 4bbd a170 443e
00000090: 60f3 92bd 6a31 183d 8459 81bd 0308 a63d
000000a0: 6b60 35bd 694f 09bd 4343 1dbe 0c10 0ebe
000000b0: 9369 09be 10c1 61bd 9383 b5bd 0dfc 5bbe
000000c0: 9c08 26bc ec47 e1bd 30e0 c03c 9fb9 163d
000000d0: 7d4c 0abd 57f5 683d 79ed 2bbe 830b 2f3e
000000e0: 7c43 cdbd 1363 86bd 0dbe 183e 9632 e9bd
000000f0: 4e62 57be 98c5 e23d e74a d83c 717a 36bd
00000100: 7fbc 693c 1175 3abe aac5 4e3d 5c4a 5d3e
00000110: 0cb2 2b3e 2c8b 16be 6db7 02be 2057 aa3d
00000120: b306 8d3b 4eff 53bd 7b00 5c3d a1e7 873d
00000130: d403 88bc 85ce 14bb 86d9 0abe f855 913c
00000140: b5f7 473c 37d6 b93c ea08 493c 97fd c93c
00000150: 2772 72bc fa39 21be 06eb b43d 644a 23bd
00000160: d0d2 72bd 3401 6f3d b841 b73c f1ff 603d
00000170: cf98 1bbe b2e2 a23d 197c 083d 7701 87be
00000180: e637 22be bd58 913d d8e2 303d ce95 1abd
00000190: bfd2 bfbd 7db5 26bd 5617 0b3e 3ce8 a73d
000001a0: 9c68 0ebe 8d9c 093d 1d85 433d 52f1 8cbc
000001b0: 5b6f eebb 9e4d 30be 3086 db3d 0a40 8dbd
000001c0: d29b 963c e5d8 d8bc aecd ffbc 5d66 8cbe
000001d0: 0574 1fbc 753f 9bbd 5fa4 b53d cc47 b6bb
000001e0: d007 e2bd 399f a93d a0d2 d8bd da24 29bd
000001f0: cea7 f03d 16f7 5b3e 6093 583d 20fa f23c
00000200: c313 693c 70e4 29be 4e5f 04bc 44d9 6cbe
00000210: dd2d b6bd d16b 913d f2e0 8bbd 6a92 08be
00000220: e67f c83c 6270 acbc 5395 683b 91bd 933e
00000230: 362d 0e3d 2899 b63d f778 c7bd ecef 3fbb
00000240: 47c9 83bd 5e97 5c3d a70f 2c3d 793c 49bd
00000250: d88a e1bd 2710 acbc 4c05 10be 5663 b73d
00000260: 9b3e 4bbc ef23 a7bd 0924 f4bd 5bbb 18be
00000270: b79e 78bd 8f5b e9bc a03e e3bd 5ce8 4c3e
00000280: b8fe c3bd 01b1 503d 9a1a 40be ba92 23bd
00000290: 271a 393d eebb 833d 5f48 873e 057e 0bbd
000002a0: 08ed adbd dcc7 c9bd 541b 05bd 3dab 213e
000002b0: 6bb9 433e c208 0f3e 4d91 91bd 7ee9 693e
000002c0: 68f8 4b3d e481 183e e72d 1dbe b18e 613d
000002d0: 24bb 5fbc 6b4c e63d dd4d b8bd 21ed cdbd
000002e0: d98b 05bc 90ef 8fbc f294 68be 4592 e13d
000002f0: 0c2e 403d 2034 f0bc 00a5 853c f858 47bc
00000300: 5782 21bc f665 963e 2c7a 963c f4af fdbd
00000310: 5786 093d e26a dcbc 450f 2dbe 8a53 383c
00000320: 7691 c6bd 8f9b 423e 07fe 513e 0445 93bc
00000330: 0193 07be a98a bbbd 5e16 3cbe 293c 593d
00000340: dd4f d43c 3326 5a3e f35d a2bc 4093 b83c
00000350: b9bd 073e 79d5 03be 838e a43c 08bc 00be
00000360: 7c46 4abd 2570 0a3e fc23 0f3e 9910 07ba
00000370: fb24 8bbc ac58 473e 1352 0ebe 9580 f7bb
00000380: 8baf b33d cc84 15be b69d 06be 560f 813d
00000390: 6de7 3e3e 3bc1 6bbd f75f 9fbd f771 01be
000003a0: 66d5 45bd 20d0 69bc e6db 37bd 93a5 72bd
000003b0: 49d3 e03d b22a a5bc 4977 34bd 7961 203e
000003c0: c593 87bd 8909 8bbd 496a 7dbc 9748 21bc
000003d0: 6f44 35bb 909e a13b 141a 953e 963c 153e
000003e0: af2a 903e 9745 ee3c f638 c93d 35e6 903e
000003f0: fec5 26bd d7ba 63be 945d d6bd a86f b2bb
