outputs/trained_models/placement_model.pth (torch, 78533 bytes, 10 tensors)

layer1.weight f4 [64, 15]
0	0x3eb92a1d	0.36164942
1	0xbec789cc	-0.38972318
2	0x3f869de7	1.0516938
3	0xbf952760	-1.1652641
4	0x3f3c28fe	0.7350005
5	0xbea9444f	-0.33059928
6	0xbeda097d	-0.42585364
7	0xbd045f99	-0.03231773
8	0xbf558ef8	-0.8342128
9	0x3ea35a8c	0.3190502
10	0xbebe101d	-0.37121668
11	0x3e6e38ba	0.23263827
12	0xbe01ce1e	-0.12676284
13	0xbe2dbdd7	-0.1696695
14	0xbe040a67	-0.12894593
15	0xbbd78ad9	-0.006577831
16	0xbf4c1176	-0.79714143
17	0x3f31acc8	0.6940427
18	0xbf083ea0	-0.5322056
19	0x3f2717a7	0.65270466
20	0xbe071ab0	-0.13193774
21	0x3f3efc98	0.7460418
22	0xbe8e8686	-0.27837008
23	0xbe9ab969	-0.30219582
24	0x3efb7197	0.491101
25	0xbebb582c	-0.36590707
26	0xbe96975f	-0.29412362
27	0x3e6885b5	0.22707255
28	0xbdf41d73	-0.119196795
29	0xbd32aa46	-0.043619417
30	0xbe2ff445	-0.17183025
31	0xbdf2a7b1	-0.11848391
32	0xbf396fab	-0.72436017
33	0x3e12db63	0.14341502
34	0xbf3ec690	-0.7452173
35	0x3f041663	0.5159666
36	0x3e45fe04	0.1933518
37	0xbe8f3b1b	-0.2797478
38	0x3ed19618	0.40934825
39	0xbefe0b9f	-0.4961824
40	0xbf56a309	-0.8384252
41	0xbe7f780b	-0.24948137
42	0xbdcad11e	-0.09903167
43	0x3e63237a	0.22181502
44	0x3e2bf8af	0.16794084
45	0xbf1eec9d	-0.62079793
46	0x3e484163	0.19556193
47	0xbf05d4f4	-0.52278066
48	0x3f4a7bf0	0.79095364
49	0xbf48b796	-0.7840513
50	0xbcbbfcbe	-0.022947665
51	0xbf332f3d	-0.69993955
52	0xbe09bcb5	-0.13450892
53	0xbf73cbc3	-0.9523279
54	0x3f1e60e6	0.61866605
55	0x3f0df898	0.5545745
56	0x3ea5c05f	0.3237333
57	0xbd74c1d9	-0.05975518
58	0xbd8c68cf	-0.06855928
59	0xbd8d7838	-0.069076955
60	0xbef3745b	-0.4754971
61	0xbf2e0471	-0.6797553
62	0x3f57c6ce	0.84287727
63	0x3e931515	0.28727022
64	0xbf21b3ea	-0.6316515
65	0xbf4d43b2	-0.8018142
66	0x3d17c58f	0.03705364
67	0x3df7b8c1	0.12095786
68	0xbf5399f9	-0.8265682
69	0xbf90a547	-1.1300439
70	0x3ee1378b	0.43987688
71	0x3d60b89b	0.054863553
72	0x3e4c62b6	0.1995953
73	0xbd870a5e	-0.06593774
74	0x3e14f8df	0.14548062
75	0xbe7399d9	-0.23789157
76	0x3e78da13	0.24301939
77	0x3dec5975	0.115405
78	0x3ae4428a	0.001741485
79	0xbdf6533d	-0.12027595
80	0xbdc510f7	-0.096223764
81	0xbd0f8aee	-0.035044603
82	0xbce3d039	-0.02780925
83	0x3b7e2260	0.0038777813
84	0xbe2c0107	-0.16797267
85	0xbe0c0ab7	-0.13675962
86	0xbe803c77	-0.2504613
87	0xbbab481c	-0.005227102
88	0xbd826cc8	-0.063684046
89	0xbe56d983	-0.20981412
90	0x3e8127d3	0.25225696
91	0x3d925ab9	0.0714621
92	0xbe0825c9	-0.13295664
93	0xbe3eaaf5	-0.18619902
94	0xbe53dedd	-0.20690484
95	0xbe6cd3f4	-0.23127729
96	0xbe50f725	-0.20406778
97	0x3dc973a1	0.098365076
98	0x3dadccb0	0.08486307
99	0x3c85dfe6	0.016342115
100	0x3d16bd68	0.036801726
101	0xbe62b1a5	-0.22138079
102	0x3d97f01d	0.07418845
103	0xbe795cd4	-0.24351817
104	0xbc315d0d	-0.010825408
105	0x3f740070	0.9531317
106	0x3e92e3ad	0.28689328
107	0x3ef3c08a	0.47607833
108	0xbf0d77a3	-0.55260676
109	0x3f341d04	0.70356774
110	0x3f5731a0	0.84060097
111	0xbe94f62f	-0.29094073
112	0x3bf79e7e	0.0075567355
113	0xbe34472f	-0.1760528
114	0x3f31f540	0.69514847
115	0xbf2539fa	-0.6454159
116	0x3ed6410e	0.41846508
117	0x3e9fab02	0.31185156
118	0x3e8504a3	0.259801
119	0xbf0591f2	-0.5217582
120	0xbd8fa5fb	-0.0701408
121	0x3e2c22db	0.16810171
122	0xbafc1772	-0.0019233061
123	0x3e1b6e0c	0.15178698
124	0x3eea2323	0.45729932
125	0x3ead9449	0.33902195
126	0x3e664257	0.22486244
127	0xbe076636	-0.13222584
128	0xbe9f0adb	-0.3106297
129	0x3e07eec9	0.13274683
130	0xbf57739d	-0.84160787
131	0xbc418d5b	-0.011813487
132	0x3eaa43cd	0.33254853
133	0x3c804234	0.015656568
134	0x3d7aff2a	0.0612785
135	0x3f28d1da	0.6594521
136	0xbe235edf	-0.15954159
137	0x3ebc784c	0.3681053
138	0xbeec4b7e	-0.46151346
139	0x3eea477d	0.45757666
140	0xbdc96ece	-0.098355874
141	0x3ed43c96	0.41452473
142	0xbdc42e7b	-0.09579178
143	0xbe49b698	-0.1969856
144	0xbe2e628f	-0.17029785
145	0x3dd2d434	0.10294381
146	0xbdad2f89	-0.08456332
147	0x3dd6bf43	0.10485699
148	0x3e0edfc7	0.13952552
149	0x3e2af38d	0.1669447
150	0x3db832db	0.08994075
151	0x3efc8d44	0.49326527
152	0xbf9b4170	-1.2129345
153	0x3dd58e9c	0.10427591
154	0xbf0f2743	-0.55919284
155	0x3b696a62	0.0035616388
156	0x3e59a842	0.21255592
157	0x3e240164	0.16016155
158	0xbf50a3bc	-0.8149984
159	0x3e129e60	0.14318228
160	0xbf838b75	-1.0276934
161	0xbd893735	-0.06699983
162	0x3e3d3e0f	0.18480705
163	0x3eb02465	0.34402767
164	0x3e226b98	0.15861356
165	0xbdf46388	-0.119330466
166	0xbf6d186e	-0.926154
167	0xbe70c78e	-0.23513624
168	0x3e8e9172	0.2784534
169	0x3f291d52	0.66060364
170	0xbdc99771	-0.09843338
171	0xbf404dce	-0.7511872
172	0xbeee0e97	-0.46495506
173	0xbf827761	-1.0192682
174	0x3f21b660	0.6316891
175	0x3db1dd89	0.086848326
176	0xbce3c35d	-0.027803117
177	0xbca0db6e	-0.019635882
178	0xbec05e15	-0.3757178
179	0xbd221a12	-0.039575644
180	0x3f4ec62b	0.8077113
181	0xbd417b4f	-0.047236737
182	0x3ee01e20	0.43772984
183	0xbed971e6	-0.4246971
184	0x3f1e8760	0.61925316
185	0xbdf86878	-0.12129301
186	0x3ebdf72c	0.3710264
187	0xbe663220	-0.22480059
188	0xbde75dee	-0.112972125
189	0xbeb8da02	-0.36103827
190	0x3eb7f8fc	0.35932148
191	0xbcd8270d	-0.026385808
192	0xbe84c717	-0.25933143
193	0x3de6f01a	0.112762645
194	0x3e1e61a0	0.15466928
195	0x3e60497c	0.21903032
196	0xbf91af27	-1.1381577
197	0xbf2994d6	-0.6624273
198	0xbe573d0c	-0.21019381
199	0x3dd036d7	0.1016671
200	0x3d0b12eb	0.03395359
201	0x3f450be3	0.7697126
202	0xbe992bd4	-0.2991625
203	0x3f56aca8	0.838572
204	0x3e407942	0.18796256
205	0xbedac1f9	-0.42726114
206	0x3eb86715	0.36016145
207	0xbe4d2020	-0.20031786
208	0xbe57afcb	-0.21063153
209	0xbe748b67	-0.23881303
210	0xbf85b295	-1.0445124
211	0xbf248729	-0.6426874
212	0x3eff0824	0.49810898
213	0xbdffb304	-0.124853164
214	0x3d7d9548	0.061909944
215	0xbd4488e0	-0.047982097
216	0xbe64c757	-0.22341667
217	0x3e296975	0.16544135
218	0x3d2cbefe	0.04217433
219	0x3e39bba9	0.18137993
220	0x3f879dc4	1.0595021
221	0xbee217bd	-0.44158736
222	0xbe78dfd8	-0.2430414
223	0x3e965602	0.29362494
224	0xbe8b8274	-0.27247965
225	0xbe90c211	-0.2827306
226	0x3cfd3caf	0.030912725
227	0xbf09cece	-0.53831184
228	0x3eba7791	0.36419347
229	0xbc339103	-0.010959866
230	0xbe849f0a	-0.25902587
231	0x3e84703a	0.25866872
232	0x3b763e3b	0.0037573713
233	0xbe109534	-0.14119416
234	0xbe845797	-0.25848076
235	0xbf25174d	-0.6448868
236	0xbe91d11b	-0.28479847
237	0x3ddb1794	0.106978565
238	0x3e386bab	0.18009822
239	0xbdcc68d3	-0.09980931
240	0x3f159099	0.58423764
241	0xbe3309e5	-0.17484243
242	0x3f14e8f3	0.5816795
243	0xbce70f2b	-0.028205475
244	0xbebee330	-0.37282705
245	0x3e23090d	0.15921421
246	0xbe2d08d5	-0.168979
247	0xbe4a5e89	-0.19762625
248	0x3e461ddc	0.19347328
249	0x3d3d4f50	0.046218216
250	0x3e95e819	0.2927864
251	0xbe7df41f	-0.24800156
252	0xbea20f6c	-0.3165239
253	0x3eae9b70	0.34102964
254	0x3e99e14b	0.30054697
255	0x3e538502	0.20656207

layer1.bias f4 [64]
0	0xbe08a983	-0.13345914
1	0xbe15cae9	-0.14628185
2	0xbe080482	-0.1328297
3	0xbdf63983	-0.12022688
4	0x3ce278c0	0.027645469
5	0xbe1c72b3	-0.1527813
6	0xbe682eeb	-0.22674148
7	0x3d2876f7	0.04112908
8	0x3d3b8963	0.04578532
9	0x3e06ff4e	0.13183329
10	0xbe383fd6	-0.17993101
11	0x3d1d9ad8	0.03847775
12	0x3d5447ad	0.051826168
13	0xbdab2ec1	-0.08358527
14	0x3d3d7ff5	0.046264607
15	0x3e2b1b3b	0.16709606
16	0xbc0cf663	-0.008603665
17	0x3d95c166	0.073122784
18	0x3d014d25	0.03156771
19	0xbe2dbf26	-0.16967449
20	0xbe9a94fd	-0.30191794
21	0x3e600a03	0.21878819
22	0x3d50d4d4	0.05098422
23	0x3e844ea9	0.25841263
24	0x3e72dc3c	0.23716825
25	0xbd9c1e14	-0.076229244
26	0x3e6146f4	0.21999723
27	0x3da8226b	0.0820969
28	0xbe591188	-0.21198094
29	0x3c7cc08e	0.015426768
30	0x3de1626d	0.11005101
31	0x3e39b66d	0.18135996
32	0x3de08112	0.10962118
33	0x3e30791e	0.17233703
34	0xbe6f8312	-0.23389843
35	0xbdc77622	-0.09739329
36	0x3e86ed7f	0.2635307
37	0x3e09f33b	0.13471691
38	0xbd3ced8c	-0.04612498
39	0xbe1e48b3	-0.1545742
40	0x3d90bd18	0.07067317
41	0x3d31c27b	0.04339836
42	0xbe0d6baa	-0.13810602
43	0x3e1e7e72	0.15477923
44	0xbd96555c	-0.073405
45	0xbe006145	-0.12537105
46	0x3e1d9ebe	0.15392587
47	0xbda1b089	-0.078949995
48	0xbdb54f7c	-0.08853051
49	0x3e33b755	0.17550404
50	0x3d40f2fd	0.04710673
51	0xbe1b24fa	-0.15150824
52	0x3e434b79	0.1907176
53	0xbdc6b9df	-0.09703421
54	0x3e6d2e08	0.23162091
55	0xbdd3df61	-0.103453405
56	0x3b72ece3	0.0037067465
57	0xbe19d726	-0.15023479
58	0xbdca9d6a	-0.098933056
59	0xbe523bf0	-0.20530677
60	0x3e5ad4e3	0.21370272
61	0x3e45c500	0.19313431
62	0xbe77fc9e	-0.2421746
63	0xbe4927b0	-0.19644046

layer2.weight f4 [128, 64]
0	0x3f3111ec	0.6916797
1	0x3f0860b8	0.5327258
2	0x3ec615d2	0.38688523
3	0x3d7869c2	0.060647734
4	0x3ebb5483	0.36587915
5	0x3d7a66fc	0.06113337
6	0x3dd195f8	0.102336824
7	0xbe692188	-0.22766697
8	0x3e2b2d7b	0.16716568
9	0xbda3842b	-0.079841934
10	0x3ea03db7	0.31297085
11	0x3f10b9d2	0.5653354
12	0xbe9b4c15	-0.30331483
13	0xbdb4773d	-0.088118054
14	0xbd48793a	-0.048943736
15	0xb9668a13	-0.00021985946
16	0x3b5b91c5	0.0033503633
17	0xbea60269	-0.32423714
18	0xbdd32bc3	-0.10311081
19	0xbc2de5a0	-0.010613829
20	0xbdaf0255	-0.08545367
21	0xbdb7c240	-0.08972597
22	0xbcd7a00e	-0.026321437
23	0x3e6d4472	0.23170641
24	0x3e214430	0.15748668
25	0x3e9746fa	0.29546338
26	0x3e36db3c	0.17857069
27	0xbdc9606b	-0.098328434
28	0x3f258bce	0.6466645
29	0x3e2b92b8	0.16755188
30	0xbd1377fb	-0.036003094
31	0x3d608ec5	0.054823656
32	0x3e9100a9	0.28320816
33	0x3e0c1192	0.13678578
34	0x3db3af90	0.0877372
35	0x3e84688c	0.25861013
36	0xbe13084a	-0.14358631
37	0x3dc4af34	0.0960373
38	0xbdd1e6e4	-0.10249117
39	0x3e8f0c3c	0.27939022
40	0xbe0f5950	-0.13998914
41	0xbe026089	-0.12732138
42	0x3da8d95b	0.08244582
43	0x3e7094e9	0.23494305
44	0x3cc5b7b0	0.02413544
45	0x3e436c92	0.19084385
46	0xbdc64ff2	-0.09683217
47	0x3eb72e10	0.3577733
48	0x3ebe47e0	0.3716421
49	0xbd4f2f5c	-0.050582275
50	0x3ebcd2d0	0.36879587
51	0x3ee5de6b	0.44896254
52	0xbe4febbc	-0.2030477
53	0x3e764aff	0.24052046
54	0x3e0d4af8	0.1379813
55	0xbe4a34e6	-0.19746742
56	0x3e2acc1f	0.16679429
57	0xbe92220a	-0.28541595
58	0xbe3eff10	-0.18651986
59	0x3ee1ddaf	0.44114444
60	0x3e0f6fe7	0.14007531
61	0xbb72ddf2	-0.003705856
62	0xbd70a85c	-0.05875431
63	0x3ca47360	0.020074546
64	0xbbe1e720	-0.0068940073
65	0xbde005cf	-0.10938608
66	0xbd558ad4	-0.05213435
67	0xbaa88c00	-0.0012859106
68	0xbd227d9d	-0.039670575
69	0xbdbb8b10	-0.091573834
70	0xbda197ac	-0.07890257
71	0xbdb8d35c	-0.090246886
72	0xbb743b6d	-0.0037266866
73	0xbe1437e6	-0.14474449
74	0xbdfc21ba	-0.1231112
75	0xbddfaf20	-0.10922074
76	0x3c6052f0	0.013691649
77	0xbccd1750	-0.02503553
78	0xbd8ad854	-0.067795426
79	0x3da67d1b	0.08129331
80	0xbbb07ac0	-0.0053857267
81	0xba057e00	-0.0005092323
82	0x3d9082f0	0.07056224
83	0xbc996d00	-0.018728733
84	0xbdaff998	-0.08592528
85	0xbdd00538	-0.101572454
86	0xbdf1b97a	-0.11802955
87	0xbdffd33a	-0.1249146
88	0x3c8e9830	0.017406553
89	0xbd59ed74	-0.05320497
90	0x3d96c2f3	0.07361402
91	0xbcd39afa	-0.025830735
92	0xbcf94af8	-0.030431256
93	0x3c9f9937	0.019482238
94	0xbbbbe140	-0.005733639
95	0xbd0c1984	-0.03420402
96	0xbd97f1ab	-0.074191414
97	0xbd18b083	-0.03727771
98	0x3dcc473c	0.099745244
99	0xbd2c70f4	-0.042099908
100	0xbd97bd2c	-0.074091285
101	0x3ddddff0	0.10833728
102	0x3d00dff8	0.031463593
103	0xbcdba500	-0.026812077
104	0xbd4f3001	-0.05058289
105	0xbd7034d0	-0.058644116
106	0x3da5d6a6	0.080975816
107	0x3d1a75d9	0.037710045
108	0xbdb33bb4	-0.08751622
109	0xbdadec46	-0.08492331
110	0xbe03bf5a	-0.12865964
111	0x3d510a02	0.051034935
112	0xbc67f660	-0.0141578615
113	0x3dc14c3c	0.09438369
114	0xbe091ab3	-0.13389091
115	0x3d7865a4	0.060643807
116	0x3db68a9a	0.08913155
117	0x3d5bfeca	0.053709783
118	0xbde1ba66	-0.11021881
119	0xbe01e0f1	-0.12683465
120	0xbd8e5456	-0.069496796
121	0x3db00251	0.08594192
122	0x39cc1200	0.00038923323
123	0x3d83bb36	0.06432192
124	0x3c447e9c	0.011993077
125	0xbe1e6c0b	-0.15470903
126	0x3dba0290	0.0908252
127	0x3d00b5a0	0.03142321
128	0x3f7c3d8a	0.985314
129	0x3e94fcca	0.29099113
130	0x3e9a9445	0.30191246
131	0xbe8197cf	-0.25311133
132	0x3dc52020	0.09625268
133	0x3db43464	0.08799055
134	0x3da07fde	0.07836889
135	0x3e03eed6	0.12884077
136	0x3ddf1bbc	0.10893962
137	0xbd40fd88	-0.047116786
138	0x3e03e24c	0.12879294
139	0x3f5e436f	0.86821645
140	0x3c69b877	0.014265171
141	0xbe2d7327	-0.16938458
142	0xbf203f63	-0.6259672
143	0x3d9a96de	0.07548307
144	0x3e127189	0.14301123
145	0xbca4f942	-0.020138387
146	0xbda69b25	-0.0813506
147	0x3de2b8c4	0.110703975
148	0xbdcacb6a	-0.099020794
149	0xbd1a91af	-0.03773659
150	0x3d4dca8f	0.050242003
151	0x3e855c27	0.2604687
152	0xbc961834	-0.018322088
153	0x3e3a6aa9	0.1820475
154	0x3c05b1f4	0.008160103
155	0xbdcc271f	-0.09968399
156	0x3f3f2adc	0.74674773
157	0x3e1575d4	0.14595729
158	0x3e5dae38	0.2164849
159	0x3e013c06	0.12620553
160	0xbe15f5be	-0.14644524
161	0xbd533bb6	-0.051570617
162	0xbd08d7d4	-0.033408955
163	0xbed3a4bb	-0.41336617
164	0x3dc03d4a	0.0938669
165	0x3d3b1367	0.0456728
166	0x3e46b8f1	0.19406487
167	0x3da542a6	0.08069353
168	0x3dd105cb	0.10206183
169	0x3e243ab5	0.1603802
170	0x3ed17d16	0.40915745
171	0x3e480ecc	0.19536895
172	0x3de09ea7	0.109677605
173	0xbea03393	-0.31289348
174	0x3de39696	0.11112706
175	0x3f05398b	0.5204093
176	0x3ea2bf74	0.31786692
177	0x3d8aaa71	0.0677079
178	0xbe1d747e	-0.1537647
179	0xbe62a1d7	-0.2213205
180	0xbdd6446c	-0.10462269
181	0x3f64d38e	0.89385307
182	0xbed28499	-0.4111679
183	0x3e224e28	0.15850127
184	0x3e5e4989	0.21707739
185	0xbdb46bef	-0.08809649
186	0x3eae410c	0.34034002
187	0x3bf6575b	0.007517738
188	0x3e52986d	0.20565958
189	0xbd1fd2ed	-0.039019514
190	0xbdee9000	-0.116485596
191	0xbd9a99f6	-0.07548897
192	0x3c9818e8	0.018566564
193	0x3dd1cf58	0.10244626
194	0x3ce59610	0.028025657
195	0xbd8661f7	-0.06561654
196	0x3c374b29	0.011187353
197	0xbd21a394	-0.03946264
198	0x3ca5e3d8	0.020250246
199	0xbded267b	-0.11579605
200	0xbd97fcd3	-0.07421269
201	0x3d79a259	0.060945842
202	0x3d0bdb56	0.034144722
203	0x3cd7d098	0.026344582
204	0xbe18cd36	-0.14922032
205	0x3c0707b0	0.008241579
206	0xbcf52bf4	-0.029928185
207	0x3a837619	0.0010029703
208	0x3c80d609	0.01572706
209	0xbb929d70	-0.0044743344
210	0x3dbe09e8	0.09279233
211	0xbcbafe98	-0.022826478
212	0xbe16d9d3	-0.14731531
213	0xbe0f44f9	-0.13991155
214	0xbcc85898	-0.024456307
215	0x3d9103ec	0.07080826
216	0xbe06c57c	-0.13161272
217	0xbd9c26fe	-0.07624625
218	0x3ceb7af4	0.028745152
219	0xbd29b494	-0.04143198
220	0xbe11a407	-0.14222728
221	0xbd5a9a57	-0.053369846
222	0xbd927edc	-0.07153103
223	0x3db91e85	0.09039024
224	0x3d15d454	0.036579445
225	0x3c3f8bf6	0.011691084
226	0x3c6c9990	0.014440909
227	0xbdf658cf	-0.12028658
228	0xbc94e515	-0.018175641
229	0xbc76ac93	-0.015055793
230	0x3db7f4ae	0.08982216
231	0xbdb333b0	-0.08750093
232	0xbda184db	-0.07886668
233	0xbd97f7c8	-0.074203074
234	0x3d531a46	0.05153873
235	0xbdd1bef8	-0.102415025
236	0xbd64a4d5	-0.05582126
237	0xbd3cc38c	-0.046084926
238	0xbd4ec61b	-0.050481897
239	0xbd1d81c8	-0.038453847
240	0x3d8258e8	0.06364614
241	0x3cbae5f9	0.022814738
242	0xbdc6c670	-0.09705818
243	0x3cc6a5fe	0.024249073
244	0xbb809473	-0.0039239465
245	0x3dfbb67a	0.12290664
246	0xbdd29ddc	-0.102840155
247	0xbdc0cf45	-0.094145335
248	0xbce9c73b	-0.028537383
249	0xbd1618fb	-0.036644917
250	0x3d2d90fd	0.0423746
251	0xbdb229c5	-0.08699373
252	0xbdcdb763	-0.10044744
253	0x3dc74178	0.09729284
254	0x3cde2fc0	0.027122378
255	0x3dd67bba	0.10472818

layer2.bias f4 [128]
0	0x3d7325aa	0.05936209
1	0xbd251a57	-0.040308323
2	0xbcd6ecbc	-0.02623593
3	0xbd4875d1	-0.048940483
4	0xbd1f5fed	-0.03890984
5	0x3db29ec4	0.087216884
6	0xbb69768a	-0.0035623633
7	0xbdda71ed	-0.10666261
8	0xbe452ded	-0.192558
9	0xbd158f1c	-0.036513433
10	0xbdc24e12	-0.09487547
11	0x3d8b281b	0.06794759
12	0xbd86dd54	-0.06585184
13	0xbd985d4e	-0.074396715
14	0x3da3ed86	0.080042884
15	0xbd0880fa	-0.033326127
16	0x3dada793	0.08479228
17	0x3e7aaff8	0.24481189
18	0x3ca17306	0.019708168
19	0xbc826bfe	-0.015920635
20	0x3dc8b146	0.09799437
21	0xbd8db98c	-0.06920156
22	0x3ca82524	0.020525523
23	0xbe0672ae	-0.13129684
24	0x3de641f6	0.1124305
25	0xbd84488c	-0.0645915
26	0xbd3d6cdc	-0.046246395
27	0x3bf6fb5c	0.0075372886
28	0x3e08156b	0.1328942
29	0x3e988ff7	0.29797336
30	0xbe1a5f32	-0.15075377
31	0xbdc6ac6d	-0.09700856
32	0x3c4ad8f9	0.012380832
33	0xbd93c82f	-0.07215916
34	0x3d74625f	0.059664126
35	0xbe4540b3	-0.19262962
36	0x3cbc04ed	0.022951568
37	0x3c8ab03a	0.016929734
38	0xbdbb1ae8	-0.09135991
39	0x3dde21dc	0.10846302
40	0xbdc09e7d	-0.09405229
41	0x3c8ec77c	0.017429106
42	0xbd9ce142	-0.07660152
43	0xbe03a10d	-0.12854405
44	0xbc3d9bf2	-0.011572825
45	0xbddabb41	-0.10680247
46	0xbc584e80	-0.01320231
47	0xbe0a3a6f	-0.13498853
48	0x3e128544	0.1430865
49	0x3e0d1814	0.13778716
50	0xbdd7d082	-0.105378166
51	0xbdd9a3f7	-0.10626977
52	0x3cd51f9a	0.026016045
53	0x3d7d362f	0.06181925
54	0x3e69a6a1	0.2281747
55	0xbd41b996	-0.04729613
56	0x3d66f9c9	0.056390557
57	0x3d596d3f	0.0530827
58	0x3e33d4f8	0.1756171
59	0xbd0210cc	-0.0317543
60	0x3cb7272e	0.02235755
61	0x3e11444d	0.14186211
62	0xbe2ce57b	-0.16884415
63	0xbe0355aa	-0.12825647
64	0xbd789659	-0.060690258
65	0x3e88a799	0.26690367
66	0xbe47cacc	-0.19510955
67	0xbe173a2d	-0.14768286
68	0xbbe8341f	-0.0070862914
69	0x3dafd845	0.08586172
70	0xbdbad449	-0.091225214
71	0xbdf5c656	-0.1200072
72	0xbd92e36e	-0.07172285
73	0xbd4c4f7d	-0.049880493
74	0xbbc9d2f7	-0.006159182
75	0xbdfd4dea	-0.123683766
76	0xbd7b17b2	-0.061301894
77	0xbda1300e	-0.07870494
78	0xbda6148c	-0.08109388
79	0x3e8120e6	0.25220412
80	0x3d56b675	0.0524201
81	0x3ccb2472	0.024797652
82	0x3db44aef	0.08803355
83	0x3c5dc228	0.01353506
84	0x3dc36b7b	0.09541985
85	0x3db755ee	0.08951937
86	0x3e9b4e9d	0.30333415
87	0x3e4838b3	0.19552879
88	0x3e44a01a	0.19201699
89	0xbd3bbe88	-0.045836
90	0x3e3ed0dd	0.18634363
91	0x3cd96358	0.026536629
92	0x3cef8a1f	0.029240666
93	0x3de0e053	0.109802864
94	0x3e0496af	0.12948106
95	0x3d63b5e8	0.0555934
96	0x3e239f76	0.15978798
97	0xbdbeaede	-0.09310697
98	0x3db507ea	0.088394
99	0xbd60a025	-0.054840226
100	0xbc966be6	-0.018361997
101	0x3d96c2e1	0.07361389
102	0xbde985ae	-0.114024505
103	0xbde4d858	-0.11174077
104	0xbdbb24b9	-0.09137864
105	0x3e28409b	0.16430895
106	0x3b553416	0.0032532266
107	0x3d0aa312	0.033846922
108	0xbc0c8aa6	-0.008577978
109	0xbda5a82e	-0.08088718
110	0xbcab653c	-0.020922296
111	0xbdea8fe6	-0.11453228
112	0x3d319a48	0.043360025
113	0x3ce4808f	0.027893333
114	0xbe2b857c	-0.16750139
115	0x3c6b8704	0.014375452
116	0x3e505176	0.20343575
117	0x3dec0254	0.115238816
118	0x3d6f7602	0.05846215
119	0x3d4ff1c7	0.050767686
120	0x3d28e3a5	0.041232724
121	0x3d2271d5	0.03965934
122	0x3c2a58b9	0.01039713
123	0x3e1399e1	0.14414169
124	0xbd4947b5	-0.04914065
125	0x3ddbcf4d	0.10732899
126	0x3e40787c	0.18795961
127	0xbb4813ab	-0.00305293

layer3.weight f4 [64, 128]
0	0xbd09daed	-0.03365605
1	0x3cffbae8	0.031217054
2	0xbcf713bd	-0.03016078
3	0x3bb45005	0.005502703
4	0xbd402a61	-0.046915416
5	0x3d60466b	0.054754656
6	0x3d86e050	0.06585753
7	0xbd3728ab	-0.04471652
8	0xbd9323f7	-0.07184594
9	0xbc34d27b	-0.011036511
10	0x3d65321b	0.055955987
11	0xbd704a81	-0.058664802
12	0xbd850e18	-0.06496829
13	0xbd63beff	-0.05560207
14	0xbd9dcf4a	-0.07705553
15	0xbd9069a3	-0.070513986
16	0xbbafbb8e	-0.0053629344
17	0x3ca56a24	0.020192213
18	0xbd7df73b	-0.062003355
19	0xbd1cc4c9	-0.038273606
20	0xbdb95d16	-0.09050958
21	0xbd73f754	-0.059562042
22	0xbd2d1355	-0.042254765
23	0xbd683bc8	-0.056697637
24	0xbd2dc54e	-0.042424493
25	0xbe09bf52	-0.13451889
26	0xbe060daf	-0.13091157
27	0x3caac540	0.02084601
28	0xbe0a58da	-0.13510457
29	0x3bf43c0f	0.0074534486
30	0x3cf07249	0.02935137
31	0x3da1406a	0.07873614
32	0xbdd3fd25	-0.10351018
33	0xbca7fbf0	-0.020505875
34	0xbd403b46	-0.046931528
35	0xbd57fb76	-0.052730046
36	0xbdbf492d	-0.09340129
37	0xbdb9f274	-0.090794474
38	0x3cea9ba9	0.028638678
39	0xbd7daddd	-0.061933387
40	0xbd2f4cad	-0.042797733
41	0xbe13e7a9	-0.1444384
42	0x3ca51f0b	0.020156404
43	0xbaf5c10f	-0.0018749553
44	0xbd2bbe13	-0.041929316
45	0xbcb18c40	-0.021673322
46	0x3c2511b8	0.010075025
47	0xbcff4e30	-0.031165212
48	0x3c8e0a69	0.017338948
49	0xbe043a0b	-0.12912767
50	0xbc032ca2	-0.008006247
51	0xbd94bd27	-0.072626404
52	0xbd16ca4d	-0.036814023
53	0xbd50b7d7	-0.050956573
54	0xbdb10459	-0.086434074
55	0x3c8925d7	0.016741676
56	0xbda82355	-0.08209864
57	0xbde7649e	-0.11298488
58	0xbd9bff46	-0.07617049
59	0xbda993fd	-0.0828018
60	0x3d313fa6	0.04327359
61	0xbd8b2f5f	-0.06796145
62	0xbdb2cd74	-0.08730593
63	0x3d0f3f38	0.0349724
64	0x3c6bcd43	0.0143922
65	0xbd0d0a96	-0.034433924
66	0x3c553d92	0.013015168
67	0x3d2de8a5	0.042458195
68	0xbd27e85b	-0.040993076
69	0xbe0059b3	-0.12534218
70	0xbda48494	-0.080331
71	0xbd81c41a	-0.063362315
72	0x3ca5b805	0.020229349
73	0xbc13491a	-0.008989597
74	0x3cfd150e	0.030893829
75	0x3b7539d3	0.00374185
76	0xbd99d2f7	-0.075109415
77	0x3d1dd551	0.038533513
78	0xbbfd8c3f	-0.007737666
79	0xbd8f19c1	-0.06987334
80	0xbdd45689	-0.10368068
81	0xbd544621	-0.051824693
82	0xbdc7a1a7	-0.097476296
83	0xbd5edde1	-0.05441082
84	0xbd2160ef	-0.039399084
85	0xbde1d14c	-0.11026248
86	0xbe0b4a3e	-0.1360254
87	0xbdb8f328	-0.090307534
88	0xbc82e5e9	-0.01597877
89	0x3ccb0925	0.024784634
90	0xbd8d1a3b	-0.06889769
91	0xbcd932b9	-0.026513444
92	0x3d28d4cc	0.041218564
93	0xbe1340d2	-0.14380196
94	0xbe14b8e9	-0.14523663
95	0xbe0c2584	-0.13686186
96	0xbdf7a8e0	-0.12092757
97	0x3d392999	0.045205686
98	0xbd6f7403	-0.058460247
99	0xbd98c348	-0.07459122
100	0xbdc69d24	-0.09697941
101	0xbc8fada9	-0.017538862
102	0x3d4810c2	0.048844106
103	0xbd737cbb	-0.059445124
104	0x3da59df1	0.080867656
105	0xbdec7ad8	-0.11546868
106	0xbc9497e0	-0.018138826
107	0x3d4c75a5	0.049916882
108	0x3bf594ca	0.0074945437
109	0xbd82fce4	-0.06395891
110	0xbd9e1383	-0.07718565
111	0x3cf87551	0.030329378
112	0x3c879b6b	0.016553601
113	0xbce770a7	-0.028251959
114	0x3d97a54a	0.07404573
115	0xbd9990ff	-0.07498359
116	0xbe10f8d2	-0.14157417
117	0x3b74cda1	0.003735401
118	0x3daa83e9	0.08325941
119	0xbd3e5fc0	-0.046478033
120	0x3d9d8a78	0.076924264
121	0xbc5281ef	-0.012848361
122	0xbc2fefb2	-0.0107383
123	0xbe0338d1	-0.12814642
124	0xbd23bd99	-0.039975736
125	0xbe05c1f0	-0.13062263
126	0xbdf170a8	-0.117890656
127	0xbd967393	-0.07346263
128	0x3e134191	0.1438048
129	0xbd5f3426	-0.054493092
130	0x3e954b8d	0.29159203
131	0xbdc7a095	-0.097474255
132	0x3df07fb1	0.11743105
133	0xbe8b245e	-0.27176183
134	0xbd4f1d83	-0.050565254
135	0x3d24d3a5	0.040240902
136	0xbea5fa77	-0.32417652
137	0xbca63f41	-0.020293834
138	0xbd93e6c2	-0.07221748
139	0x3d6b9d20	0.057522893
140	0x3e3d07e2	0.18460038
141	0x3d8d1e46	0.0689054
142	0x3db4a395	0.08820263
143	0xbe3582aa	-0.17725626
144	0x3e673b12	0.22581127
145	0x3dc5183f	0.09623765
146	0x3e1065e2	0.14101365
147	0x3afb168d	0.0019156501
148	0xbf0ede7d	-0.5580824
149	0x3da9a9d7	0.082843475
150	0x3ea13797	0.31487724
151	0xbc736f9d	-0.014858154
152	0x3d7a501c	0.061111555
153	0xbee2e167	-0.44312593
154	0xbe8c07dc	-0.27349746
155	0xbe94b4df	-0.29044244
156	0x3e106720	0.14101839
157	0x3dd5249c	0.10407373
158	0x3d026352	0.031833
159	0xbd9ca5cf	-0.07648813
160	0xbbe8ad3e	-0.00710073
161	0x3f08e516	0.5347456
162	0x3e666aea	0.22501722
163	0x3d791779	0.0608134
164	0x3e4fda35	0.20298083
165	0x3e641911	0.22275187
166	0xbd8aaf5a	-0.06771727
167	0x3d30c8c4	0.043160215
168	0x3dd510d1	0.10403598
169	0xbd9bbb48	-0.076040804
170	0xbdb2ebf2	-0.08736409
171	0x3d74a9af	0.059732135
172	0x3cf2f410	0.029657394
173	0xbc07dc28	-0.008292235
174	0x3d941620	0.072307825
175	0x3d4dd104	0.05024816
176	0xbe6937cd	-0.22775193
177	0xbf0abc66	-0.54193723
178	0xbc3fbd30	-0.011702821
179	0x3e303173	0.17206363
180	0x3e1e1619	0.15438117
181	0xbd4c7564	-0.04991664
182	0x3ecf4fa1	0.4049044
183	0x3da1d8d3	0.07902684
184	0x3d94d09c	0.072663516
185	0x3e935d8d	0.2878231
186	0x3e857b71	0.2607074
187	0xbd00799b	-0.031365972
188	0x3e1e35af	0.15450166
189	0xbe695d8d	-0.22789593
190	0x3ce03a88	0.02737166
191	0xbd1825f9	-0.03714559
192	0x3e5efa1f	0.21775101
193	0x3ecbc2c0	0.3979702
194	0x3e3ec61d	0.18630262
195	0x3d627f22	0.055297025
196	0xbe02aac7	-0.12760459
197	0x3e1f28e4	0.15542942
198	0xbd470817	-0.0485917
199	0x3d216037	0.0393984
200	0xbe8d0877	-0.2754552
201	0x3c05beb8	0.008163147
202	0x3cdc0c81	0.026861431
203	0xbda9e933	-0.08296432
204	0x3d8fedb4	0.0702776
205	0x3c850216	0.016236346
206	0x3d53853e	0.05164074
207	0x3e711ac5	0.23545368
208	0xbe1e2257	-0.15442787
209	0xbbad0fc0	-0.0052814186
210	0x3e5cd6db	0.21566336
211	0xbe937123	-0.28797254
212	0x3ea0ffd8	0.31445193
213	0x3e7817e1	0.24227859
214	0x3eb59989	0.354687
215	0xbe832e35	-0.2562119
216	0x3e33e494	0.17567664
217	0x3dac048f	0.08399307
218	0x3e998e52	0.29991394
219	0x3e7d36aa	0.24727884
220	0xbc529d4b	-0.012854884
221	0x3bc02037	0.0058632153
222	0xbe4eabe7	-0.20182763
223	0xbd93b3b6	-0.072120115
224	0xbdeabff3	-0.11462393
225	0x3daa8951	0.08326972
226	0xbd238748	-0.039923936
227	0xbc072274	-0.00824796
228	0x3d60d05b	0.054886203
229	0x3e797274	0.24360067
230	0x3d579ce9	0.052639876
231	0x3d812ad3	0.06306996
232	0x3d143277	0.03618094
233	0x3e173cba	0.14769259
234	0x3c7e23b3	0.015511441
235	0x3d69e9f1	0.05710787
236	0xbe4cc791	-0.19998004
237	0x3dacd305	0.08438686
238	0xbb8ded16	-0.0043312414
239	0x3cf2e607	0.029650701
240	0x3b3b027b	0.0028535414
241	0x3e8c0793	0.2734953
242	0x3cfc3445	0.030786643
243	0x3c4d6c1b	0.012537981
244	0x3e7a8c76	0.24467644
245	0x3e31f30b	0.1737787
246	0xbf4c1f8e	-0.7973565
247	0x3e081d60	0.13292456
248	0x3e6c2ce6	0.23064002
249	0x3d03bb5e	0.03216111
250	0xbe8358eb	-0.25653777
251	0x3e37281e	0.17886397
252	0xbdb86d47	-0.09005218
253	0x3e764271	0.24048783
254	0xbdb4b89f	-0.08824276
255	0x3ccec4d7	0.025240345

layer3.bias f4 [64]
0	0xbdefb474	-0.117043406
1	0x3e33874d	0.17532082
2	0x3b56ff12	0.0032805842
3	0x3e1f63a1	0.15565349
4	0xbd2ea3ed	-0.0426368
5	0xbe1980e8	-0.1499058
6	0xbd4baf31	-0.049727622
7	0xbd9e10cb	-0.07718047
8	0xbcc13932	-0.023586843
9	0xbdd089c7	-0.10182529
10	0xbcb5b6b5	-0.022181848
11	0xbd3e2bf5	-0.04642864
12	0x3e366423	0.17811637
13	0x3cc7b123	0.024376458
14	0xbc6ae040	-0.014335692
15	0x3e1600dd	0.14648767
16	0x3cec7e66	0.028868865
17	0xbd1292c6	-0.035784505
18	0xbd3a5591	-0.04549176
19	0xbdc6bd2e	-0.09704052
20	0x3e06074f	0.13088726
21	0xbc6aeec4	-0.014339153
22	0xbc1b32de	-0.009472577
23	0xbd9b810d	-0.07592974
24	0xbd13fcb2	-0.03612966
25	0xbe4d9de6	-0.20079765
26	0xbe00d9ff	-0.12583159
27	0x3b887368	0.004164148
28	0xbd82f0ce	-0.06393586
29	0x3dab613f	0.083681576
30	0x3e3ea086	0.18615922
31	0xbd74c2eb	-0.0597562
32	0x3e82ccb7	0.2554681
33	0x3daabb06	0.08336453
34	0xbdff31da	-0.1246068
35	0xbcdb590e	-0.026775863
36	0x3d1db492	0.038502283
37	0xbe13c60e	-0.1443102
38	0xbe0001e1	-0.12500717
39	0xbd1a1fed	-0.037628103
40	0xbd541b61	-0.051783923
41	0x3debed8a	0.11519916
42	0xbd499e36	-0.049223147
43	0x3dc240cf	0.094850175
44	0x3e664fcc	0.22491378
45	0xbdc1d499	-0.09464378
46	0xbc5a5afb	-0.0133273555
47	0x3d25af12	0.040450163
48	0x3e851c31	0.2599807
49	0xbdf8a951	-0.121416695
50	0xbdd08f9e	-0.10183643
51	0x3d4a4890	0.049385607
52	0x3d0a7d79	0.033811066
53	0xbcd70cf7	-0.0262513
54	0xbd58e23e	-0.052950136
55	0x3d2c96be	0.042135946
56	0x3ce75125	0.028236935
57	0x3e01d3af	0.12678407
58	0x3d0523df	0.032504912
59	0xbc1e6997	-0.009668729
60	0xbda1427b	-0.07874008
61	0x3cd047c2	0.025424842
62	0x3d75986d	0.059959818
63	0xbdd93094	-0.10604969

slot_head.weight f4 [12, 64]
0	0x3d33395d	0.043755878
1	0xbecbe909	-0.3982623
2	0x3c8a4bf0	0.016881913
3	0xbde2eb25	-0.110800065
4	0x3dbaceb9	0.091214605
5	0x3d3b273d	0.045691717
6	0x3d5adab5	0.05343123
7	0xbea9350e	-0.3304829
8	0x3d6ece66	0.058302306
9	0x3e0b3fd6	0.1359857
10	0x3d9e2cf8	0.07723421
11	0xbe10f5c0	-0.14156246
12	0x3e6de934	0.23233491
13	0x3db67614	0.0890924
14	0xbf57e1be	-0.8432883
15	0x3e2e81d7	0.17041717
16	0x3d65ce97	0.056105223
17	0xbdf3979c	-0.118941516
18	0x3ce68b28	0.028142527
19	0xbe0058dd	-0.12533899
20	0x3e64b91a	0.22336236
21	0xbd9ed03c	-0.07754561
22	0x3d801bdf	0.06255316
23	0xbe07857f	-0.13234518
24	0xbd568a24	-0.052377835
25	0xbfa2643e	-1.2686841
26	0xbd4248af	-0.047432598
27	0xbe45f4f6	-0.19331726
28	0xbe017e2a	-0.12645784
29	0xbea70f1b	-0.32628712
30	0xbf019484	-0.5061724
31	0x3d68bbfe	0.05681991
32	0x3de9d11d	0.11416838
33	0x3e06576e	0.1311929
34	0xbe266007	-0.16247569
35	0x3d0c6a1d	0.034280885
36	0xbeed9c68	-0.4640839
37	0xbd363953	-0.044488262
38	0xbe6cda5b	-0.23130171
39	0xbd8eb1bf	-0.06967496
40	0x3dea2170	0.11432159
41	0xbf0cfc58	-0.55072546
42	0xbd0f9c2c	-0.035061046
43	0xbe2076b2	-0.15670279
44	0x3e6542f9	0.2238883
45	0x3d9623a0	0.07331014
46	0xbe7db68c	-0.24776667
47	0x3d873f75	0.066039
48	0x3e04cf6d	0.12969752
49	0x3ca2dac2	0.019879702
50	0xbd0af8a0	-0.033928514
51	0xbe351227	-0.17682706
52	0x3b66a6ca	0.003519463
53	0xbec88808	-0.39166284
54	0xbd81b0dc	-0.063325614
55	0xbdf57a7e	-0.11986254
56	0xbdfe53a3	-0.12418296
57	0x3e7c99cc	0.24668044
58	0xbec71598	-0.38883662
59	0xbe829375	-0.25503126
60	0xbec2e865	-0.38067928
61	0xbe023bb4	-0.12718087
62	0xbf67ae33	-0.9050018
63	0x3cd13eff	0.025542734
64	0xbd466fe4	-0.04844655
65	0xbd155ed9	-0.036467407
66	0xbc805158	-0.015663788
67	0x3c7a7f76	0.015289178
68	0x3d1f7f12	0.038939543
69	0xbe049470	-0.1294725
70	0xbd72eee8	-0.05930987
71	0xbe973861	-0.295352
72	0xbe01cf07	-0.12676631
73	0xbdb47cc2	-0.08812858
74	0xbd0f0364	-0.034915343
75	0xbd80a347	-0.06281143
76	0x3e8f10f3	0.2794262
77	0xbe7dd740	-0.24789143
78	0xbdfb61a8	-0.12274486
79	0x3e8dd678	0.2770269
80	0xbd459c99	-0.048245046
81	0xbcf039a8	-0.029324368
82	0xbc86acca	-0.016439814
83	0x3cebcbc3	0.028783685
84	0x3d1de36a	0.038546957
85	0xbd0e27fc	-0.0347061
86	0x3dd76b74	0.10518542
87	0xbd17a94b	-0.037026685
88	0xbda5611d	-0.080751635
89	0x3de6ffe2	0.112792745
90	0x3c7d92dd	0.0154769095
91	0xbd3a3ec7	-0.045470025
92	0xbdf274d8	-0.118386924
93	0x3de34c32	0.110985175
94	0x3e027d7b	0.1274318
95	0xbc3b1763	-0.01141915
96	0x3e9f289b	0.31085667
97	0x3e323c9d	0.17405935
98	0x3c75515b	0.01497301
99	0xbc9182ce	-0.017762568
100	0xbd8a3608	-0.06748587
101	0xbd9c5c10	-0.07634747
102	0xbd7e9e00	-0.0621624
103	0x3db555d3	0.0885426
104	0xbd3be334	-0.045870975
105	0xbdb637b8	-0.08897346
106	0xbd2902f4	-0.041262582
107	0xbe04331f	-0.12910126
108	0xbf732fb2	-0.9499465
109	0x3bf05a02	0.0073349485
110	0x3da3d3e2	0.07999398
111	0xbd3d7d29	-0.04626194
112	0xbb6a8f3e	-0.0035790945
113	0xbd46863e	-0.048467867
114	0x3d37060a	0.044683494
115	0x3e2b756b	0.1674401
116	0x3dec69a5	0.115435876
117	0xbbc0104d	-0.005861318
118	0x3e180889	0.14847006
119	0xbd61ceb7	-0.05512878
120	0xbd35e600	-0.0444088
121	0x3e92bcac	0.2865957
122	0xbd80e937	-0.06294482
123	0xbdebcd4f	-0.11513769
124	0xbd53f772	-0.051749654
125	0xbd6b13ef	-0.057392057
126	0x3dd24419	0.10266895
127	0xbd10d3f7	-0.035358395
128	0x3caaa494	0.02083043
129	0xbe3a5772	-0.1819742
130	0x3cdcb588	0.02694203
131	0x3d904f64	0.070463926
132	0x3db49c05	0.08818821
133	0x3c71e864	0.014764879
134	0xbd9a1ba1	-0.07524801
135	0xbe42e07a	-0.19030944
136	0x3da7c3f9	0.08191676
137	0xbc8ce0d9	-0.01719706
138	0x3d3174e9	0.043324385
139	0x3da803b8	0.08203834
140	0xbf00b438	-0.5027499
141	0x3e161daa	0.14659753
142	0xbf80fe38	-1.0077581
143	0xbc358b82	-0.011080625
144	0x3d74e305	0.059786815
145	0xbaff4e80	-0.0019478351
146	0xbcfccd6b	-0.03085967
147	0xbdb13ec3	-0.08654549
148	0xbf49aefb	-0.78782624
149	0xbdaae891	-0.0834514
150	0x3d7f1655	0.062277157
151	0x3d627470	0.055286825
152	0xba8a7504	-0.0010563438
153	0xbf37f430	-0.71856976
154	0xbdd48c69	-0.103783436
155	0x3e886500	0.26639557
156	0xbe1501d4	-0.14551479
157	0xbee80ac7	-0.45320722
158	0xbeaa5b1a	-0.3327263
159	0xbda8bb79	-0.082388826
160	0x3e99c750	0.30034876
161	0x3e832cf3	0.2562023
162	0xbc21fc75	-0.009886851
163	0xbe1ad0cf	-0.15118717
164	0x3e8abb1e	0.27095884
165	0xbdb7f62a	-0.08982499
166	0xbf8dbdc3	-1.1073536
167	0xbeb2fdb6	-0.3495919
168	0x3d89aeb4	0.06722775
169	0xbe538714	-0.20656997
170	0x3de9b244	0.114109546
171	0xbeea2097	-0.4572799
172	0x3f20ae56	0.62766016
173	0xbd787df8	-0.06066701
174	0xbd64c0e7	-0.05584803
175	0xbdb5693d	-0.08857963
176	0x3e3e7090	0.18597627
177	0xbe177554	-0.14790851
178	0xbe2ce085	-0.16882522
179	0xbe2e3966	-0.17014083
180	0xbde3096e	-0.11085783
181	0xbeb56fed	-0.35436955
182	0x3ddacf82	0.1068411
183	0xbec4ab92	-0.38412148
184	0xbc1eac7d	-0.009684679
185	0x3c37c017	0.011215231
186	0xbea65476	-0.32486314
187	0xbe462ec3	-0.19353776
188	0xbdc7516e	-0.09732328
189	0x3d908ae0	0.07057738
190	0xbf0383d5	-0.51373035
191	0xbc9cb56b	-0.019129476
192	0x3cfd62ca	0.030930895
193	0x3e8f1c13	0.27951106
194	0x3dbea11a	0.093080714
195	0x3dfddf18	0.123960674
196	0x3d4b55b5	0.049642283
197	0x3dcb972c	0.09940943
198	0x3d902e9e	0.070401415
199	0xbdfee01b	-0.124450885
200	0xbe10388d	-0.14084072
201	0x3c5e5f2c	0.013572495
202	0xbd8c61b4	-0.06854573
203	0xbd14ba95	-0.03631075
204	0x3d7b6589	0.06137613
205	0xbe6139d3	-0.21994714
206	0x3e851d70	0.25999022
207	0x3c90a0ee	0.017654862
208	0x3c60c73b	0.013719375
209	0x3dbe05e2	0.09278466
210	0xbdc321f9	-0.09527964
211	0xbddcb2ef	-0.107763164
212	0xbe46d37d	-0.19416614
213	0xb91976f8	-0.00014635536
214	0xbca33935	-0.01992474
215	0x3d7bd41a	0.061481573
216	0xbda3d2b6	-0.07999174
217	0xbebedcf9	-0.37277964
218	0xbc5b78d0	-0.013395503
219	0x3df65d96	0.12029569
220	0x3c46e6f8	0.012140028
221	0x3e7b9a11	0.2457049
222	0xbe8fce3f	-0.2808704
223	0xbc208bf7	-0.009798995
224	0x3e71a3f0	0.23597693
225	0xbddfc005	-0.10925297
226	0x3dc274f9	0.09494967
227	0xbd556fe1	-0.05210865
228	0x3e892165	0.2678329
229	0xbe3ebddf	-0.18627118
230	0xbf0c64b2	-0.5484115
231	0x3d06add3	0.032880615
232	0x3cd6a0c8	0.026199713
233	0xbdf884d5	-0.12134711
234	0xbde00a1e	-0.1093943
235	0x3db4d795	0.088301815
236	0xbf604e45	-0.8761943
237	0x3c8624a0	0.016374886
238	0x3dee23eb	0.116279446
239	0x3dafa586	0.08576493
240	0xbeaadbb0	-0.33370733
241	0x3d485a89	0.048914466
242	0x3b06090b	0.0020452167
243	0x3c8849cb	0.01663675
244	0x3d0447bf	0.032294985
245	0xbdb5b354	-0.08872095
246	0x3dc50fab	0.09622129
247	0x3d5ce054	0.053924873
248	0x3cb19a88	0.021680132
249	0x3c8a7ef0	0.016906232
250	0xbd2089c2	-0.039193876
251	0xbe02322c	-0.12714452
252	0x3dbdb201	0.09262467
253	0xbd0e1664	-0.034689322
254	0xbebd571d	-0.36980525
255	0xbbdfa213	-0.0068247407

slot_head.bias f4 [12]
0	0x3cb02d3e	0.021505948
1	0x3e95a905	0.29230514
2	0x3da356ae	0.07975517
3	0xbe119f1a	-0.14220849
4	0xbdac0584	-0.083994895
5	0xbe34e69f	-0.176661
6	0x3e0202fe	0.12696454
7	0xbcf9de28	-0.03050144
8	0x3e7daa35	0.2477196
9	0x3e787051	0.24261595
10	0xbdcce0a5	-0.10003785
11	0xbda89c5b	-0.082329474

rotation_head.weight f4 [3, 64]
0	0x3dc1ce33	0.094631575
1	0x3df060e5	0.11737231
2	0xbc8d1a60	-0.01722449
3	0x3eb06512	0.3445211
4	0x3cb55bb7	0.02213846
5	0xbd5f4e64	-0.05451812
6	0xbc83ec36	-0.016103845
7	0xbd71a9a8	-0.058999687
8	0xbe05188f	-0.1299765
9	0x3db4151d	0.087930895
10	0x3ce7d94a	0.028301854
11	0x3d39daf4	0.045374826
12	0x3e448136	0.19189915
13	0xbe3b9cde	-0.18321559
14	0xbe3df973	-0.18552189
15	0x3e35a351	0.17738082
16	0xbc1c5c6a	-0.009543518
17	0x3d974c3a	0.07387586
18	0xbdbd4454	-0.09241548
19	0xbdf4bebf	-0.119504444
20	0x3e5bbbb1	0.21458317
21	0xbda3ba03	-0.07994463
22	0x3c4cd911	0.012502925
23	0x3df3a36f	0.11896407
24	0xbd112845	-0.035438795
25	0x3db31635	0.0874447
26	0xbdb9b897	-0.09068411
27	0x3d075f64	0.033049956
28	0x3e21495b	0.15750639
29	0x3ecae136	0.39624947
30	0x3e30ce32	0.17266157
31	0xbd9197ec	-0.07109055
32	0x3da7924e	0.08182202
33	0xbd7ef800	-0.06224823
34	0xbe09d17e	-0.13458821
35	0xbcb14f18	-0.02164416
36	0xbda41c6e	-0.08013235
37	0xbde0d650	-0.10978377
38	0xbf4d1894	-0.8011563
39	0x3d56eb2d	0.052470375
40	0xbd853aa0	-0.065053225
41	0xbaed44b4	-0.001810214
42	0xbd1a98c0	-0.03774333
43	0x3c0e576d	0.008687836
44	0xbde81a67	-0.11333161
45	0x3da1f803	0.079086326
46	0x3e2835fe	0.16426846
47	0xbaa5c935	-0.0012648465
48	0x3ded0087	0.11572366
49	0x3e1152d1	0.14191748
50	0x3cab2a01	0.020894052
51	0xbd7bd98d	-0.06148677
52	0xbda87b4c	-0.08226642
53	0xbe96f609	-0.29484585
54	0x3c8f6256	0.017502945
55	0xbe268a98	-0.16263807
56	0x3cfbec46	0.030752312
57	0x3eacd6ac	0.33757532
58	0x3f0c091e	0.5470141
59	0xbe25c84f	-0.16189693
60	0xbe1b941a	-0.15193215
61	0x3e1fcfbd	0.1560659
62	0xbd76f242	-0.06028963
63	0xbe0ec527	-0.13942395
64	0xbdb9563f	-0.09049653
65	0x3d647237	0.055772986
66	0xbd539674	-0.051657155
67	0xbec203cc	-0.37893522
68	0x3d8a5c7e	0.06755923
69	0x3d10d700	0.03536129
70	0x3d747f48	0.059691697
71	0x3e23230f	0.15931343
72	0xbd615bde	-0.055019252
73	0xbd608a75	-0.054819543
74	0x3d5b7640	0.05357957
75	0x3dd36d5a	0.103235915
76	0x3d04aaf9	0.032389615
77	0x3e4f6e76	0.20256981
78	0x3e60771f	0.21920441
79	0xbd32d754	-0.043662384
80	0x3e24b9ab	0.16086452
81	0x3d425a4c	0.047449395
82	0xbcb1ca56	-0.021702927
83	0xbc7ad818	-0.01531031
84	0xbde06c77	-0.10958188
85	0x3e039dfe	0.12853238
86	0x3e1b12a2	0.15143827
87	0x3ccddd97	0.025130076
88	0x3dea472c	0.11439356
89	0xbd7f407c	-0.062317356
90	0xbd18fbff	-0.037349697
91	0x3e04517d	0.1292171
92	0x3d3735bf	0.04472899
93	0xbe756913	-0.23965864
94	0xbd618992	-0.055062838
95	0x3d78885a	0.06067691
96	0x3e2ba1c8	0.16760933
97	0x3e77f53d	0.24214645
98	0x3e234bfd	0.15946956
99	0x3da26bb0	0.07930696
100	0x3e398de8	0.18120539
101	0x3d65b6ff	0.05608272
102	0x3f3bf9b4	0.7342789
103	0x3e0bff54	0.13671619
104	0x3c0b0ca0	0.008486897
105	0xbbf2386b	-0.0073919795
106	0x3d145ad4	0.036219433
107	0x3df7d38a	0.12100895
108	0x3bb85660	0.005625531
109	0x3d0aa577	0.033849206
110	0x3dba0c24	0.09084347
111	0xbcb326a4	-0.021869011
112	0x3d710bb5	0.058849055
113	0xbd8f87a7	-0.070082955
114	0x3de6ec3d	0.112755276
115	0x3e15e511	0.14638163
116	0x3c0cd053	0.00859459
117	0x3e914c59	0.2837856
118	0x3c7f4aca	0.015581796
119	0x3e96a69d	0.2942399
120	0xbd4bd56f	-0.049764093
121	0xbe97fcc7	-0.2968504
122	0xbed6fb83	-0.41988763
123	0x3e7f10dc	0.24908775
124	0x3e8693ec	0.2628473
125	0x3c6a8307	0.014313466
126	0x3cdd2dfb	0.026999464
127	0x3d4297f4	0.047508195
128	0xbd9aa710	-0.07551396
129	0xbe0c4092	-0.13696507
130	0x3d4112a4	0.047136918
131	0xbee1d125	-0.44104877
132	0x3d1e1559	0.038594577
133	0x3ba57386	0.005049172
134	0xbd5c6f16	-0.053816877
135	0xbe606774	-0.21914464
136	0x3d427326	0.047473095
137	0xbdcd1230	-0.100132346
138	0x3cbd4115	0.023102323
139	0xbd009477	-0.031391587
140	0xbde9f5ef	-0.11423861
141	0xbf398601	-0.724701
142	0xbda7931b	-0.08182355
143	0xbe84fdb3	-0.25974807
144	0xbd820d76	-0.06350224
145	0xbda3d43e	-0.07999466
146	0xbc7557b1	-0.014974521
147	0x3d1c9bdb	0.038234573
148	0xbe86362b	-0.26213202
149	0xbd2a3b03	-0.041560184
150	0x3d355748	0.04427269
151	0xbdb79d94	-0.089656025
152	0x3d0fb1f6	0.035081826
153	0xbf3cddde	-0.7377604
154	0x3aed2c9a	0.0018094957
155	0xbe9297b8	-0.28631377
156	0xbe455bc5	-0.19273289
157	0x3b64c83a	0.0034909383
158	0xbe4d130e	-0.200268
159	0xbb928206	-0.0044710664
160	0xbe3a6306	-0.18201837
161	0xbe76fcec	-0.2411992
162	0x3bd95d3b	0.0066334284
163	0xbda17704	-0.078840286
164	0xbe69ebd0	-0.22843862
165	0xbd20786c	-0.039177343
166	0x3c047ca1	0.0080863545
167	0xbe54c967	-0.20779954
168	0xbdc4c982	-0.09608747
169	0xbe57afc0	-0.21063137
170	0x3db4a77a	0.08821006
171	0xbe5830bc	-0.2111234
172	0xbf1eecf8	-0.62080336
173	0xbd4e4568	-0.05035916
174	0xbdac0b30	-0.08400571
175	0x3d5c61b5	0.05380412
176	0xbe82f74c	-0.25579298
177	0xbdcea5a0	-0.10090184
178	0xbd4d3273	-0.05009694
179	0xbe2ce114	-0.16882735
180	0x3d969a2d	0.073536254
181	0xbe6f2c2b	-0.23356692
182	0xbceb752b	-0.028742393
183	0xbd94dfeb	-0.072692715
184	0x3da26601	0.07929612
185	0xbebf35ce	-0.37345737
186	0xbe8a3993	-0.2699705
187	0xbdf2e5d8	-0.118602455
188	0xbe13d7f6	-0.14437851
189	0x3d5697dc	0.052390918
190	0xbe5cf325	-0.21577127
191	0x3d148a10	0.03626448

rotation_head.bias f4 [3]
0	0x3d14546d	0.036213327
1	0xbbfc2c8a	-0.007695739
2	0xbd87a696	-0.066235706
