outputs/trained_models/placement_model_20250802_061440.pth (torch, 79173 bytes, 10 tensors)

layer1.weight f4 [64, 15]
00000000: 270e c33c 2fac 63be f5e3 20be 235a 573e
00000010: ccae 4b3e 0942 59bf fc52 253f 2650 30be
00000020: f454 c3be 1fe3 33bf 3bf4 17bf 9bbb da3d
00000030: f9c6 71bc 2dfc 56be dcdb aa3e 59d6 4d3d
00000040: b727 26be ebf4 033f c0a1 87bf 4216 723f
00000050: 23c2 2e3f ed27 20bd 1bde 1ebf be98 5fbe
00000060: d676 223f d629 b2be 6603 4abd 470f 7fbe
00000070: 2eb7 e33d 6828 b9bb d854 0a3e 31ad f4be
00000080: 58fa 903e d827 f7be ee29 20be 41f2 54be
00000090: b43b f7be 9c39 1fbe e803 f8be 41e3 ae3e
000000a0: faff 8ebe 4bcd 9cbd f702 2d3d 8eca 6cbc
000000b0: 7220 31bd 91ac 81bf 87fc f7be 6c71 24bf
000000c0: 53cc 8cbe 0a58 ad3e 1fad 2fbf 6cd4 8bbd
000000d0: ab48 b9be 45f7 bd3e 898d ae3e 9514 acbb
000000e0: 9020 4a3e cc34 5c3e d977 903d bc5b 52bd
000000f0: 94fd 34be 2dd0 943e 2d3f dabe 1433 17bf
00000100: 50a1 dbbe e1a7 d63c 3b71 86be 7c08 a9be
00000110: 174f 633e bfe1 2a3f 97ee 18bf 5447 3ebe
00000120: 41de f83d 3d9e 6bba a4a6 543d 4fc2 f4be
00000130: 6705 053f 78db fc3e aba0 0bbe 4038 29be
00000140: d5cc c03e c4d1 13bf 3447 0bbf eca7 cabe
00000150: 6f79 30be 94ce 56bf 8326 6a3d 6f64 5e3e
00000160: 6177 163e f502 27be ca4c 69bf 69cf 55be
00000170: 3e38 bdbe 27fd 9b3d afbc 83be e169 823e
00000180: f311 2e3f d7bb 323d d43c 3cbf b61f 333f
00000190: 83ba 26be 198a d13d d7f9 b7be 878e 07bf
000001a0: b8dd 3b3e 3dcd 27be 3dc7 6fbf 718e 063f
000001b0: bdd6 1f3e c458 803e 82a2 b83e da6f 4e3e
000001c0: b3a5 823e 855a 0e3e d7dd 7dbe 5df8 2f3f
000001d0: 09f0 32be 80ff fe3d e613 46be d838 033e
000001e0: 4bf7 05bf 1ec5 963f fac7 8cbd 02e0 83be
000001f0: 88f7 fa3e 8352 21bf 019e aa3d c104 f8be
00000200: a44d a33e 306c d23e 7f43 abbf 15a2 5d3e
00000210: 1ac9 3d3e 0789 333e 7c0b 86be 4750 483e
00000220: 3f4e a0bd cd51 35be e93e 54bf 3381 36be
00000230: 8346 743f be17 1c3f 4abf 183f d3b5 1e3f
00000240: 6ab0 3fbe f003 b2bd 5c7e 9a3d 1f30 2d3d
00000250: 75a4 d43d 5756 ad3b 4247 f33e 2136 3ebf
00000260: 127d bb3e a1de 1dbe 8599 1fbf 054f 92bd
00000270: 28b5 8abe b8d8 98bf f6b9 99be c62e 283f
00000280: bd17 a6be 7464 753e cf13 c83e 7e17 0bbf
00000290: a922 8a3d cad4 cabe 183b 6b3d c420 a6bd
000002a0: 1347 a4be 31ef 66be f99c 85bf 1446 b63e
000002b0: d282 f63e 1ce5 41bf c00d d0bf 4add 33bf
000002c0: 5146 4f3e 039d 053b 90b6 0d3d 0b8b 0abe
000002d0: 18f6 533f e338 80bf 5d38 5bbd 66c5 1bbe
000002e0: 3698 d6bc 9181 13bf 1d3e 593e aaca c2be
000002f0: 6162 353f 1be5 9e3e 9c1a 6e3f 3669 063f
00000300: ef78 0b3e b0d8 d93d ed0b 7bbd c744 bf3d
00000310: 5ecd 12bf dbda 10be d770 67bf 5398 9cbe
00000320: 79b2 b73e b2db ebbe e869 d9bd 284d d7bf
00000330: a048 493f 1eb9 e3be 10a8 3dbe 8086 663e
00000340: 91ed 80be 420d 143e 6e31 503f 1e10 02be
00000350: 69a7 a93e 44fe 0fbe 2696 ed3e d1ba ec3d
00000360: 662e 943d 752c ad3e a8bc 5fbf 84ec 44bf
00000370: 34f5 cbbe ff78 8a3d 52e7 083e 6a38 653d
00000380: 848b c43d a465 cdbf fee7 503f 5f57 423e
00000390: fa3d b43e 5030 13bf abe5 d3bc ef35 54be
000003a0: 7c20 b13c 3fca cabe c283 90be 2055 79bf
000003b0: 6f61 4ebd 605e 0d3d 91bc cabc 2c78 343e
000003c0: 7171 11bf aae1 44be 2f57 87bd 0514 2a3e
000003d0: d27a 16bf eb1c 4dbf bdca adbe b16f 91be
000003e0: 7d76 ea3d d55b 013f 9154 6bbd 6749 fa3d
000003f0: 1aa9 e23c e027 c63d 42c8 df3d 918c d6be
0.02381046 -0.22233652 -0.15711959 0.21030478 0.19890898 -0.84866387 0.6457975 -0.17218074
-0.38150752 -0.70268434 -0.5935704 0.10680314 -0.014756911 -0.20994635 0.33370864 0.050253246
-0.16226088 0.5154559 -1.0596237 0.9456521 0.6826498 -0.039100576 -0.62057656 -0.2183561
0.6346258 -0.34797543 -0.049319647 -0.24908172 0.11118923 -0.0056505688 0.13508928 -0.47788385
0.28315997 -0.48272586 -0.15640995 -0.20795538 -0.48287737 -0.1554932 -0.4844048 0.34157756
-0.2792967 -0.07656344 0.042239156 -0.01445259 -0.043243833 -1.0130788 -0.4843485 -0.6423557
-0.27499637 0.3385623 -0.68623537 -0.06827626 -0.36188254 0.37102714 0.34092358 -0.005251477
0.19738984 0.21504515 0.07054109 -0.051357016 -0.17674857 0.29065076 -0.42626324 -0.59062314
-0.4289651 0.026203098 -0.26258263 -0.33014286 0.22198139 0.6675071 -0.5973906 -0.18581897
0.121517666 -0.0008988118 0.051916733 -0.47804496 0.5196137 0.4938619 -0.13635509 -0.16525364
0.37656274 -0.5774195 -0.5440552 -0.3958124 -0.17233823 -0.83908963 0.057165634 0.21718
0.14693977 -0.16309722 -0.91132796 -0.20879902 -0.36956972 0.07616644 -0.25729892 0.25471404
0.6799614 0.04363617 -0.73530316 0.6997026 -0.16282086 0.10231418 -0.359328 -0.52951854
0.18346298 -0.16386886 -0.9366339 0.525611 0.1560926 0.25067723 0.36061484 0.20159855
0.25517043 0.13901718 -0.24791656 0.6873835 -0.17474379 0.124510765 -0.19343528 0.12814653
-0.52330464 1.1778905 -0.0687408 -0.25756842 0.49016976 -0.6301653 0.08330918 -0.48441127
0.31895173 0.41098166 -1.3379973 0.2164386 0.18533745 0.1753274 -0.26180637 0.19561873
-0.07827424 -0.17706986 -0.82908493 -0.17822723 0.9542009 0.6097373 0.59666884 0.6199619
-0.1871964 -0.08692157 0.075436324 0.04228222 0.1038293 0.0052898335 0.47515303 -0.74301344
0.3661886 -0.15416957 -0.6234363 -0.07143978 -0.27091336 -1.1941137 -0.3002469 0.6569637
-0.32439986 0.23964101 0.39077613 -0.5433272 0.06744892 -0.3961547 0.057429403 -0.08111718
-0.32085475 -0.22552182 -1.0438529 0.3560034 0.48146683 -0.7574022 -1.6254196 -0.70259535
0.20241667 0.0020387776 0.034597933 -0.13529603 0.82797384 -1.001736 -0.05352055 -0.1521202
-0.026195627 -0.5761958 0.212151 -0.38045245 0.7085324 0.3103417 0.9300935 0.5250429
0.13620351 0.10637033 -0.06129067 0.0933929 -0.57344615 -0.14145987 -0.90406555 -0.30584964
0.3587835 -0.46066052 -0.10615903 -1.6820421 0.7862644 -0.4447717 -0.18521142 0.22512245
-0.2518125 0.14458182 0.81325424 -0.1270146 0.33135536 -0.14061838 0.46403617 0.1155907
0.07235412 0.3382298 -0.8739724 -0.76923394 -0.39835513 0.067613594 0.13369492 0.055962004
0.09596923 -1.6046643 0.8160399 0.18978642 0.35203534 -0.57495594 -0.02586635 -0.20723699
0.021621935 -0.39607427 -0.28225523 -0.97395515 -0.05038589 0.03451383 -0.024748119 0.17623967
-0.5681372 -0.19226709 -0.06608426 0.166092 -0.5878116 -0.8012225 -0.3394374 -0.28405526
0.11448381 0.5053075 -0.057453696 0.12221032 0.027668525 0.09675574 0.10926868 -0.4190412

layer1.bias f4 [64]
00000000: 55bb f03c efb6 063c 23ed 803e 6e41 413e
00000010: 6ffd 583e 1abf 323e ed40 e1bd dc05 aabd
00000020: 0b8f d4bd cc6b 023d c0f5 8abd 2e4a 633e
00000030: 0242 c6bd dda2 1bbd 3ca8 4d3e 78a2 463e
00000040: eea9 3a3e 254a 473e 9770 9f3e b5f5 2cbe
00000050: 83d1 70be 7ea5 0ebd 8ff8 893c d34b 20be
00000060: e1e8 67bc 8a3e 6c3e caca 32bd d6b8 f6bd
00000070: a639 40be 7178 2a3d c74d 923c aa7c 543e
00000080: 670f 19be 74fb 8f3d 5288 2dbc d632 c13c
00000090: 2da2 ce3d 4ac9 363e c607 833e 19af 11be
000000a0: fedc 5a3d 1cec d43d c19c a4bd a348 03bd
000000b0: a38b ebbd 1111 73be 1306 7b3c 5271 fcbc
000000c0: 6974 023e e941 9d3d 695c 40be ed3f bf3c
000000d0: 70f8 393e 6715 b63c 4a23 a4bd bfbb 303e
000000e0: d562 1b3e dd1e 6dbc 725b 88be 4e96 4f3e
000000f0: 3aeb 2e3e 7b28 2939 058d 653e 48cd 863c
0.029386202 0.008222326 0.2518092 0.18872616 0.21190427 0.17455712 -0.10998712 -0.08301899
-0.10378846 0.031841084 -0.06785154 0.22196266 -0.09680559 -0.037997115 0.20083708 0.19397914
0.18228886 0.19461878 0.31140587 -0.16890605 -0.23517422 -0.034825794 0.016842155 -0.15653925
-0.014154644 0.23070732 -0.043650426 -0.120469734 -0.18771991 0.041618768 0.017859353 0.2075068
-0.14947282 0.07030383 -0.010591583 0.02358381 0.10089526 0.17850223 0.25591868 -0.1422695
0.05343341 0.10396597 -0.08037711 -0.032051694 -0.11501243 -0.23736979 0.015321272 -0.030815754
0.1273972 0.07678587 -0.18785252 0.023345912 0.18161178 0.022227002 -0.08014543 0.1725912
0.1517442 -0.01447269 -0.26632267 0.2027218 0.1708192 0.00016132176 0.22417076 0.016455308

layer2.weight f4 [128, 64]
00000000: 0010 5cbc 9c65 04bd 533c b6bc c1f8 8fbd
00000010: 7e80 863d 45fe 5ebc 500e 9bbc 4b95 b03d
00000020: 4630 053d 29fe 01be 80d3 373c 3c4b 47bd
00000030: 989e a53d 641e 6b3d 167e 323c 69ab a0bd
00000040: 7571 39bb c065 82bd f86a ecbc 70d6 db3c
00000050: 5486 303d fa7e 8dbd 17b4 0b3d 5c98 383d
00000060: e850 953d 9c07 ba3c 9439 2cbd 1799 01bd
00000070: 460d bd3d 10ac cfbd 68fb 9f3c 2c42 0bbe
00000080: 1044 143d 2fca 1cbe 596a 08be 34c2 06be
00000090: 54a5 dd3d 6438 513d 24ed e1bd f002 8ebd
000000a0: f4df c0bd 0a48 98bd 0001 68bb 000a 45bc
000000b0: 405c 9bbb e053 f63c c093 bdbc 4081 c6bb
000000c0: a804 b6bd ead4 e5bd f237 ddbd 88fb ab3d
000000d0: 3607 d0bd 766f f53d 54bb ff3d eaa3 b73d
000000e0: 338e 9fbd 0003 073c bc86 61bd c43f 03be
000000f0: cd8e 27bd 34b4 4dbd 1665 cdbd 2eff 16be
00000100: aeba b2be b344 9ebf ffd7 cdbd 723f d7bd
00000110: d561 5f3e c98e 053e 5c43 463e 513f 81bd
00000120: 4d21 78bf 30ca 1d3e 619b b93e 7e3b 28be
00000130: 6f3c 5e3e 99ec 0abf 84c5 1e3e 3674 4e3e
00000140: c585 b63e e72f 8a3e 3f91 143f 9700 23be
00000150: c7cf 69bf 1133 d3be 94c4 82be b4c6 05bf
00000160: b574 0ebe 6217 28bc 8725 b23e 5ae7 3dbf
00000170: 70eb 973c c534 d43e c46e 953e f963 363d
00000180: fb55 3f3e 4c03 4c3e 50ea 2a3d 54ca 00be
00000190: da24 4f3e 749b 733e 7082 ef3e ea93 17bf
000001a0: 8cca 6bbe 6c9d 123e a3ce 163d 8014 dabe
000001b0: 65a0 05be 0006 7c3d 5d8a 0fbd 62d3 f4bd
000001c0: 480a 983d 91fb 3e3e 2f22 27be 4b55 bd3e
000001d0: fabc cd3e f53a 5d3d 8dde 6dbd c6da b03d
000001e0: f542 1dbc 41e3 a0bd f269 e43c 4bfb 41be
000001f0: bdfb e23e 7b90 56be ff2a dc3d 4aa9 283e
00000200: a637 50bd 6730 1e3e 0919 163d cd22 0fbe
00000210: ebb4 a6bc 52c3 893d d779 84bc 0286 6dbd
00000220: 3887 9abd bc54 f2bd 0b00 f1bd 12f5 53bd
00000230: 4d5f 44bc 1800 28be 6a75 9c3c e28e 3c3d
00000240: 3887 c3bb 96a8 2bbe 59c1 71bd 68af 87bd
00000250: 44f7 7fbd 08c7 9abd fc38 853c d796 f03c
00000260: 7a98 8a3d c50e a5bd 070a 0cbe 7c09 473d
00000270: e8a3 5f3d 85b7 9bba 5ec5 ea3b 55ad 2abd
00000280: 919c 663d 3e84 08be 6680 2dbe 0e52 14be
00000290: 56d1 96bd b3b1 403d a682 623d 0ee6 553b
000002a0: 7499 b7bd 52b6 a5bd 846b 39bd 98c3 eabd
000002b0: 1e47 603d b941 c3bd c149 4bbd 7542 9cbd
000002c0: d87c 95bd d4cc 04bd 7b84 e43d eaaf 20be
000002d0: 5d47 25be 10e8 823d 3afb 923c e7fc 8c3d
000002e0: 0b4c 463c 9419 6d3d 04e8 94bd 4bb1 e3bc
000002f0: cd1d 673d 603f bcbd 8ae0 97bb 4a3a 993d
00000300: c0b6 443e 8cab 62be 1ace 1f3e 54df 473e
00000310: 7f7d 17bd bb59 b33d 4a02 ef3d b75f 4ebd
00000320: 093e 54bf 9c3f 8abd ea33 803e fddd 6abd
00000330: e9dc 903e cf14 70be c6f3 c83e 43fe ae3e
00000340: cc81 abbd a1d8 063e 2766 d63c 17ff 823d
00000350: b584 b4bd df5b b5bc ede3 44bd ba46 31bf
00000360: 23e8 cfbd 0589 603e f1e7 26be b5d0 77be
00000370: ea49 c93d 5e6e bb3d 5b0d 393d 4807 273e
00000380: c70c d53c 8fea b63e fb59 7fbc 59cd 2e3d
00000390: 69a7 963e 8a15 8c3e c265 fabd 42fe d13c
000003a0: e035 ffbd 24c9 99bf 7786 c9be c0c1 70bd
000003b0: 4333 413e 0b8c 60bf 613d a13e f4ad 873d
000003c0: e351 bf3d ffca 22bf 5478 c1be 74b1 bebe
000003d0: 994b fd3e cded ffbe 2ccf 98be c1bc a53d
000003e0: 04c2 c23c 5052 acbf 0189 23bf 6bcf 923d
000003f0: 16be 833e c677 babe 5524 e83d b9d2 febd
-0.013431549 -0.032323465 -0.022245562 -0.07029868 0.06567477 -0.013610427 -0.018927723 0.086222254
0.03251674 -0.1269461 0.011219859 -0.048655733 0.0808689 0.05740203 0.010894319 -0.07845194
-0.0028296385 -0.063670635 -0.0288596 0.02683565 0.043096855 -0.069089845 0.034107294 0.045067176
0.07290822 0.022708707 -0.0420471 -0.03164014 0.09231047 -0.1014024 0.01952906 -0.13599461
0.036197722 -0.15311502 -0.13321818 -0.1316002 0.108225495 0.05107917 -0.11031559 -0.06934154
-0.09417716 -0.07435615 -0.0035400987 -0.01202631 -0.0047412217 0.030069292 -0.023141742 -0.0060578883
-0.08887607 -0.11222251 -0.10801686 0.08397585 -0.101576254 0.1198415 0.12486902 0.08966811
-0.07790794 0.008240461 -0.055060133 -0.12817293 -0.04090767 -0.050220683 -0.10029046 -0.14745781
-0.3490805 -1.2364715 -0.100509636 -0.10510148 0.21814664 0.1304275 0.19361633 -0.06310905
-0.9692581 0.1540916 0.36251357 -0.16428944 0.21702741 -0.5426727 0.15505034 0.20161518
0.35648933 0.26989672 0.5803413 -0.15918194 -0.9133267 -0.41249898 -0.25540602 -0.5225632
-0.13911708 -0.010259481 0.34794256 -0.7418114 0.018544883 0.4144651 0.2918607 0.044528935
0.18685143 0.19923133 0.041727364 -0.12577182 0.20228902 0.2378977 0.46779203 -0.59210074
-0.23026484 0.14317864 0.036818158 -0.42593765 -0.13049467 0.06152916 -0.035044063 -0.119543806
0.07423836 0.18650652 -0.16321634 0.36979136 0.4018324 0.054011304 -0.05807357 0.08635478
-0.009598483 -0.07855845 0.02788255 -0.18943517 0.44332686 -0.20953552 0.10750388 0.16470829
-0.05083432 0.15448152 0.03664497 -0.13978119 -0.02034994 0.067267075 -0.016171379 -0.057989128
-0.07545322 -0.11832568 -0.11767586 -0.05174739 -0.011985612 -0.16406286 0.019098956 0.0460347
-0.005967047 -0.16763529 -0.05902228 -0.06625253 -0.06249167 -0.075574934 0.016262524 0.029368801
0.06767364 -0.08059458 -0.136757 0.04859303 0.054599673 -0.0011880255 0.0071646413 -0.04166921
0.056301657 -0.13331696 -0.16943511 -0.14484426 -0.073641464 0.047044467 0.055300377 0.0032638344
-0.08964816 -0.080914155 -0.04526855 -0.11463088 0.054755323 -0.0953402 -0.049630884 -0.07629863
-0.07299203 -0.0324219 0.11158081 -0.15692106 -0.16140504 0.06391919 0.01794206 0.06884175
0.012103091 0.05788572 -0.07270816 -0.0277945 0.056424905 -0.09191775 -0.0046349214 0.07481821
0.19210339 -0.22135752 0.15605965 0.19518787 -0.036984917 0.08757349 0.116703585 -0.05038425
-0.8290716 -0.06750414 0.25039607 -0.05734061 0.2829354 -0.23445438 0.39248484 0.3417836
-0.08374366 0.13168575 0.026171757 0.06396311 -0.08814374 -0.022138534 -0.04806893 -0.69248545
-0.101516984 0.21927269 -0.16299416 -0.24200709 0.09828551 0.0915191 0.045178752 0.16311371
0.02600707 0.3572583 -0.015585418 0.042676304 0.294246 0.27360183 -0.1222644 0.025633935
-0.12461448 -1.2014508 -0.393604 -0.058778524 0.18867211 -0.8771369 0.3149214 0.06624976
0.093417905 -0.63591 -0.37787116 -0.3724476 0.4947174 -0.49986115 -0.2984556 0.080926426
0.023774154 -1.346262 -0.63880926 0.07168468 0.25730962 -0.36419505 0.11335055 -0.12442536

layer2.bias f4 [128]
00000000: 5c20 93bd 5d06 043e a0ae 27bd f07b 7e3e
00000010: 4339 eebd fd59 57bd 3687 2abd a0b6 f2bd
00000020: c66b 8cbd 9d98 823c 3470 683d aea8 133e
00000030: 2419 b43d abe7 d2bd 9811 3cbc 48a5 bcbc
00000040: 6fa9 853e 3187 933d b5b6 9abc f567 3abd
00000050: 4e86 8f3d 25eb 06be efeb 2abe 8ad1 223e
00000060: f675 2f3e e524 1dbd 873d 95bd 558a 283e
00000070: f683 823d 8470 b13c ad5a a53e 604d a8bd
00000080: db9d c43d 895c b03d 52bc b2bc 4214 2dbe
00000090: 38f7 e93d 3255 f13d a011 223e 5c46 4c3d
000000a0: a630 a13e 643f 163d 687d 103e 950a 493d
000000b0: 6abe 553e c24e 1c3e 56c0 10bd 52ef 3bbe
000000c0: 52e3 c3bd 1626 c0bd 87b4 e23d 8456 b43c
000000d0: 21bf 263e 1eef 333e b189 bb3e 440a 0d3c
000000e0: 9931 1ebe ad5c 8c3e 0d6a a03c b9ba 453e
000000f0: 80f3 b33c 81e2 96bd a34b 813c 4fe3 f9bd
00000100: d6c6 47bb e1ed eb3c 547a c43c b66c 2d3e
00000110: 4f17 b93d e029 adbc 612b 15be c05a 913c
00000120: 7068 72bd 81cd 16be 7016 65bd 8410 2e3c
00000130: 6aee 873e 93d5 943d 5a95 8cbe 8d8f 843d
00000140: ee93 08be 07f3 613e d7aa 5bbd c4ea 11bc
00000150: ab85 e9bc 2c50 ef3c 64bf c53d d735 013d
00000160: 0212 2e3e 1f89 2a3e 25fe 243e 208c 8a3d
00000170: 5d00 603e 4078 4bbe e8c9 fa3c 6adc 593e
00000180: 0957 18be 672d 30be 9dc0 c33d ccb8 303d
00000190: 6639 4e3e 47f7 093c 339a 21bd 7d0b b4bd
000001a0: 1ac6 0abe 0ee8 3fbd b28c 51bd baf3 a33d
000001b0: aade 9d3e a8c6 36be 37f9 453e ed0c 733d
000001c0: 6702 7d3d f2a5 c1bd fa1f 213e cb4f 95bd
000001d0: 87dd 003e 7196 39be f028 363d 7094 0e3d
000001e0: d126 093e 4dca db3d 7977 29be 6a49 5f3e
000001f0: a6ed 493d 6309 963e 2509 603e d47d 223e
-0.071839064 0.12893052 -0.04093802 0.24851966 -0.116320156 -0.052576054 -0.041632853 -0.11851239
-0.06856494 0.015941912 0.05674763 0.14419815 0.08793858 -0.102980934 -0.011478804 -0.023028031
0.2610583 0.0720352 -0.01888595 -0.045509297 0.070080385 -0.13175638 -0.16691564 0.15900245
0.17134842 -0.038365263 -0.07287126 0.1645902 0.06372826 0.021660097 0.32295743 -0.08217883
0.09600421 0.086114 -0.021818314 -0.16902259 0.11424106 0.11783828 0.15827036 0.049871787
0.31482428 0.036681548 0.14110339 0.049082357 0.20873418 0.15264419 -0.035339676 -0.18353012
-0.09564842 -0.09382264 0.11069589 0.02201391 0.16283847 0.17571685 0.36628488 0.008608405
-0.15448608 0.27414456 0.019581819 0.1930951 0.021966696 -0.07367421 0.015783137 -0.12201559
-0.0030483506 0.028799953 0.023984112 0.16936001 0.09037649 -0.021138132 -0.14567329 0.017743468
-0.05918163 -0.14726831 -0.0559296 0.010624055 0.26549083 0.072672985 -0.27457696 0.06472693
-0.1333768 0.22065364 -0.053629722 -0.00890607 -0.02850612 0.029213034 0.096556455 0.031545486
0.16999057 0.1665387 0.16112573 0.06765008 0.21875139 -0.1987009 0.030613855 0.21275488
-0.14876951 -0.1720482 0.095582224 0.043144986 0.20139083 0.008420772 -0.039453696 -0.08791254
-0.13552132 -0.046852164 -0.051159568 0.080054715 0.30833942 -0.17849219 0.19333349 0.0593385
0.06176987 -0.0945548 0.15734854 -0.0729061 0.12584506 -0.18123795 0.044472635 0.03480953
0.13393714 0.10731945 -0.16549481 0.21805349 0.049298905 0.29304036 0.21878488 0.15868312

layer3.weight f4 [64, 128]
00000000: fba5 2bbd fcc2 8b3e 300d b83d 6f05 283e
00000010: 5b78 0b3d 44bf 0fbf b5e2 533c cf9e 03bd
00000020: 9a32 eebd 0f97 6b3e a4c7 01be 0fee 033e
00000030: 3f74 a2bc fb3a c23d 3b2e 7f3e 0525 b8bd
00000040: eefc 903e 95d6 083e fcf2 d8bd fd6e 973d
00000050: 1ba3 db3e cc3f 7ebd 399e 153e 1c1f 51bd
00000060: 4a88 933e f061 a33c ed90 123c c2a2 933e
00000070: 7f1c b03e bada c73d c539 7cbe daf6 1b3d
00000080: 5ea1 4fbe f5f3 a7bd 67b4 813e 632e 0dbd
00000090: 795a b53e a57b 133e 0fff a8bc d009 733d
000000a0: 3463 e83c c1fe 0abf e715 f3bb fcfb a2bc
000000b0: a7ec b43e 86c0 db3c b574 143e bb43 9cbc
000000c0: cd7d 963b 7fcf 073d bff5 cd3e e91e 0d3d
000000d0: 0eb5 2cbe 3dda 283e c27a 8f3e 417a b73d
000000e0: e2e8 a43d 3a0b 853d 6cab 6fbe fe3f ed3c
000000f0: 41a2 61be b61f ad3e 753c 4dbe 6890 b1bc
00000100: fd78 0cbe 6802 3a3d 211a 01be 3b7a 12be
00000110: db46 033c 04c0 903d 98cf 9c3d e7d1 07bf
00000120: 0c0a 513c 12a6 14bc c06e 24be e8fe 5abe
00000130: 5bca 553e 1081 053e 8669 233d a00c bd3d
00000140: 040d 0d3d d6ef e43e 3450 21be f107 003f
00000150: 0aa4 c3be 78fb e6bd 5985 3abe 208c 04bc
00000160: 223c 503e e333 ae3d fab0 c2bd 06e2 b83d
00000170: c841 c63e 7c3e 123d 3c28 5d3e 570f 003f
00000180: f89a f1be 2518 3ebe 42e5 843e bc08 bd3d
00000190: 33d6 a9be c9d8 dbbe d56f b9ba f2e4 d3bc
000001a0: dbe6 ddbc 910a 3dbc f968 59bc d40b 5c3c
000001b0: f96e 903e 1fbf 043f 5316 be3d 8986 6e3d
000001c0: 0ef3 223f 9bc4 30bc 46fa ffbd 799c ca3d
000001d0: 86c7 a83e d540 1fbc a8ce b83c d014 863e
000001e0: 6fb8 463e eba0 053d e03b b1be e636 7e3c
000001f0: 8bd0 473e d9bc a33d a80b fb3d 9046 82be
00000200: 6b5f 52bd 557b c7bd 9e3f d3bc ac21 113f
00000210: d283 25bd 6ea4 9cbe 3d14 e63d 69a4 96be
00000220: cb03 09be 8f8c 1d3f 0001 6a3d b65f b23e
00000230: 5a6c 71be 7c12 efbd 0695 9cbd d392 3b3e
00000240: 29b2 be3e 8d35 da3e 7c49 183e 1985 513d
00000250: 48e7 ad3e 1109 babb 887e 263d 8f3d c8bc
00000260: 2eb2 103e dfe7 23bd cf31 d5bc 23d8 a03e
00000270: 371e 99be 3f19 8d3c 2c28 b83e ee1b 0f3d
00000280: 2120 cfbc 22d8 b63c 1330 1c3d d1db 9c3d
00000290: cea0 b63e 58c6 5d3c 7326 473e 1e15 4ebe
000002a0: 3fbf 063f 727d 623e 8cac 0e3e 6b64 f63a
000002b0: 411c 513e d405 863e b416 893d 1c69 fdbd
000002c0: 174f 1fbd 9c45 76bc 4025 2a3e e998 38be
000002d0: 40d2 0dbc 30e0 523e 2d09 ae3e 98a2 a8bc
000002e0: edf1 ba3c cdbd 363f fa26 a0bc ab67 c73d
000002f0: e28e 1cbc 8f81 81bd a3c5 b03c 35e1 2cbd
00000300: 0b22 5b3e b61a c93c 7963 be3c 0f94 083d
00000310: 73d4 ef3c a946 713d dfc3 093d c565 74bd
00000320: 273e ccbc c93f cdbc de9d 923d ea3a 8fbe
00000330: 72fe d83e 88bb 613e c315 ee3d 8075 253f
00000340: cbe2 cd3c d380 753e cbe2 fc3d a8dd 3c3d
00000350: 487e a93b 311c 0ebd 47b0 053e f2be bbbd
00000360: b4f3 24bd 8ad0 5abd 6595 553e 552e 9b3e
00000370: 4996 f33e 8725 f8bd 1458 9bba 8210 653e
00000380: c74e eb3e 3dc3 913d a541 033d 4271 c3bc
00000390: c5a8 d03e e408 01bc 14a4 e03c 4698 9b3c
000003a0: 2c77 00be 0796 dc3d 9030 353e ac82 fb3d
000003b0: 6661 2b3f 33fc 043f 8890 813e 5f22 573d
000003c0: 8851 9b3e d198 dc3c 1670 04bf 7f00 a03b
000003d0: b88c 133f b741 923b f802 61bd 2af0 523e
000003e0: bd87 e93d 9fef 5f3e c444 62bf 010f 1abe
000003f0: 0d98 3cbd a0b7 de3e e951 b13e 800f 87bd
-0.04190634 0.272972 0.0898689 0.16408323 0.034050327 -0.56151223 0.012932469 -0.032133874
-0.11630745 0.23006843 -0.12673813 0.12883781 -0.019830821 0.09483906 0.2491998 -0.08991436
0.2831797 0.13363107 -0.105932206 0.07394216 0.42897877 -0.06207256 0.14611138 -0.05105506
0.28814918 0.019944161 0.008945686 0.28835112 0.3439674 0.09758516 -0.24631412 0.038077213
-0.202764 -0.08200828 0.2533295 -0.034468066 0.35420588 0.14402635 -0.020629434 0.05933553
0.028367616 -0.54294974 -0.0074183824 -0.019895546 0.353368 0.0268252 0.14497645 -0.019075265
0.0045926333 0.033156868 0.40226552 0.034453306 -0.16865942 0.16489501 0.28023344 0.08958865
0.08052231 0.06496282 -0.23405236 0.028961178 -0.22034551 0.33813256 -0.20042594 -0.021675304
-0.13718028 0.04541245 -0.12607624 -0.1430444 0.008012499 0.07067874 0.07656783 -0.5305466
0.012758743 -0.009072797 -0.16057873 -0.21386302 0.20877974 0.13037515 0.039895557 0.09230924
0.03443624 0.4471423 -0.15753251 0.5001212 -0.3821109 -0.112784326 -0.1821493 -0.008090049
0.20335439 0.0850599 -0.09506412 0.090274855 0.38722062 0.03570412 0.2159738 0.50023407
-0.47188544 -0.18563898 0.2595616 0.092301816 -0.33171234 -0.4293883 -0.0014147708 -0.025866006
-0.02708762 -0.011538164 -0.013269656 0.013430554 0.28209665 0.5185413 0.09281602 0.05823377
0.6365212 -0.010789062 -0.12498908 0.09893126 0.32964724 -0.009720047 0.022559479 0.26187754
0.19406293 0.032624166 -0.34615993 0.0155160185 0.19513147 0.07995004 0.12258083 -0.2544446
-0.05136053 -0.097403206 -0.025787171 0.56692004 -0.040408917 -0.305942 0.11234329 -0.2942231
-0.13380353 0.615426 0.05712986 0.34838647 -0.23576489 -0.116734475 -0.076456115 0.18317728
0.372453 0.4261898 0.14871782 0.051152322 0.33965516 -0.0056773503 0.040648013 -0.024443416
0.1413047 -0.04001605 -0.026024727 0.314149 -0.29905865 0.017223952 0.3596815 0.034938745
-0.025283875 0.022319857 0.038131785 0.07659114 0.3566956 0.013536058 0.19448261 -0.20125243
0.5263557 0.22118166 0.13933009 0.0018798237 0.20420934 0.26176322 0.066937834 -0.12373564
-0.038893785 -0.015031245 0.16615772 -0.1802708 -0.008656085 0.20593333 0.33991376 -0.020585343
0.022820437 0.71383363 -0.019549835 0.0973657 -0.00955555 -0.063235395 0.021578616 -0.04220696
0.21399705 0.02454887 0.023240792 0.033344325 0.029276108 0.058905277 0.033634063 -0.059667367
-0.02493198 -0.02505483 0.07159017 -0.27974635 0.42381626 0.22044194 0.116252445 0.64632416
0.025132557 0.23974924 0.12347945 0.046109825 0.0051725246 -0.034694854 0.13055526 -0.09167279
-0.040271476 -0.053421535 0.2085777 0.30308786 0.47575596 -0.12116533 -0.0011851811 0.22369578
0.4595854 0.07117317 0.032045025 -0.023857716 0.4075376 -0.007875655 0.027421989 0.018993508
-0.1254546 0.10770803 0.17694306 0.12280783 0.66945493 0.51947325 0.2530558 0.052523013
0.3033564 0.026928337 -0.5173353 0.0048828716 0.57636595 0.0044634 -0.05493447 0.20599428
0.11402843 0.21868752 -0.8838618 -0.15044786 -0.046043444 0.4349947 0.34632805 -0.06594753

layer3.bias f4 [64]
00000000: 4c4a 0a3e dc3b b63d 4ce6 5f3d 3999 933d
00000010: 6f8b ddbd c7b3 e1bc 9489 bb3d e00c a4bc
00000020: 4875 293e a10a bbbd c0e5 503d f124 193e
00000030: 6edd 1dbd dd42 c8bc d4a9 0d3e bbcb 053e
00000040: 9ce7 b9bd 9c1f 53bd a430 563e 4185 943d
00000050: 1ed1 793e 0729 443d 5c32 be3d f1d1 a63d
00000060: 618f 483d 72fa fabd 88df 243e 2362 89bd
00000070: 905c 783d 98d1 debd 021d d93d c70c c7bd
00000080: 3e07 0c3e 4bfd b63c 9f9c c63b 91d4 833e
00000090: fa65 cfbd 2c3c cebc f442 a63d 2cdf 0a3d
000000a0: 13dd 723d a634 353d 3d0f 18bd e1a0 e13c
000000b0: c269 ae3d 16c4 273c 6537 6bbd 0808 d8bd
000000c0: 1d9e 0bbe 2939 fcbc 91b1 d9bd 49aa bc3d
000000d0: 4ace 88bc ef02 653d 5b8a a33b ccbc dfbd
000000e0: 066b 803d df94 803c 1d68 1ebd 2f51 01bd
000000f0: ec2d c63c 6bb2 03bd 0e55 6a3d ba88 423e
0.13504905 0.08898136 0.054662988 0.07206959 -0.108176105 -0.027551545 0.091571 -0.02002567
0.16548645 -0.09132887 0.051000357 0.14955498 -0.03854125 -0.024445945 0.13834316 0.13065998
-0.09077379 -0.051543817 0.20916992 0.07251979 0.24396178 0.04789069 0.09286949 0.08145512
0.04896486 -0.122548 0.16100895 -0.06708171 0.06063515 -0.108798206 0.10601236 -0.09719234
0.13674638 0.022337576 0.006061151 0.25748113 -0.10126872 -0.025175177 0.08118239 0.03390424
0.059292864 0.044239663 -0.037123907 0.027542533 0.085162655 0.010239622 -0.057425875 -0.10548407
-0.13634534 -0.030788975 -0.10629571 0.09212167 -0.016699929 0.055911 0.0049908585 -0.10924682
0.06270413 0.015695987 -0.03867351 -0.031571563 0.02419182 -0.032152575 0.05721002 0.1899747

slot_head.weight f4 [13, 64]
00000000: cff2 513e f04b cebe 0885 33bf 7ab1 b03e
00000010: bc87 5dbd 6317 38be fc66 a33d 1a87 92bd
00000020: a3b0 153e d8fe 2abc 74ba 993d 1220 c9be
00000030: 9b20 1a3d c3ab 663d 2dfc 5b3e 8a53 6bbf
00000040: 06b8 0ebe 75a3 54be 3eac 3f3e 8e79 1d3f
00000050: f80a d0be 16c5 57bd b8d7 9bbd 9b5e 9a3e
00000060: d435 513d 13b9 0cbe f2e5 45bf e685 403d
00000070: 62f6 66be 520c 8cbc f774 dabe a479 aa3c
00000080: 4d9d c3bd b21d 303d 6305 d93e 279f c63d
00000090: 1575 1cbd c553 96bd a746 3cbf d0a5 1f3d
000000a0: a72d 10bb 565e 7abe 9354 3fbd 209f e8bd
000000b0: e96f 8c3e 8f43 033f 8ff0 bdbc 0553 02be
000000c0: 4e9e 15be c1a5 5fbe 26c6 09bf 7b2c 9b3c
000000d0: 08cd c1bd 8111 9c3e 4829 8e3c 7d29 bcbc
000000e0: e6f9 98bf d519 46bf 7b82 c7bd 6539 1f3d
000000f0: 017a 613c d6fb f2bc 9a7e b03d 1be3 8dbe
00000100: 7579 1bbe 3984 3d3e bf5d 5d3e 5209 0c3e
00000110: 24e2 01be 748f 60be d693 b13e ec9d 573b
00000120: 7626 aabe fb4d 33be 9096 353d 9360 b2be
00000130: b400 75bc d21e 8c3d d1c2 7bbe d113 ee3e
00000140: 726e ddbc e261 39bd e5e3 8a3e b377 9e3e
00000150: 704a 77be 2b66 c83d a442 8f3e 67f3 193e
00000160: 5c67 f53d 6941 92bd 2f75 41bc 8531 0b3c
00000170: a65a 9c3d f8af ecbd 0077 a4bc e144 d6bd
00000180: 8edc b03d 3a26 7cbd b9a7 dabd d7c3 a7bd
00000190: 0855 933d d19f 803d 8f20 07bf 3276 6d3d
000001a0: 399d 9a3e 1114 5c3d b9eb 8a3d 1640 d43a
000001b0: 3217 e5bd 6bb4 053f 1377 d0bd 578c bfbd
000001c0: c7f4 943b 5e8c 92bd ce8f ef3d 58a9 51be
000001d0: 7d02 833d 3d6c ff3d 0e88 54bc 8269 833d
000001e0: 38a3 bebe 71ab 42bf 2caa 62bd 207d 0cbe
000001f0: 3a04 13bb 69c5 ae3d 4061 9abd 278f 93be
00000200: 3edb db3d f31d dcbe 7c3b 04bf 0bda 9abe
00000210: ebb5 01bd d14a 943c e959 f6be 7f75 7c3d
00000220: 83be 4c3f 7619 92bd 4c34 0bbf d3c2 033f
00000230: 1d93 d0bd 075e 243d fc7f 0fbf 563f a6bd
00000240: aa25 873c 190d 82be add8 fb3c e602 bf3e
00000250: 7791 8e3e f1dc 973d 8edd 0bbe 941f 36bf
00000260: 8948 13bd a544 3dbd dc9b 64be 1688 993d
00000270: aebd f1be f47a bf3d 104f 723d 06ee 13be
00000280: 5eea 7bbf d9fc 9cbd 8977 56bf fae1 bc3e
00000290: 741a 10bc e0ed a2bb b196 2f3e 63e5 e93c
000002a0: e413 5e3d f6b7 063e 7314 a43d dd5a 94bc
000002b0: 5cbd bcbe 0bb5 673e 3820 35bd f852 afbd
000002c0: dceb 623d 224e 26bd f298 96bf 1b86 21bf
000002d0: c821 a03c d4c0 dcbe f2b9 a7bc 4afa 75bc
000002e0: bed8 043f 3802 07bf e5a5 aabd 72c0 853c
000002f0: 8bb7 f53c 4110 82bc 6ad2 1f3d 4633 d03d
00000300: a64b 9e3e 3963 ef3d 07bc c1be bfc0 563e
00000310: 3f94 20bd 3d6f 813e 4cac eb3d ff45 aa3d
00000320: 1ef2 2d3e 04b8 97bd d466 8a3e 9073 31bf
00000330: c913 3bbc 34b6 173e 74c1 09c0 6269 22be
00000340: 7669 483d c524 b1be b755 d4bd c6c0 d9bd
00000350: 4e38 913e e676 eb3d 86c1 3ebe 9199 8ebe
00000360: a9ba e83c 4b00 1e3d fc0f 3a3e b405 863c
00000370: e813 1cbd d40b 96bd de4c 063f d992 14bd
00000380: cf5b 963d 5c6e 913c e3c6 843e 125c b5be
00000390: d634 9cbd 2452 2fbc b36f 543d c36e 99bc
000003a0: 9d63 ff3d 8992 debc 8bf5 4abd f76d 153e
000003b0: a9fb 883e a175 31bd 4776 d83d 3b6a 9abd
000003c0: 09d3 58bd 7af8 01be 6421 163e 2daa 953e
000003d0: e347 9e3d 4491 313e 39e1 c5bd 3cdc 363d
000003e0: 9670 4fbd 03b5 7fbf f284 df3d 0779 bf3d
000003f0: d977 a13d cc0e 583c 6e3e 8fbd 0cde 8e3e
0.2050278 -0.4029231 -0.70124865 0.34510404 -0.054084525 -0.17977671 0.07978627 -0.07154675
0.14618163 -0.010436736 0.07506266 -0.3928228 0.03762875 0.05631615 0.21482916 -0.91924345
-0.13937387 -0.20765479 0.18718049 0.615136 -0.40633368 -0.05267819 -0.076095045 0.30150303
0.051076725 -0.13742475 -0.77303994 0.047002696 -0.22554925 -0.017095719 -0.42667362 0.020809956
-0.09551487 0.04299707 0.42386922 0.09698325 -0.038197596 -0.073401965 -0.73545307 0.03897649
-0.0021999867 -0.24450049 -0.046711516 -0.11358476 0.2742913 0.5127496 -0.023185996 -0.12726982
-0.1461117 -0.21840574 -0.53817976 0.018942108 -0.09462935 0.30482104 0.017353669 -0.022969002
-1.1951263 -0.77383167 -0.09741684 0.038873095 0.013761998 -0.0296611 0.08617897 -0.2771233
-0.15183051 0.1850747 0.21617793 0.1367543 -0.12683922 -0.21929723 0.34683102 0.0032900525
-0.33232468 -0.17510216 0.04433304 -0.34839305 -0.014953781 0.06841816 -0.24586035 0.46499494
-0.027030203 -0.045259364 0.27126995 0.30950698 -0.2414949 0.09785112 0.2798053 0.15034257
0.11982605 -0.07141382 -0.011807724 0.008495693 0.07634477 -0.11557001 -0.020076275 -0.10462356
0.086358175 -0.061559893 -0.10676522 -0.0819165 0.07193953 0.062804826 -0.52784055 0.057974048
0.30198076 0.053730074 0.06783242 0.0016193416 -0.11186065 0.5222842 -0.101789616 -0.093529396
0.0045457813 -0.07155679 0.116973504 -0.20474756 0.06396959 0.12471817 -0.012971891 0.064166084
-0.372339 -0.7604285 -0.05533807 -0.13719606 -0.002243294 0.08533747 -0.0753808 -0.28820154
0.107351765 -0.429916 -0.51653266 -0.3024448 -0.03166763 0.018102081 -0.4811547 0.06163549
0.799782 -0.071337625 -0.54376674 0.51469153 -0.1018431 0.040128734 -0.56054664 -0.08117549
0.016497452 -0.25400618 0.030742968 0.373069 0.27845356 0.07415188 -0.13658735 -0.71141934
-0.035957847 -0.046208043 -0.2232508 0.074966595 -0.47215027 0.09349623 0.05915743 -0.14446267
-0.9840449 -0.07665414 -0.83776146 0.36891156 -0.008795369 -0.0049722046 0.17147328 0.028551763
0.054218188 0.13156113 0.08011713 -0.018109733 -0.3686322 0.22627656 -0.04422018 -0.08560747
0.055400714 -0.040601857 -1.1765425 -0.63095254 0.019547358 -0.43115866 -0.020474408 -0.015013287
0.5189322 -0.5273776 -0.08332423 0.016327117 0.029994747 -0.015876891 0.039019026 0.1016603
0.3091709 0.11688847 -0.37838766 0.20971964 -0.03920388 0.2528018 0.115074724 0.08314132
0.16986892 -0.07408145 0.27031577 -0.6931696 -0.011418291 0.14815599 -2.1524324 -0.15860513
0.0489287 -0.34598365 -0.10367911 -0.10632472 0.2836327 0.114972875 -0.18628511 -0.27851537
0.028409319 0.0385745 0.1817016 0.016360141 -0.03810492 -0.07326475 0.5246104 -0.036272857
0.0734173 0.017752819 0.2593299 -0.35421807 -0.07627265 -0.010700736 0.051864337 -0.018729573
0.124701716 -0.027169483 -0.049550574 0.1459273 0.267545 -0.04332507 0.105694346 -0.07539793
-0.052935634 -0.12692443 0.14661175 0.29231396 0.07728555 0.1734057 -0.096620984 0.044643626
-0.05064448 -0.99885577 0.10914029 0.09349256 0.07884187 0.013187122 -0.069943294 0.27903783

slot_head.bias f4 [13]
00000000: 5097 8e3e 4f7e b3bd 90c1 bf3d 1028 7f3d
00000010: b762 8d3e 3450 4cbd 937d 4bbe 7e2e 56be
00000020: e522 a3bd c542 3dbd b7ff 553d 7367 6ebe
00000030: 14ff b6bd
0.27849817 -0.08764326 0.09363091 0.062294066 0.27614376 -0.049881175 -0.19872122 -0.20916173
-0.0796564 -0.046206255 0.05224582 -0.2328165 -0.08935371

rotation_head.weight f4 [3, 64]
00000000: 0666 ee3d 66b7 a43e 7a11 aebd b0e4 2a3c
00000010: 0f80 d7bc f149 d43d 62e9 7d3e afb8 4ebd
00000020: 0c9e 0c3f bce3 21bd ca5d 65bc 4754 a33b
00000030: a029 523d a041 87bd c574 2ebe e835 4bbe
00000040: 0ffd b8bd 7374 6c3e e250 233e 8e63 d43e
00000050: 8216 5e3d f107 93bd 8d79 39bd b587 783d
00000060: b2a4 023d 28d0 bd3d 696c da3d f349 813d
00000070: 0c80 32be 8a0d f6bc 37cd aa3d 28f0 76bd
00000080: 1be3 3bbe a898 053d 971a 143d 9bd2 5d3d
00000090: cbe1 b8bd 73a6 22bd a0c2 28bf 042a a1bd
000000a0: fe09 fc3e c295 d83e 90ae 47bd 5bd4 23bc
000000b0: f7ac c23d 28d1 a2be ae8e 183e 8efb 8a3d
000000c0: 8414 7d3d 01f9 ed3c b4f4 be3e 0626 4a3e
000000d0: 0668 793d cc4a 893d 11e9 5a3d ca63 4e3d
000000e0: f9b7 aa3d a8ee b83c 3b37 babd 5c56 ccbb
000000f0: f345 73bd 5b11 4abd 7b57 9cbd ff18 38be
00000100: 960a 4b3d f0a4 4cbe aaf3 003e 464d 703d
00000110: 4c9f 9cbc f9b1 bc3d 6467 b0bd ebcc bb3d
00000120: 152f 17bf bfa8 a83c 70ed d63d 534f 5b3e
00000130: 28ae 98bd fda5 c5bd 14e0 133d 4b1b c63d
00000140: 3b51 e3bc 0eb5 d0bd 03e1 623d 2049 e0be
00000150: 65a5 8bbc c19c 08be 2251 f93d b69d f23d
00000160: 451b 3ebc b188 fcbb dc9d 77bd 1361 a6bc
00000170: dc0c 2c3e 918f 2cbd b226 263d ea39 a4bd
00000180: 8834 a53e 251f 71bd 3579 983d 2f79 1dbd
00000190: 98e3 1f3d 0842 bb3c 0e48 2f3f 95f1 d3bd
000001a0: a247 06bf 0472 94be fa5d e13d ec0a 24bd
000001b0: 4578 4b3d 967c 6a3e 4ebe e5bc e79f 453d
000001c0: c752 50b8 a508 77bc 8950 c7be 6a00 91be
000001d0: 6ab2 2dbb 0fab b7bd a78b 0fbd cc91 5b3d
000001e0: c9d4 ef3d 661d 323e 1264 9abd efa8 57bd
000001f0: d803 d3bc 0da3 aabc 2384 a6bd 4921 853e
00000200: 61fb 6dbe 7948 42be 6840 c4be 8780 65be
00000210: 1530 cb3b 977c ccbc 7a26 a9bc 6fb6 8e3d
00000220: ca9b f0be 3373 b03d 9e0d 4bbe 887b 1dbe
00000230: 3736 8f3d d191 36bd 6832 bdbe 97ac 8dbe
00000240: ba20 b5bd 156f 91be 86bc 8cbe e793 92bd
00000250: fc49 aebe 3360 adbc 20bc 91be b9ed 5dbe
00000260: 353a 0f3d 4e46 02be 37f7 93be 8b95 9c3d
00000270: cbf2 87be d17b 85bd 95a5 96be 4df7 ec3c
00000280: 2391 15bf e563 9dbc 0370 aebe a397 6fbe
00000290: 7636 6fbd b121 1d3d fb5f 19bf 256a 0bbe
000002a0: dbf1 54be 739d c6bd 54a8 b43d a228 a43d
000002b0: 4340 d9bd 0fb5 853d df09 2c3d c5f4 d2bd
000002c0: 9db0 0abc e7b0 903d 0cfe 9dbe 305a 72be
000002d0: 440a 00be 7182 34be 1f95 b03d 6f66 a23d
000002e0: 04e8 f4be 986f bcbe fd2b 2d3c 4a51 b23d
000002f0: a851 ccbd 7714 f1bd b059 6fbd ed5c afbe
0.11640553 0.32171172 -0.08499427 0.0104305 -0.02630618 0.10365666 0.2479606 -0.050469097
0.5492866 -0.039523825 -0.013999412 0.004984412 0.051309228 -0.06604314 -0.17036732 -0.19844782
-0.09032642 0.23091297 0.15948823 0.41482204 0.054220684 -0.07179249 -0.045281935 0.060676295
0.031895347 0.09268218 0.10665209 0.06312933 -0.17431659 -0.030035753 0.08339923 -0.060287625
-0.18348353 0.032616287 0.03615817 0.054155927 -0.090274416 -0.03970952 -0.65921974 -0.07869342
0.49226373 0.42301756 -0.04875046 -0.00999936 0.09505647 -0.318002 0.14898178 0.067862615
0.061787143 0.029049398 0.3729607 0.19741067 0.06089022 0.067037195 0.053444926 0.050388135
0.08335871 0.022574738 -0.090925656 -0.006235881 -0.05939288 -0.049332958 -0.07633873 -0.17978285
0.049570642 -0.19984794 0.1259295 0.058667444 -0.019118927 0.09213633 -0.0861347 0.091699444
-0.59056216 0.020588277 0.10494506 0.21416979 -0.07455093 -0.096508004 0.03610237 0.096731745
-0.027748695 -0.101907834 0.05539037 -0.4380579 -0.01704664 -0.13341047 0.12173678 0.11846487
-0.011603181 -0.0077067246 -0.06045328 -0.02030996 0.1680178 -0.042129103 0.040564246 -0.08018859
0.3226664 -0.058867592 0.074449934 -0.038445648 0.03903541 0.022858635 0.6846932 -0.103488125
-0.52453053 -0.28993237 0.11004253 -0.04004948 0.049675245 0.22899088 -0.028044846 0.048248198
-4.9668157e-05 -0.015077745 -0.3892863 -0.28320628 -0.0026504048 -0.08968174 -0.035045292 0.05360584
0.117105074 0.17394027 -0.07538618 -0.052651342 -0.025758669 -0.020829702 -0.08130672 0.26001957
-0.23240425 -0.18972959 -0.38330388 -0.2241231 0.0062008 -0.024961753 -0.02064823 0.0696839
-0.46993858 0.086157225 -0.19829413 -0.15379155 0.069927625 -0.044572655 -0.3695252 -0.27670738
-0.08844133 -0.2840506 -0.27487582 -0.071571164 -0.3404082 -0.021164035 -0.2846384 -0.21672715
0.03496762 -0.12722132 -0.28899547 0.076457106 -0.26552424 -0.06517757 -0.29423204 0.028926516
-0.58424586 -0.019212672 -0.34069833 -0.23397689 -0.058401547 0.03836221 -0.5991208 -0.1361471
-0.20795386 -0.09698 0.088211685 0.080155626 -0.1060796 0.06528675 0.0420016 -0.10300592
-0.008464959 0.070649914 -0.30857885 -0.23667216 -0.12503916 -0.17627884 0.086221926 0.07929694
-0.47833264 -0.3680389 0.01056957 0.08706911 -0.09976512 -0.117714815 -0.058435142 -0.34250584

rotation_head.bias f4 [3]
00000000: 251d 19bd e14b 4f3e f834 f6bd
-0.03738131 0.2024379 -0.12021822
