outputs/trained_models/placement_model_20250802_072110.pth (torch, 314287 bytes, 12 tensors)

layer1.weight f4 [128, 15]
000000 71 9d 1c bf 54 15 96 bd ab 4e 75 3e 42 4c c1 be
       -0.61177737 -0.07328287 0.2395579 -0.37753493
000010 59 7a c4 bd c8 29 20 be 62 ea 26 bf ce 40 6d 3e
       -0.095936485 -0.15640938 -0.6520139 0.23169252
000020 ba d5 39 bf f2 46 72 3e 77 bb 6d 3e 59 dd c2 3c
       -0.72591746 0.23659876 0.23216043 0.023787187
000030 df 8b 03 3c 5e ea 65 3d 10 af 87 bc 6d a8 ed 3d
       0.008028953 0.056131713 -0.016562968 0.1160439
000040 df 16 81 3e b4 a8 fe be b3 e2 62 3e d5 5d 03 bf
       0.25212762 -0.49738085 0.22156791 -0.5131505
000050 55 34 ea bd d2 85 ed 3e 53 49 03 3e 7f 27 6e 3e
       -0.11435763 0.4639116 0.1282094 0.23257254
000060 8f 5b 12 be 80 32 ae 3d 89 c3 b8 bd e9 a5 b9 3d
       -0.1429274 0.08505726 -0.0902167 0.09064848
000070 d4 82 00 3e db f2 53 3c 55 c6 29 bf fd 33 65 3e
       0.12549907 0.012936319 -0.66318256 0.22383113
000080 ea 19 cc be 6c 11 db 3d e2 1d bc be 70 78 60 3e
       -0.3986352 0.10696682 -0.3674155 0.21920943
000090 22 66 da 3e 3f 69 a1 bd c3 4a 27 3e f8 0f 98 3d
       0.42656046 -0.07881402 0.16337113 0.07424921
0000a0 0c a2 e2 3d 74 cb 22 be f5 76 57 bd 27 f7 95 3d
       0.11066064 -0.15897924 -0.05260368 0.07322531
0000b0 fa bd 31 3c 2c 3f 12 be a1 1f 30 bd 2d 30 82 be
       0.010848517 -0.1428191 -0.042998914 -0.2542738
0000c0 4c 45 71 3e 61 ae e3 3e 16 76 ee bb 4d a4 4c 3e
       0.23561591 0.44468978 -0.0072772605 0.19984551
0000d0 0d 6f a1 3e 28 7a db 3e d0 d3 92 be c7 e2 9d 3d
       0.31530038 0.42866635 -0.28677225 0.0770927
0000e0 82 b3 4f be b0 ca 3d be e7 bb 29 be d5 ac 15 be
       -0.2028332 -0.1853435 -0.16575585 -0.14616711
0000f0 8b 33 b2 3d 28 57 09 bd 45 e1 86 be b3 68 b3 bd
       0.08701237 -0.033530384 -0.26343742 -0.08760204
000100 b1 09 c6 be 71 e6 ae 3e 0b b8 af 3e e5 a6 23 3e
       -0.3867927 0.34160188 0.343201 0.15981634
000110 2b f3 38 3e eb a1 f0 3e 1d 95 cb be be ea 04 be
       0.18061511 0.46998534 -0.39762202 -0.12980172
000120 c6 31 0a 3e ba 87 93 bd b4 0f 35 3e 4e cd 9d 3d
       0.1349555 -0.07203622 0.17681772 0.077051744
000130 84 45 9a bf ad 04 a7 3e 35 34 5d 3d 9e 95 08 3d
       -1.2052464 0.32620755 0.054004867 0.03334581
000140 ea 7e ac bd fb 51 0d 3e e4 45 bf 3b d2 4d a3 be
       -0.084226444 0.13800804 0.005837189 -0.3189531
000150 4f 77 b9 be f7 88 f8 bd 7c b2 3b bd 5b ad f8 bd
       -0.36223838 -0.12135499 -0.045824513 -0.1214244
000160 4f 04 aa bc 29 c1 5a bd 70 30 90 bd 5c ec 0a bf
       -0.020754008 -0.053406868 -0.07040489 -0.54266906
000170 c4 eb b0 be e7 5c 77 3e bc d4 88 3e 3e 30 b5 bd
       -0.34554875 0.24156533 0.26724803 -0.08847092
000180 bf 79 a3 be 4f 30 b9 be ef 50 03 3f 50 53 bb 3d
       -0.31928822 -0.3616967 0.5129537 0.0914675
000190 81 9e b0 3e 14 6d 49 3e 83 ab 3a be c7 6b cf 3d
       0.3449593 0.19670516 -0.18229489 0.10127979
0001a0 d2 18 35 bd 26 49 22 3e 87 90 e0 3e 02 3b 0d 3f
       -0.044213124 0.15848216 0.43860266 0.55168164
0001b0 e1 c9 30 3c 3e 09 60 be d0 43 12 3e 3c 0b 0a 3f
       0.010790319 -0.21878526 0.14283681 0.5392339
0001c0 a3 a2 0b 3e 5f c3 15 3e 3d f9 e2 3d 3a 3f e1 be
       0.1363626 0.1462531 0.11082695 -0.4399355
0001d0 22 43 22 bd 77 98 a7 be e5 09 aa bd f5 cd c1 bd
       -0.039614804 -0.3273351 -0.083026685 -0.09463111
0001e0 2a 6e 3b 3c 60 a3 12 3e 39 a5 df 3d 16 4f 75 bd
       0.011439839 0.14320135 0.109201856 -0.059889875
0001f0 5d 28 03 3d 9f 39 89 be 5a 0c 2b be cd 3c 1a bf
       0.032020915 -0.26801774 -0.1670393 -0.60249025
000200 50 a6 5f be 18 ce f6 bd 3d ef 93 bf 9a eb c9 bd
       -0.21840787 -0.12051028 -1.1557385 -0.098593906
000210 77 1a 98 bd d4 c4 13 be a9 df 77 bd 25 f6 06 bf
       -0.07426923 -0.14430553 -0.060516033 -0.52719337
000220 3b 07 b7 bd a1 97 49 3d 2b cd c0 3e 05 20 83 3e
       -0.08936926 0.04921687 0.3765653 0.25610366
000230 32 b6 41 3e 60 0f 29 bd 2e c8 6b 3e 7d 09 e5 bc
       0.18917158 -0.04127443 0.23025581 -0.027958626
000240 19 53 a0 bd 7e 40 dc bd 63 01 0f be 8e 58 55 bd
       -0.078283496 -0.107544884 -0.13965373 -0.052086405
000250 4f 95 45 bc 19 2b 44 be 85 f7 32 be f4 29 1c bf
       -0.012059524 -0.19157065 -0.17477234 -0.61001515
000260 fc 79 dc 3e d4 38 48 3e 9d 53 0b bf 00 75 98 bb
       0.43061817 0.19552928 -0.5442446 -0.0046526194
000270 07 81 0a bf cb c6 c2 be 4a 36 9b 3e df 59 ab be
       -0.5410313 -0.38042292 0.30314857 -0.33467004
000280 a7 91 34 be 8a 69 cf 3d 04 51 c5 bc 9d 23 ee bd
       -0.17633687 0.10127552 -0.024086483 -0.116278864
000290 93 f5 0f 3e b2 e3 97 3e 40 86 22 be 07 f5 f5 3d
       0.14058523 0.29665905 -0.15871525 0.12009626
0002a0 57 86 a6 3c 0f ba 7b 3e 89 93 2d 3d cb 0f 9a 3e
       0.02032773 0.24582694 0.04237703 0.30090174
0002b0 5a 1f 9c 3e 7b 73 f3 3e 91 d1 b8 bd a6 c0 0d 3e
       0.3049267 0.47549042 -0.090243466 0.13843021
0002c0 76 21 ba 3c 54 ca 01 3d d1 9e 81 3d e8 48 b3 bd
       0.022721034 0.031687096 0.0632912 -0.0875414
0002d0 b0 1d 1b bf 15 9e 20 bf 74 24 66 bd 41 92 92 bb
       -0.60592175 -0.62741214 -0.05618711 -0.004473001
0002e0 08 57 ca bd 5e b4 68 bd 72 d3 1e bf ef 03 25 3e
       -0.09879881 -0.056812637 -0.6204139 0.16114782
0002f0 f5 ca 4f 3e 83 17 4d 3e 3e c3 a9 3e cc a5 61 3d
       0.20292266 0.200285 0.3315677 0.055089757
000300 38 d4 83 bd c9 5e 2c bd b0 a6 3f bc 46 78 3d 3d
       -0.06436962 -0.04208258 -0.011697456 0.04625728
000310 74 31 70 bd bf 2d f9 3d e0 53 7c 3d 3b bd 09 be
       -0.058640912 0.121669285 0.061603427 -0.13451092
000320 06 43 dc 3c b5 4e 62 be 5c 6e c3 3c d0 60 4d 3d
       0.026887428 -0.22100337 0.023856334 0.050141156
000330 01 48 0a be 13 ab 2d bd c0 14 66 bd 92 cc 8d 3c
       -0.1350403 -0.042399477 -0.056172132 0.01730946
000340 de b8 d7 3b 98 95 c0 3c e1 06 10 bf 42 bf 15 3e
       0.006583317 0.023508832 -0.56260496 0.1462374
000350 61 ff 09 3d 13 6c bd bc 3e c5 ae be 23 d3 a1 be
       0.033690814 -0.023122823 -0.3413486 -0.31606397
000360 89 a8 28 bf d6 05 b8 be 16 ed a2 3d a4 4d 0b be
       -0.65882164 -0.35941952 0.07955377 -0.13603836
000370 b6 e4 1e bf a4 cb bd 3d df 18 37 3d c7 ef aa 3d
       -0.62067735 0.09267357 0.044701453 0.08346515
000380 89 fb 97 3d 81 18 d4 3e a4 7e ab 3e 77 d3 8d 3e
       0.074210234 0.41424945 0.33495057 0.27700397
000390 fa fe d5 be d5 fd 0d 3e 1e 86 ab bc b2 8a 7b 3d
       -0.41796094 0.1386636 -0.020937975 0.061411567
0003a0 61 23 cf 3e 2c 62 5a be 52 07 cf 3e b3 6f 01 bf
       0.4045668 -0.21326512 0.40435272 -0.50561064
0003b0 d4 b3 d1 bc da 6c d6 bd 53 92 01 be 8d 9b db bb
       -0.025598444 -0.104699805 -0.12653475 -0.0067018927
0003c0 ac bf 8d bd 4c 73 a3 be c2 d5 05 3e 15 45 9b 3e
       -0.06921324 -0.31923902 0.13069823 0.30326143
0003d0 cc 7a 37 bc ca 59 06 3f c5 3c f0 3e 69 b3 8c be
       -0.011198711 0.5248076 0.46921363 -0.2748063
0003e0 32 e4 e8 3d e2 22 20 be 38 bc 49 3e 38 51 b1 be
       0.1137165 -0.15638307 0.19700706 -0.34632277
0003f0 c9 d6 79 be fa 71 9f 3d fc 9f 1b 3e b1 c4 82 be
       -0.2439834 0.07785411 0.15197748 -0.2554069

layer1.bias f4 [128]
000000 9e 96 57 3c a7 a7 08 be 98 a8 71 bd 88 e4 77 3d
       0.0131584685 -0.13345204 -0.058998674 0.06052068
000010 57 4f 78 be 58 21 87 3d 73 47 eb bd 9c 03 94 bd
       -0.24249016 0.06598157 -0.11488237 -0.07227251
000020 20 32 10 3e 39 e6 19 3d 40 dd 04 be 4f f1 18 be
       0.14081621 0.037573073 -0.12975025 -0.14935802
000030 86 bb 4f 3d 86 4b 67 be 3f c3 9b 3c eb 4a a5 bd
       0.050715946 -0.22587404 0.019013999 -0.0807093
000040 44 5d 89 be 91 1c 54 3d 77 83 c0 3d c2 68 7e be
       -0.2682897 0.051785056 0.09400075 -0.2484465
000050 57 c0 ac bd bc da 5b be 65 7e 4c be c9 41 4b be
       -0.084351234 -0.2147016 -0.1997009 -0.19849314
000060 91 cb 1f be 15 9e 0d bd 75 d8 d8 3d 8e cb 83 be
       -0.15604998 -0.034574587 0.10588161 -0.25741237
000070 d8 5c 2b be b6 6f 26 be b4 41 09 be 8d 67 29 3e
       -0.16734636 -0.16253552 -0.1340397 0.16543408
000080 c5 f2 15 be 99 58 b6 bd 38 89 f2 bc 75 4c 07 be
       -0.1464339 -0.089036174 -0.029606447 -0.1321276
000090 ca 26 4e bd 6b dc a6 3d bb 30 90 bd 9f d0 5d 3d
       -0.05032996 0.0814751 -0.070405446 0.054154035
0000a0 14 a2 7b bd b0 ea 18 be 97 35 e4 3d 76 c0 de bd
       -0.061433867 -0.14933276 0.11143034 -0.10876553
0000b0 20 74 dc bd 83 b5 49 be 34 33 66 be 92 e8 7c bd
       -0.107643366 -0.19698147 -0.2248047 -0.061745234
0000c0 7e 92 29 be ec be e9 3d 73 37 36 3d 79 0e 22 be
       -0.16559789 0.114133686 0.044486474 -0.15825833
0000d0 98 52 da 3c 41 a8 96 be e1 75 08 bd 45 ab 7f be
       0.026650712 -0.29425243 -0.033315543 -0.24967678
0000e0 ed 63 f9 3c 52 1e 3c 3b 40 b1 00 be 52 52 f5 3d
       0.030443156 0.0028704596 -0.12567616 0.11978592
0000f0 f8 4d f1 bd 29 7a 82 be 84 4c 2d 3d ac 6c 42 3e
       -0.117824495 -0.25483826 0.0423093 0.18986768
000100 b8 5a 87 bd 73 80 4f be c2 46 24 3d 83 10 38 be
       -0.066091 -0.20263843 0.040106542 -0.17975049
000110 88 fd 1d 3d e9 58 71 bc b5 79 0c bd ce 18 f1 bd
       0.038571864 -0.0147306705 -0.034295756 -0.11772309
000120 07 46 02 bd fc 31 79 3d ab 8b 86 bd 77 66 06 be
       -0.031805065 0.060838684 -0.06569608 -0.13125025
000130 d7 e9 c6 bd c9 5a 31 3e e4 58 46 3e 27 62 1f bd
       -0.0971257 0.17319788 0.19369847 -0.038911965
000140 0e 0f de 3b 66 7f b8 bc b2 e3 10 be 9a ab 73 be
       0.006776697 -0.022521686 -0.14149359 -0.2379593
000150 11 b2 80 bd 46 67 8c 3c cf c0 60 bd 97 9b 9c bd
       -0.062839635 0.017139088 -0.054871377 -0.07646864
000160 d2 6a 02 3d 28 4e 11 be 5e 8d d5 3d ac c9 92 3c
       0.031840153 -0.1418997 0.10427354 0.01791843
000170 0c fa 85 3d 85 e2 99 ba 75 5b 0f 3d af f2 ba 3d
       0.06541833 -0.0011740482 0.03499933 0.091283195
000180 ce e1 9f 3d d0 db 4c be f3 cd 4f 3c dc 43 86 be
       0.07806741 -0.20005727 0.012683379 -0.26223648
000190 c9 2f 63 be 5d 71 2f be 19 2a ad 3d 6c 89 16 be
       -0.22186197 -0.17133088 0.08455295 -0.1470086
0001a0 cf 05 06 be 68 b5 3c be c5 e9 4d bd d2 ed 55 be
       -0.13088153 -0.18428576 -0.050271768 -0.20891502
0001b0 11 ac 45 bd bf 9a 2b be ed 7e 97 3d a1 7d 85 be
       -0.0482598 -0.1675825 0.07397256 -0.2607241
0001c0 9a 31 1a 3e de e3 61 be 3e 8d 84 be d8 20 0d 3e
       0.15057984 -0.2205958 -0.2588901 0.1378206
0001d0 db c6 31 bd 1a 1f 77 be b3 47 de bd 80 16 23 be
       -0.043402534 -0.24132958 -0.10853519 -0.15926552
0001e0 d6 a0 ae bd a2 f3 c8 3c c4 73 f7 3d 34 ec a9 3d
       -0.08526771 0.024530236 0.120826274 0.08297005
0001f0 a7 6d 3b bd 5f 43 d7 bd c7 c7 11 3d 4c 9a 79 bb
       -0.04575887 -0.10510897 0.035590913 -0.0038086353

layer2.weight f4 [256, 128]
000000 43 7a 59 3d 8a 77 c2 3c 84 47 28 be 96 2f 93 3d
       0.053095113 0.023738641 -0.16433531 0.07186811
000010 4c f7 89 be 09 40 e0 3b 14 b7 9a 3d 93 18 99 be
       -0.26946485 0.006843571 0.07554451 -0.2990156
000020 4a 14 64 3e 70 8c ad bd f8 ab 4a 3e 60 8b 95 be
       0.22273365 -0.08474052 0.19792163 -0.29207897
000030 84 76 60 3d f7 c4 00 3c 67 c6 48 3e 89 0d 40 bc
       0.054800525 0.00785946 0.19606934 -0.011721977
000040 01 76 bc bd 92 6f 00 3e fc 01 37 3e a6 cb b0 bc
       -0.09202195 0.1254256 0.1787185 -0.021581482
000050 f7 ef 01 bd 2b 23 66 3e ca 05 8b 3b 6b 77 eb 3c
       -0.03172299 0.22474353 0.0042426335 0.028743466
000060 0a a8 af bd e5 13 9a 3d 53 05 52 bc 09 8f bb bc
       -0.08576973 0.07523326 -0.012818652 -0.022895353
000070 8f 9a 2e 3e b1 26 7f 3c be 06 ed bd 64 67 74 3d
       0.17051147 0.01557319 -0.115735516 0.059668913
000080 a8 8d a7 3d 08 15 0e 3e cd 56 cd 3c f5 53 07 bd
       0.08181316 0.1387521 0.025065804 -0.033039052
000090 eb ea 8e 3d 2c 54 d2 3c 04 05 a4 bd 23 1d 50 3e
       0.06978401 0.025674902 -0.08008769 0.20323615
0000a0 60 4c c6 3c b5 e6 ce 3d f1 30 8b 3d 7f 5a e1 3d
       0.02420634 0.101025976 0.06796444 0.11003589
0000b0 91 30 15 be 92 34 0c 3d df 43 45 3e 74 e0 b1 3d
       -0.14569308 0.034229822 0.19264172 0.08685389
0000c0 dc 0f 97 3e 0e 95 23 3e 23 bc 61 3d c6 2d 0d 3e
       0.29504287 0.15974829 0.05511106 0.13786992
0000d0 9f fe 1d 3e 09 6c 57 3e 6c 80 80 be bc e1 b2 3e
       0.15429161 0.21037306 -0.25097978 0.34937847
0000e0 d6 75 9b bc 94 01 e0 bd 9f 21 fd bc 6b 3e 7f 3b
       -0.018977087 -0.10937801 -0.03089982 0.0038947116
0000f0 8b da e2 bc 70 15 b9 bd b1 46 de bb 9b 11 e9 3d
       -0.0276921 -0.09037292 -0.0067833294 0.11380311
000100 41 95 f8 bb 94 25 9f bd 0f 5c 08 be b5 4f 4d bd
       -0.007586152 -0.07770839 -0.13316368 -0.050124843
000110 b4 d1 09 be ea 19 9d bc af 39 3e 3e d0 22 7c 3e
       -0.13458902 -0.019177396 0.18576692 0.24622655
000120 b9 eb 34 bb 4c 26 99 3e 6e 61 74 3d 8d ac 4c 3e
       -0.0027606322 0.2991203 0.05966323 0.19987698
000130 fc a6 cf 3d 44 3a 97 3d 5a 3b 8d 3d 08 35 da bb
       0.101392716 0.0738416 0.06896086 -0.006659154
000140 31 f2 99 3e 24 f4 d4 bb 9d 32 05 be 63 5f 5c 3d
       0.3006759 -0.0064988304 -0.13007589 0.053801905
000150 dc 59 bb 3e e2 c4 20 3d 18 14 8e bd 23 0d ac 3c
       0.36591995 0.039250262 -0.06937426 0.021002358
000160 81 ef be 3d cf bc 72 be 87 23 fb bc 8c ae fa 3c
       0.093230255 -0.23704837 -0.03065659 0.030600809
000170 76 5d eb bd 2b a3 07 3c 22 80 5e be e1 02 65 3d
       -0.11492436 0.008278648 -0.21728566 0.05591095
000180 66 eb 2e 3d 07 e9 a3 bc bc 2c c2 3c 8a bd 14 bd
       0.042704962 -0.020008577 0.023702972 -0.03631357
000190 89 62 47 bc dc 4a 5f bd 9e bd 44 3e 42 f5 1f 3e
       -0.012169489 -0.05451475 0.19212958 0.15620902
0001a0 ce c3 9b 3e 70 51 12 3e 8b f3 0d bc 1e e1 26 3d
       0.30422825 0.14288878 -0.008664022 0.040742032
0001b0 36 39 55 bd 1e 98 a4 3e 8a 59 12 bd cd 5b 8e be
       -0.052056514 0.32147306 -0.035729922 -0.27804413
0001c0 27 4e 94 3d 97 3f 22 3e d6 10 51 3e 70 1e 85 3d
       0.07241469 0.1584457 0.20416579 0.06499946
0001d0 79 80 45 3d 30 c6 5d 3e 29 9f c1 3d 2d da bb bd
       0.048218224 0.21657634 0.094541855 -0.09172473
0001e0 a0 42 1c be 2d df d4 3d 59 ad 5a 3e 23 f3 a6 bc
       -0.1525979 0.1039413 0.2135519 -0.020379608
0001f0 2c 8e 47 be 01 9c 06 be 8a ea 7d 3d fc 6b 41 3a
       -0.19487828 -0.13145448 0.061991252 0.00073784566
000200 f9 7f b0 3d 4a 3b a9 be 52 d1 4a be 4a ac 69 be
       0.08618159 -0.33053046 -0.19806412 -0.2281963
000210 c5 1d cd 3d d0 3f 72 be f9 ec f0 be 8d 2f 5f 3d
       0.10015444 -0.23657155 -0.47055796 0.054488707
000220 1d 11 13 3e 94 7f 53 bd d1 ce a3 3e bd 66 9c bd
       0.14361997 -0.05163534 0.31993726 -0.07636783
000230 a1 0a ec be fb de 5b 3c 2c 0d 12 3e 13 bf c7 3d
       -0.4610186 0.013419862 0.14262837 0.097532414
000240 f9 78 da bc fd 9d b2 3b 10 fd f4 bd 92 75 80 bc
       -0.026669012 0.0054509626 -0.1196233 -0.015681062
000250 3c 16 ed bc 63 62 c0 3e e7 c2 41 be f8 25 e2 be
       -0.028941266 0.37575063 -0.18922006 -0.44169593
000260 10 02 e7 3d 14 c1 40 3c 5f bc bf 3c 2d a3 38 be
       0.1127969 0.011764783 0.023405252 -0.18030997
000270 9b db 22 3e 55 1a 96 bd 53 18 74 be 7c 63 4b 3e
       0.15904085 -0.07329241 -0.23837404 0.19862169
000280 d5 53 8f 3d 54 fc e4 bd 94 6c 36 3d 44 3f 39 be
       0.069984116 -0.1118094 0.044537142 -0.1809054
000290 ae 41 7e 3e 95 b4 0c 3d dd 8d a0 bd 94 c5 e7 3d
       0.24829742 0.034351904 -0.07839558 0.11316982
0002a0 0d 4f ce 3d 7d ff 5c 3e ae a4 06 3d 44 50 e9 bd
       0.100736715 0.21581836 0.032871895 -0.113922626
0002b0 d2 d5 88 3d a6 b8 4e 3e 26 b7 bb 3d 15 d4 0f be
       0.06681408 0.20187625 0.09165792 -0.14045747
0002c0 3a 2c 15 bd 4d 71 85 be 65 9f 3d be 0b 76 74 be
       -0.03641913 -0.26063004 -0.18517835 -0.23873155
0002d0 98 e3 da 3b a8 4b 87 be da 55 63 be 6a de b6 bd
       0.0066799633 -0.2642491 -0.22200719 -0.08929141
0002e0 82 44 ed bb d2 47 72 bb 02 7b 22 3d ee 06 fe bc
       -0.007240833 -0.0036969078 0.03966809 -0.031009164
0002f0 93 fa ab bc 4b 75 32 3c ce fb 82 bd b9 53 aa 3d
       -0.020993507 0.010892223 -0.06395684 0.0831675
000300 14 9c ee 3d a0 77 a2 3c aa bd 98 3d 34 5a d9 3d
       0.11650863 0.019832432 0.074580505 0.10612908
000310 2c c7 38 bd 48 12 8f be 6d 57 9c bd 1f 4b c3 3d
       -0.04511182 -0.27943635 -0.07633863 0.095358126
000320 28 d4 4d be da 1d 0e 3e d2 6e 1b bb cd 7b ab 3c
       -0.20100462 0.13878575 -0.0023717177 0.020933056
000330 78 71 f5 bd a0 48 38 3d ee 74 fb 3c f6 a1 06 be
       -0.11984533 0.044991136 0.030695405 -0.1314772
000340 9d af a0 bc 71 15 d4 3d 05 bf 0f bf d5 bd 29 3d
       -0.019614989 0.10355652 -0.5615085 0.041440804
000350 bd c0 cc bc ba a5 37 be 95 df f5 be 54 90 0a be
       -0.024994249 -0.17934313 -0.48022142 -0.1353162
000360 a7 0d 7f bd 69 4c 0e bf 84 33 b9 bd 14 0d 39 bc
       -0.06226888 -0.5558534 -0.09043029 -0.011294622
000370 28 8a 59 bc 13 c7 ed 3c 62 49 8a 3d 39 62 a8 3c
       -0.013277568 0.02902559 0.06752278 0.020554649
000380 f5 e2 e4 3d b5 ad ad 3d 41 99 25 3d f9 9c 12 be
       0.11176101 0.084803976 0.040429357 -0.14317693
000390 d4 02 8a 3d 56 1f 2b bd 5c 21 23 3d 6d 15 ad be
       0.06738821 -0.04177793 0.039826736 -0.3380541
0003a0 d1 55 09 3d 84 4e 62 3c 1d 2d 10 be ed 1e 10 3e
       0.033529107 0.013812665 -0.1407971 0.14074297
0003b0 3e 43 21 3d e1 b5 c8 3c b5 0e 10 bd 0a a2 3c 3d
       0.039370768 0.02450079 -0.035170276 0.04605297
0003c0 76 5d e0 bd 91 1a 29 3d 9a ff d1 3e ea 82 db be
       -0.10955326 0.0412851 0.4101532 -0.42873317
0003d0 dc 2f 70 3c 79 a8 87 bd 6c 0a 2f be 57 1d d8 bd
       0.014659848 -0.066239305 -0.1709382 -0.10552471
0003e0 3c 95 01 bc 95 d1 f7 be a6 ec 40 3e 75 ec ee bc
       -0.007909115 -0.48402086 0.18840274 -0.029165486
0003f0 61 ba b7 3d c9 c0 e3 bd 1f ec 02 3e e0 bd 7c 3c
       0.08971096 -0.11120755 0.12785386 0.015426129

layer2.bias f4 [256]
000000 14 d3 be bd c7 9f bf 3c 80 35 2e 3d 8b a2 e3 bd
       -0.09317604 0.023391617 0.04253149 -0.11114987
000010 22 2a 48 bd 0b 27 92 bc c9 21 b7 3d 6b 20 d7 bb
       -0.048868306 -0.017840883 0.08941991 -0.006565144
000020 20 b2 f0 3d f8 ad fb 3c 56 9b c3 bc 1b 77 80 3d
       0.11752725 0.030722603 -0.02387778 0.062727176
000030 9b 81 bc 3c 16 12 11 3d 33 a9 ea bc 9a a3 f0 bb
       0.02301102 0.03541764 -0.028645134 -0.0073437216
000040 12 2f 07 3b 79 79 5b 3d be 03 62 3a 15 6e ae bb
       0.0020627421 0.053582642 0.00086217734 -0.0053231814
000050 fa 95 b8 bd f8 f1 9e 3c 0f 68 4f 3d 56 10 63 3d
       -0.09012981 0.019402489 0.050636347 0.0554355
000060 c3 82 83 bd 5b 12 3f 3d 51 b8 8f 3d b0 f1 8d bd
       -0.06421425 0.046648365 0.070175774 -0.06930864
000070 0f 2c d1 3d 69 92 44 bc a0 7b 78 3c 40 54 aa 3c
       0.10213482 -0.0119977975 0.015166193 0.020792127
000080 5a 92 3d bd 8b 75 94 3c 0e f6 05 3d 46 29 0a 3d
       -0.04628215 0.018122455 0.03270536 0.033730768
000090 1a b2 c8 3c ce 6f ca bd 89 7a 64 ba 67 50 56 3d
       0.024498988 -0.09884606 -0.0008715769 0.05232277
0000a0 27 8c f2 3c 14 5e e9 3c 07 4a 49 3d 70 21 d6 bc
       0.029607845 0.028487243 0.049142864 -0.026138991
0000b0 8b e5 15 3d a3 6d bc 3d d1 d4 df 3b 91 02 eb 3d
       0.036595862 0.09200599 0.0068307896 0.11475099
0000c0 7d 3a 32 be 98 d8 42 3d 13 1f 7c 3d e3 a5 8f bc
       -0.17405124 0.04756984 0.061553072 -0.017535156
0000d0 e6 1b ec 3c a8 0e 0b 3d 5f 96 38 bc 99 7c b5 bd
       0.028821897 0.033949524 -0.01126632 -0.08861656
0000e0 c2 cd 00 bd 9e 2a 0a be 5e 56 31 3d 02 18 04 3c
       -0.031446226 -0.1349282 0.043295257 0.0080623645
0000f0 e0 8a 48 bc ea 84 c1 3c ee 36 60 3d 84 de 92 3d
       -0.012240142 0.023622949 0.054739885 0.07171348
000100 5b 3b 2d bd b2 41 00 3d 85 78 0f 3d fd 0f 50 bc
       -0.042292934 0.031312652 0.035027046 -0.012699124
000110 05 68 2c 3d bb d0 b1 bd 2c 0b ed 3c 55 29 82 bc
       0.04209139 -0.0868239 0.028935991 -0.01588885
000120 59 fa 2e be c8 58 32 bd c8 38 1e be 3d 65 36 bd
       -0.17087688 -0.0435417 -0.15451348 -0.044530142
000130 75 8c 8e 3d ae 98 c9 3c 9d d4 9e bd d0 3d 0c 3c
       0.06960384 0.024608936 -0.077553965 0.008559659
000140 e7 c7 38 be 60 65 5e 3d fd 21 af bd c3 7f 62 b9
       -0.18045007 0.054295897 -0.085514046 -0.00021600634
000150 41 64 67 3a 4c 20 69 3d 8a df c2 bd e9 2f 7b 3d
       0.00088268897 0.056915566 -0.09515293 0.061324988
000160 9a 96 d2 bb dd 38 9e 3d 38 3b 0c be d7 63 9d 3d
       -0.0064266445 0.077256896 -0.13694465 0.076850586
000170 10 cd 2a bc 9c 8b 1e be 53 5a 30 3d c9 91 9a 3d
       -0.010424867 -0.15482944 0.04305489 0.075473376
000180 e9 59 a7 3d 85 95 09 3d 6a ab 10 bd 93 59 df 3c
       0.08171446 0.03358986 -0.035319723 0.027264392
000190 30 0f 53 3d 43 3a 97 3c 8a 67 1a 3d 00 a7 a6 3d
       0.051528156 0.018460399 0.0376964 0.081373215
0001a0 b0 83 38 3d c3 c1 8d bd eb 95 f0 3d 8e be ba 3d
       0.045047462 -0.06921723 0.117473446 0.09118377
0001b0 1b 4d 67 3d 41 b8 fb 3c be da 78 bd c6 0b fe bd
       0.056470018 0.030727508 -0.060755484 -0.12404589
0001c0 e0 9a 95 bc c6 80 dd 3d 3b ab 1d be 35 dc 46 bd
       -0.018262327 0.10815577 -0.1539735 -0.04854985
0001d0 c1 2a 22 3b 4d 0f aa 3d d7 b6 05 bd 88 53 01 be
       0.0024744722 0.083037 -0.032645073 -0.12629521
0001e0 49 4b c5 bc 74 47 80 3d 16 63 d1 3d da 88 d7 3c
       -0.02408375 0.062636286 0.10223977 0.026310373
0001f0 6e dc cf 3b 85 c7 81 3d ac 80 0c 3d 3e 63 42 3d
       0.006343416 0.063368835 0.0343024 0.047457926
000200 9c ee 58 3d 1a c8 2b bd c9 e3 59 3d 70 50 93 bc
       0.05296193 -0.04193888 0.05319575 -0.017982692
000210 dd 03 13 3d 52 74 98 3d 36 39 1e be fe a4 51 3d
       0.035892356 0.07444061 -0.15451512 0.05118274
000220 b8 c6 4f be 96 5a 01 bb 4c 22 5e 3d df 2a 66 3d
       -0.20290649 -0.0019737831 0.054231927 0.05619323
000230 c8 58 c5 bb a8 9c ae bd cf b6 1a 3c 81 df 1a be
       -0.0060225464 -0.085259736 0.009442999 -0.15124322
000240 3b 73 5e 3c 8b 39 21 bd 61 38 1a 3d 25 d8 25 3d
       0.013577278 -0.039361518 0.037651423 0.040489335
000250 65 b3 88 3d 09 3f d0 bb 74 a7 e0 bd 3f 08 a5 3d
       0.06674842 -0.0063551706 -0.10969439 0.080582134
000260 67 91 f8 bd 07 62 0e 3d 8b 36 04 3d 05 63 1b bc
       -0.12137108 0.034761455 0.03227858 -0.009484057
000270 d2 47 7f bd 21 87 82 3d 36 b2 34 bc 35 a3 42 be
       -0.062324353 0.0637343 -0.011028817 -0.19007571
000280 d8 f7 02 bd 5d ee 6e bd 40 c0 b5 3d 6f 85 5d 3d
       -0.031974643 -0.05833279 0.088745594 0.05408233
000290 0c 12 f5 bd 1b 9b c8 3c f8 b3 27 3c 36 9a d3 bd
       -0.11966333 0.024488023 0.010235779 -0.10332148
0002a0 22 bb 57 3b 21 1d 7b bd 17 41 a5 bd ea 48 96 bc
       0.0032917936 -0.061307076 -0.080690555 -0.018345315
0002b0 78 ec 5e 3c 20 6d dc 3d 65 a9 58 bd 49 a9 5b bd
       0.013606183 0.107630014 -0.052895922 -0.05362824
0002c0 ad 30 5d 3b 67 a5 83 bd 51 80 7d 3d fb 9a 02 bd
       0.0033750937 -0.06428032 0.06188995 -0.031886082
0002d0 24 05 82 bc b0 eb ce bd 3f 25 a6 3d 6b 94 57 3d
       -0.015871592 -0.101035476 0.08112573 0.052631777
0002e0 fe c2 c6 3c 10 4c bf bd bf 71 81 3d 64 ea ad 3c
       0.024262901 -0.0934068 0.063205235 0.02122993
0002f0 3d 49 e8 bb dd 39 43 be db 8c c0 bb 83 16 65 3c
       -0.007088809 -0.19065042 -0.0058761663 0.013982418
000300 a4 14 3a bd 3d 94 6b 3d fd ad d1 bb 56 ec ec bc
       -0.04542984 0.057514418 -0.006398915 -0.028921288
000310 63 84 66 3d 42 1e 19 bd a6 26 1a be 7a c8 77 3d
       0.056278598 -0.03738237 -0.15053806 0.060493924
000320 28 bd ea 3c 61 a4 29 3c 42 41 71 3d 03 13 7b bd
       0.02865465 0.010354132 0.058900125 -0.061297428
000330 9d 8a b5 bc 2d bd d0 bb fe fa 2e 3b 75 ef 12 3d
       -0.022160823 -0.0063702078 0.0026699896 0.035872895
000340 1a fd 58 3c e5 73 9c 3d 7e e9 b9 ba ed 39 9a bc
       0.013243938 0.07639293 -0.0014183966 -0.01882645
000350 4c c9 53 3d 4a a3 c0 3d b9 1e 3e be 5c 4d 41 3d
       0.051705644 0.09406145 -0.18566407 0.047192916
000360 90 0e 51 3d f6 58 f7 3b b6 3a 59 3d 1b 76 99 3d
       0.05103928 0.0075484468 0.053034507 0.0749323
000370 bb 63 a0 3d 6a f8 a1 3d 09 e5 b8 bd 86 00 21 bd
       0.07831522 0.07908709 -0.0902806 -0.03930714
000380 a5 23 f8 bd 6d 12 31 3d 5f 8d 8f 3d 4b ba cd bc
       -0.12116174 0.043230463 0.07009386 -0.025113245
000390 c6 f7 13 bb 65 83 98 bb 8e 95 65 bc b2 ee a8 3d
       -0.0022578104 -0.0046543353 -0.014012707 0.082486525
0003a0 bf 2c c8 bd 70 84 51 bd cd c6 04 bd 9f 58 a3 3c
       -0.0977416 -0.051151693 -0.032416154 0.019939719
0003b0 e9 1a e6 3d 0b 43 4a 3d a8 31 c1 bc e4 c9 40 3d
       0.112356015 0.049380343 -0.023583248 0.047067538
0003c0 d2 25 5d 3d e9 bb a8 3d e9 84 6d 3d e7 4a 0e 3d
       0.053991146 0.08238966 0.05798808 0.0347394
0003d0 a0 23 c5 3d ca d5 0b 3d 2c 38 bc 3c 0e 4f e6 bd
       0.096259356 0.034139432 0.022976004 -0.11245547
0003e0 f8 ab 8c bd b0 f1 93 3d 64 dc 87 3d bb f7 b0 3d
       -0.06868738 0.072238326 0.06633833 0.08641001
0003f0 5d f2 0b 3d 4f 27 b0 3d 90 de 3b bd 27 7a 62 bd
       0.034166683 0.086012475 -0.04586655 -0.055292275

layer3.weight f4 [128, 256]
000000 29 be 55 bc dd 5e d1 bd 9f 37 42 3d 96 49 df 3d
       -0.013045826 -0.10223172 0.047416326 0.10902707
000010 c8 9f 6c 3b 87 2e be 3c e9 55 6b bd 59 4e 86 3d
       0.003610598 0.023215545 -0.057454977 0.065579124
000020 df 31 d4 3d 85 6c 59 be 95 17 ab 3d 0c dd ac be
       0.10361075 -0.21232803 0.08354107 -0.33762395
000030 e6 cf 89 be d1 7b 8b 3e 62 98 3e 3e 9d a7 17 3d
       -0.26916426 0.27242902 0.18612817 0.037025083
000040 05 a4 e2 3d a3 87 53 bc d8 5e a2 3e 38 86 8f be
       0.110664405 -0.012910756 0.31712985 -0.28032088
000050 c4 52 9d 3e f0 45 de 3d 51 7c d2 bb 20 3b 63 3d
       0.30727208 0.10853183 -0.006423511 0.055476308
000060 40 c9 d3 bc a2 a4 8d 3e 1b fc 45 be ac ac 6f be
       -0.0258528 0.27664667 -0.19334452 -0.23405713
000070 e8 9a 61 bb 45 0b 53 be 9c dd bb bd fe 56 72 3e
       -0.0034424607 -0.20609768 -0.09173128 0.23665997
000080 61 2c 24 3e 11 9d 0c 3d 15 7c 07 3d 4c 7f 68 be
       0.16032554 0.034329478 0.03307732 -0.2270481
000090 de 0a 6a be e4 81 68 3c 20 86 88 bd 10 d1 53 bc
       -0.22855708 0.014191125 -0.06666207 -0.012928262
0000a0 c0 8f 6c be da 89 d3 bd c8 dd 0a be b3 89 b4 3e
       -0.23101711 -0.103290275 -0.13561165 0.35261306
0000b0 4c cf 42 3e ef a5 4d 3d 3e 9b a6 3d 04 17 52 bd
       0.1902439 0.050207075 0.08135079 -0.05129148
0000c0 79 f3 31 be 23 8f 00 3c ab 3c 0d 3e c5 6e 33 bd
       -0.17378034 0.007846626 0.13792674 -0.04380681
0000d0 19 f0 15 bd 2d 7c c3 bc 40 11 dd 3e 90 0f 73 3d
       -0.036605928 -0.023862923 0.43177223 0.059341013
0000e0 16 d4 0c 3d 1b 9b 3e 3d dd 04 4b 3e d7 aa 61 bc
       0.03438195 0.04653464 0.19826074 -0.013773642
0000f0 bb a7 da 3d 17 8f e8 bd fa 54 8e 3d f8 11 bb 3d
       0.10676523 -0.11355417 0.06949802 0.09134287
000100 2c 3f d0 bc 54 59 92 be 86 79 03 be d3 2a a5 3e
       -0.025420748 -0.28583777 -0.12839326 0.32259235
000110 16 3c 13 3d e9 55 dd bc 5c fe 94 bc 2d 56 89 be
       0.035945974 -0.027018504 -0.018187694 -0.2682356
000120 f1 36 2e be c7 5a 7f 3e 8e 4f 27 be 42 96 08 be
       -0.17013146 0.24936973 -0.16338941 -0.13338569
000130 cf 34 ea bc 71 45 2e be ee 37 bd bd 7d b8 51 be
       -0.028589634 -0.17018677 -0.09239183 -0.20480533
000140 a2 9a 23 3c f4 71 96 3d b4 93 4f 3d 16 5f 46 bd
       0.009985598 0.073459536 0.05067797 -0.048430525
000150 40 a0 8c be 23 fc 06 3d 79 9c 54 bc 80 d9 ea bc
       -0.2746601 0.0329553 -0.012976759 -0.028668165
000160 0c 00 82 bd 7a 90 bb bd f3 db 56 bd 0d 05 84 be
       -0.06347665 -0.09158416 -0.052455854 -0.25785103
000170 cd ea b1 3d 32 33 2f 3e d5 97 b6 be 33 0b 9e 3d
       0.08687363 0.17109373 -0.35662714 0.0771698
000180 af a9 3a be 3f fd 71 bd 4b cb d0 3e a8 55 6a 3e
       -0.18228792 -0.059079405 0.407801 0.22884238
000190 18 8e 6c be a1 52 22 be 5a 8a 94 be 10 4f 31 be
       -0.2310108 -0.15851833 -0.29011804 -0.17315316
0001a0 9a 35 c8 bd 37 90 a6 bd c8 93 8d bd bb d4 5b be
       -0.09775849 -0.081329755 -0.06912953 -0.21467869
0001b0 8f 60 27 3e 8b dd 0f be 6f 72 5e be aa 84 a5 3c
       0.16345428 -0.14049356 -0.2172334 0.02020486
0001c0 a7 0e 69 be 49 27 aa bc bc 57 f2 bc e4 2b 21 3c
       -0.22759496 -0.020770686 -0.02958285 0.0098371245
0001d0 d5 e8 e8 bd 8f cc 16 3c 0a 2b 19 bc 3e bc 0c be
       -0.11372534 0.009204044 -0.00934864 -0.13743684
0001e0 cd c1 b8 bd db 0c 9c 3c c7 82 96 bd 1d ba 0d be
       -0.090213396 0.019049099 -0.073491625 -0.13840528
0001f0 53 54 07 be c2 b0 bd be a1 40 e6 3c 1f 06 d9 be
       -0.13215761 -0.37048918 0.02810699 -0.42387483
000200 a3 42 44 be 8a c2 91 3d 25 ca a1 3d 39 2b 2e bc
       -0.19166045 0.071171835 0.07899884 -0.010630422
000210 18 b6 49 3e 54 9a 72 be 33 9d 06 be c8 15 d7 bd
       0.1969837 -0.23691684 -0.13145904 -0.10502201
000220 f0 56 c8 bd b5 e8 86 3e 02 57 8c be e6 ab 3b bc
       -0.09782207 0.26349416 -0.27410132 -0.011454558
000230 8a 66 f8 3c 36 95 49 be b3 ad 9c bd 6d 4e 43 3e
       0.030322332 -0.19685826 -0.07650318 0.19072886
000240 bf e8 8f be 7e 22 12 3b 67 ac b3 bb 64 50 88 bd
       -0.2810726 0.002229839 -0.0054831984 -0.06655958
000250 3a d7 1e bd ca d3 cf 3d 93 f4 27 be 7f 09 c0 bb
       -0.038779475 0.101478174 -0.16401891 -0.005860507
000260 82 f3 d4 bd 6f eb 66 3c f3 11 12 3d 64 9f cf bd
       -0.10398008 0.014094218 0.03566165 -0.10137823
000270 be fa df 3c ac 08 d8 bd ee 30 23 bd a6 84 3f be
       0.027341243 -0.10548529 -0.039841585 -0.18702945
000280 c8 7d 9f bd 0a 8f 2b 3e 5b 05 33 3e fa 5d 98 3e
       -0.07787663 0.16753784 0.17482512 0.29759198
000290 e5 e6 dd bd bf 57 7c bd 37 72 1c bd 6d d1 84 3d
       -0.10835055 -0.06160712 -0.03819486 0.06485257
0002a0 49 01 8c 3d 5d d7 23 be dc 51 af 3d 7b 33 91 3c
       0.068361826 -0.16000123 0.08560535 0.017724743
0002b0 2f 81 87 3c 86 5b 82 bc 24 8e 27 3e 34 9e 01 be
       0.016541092 -0.015912782 0.16362816 -0.12658006
0002c0 cf 3e 8a bb c4 fa 48 3d 36 6f 9f bd 42 ee a9 be
       -0.004218913 0.049067274 -0.07784884 -0.3318959
0002d0 60 9e 8f bc 04 38 e7 bd 8a 70 4d 3d 4b c0 bc 3d
       -0.017531574 -0.11289981 0.050156154 0.092163645
0002e0 c0 7c 21 3b 58 09 00 be 7e 0e 1e be be ec 90 be
       0.0024641007 -0.12503564 -0.15435216 -0.2830562
0002f0 8e f8 4e 3d af 2c 1e be ce 28 39 be 57 8d f6 bd
       0.05053001 -0.15446733 -0.18081972 -0.12038677
000300 4f a9 01 bd 74 89 bd 3c 20 8b 20 3c 48 03 f8 bd
       -0.031655606 0.023136832 0.009798795 -0.12110001
000310 37 f2 56 be 22 16 c4 bd c2 3e c4 bd a8 35 d9 bd
       -0.20990835 -0.09574534 -0.095822826 -0.10605937
000320 6a db 11 3e 28 18 45 3c e2 a2 1c 3e 44 54 02 3e
       0.14243856 0.012029685 0.1529651 0.12727457
000330 30 06 49 be 49 3a 23 3d ea 39 85 3d f5 dd d4 be
       -0.19631267 0.039850507 0.06505187 -0.4157559
000340 a5 08 08 3d e2 07 4b be 92 76 26 3d 36 e6 88 3c
       0.03321137 -0.19827226 0.04064042 0.016711336
000350 8d 79 97 3d 3c 0e 89 bb 5d e7 17 3e 61 d3 90 3d
       0.07396231 -0.004182605 0.14834352 0.07071567
000360 f1 1a 20 be a0 5b 92 be ec f1 6b bd cd 62 23 be
       -0.15635277 -0.2858553 -0.05760376 -0.15955658
000370 39 a4 a0 3c f6 ce ec bc 47 20 b2 bd 52 32 2e 3d
       0.019609557 -0.02890728 -0.08697563 0.042528458
000380 fc c0 12 3e ed 5b 6c 3e cf 1e b7 be 87 98 d2 be
       0.1433143 0.23081942 -0.35765693 -0.41131994
000390 bf d5 8a be 3d 27 85 3d 02 c1 f4 3d 0d 7b 94 bd
       -0.271162 0.06501625 0.11950876 -0.072500326
0003a0 8b 91 71 bd 3f af 93 3e 34 ee 27 3e 4f c7 47 3d
       -0.05897669 0.2884464 0.16399461 0.04877406
0003b0 5f 35 95 bd 85 f3 69 be 01 5f af 3d ea 5c cc be
       -0.0728557 -0.22846802 0.085630424 -0.39914638
0003c0 04 31 b9 be 13 29 8f 3d f9 66 77 be 80 b8 36 be
       -0.36170208 0.06990256 -0.24160375 -0.17843819
0003d0 89 c3 79 bb 20 0f b2 3d a9 ec 4a be da 08 8e 3c
       -0.0038110933 0.08694291 -0.19816841 0.017338205
0003e0 53 18 42 3e 3b fa 9a be b0 91 ef 3c ff 5c 44 bd
       0.18954591 -0.30269036 0.029244274 -0.04794025
0003f0 14 f0 cb 3e f4 c0 c9 bd dd a1 8a 3e 1c 24 2d 3d
       0.39831603 -0.09851256 0.27076617 0.042270765

layer3.bias f4 [128]
000000 64 d2 32 3e 1c 88 00 3e 2f 7c 58 3d 29 97 bd 3d
       0.1746307 0.12551922 0.052852806 0.09257347
000010 0a ee a1 3d 2c 50 00 3d 30 ff e5 3c 5e 4f 09 3c
       0.079067305 0.031326458 0.028075784 0.008380739
000020 e4 11 8a 3c c7 67 0d 3e 4f 0b 1e 3e da 8d 33 3d
       0.016854234 0.13809119 0.15434001 0.043836452
000030 5d 94 cd 3c 68 0e e9 3b 95 e4 fd 3c 68 2c f1 3d
       0.02509516 0.007112313 0.030992785 0.11776048
000040 fb c7 06 3e 5b b5 e3 bc f4 93 39 3e 23 6c 3d 3d
       0.13162224 -0.027796438 0.18122846 0.046245705
000050 e6 09 ae bb 32 26 ef 3c c4 fe 92 3c d6 f5 b6 bc
       -0.0053112386 0.029193018 0.017943747 -0.02233402
000060 96 dd 6c bb ae 77 a3 bd 24 4d cc 3d 1c 3c 0f 3e
       -0.0036142818 -0.079818115 0.09975651 0.13987774
000070 f0 35 b5 bc 1c e9 c1 bc a9 38 86 3c c8 97 b7 bd
       -0.022120446 -0.023670726 0.01638444 -0.08964497
000080 6d 4f fa 3d c5 2b 5f 3d 31 03 86 3c 67 cf 8e 3d
       0.122221805 0.0544851 0.016358944 0.069731526
000090 31 94 28 bd 98 36 29 3e 01 f6 87 3d 63 e3 3d 3d
       -0.04115695 0.16524732 0.066387184 0.04635943
0000a0 39 e8 3e bc 7e 46 54 3c d1 e8 f6 3d 60 e7 69 3b
       -0.011652046 0.01295626 0.12056125 0.0035690889
0000b0 fd 83 16 3e d4 5b 7c 3e b7 7f 93 3c a4 50 05 3e
       0.14698787 0.24644405 0.018005235 0.13019043
0000c0 35 17 a5 3c 9c b5 aa bc 51 86 ea bb 12 94 30 3d
       0.020152668 -0.020838551 -0.007157125 0.04310996
0000d0 e8 8d d1 3d 7b ff b6 3d 14 a7 e8 bd b8 19 99 bb
       0.102321446 0.08935448 -0.113599926 -0.0046722554
0000e0 00 85 f8 b9 94 50 9e 3d be ed 87 3d 6a 6d 8c 3d
       -0.0004740134 0.07730213 0.066371426 0.068568066
0000f0 a6 21 9a 3d e2 33 fa 3d 76 89 b6 bd 8f d2 66 3b
       0.07525949 0.12216927 -0.08912937 0.0035220718
000100 49 ba 8a 3c b7 77 88 3d 88 8a eb 3c fc b9 29 3e
       0.01693453 0.06663459 0.02875258 0.16574854
000110 c2 68 a0 bd e2 4c b6 3d 6b b6 0c 3e 31 c0 c8 3d
       -0.07832481 0.08901383 0.13741462 0.098022826
000120 2f eb b5 bc c1 f8 d7 3c f8 b4 9e 3c 8d 96 94 3d
       -0.02220687 0.026363732 0.019373402 0.07255278
000130 6c 4d 25 3d 36 7b 4b 3d d5 00 7a 3d 86 2b b4 bd
       0.04035704 0.04967805 0.06103595 -0.08797364
000140 ec f7 2c 3d c2 1b c5 3d f9 69 87 3d d1 ce 36 3e
       0.042228624 0.09624435 0.066120096 0.17852332
000150 5a 2e 11 3d dd f1 ad 3d 2a a1 51 3d 86 ec db bc
       0.035444595 0.084933974 0.05117909 -0.026846182
000160 6a d7 0a 3e 59 e1 c2 3d 7f 17 d6 3d 65 45 dd 3d
       0.13558736 0.09515638 0.104537 0.108042516
000170 03 da 85 bc 3d be dc 3d ea 90 11 3d 95 23 b2 3c
       -0.016339308 0.107784726 0.03553859 0.021745482
000180 f9 b3 c0 3d a3 ee b1 3d a1 07 d3 3c 4c 8c 49 bc
       0.09409327 0.086880945 0.025760474 -0.012301516
000190 1f 57 4f 3d b2 af 5e bd 10 3f 7b 3c 91 27 0f 3d
       0.050620195 -0.054366775 0.0153348595 0.034949843
0001a0 3f c5 4b 3d e6 c7 a9 3c 98 53 11 3d 3a 5a e7 3d
       0.049748655 0.020725202 0.03548011 0.11296506
0001b0 af af b8 3d 4a ba e1 bc 18 f7 e0 3d 87 2f 7b 3c
       0.09017884 -0.02755465 0.109846294 0.015331156
0001c0 e3 28 0d be d9 95 0f 3e 1d fe 21 3d 12 1e 84 bd
       -0.13785128 0.14022006 0.039548982 -0.06451048
0001d0 f9 96 8a 3c b2 a9 ca bb 92 b6 d9 3d eb 25 0e 3e
       0.016917692 -0.00618478 0.10630526 0.13881652
0001e0 d7 b7 1b bd 53 ed 83 3d 6b 5d b0 3d e0 98 4c 3d
       -0.03801712 0.064417504 0.08611568 0.04995048
0001f0 69 62 95 3c c0 ba ae bc 87 a7 d4 3d ba a4 9a 3d
       0.018235402 -0.021329284 0.10383516 0.0755095

layer4.weight f4 [64, 128]
000000 7b 30 32 3e a0 15 95 bc 7f f4 9b 3e db 49 fb 3d
       0.17401306 -0.018198788 0.30459973 0.12269946
000010 b0 87 f1 3d dc ae 27 be 69 cd 2e be a0 d6 44 3e
       0.117934585 -0.16375297 -0.17070545 0.19222498
000020 3e 11 3f bd 3c 15 53 bd d3 47 c4 bd ee e0 e1 bd
       -0.046647303 -0.051533923 -0.09584012 -0.1102923
000030 69 b4 10 bd f1 67 f6 3e cc 94 28 3f 86 ee 30 be
       -0.035328303 0.48126176 0.65852046 -0.1727849
000040 14 fa 20 be c2 e8 c5 bd 1a be 4d 3c 61 b0 6c be
       -0.15720397 -0.09663536 0.012557531 -0.23114158
000050 6b af 92 bd b8 f6 e5 3d 12 a4 bd 3b 6f c3 b2 bd
       -0.071623646 0.112286985 0.005787381 -0.08728682
000060 18 32 43 3d 1b 30 87 bb 39 63 2e be d8 bb 47 bd
       0.047655195 -0.0041256077 -0.17030038 -0.048763126
000070 25 20 2e 3e 33 2b 7e 3e ba 91 a3 bd dd d8 11 3d
       0.1700445 0.24821167 -0.079867795 0.035607208
000080 3d ab 3e 3e 2a e6 df 3d a6 20 ad 3c 20 65 31 be
       0.1862001 0.10932572 0.021133732 -0.17323732
000090 2b b4 e7 bd 05 ae a3 3e ee a8 b1 bd b5 e8 51 3b
       -0.11313661 0.31968704 -0.08674799 0.0032029573
0000a0 4d 2a 2a 3d e2 ef a2 bd d3 ea ad be be 08 bd bd
       0.041544247 -0.0795591 -0.3396822 -0.09230183
0000b0 d9 70 e0 3e f8 93 98 3d ce 35 f2 bd ec 46 47 3d
       0.43836096 0.07450098 -0.11826669 0.04865162
0000c0 7f b5 1c be d7 24 8e be b2 02 72 bd b3 41 8b 3c
       -0.1530361 -0.27762482 -0.0590846 0.016999101
0000d0 24 91 8c 3b ac 74 ca 3c a6 e0 84 3d 38 97 e4 bd
       0.004289763 0.024713837 0.06488161 -0.11161655
0000e0 36 43 a0 be 11 31 91 3d fb 49 c1 be 9e 7c 15 3e
       -0.31301278 0.07089437 -0.37751755 0.14598319
0000f0 9d c6 2c 3e 1e 77 44 bd 86 1e 8b 3b 91 65 af bd
       0.1687264 -0.04796516 0.004245582 -0.08564294
000100 7a f7 06 3d 15 70 d8 3b 83 39 df be 41 08 00 3e
       0.032950856 0.006605158 -0.43598565 0.12503149
000110 8d 46 f8 3d 46 5b 58 3e 92 96 8c be 39 36 92 3d
       0.121228315 0.21128568 -0.27458626 0.071392484
000120 aa eb 84 be 68 6c 62 bd 9b aa 82 bd 45 e9 01 be
       -0.25961047 -0.055279166 -0.06380197 -0.12686642
000130 b5 04 50 3d 8d 5f 41 3e de 94 41 bc 56 fa 41 3e
       0.05078574 0.18884106 -0.011815278 0.18943152
000140 fa 7c c2 be 97 f0 a3 3d 46 ee 87 bd 1b 58 dd 3e
       -0.37985975 0.08004873 -0.06637244 0.43231282
000150 da 01 83 3e f3 ae 9e 3d 3d f1 51 3e 32 2a 15 3d
       0.2558735 0.07748213 0.20502181 0.036417194
000160 8a 21 95 3c 9e 4b de 3e a7 a6 22 3d ff a3 1a 3e
       0.01820447 0.43417066 0.039709713 0.15101622
000170 38 c8 b5 bd c9 36 86 3d 16 98 e4 3d 2a d2 d0 3d
       -0.08876079 0.06553418 0.111618206 0.101963356
000180 48 b6 9c 3e 30 a4 95 3e 3f aa 09 3f 56 50 8d bc
       0.3060782 0.29226828 0.537754 -0.017250221
000190 0c aa 45 3d 4a b9 74 3e af 82 1a bd 71 7c 97 3c
       0.048257872 0.23898807 -0.037722286 0.018491955
0001a0 6b 2a 84 bd 59 13 69 3e 93 6e 0e be 8b 0b a0 3e
       -0.06453403 0.22761287 -0.13909368 0.31258807
0001b0 f1 5c 4f 3e 15 71 8c 3d e4 7f a6 bd af ba 31 3d
       0.20250298 0.06857506 -0.08129862 0.043390926
0001c0 3c 3d a2 bc fa 91 60 3d 29 72 7e 3d 75 c5 4f 3e
       -0.01980459 0.054826714 0.06212059 0.20290168
0001d0 3b 6e 8d bc 25 8f 1b be 3e f1 67 be c0 e9 89 be
       -0.017264476 -0.15191324 -0.2265062 -0.2693615
0001e0 d4 05 27 be 3e c9 0e be 3e 6d 86 be 12 d2 ae bd
       -0.16310817 -0.13943955 -0.2625522 -0.085361615
0001f0 00 59 b1 bd 37 c8 ef bd 3e 62 90 3e 78 c2 e4 3e
       -0.086595535 -0.1170811 0.28199953 0.44679618
000200 3f 8e b7 3d b3 d9 b3 bd c1 83 f8 3e 90 6f b9 3e
       0.08962678 -0.08781757 0.4853802 0.36217928
000210 f5 3c 62 3d b7 a2 ac 3d c1 88 f2 3d 55 06 41 3e
       0.055233914 0.08429473 0.1184249 0.18850072
000220 66 d3 56 3c 67 ad 13 be 6e 1c bb bd 59 ba 80 3e
       0.013111925 -0.14421616 -0.09136282 0.25142172
000230 47 f4 71 3e 54 b9 c8 bc 09 04 91 3e e9 17 21 3e
       0.2362834 -0.024502434 0.2832339 0.15731777
000240 19 4e 4c be c4 03 96 bd 30 e6 ea 3c 82 17 86 bd
       -0.19951667 -0.07324937 0.028674215 -0.065474525
000250 73 aa 01 be fc 0a 1b 3c ec 47 18 bf 09 79 4b bd
       -0.12662677 0.009463068 -0.59484744 -0.049675975
000260 bd e8 92 3d be 8f de be 17 b6 a0 3c 94 e3 b5 bd
       0.071732976 -0.43469042 0.019618077 -0.08881298
000270 69 93 1c 3e 50 4c b4 3e 80 a5 ed be 97 22 90 bd
       0.15290608 0.35214472 -0.4641533 -0.070378475
000280 3a 84 a5 3d eb 38 f9 3d d9 88 00 be 50 37 e0 bc
       0.08081861 0.12169059 -0.12552203 -0.027370125
000290 be c6 84 3d 48 38 a0 3d e7 33 05 bf 69 95 43 3e
       0.064832196 0.07823235 -0.5203232 0.19099964
0002a0 25 a7 60 3d a3 bc 01 3e c2 61 5c bd 0c 60 b7 3d
       0.0548469 0.12669615 -0.053804167 0.08953866
0002b0 be ee 40 bd 63 fc b3 3d cd d5 ab be 43 0b 1b 3e
       -0.047102682 0.08788373 -0.33561555 0.15141015
0002c0 b7 be 29 be d0 95 84 3d 31 a3 a3 be 0a 63 0a be
       -0.16576658 0.06473887 -0.31960443 -0.13514343
0002d0 34 58 83 3d ec 59 31 3e 0f 23 3d 3e bf 5b ce 3d
       0.06413308 0.17319459 0.18470405 0.10076093
0002e0 6b df 16 bd ca 33 24 3e 6d 13 67 3b 2a 20 94 3e
       -0.03683416 0.16035381 0.0035259381 0.2893079
0002f0 fa 3e 3c 3e 67 48 aa bc 43 a8 ce 3c 43 2b f0 be
       0.18383399 -0.020786477 0.025226718 -0.46908006
000300 7f 83 96 3e a5 68 fd be bc a1 58 bd 83 dd ae 3c
       0.293972 -0.494939 -0.052888617 0.02134586
000310 1b f7 52 be e0 22 42 3e af 9f 63 be e6 fe 16 3c
       -0.20602076 0.18958616 -0.22228883 0.009216046
000320 1c 03 5e bd f8 50 a4 3d c2 09 09 3e 28 81 a8 be
       -0.054202184 0.08023256 0.13382629 -0.32911038
000330 75 5e 5c bb 10 96 aa 3e b1 25 78 3e e8 c8 42 3e
       -0.0033625637 0.33317614 0.24233128 0.19021952
000340 dd b7 ab be bb eb 83 be a0 57 be be 41 7d 75 3e
       -0.33538714 -0.25765786 -0.37176228 0.23973562
000350 f8 e1 9f be ed 25 66 3d 20 c8 b4 3e ae 83 77 bd
       -0.31227088 0.056188513 0.35308933 -0.060428314
000360 37 86 95 bd 36 ef 40 3e f7 19 3e be aa c8 5a be
       -0.0730099 0.18841252 -0.18564592 -0.2136561
000370 1d c6 f3 bd 48 35 14 be b7 bf d9 3d bb be 9d 3e
       -0.119030215 -0.1447345 0.1063227 0.30809578
000380 59 5e e8 3e fd e0 a3 3e cd 37 c9 3e d2 eb 4c 3d
       0.45384482 0.3200759 0.39300385 0.050029583
000390 2b f8 c2 bc 34 11 a7 3d 51 34 77 bc 20 ab 90 3b
       -0.023799976 0.08157578 -0.015088157 0.004414931
0003a0 f5 0f e5 3c 0d ea 88 3e 7a 4f 74 be 70 48 c3 bd
       0.02796171 0.26741067 -0.23858443 -0.09535301
0003b0 9b 84 8b bd b3 91 53 be f7 6e d9 bd 37 56 13 bd
       -0.06812402 -0.20661049 -0.10616868 -0.035970893
0003c0 84 4e 9c bd 58 47 f1 3c 33 5f ee 3c dc e9 85 bd
       -0.07632163 0.029452965 0.029098129 -0.06538746
0003d0 73 14 e8 3d d2 02 2e be 51 1e 82 be f9 95 be bd
       0.113320254 -0.16993263 -0.25413755 -0.09305949
0003e0 11 d5 11 bf ba a9 a3 bc 21 9b a9 3d 5d 9b 8c 3c
       -0.5696574 -0.019978393 0.082815416 0.017163927
0003f0 80 7d fe bd d1 77 31 3c 0c 2b 53 3e 22 cf 64 3e
       -0.12426281 0.010831789 0.2062189 0.2234464

layer4.bias f4 [64]
000000 27 a8 45 3e 5d 4d 0e 3e 70 8d 62 3e 09 f7 57 3e
       0.19302426 0.13896699 0.22124267 0.2109033
000010 ea 31 88 bc 7e 08 26 3e c2 2f a7 3d 4e ea 6d 3e
       -0.016625363 0.16214177 0.08163406 0.23233911
000020 18 83 1c 3d 57 e5 37 bd a8 14 39 3e 32 5c ad 3d
       0.03821096 -0.04489645 0.18074286 0.084648505
000030 fe a7 e6 bb 06 d7 24 3d dd d4 85 3e db 1b 48 3d
       -0.007039069 0.040244125 0.26138964 0.04885469
000040 21 c9 64 3d ae 7f 65 3e 3c 96 6c 3e a8 09 18 3e
       0.055855874 0.22411987 0.23104185 0.14847434
000050 2f d3 e1 3d 02 60 0a 3e c9 23 ff 3c 4e c8 0e 3e
       0.11026608 0.13513187 0.031144993 0.13943598
000060 ca b6 1c 3e 6f 8f 5d 3e e4 3c 7b 3e 52 15 61 3d
       0.15304103 0.21636747 0.24534947 0.054951973
000070 29 9b 1a 3e ea a8 d4 b9 70 d2 1e 3e c1 38 c3 bc
       0.15098251 -0.00040561642 0.15509963 -0.023830773
000080 e3 35 d5 3d ff 70 97 3e ff 05 e1 bc f0 aa 72 3d
       0.10410669 0.29578397 -0.02746868 0.05924505
000090 ad 9d 3d 3e e4 ef 79 3e 58 b6 79 3d c0 02 4e 3e
       0.1851718 0.24407917 0.060964912 0.20118237
0000a0 dd 38 2d 3e f8 9f f3 3d 73 e8 a0 3e 12 ff 1f 3e
       0.16916223 0.11895746 0.31427345 0.15624645
0000b0 25 fa 0c 3e ab 37 ab 3c bb ce 6f 3e 4a e9 03 3e
       0.13767298 0.020900568 0.23418705 0.12881961
0000c0 03 7c 49 3e 4e 12 df 3d 38 4d 1e bd c9 a4 79 3e
       0.19676213 0.10892163 -0.03864786 0.24379267
0000d0 57 c9 49 3b 52 7f d3 3d 06 fc 98 bd e1 e7 51 3e
       0.0030790174 0.10327019 -0.07469945 0.20498611
0000e0 ec 32 4c 3b 74 79 5e 3d 88 27 11 3e 0d af 03 3d
       0.0031158281 0.054315045 0.14175236 0.032149363
0000f0 cf 5d 0e 3d 92 2a 0d 3d b3 d5 88 3d 36 3b 14 3e
       0.03475743 0.034464426 0.06681385 0.14475712
