outputs/trained_models/placement_model_20250802_065450.pth (torch, 79173 bytes, 10 tensors)

layer1.weight f4 [64, 15]
0	0xbf147a76	-0.5799936
1	0x3ce6b729	0.02816351
2	0x3e98a5d5	0.2981402
3	0xbf11f47c	-0.5701368
4	0xbf3e4da0	-0.74337196
5	0x3ccec6b6	0.025241237
6	0xbf377022	-0.71655476
7	0x3e81b64e	0.253344
8	0x3eef7b77	0.46773884
9	0x3df2a524	0.11847904
10	0x3effb190	0.49940157
11	0xbf365386	-0.71221197
12	0x3e363efe	0.17797467
13	0xba251a4b	-0.00062981684
14	0x3e92a359	0.2864025
15	0xbf145b74	-0.57952046
16	0xbf925b14	-1.1434045
17	0xbf0d3e7a	-0.55173457
18	0xbd890a3e	-0.06691407
19	0x3f036757	0.5132956
20	0x3c11233c	0.008858498
21	0x3c997954	0.018734612
22	0xbebe4e34	-0.3716904
23	0x3ef7ae4d	0.48375168
24	0x3ef94dab	0.48692068
25	0xbe758487	-0.23976336
26	0x3d85b6f0	0.06529033
27	0x3ebec324	0.37258255
28	0xbef8ca96	-0.4859206
29	0xbf1b424b	-0.6064803
30	0xbf2366db	-0.6382882
31	0xbd3cfd7d	-0.046140183
32	0xbd6c569a	-0.057699777
33	0xbe80c883	-0.25152978
34	0xbb314d7d	-0.0027054243
35	0xbc2cf0cd	-0.010555458
36	0xbedf8ed6	-0.43663663
37	0xbf5e352e	-0.86799896
38	0x3f0c8e49	0.5490461
39	0x3ee29b6d	0.44259205
40	0x3f2b9bbd	0.6703451
41	0x3e2c5d1b	0.16832392
42	0xbdef6772	-0.116896525
43	0xbe91a3ad	-0.28445187
44	0x3e4d8944	0.20071894
45	0xbe95665c	-0.29179657
46	0xbdef337c	-0.11679742
47	0x3d3dc318	0.046328634
48	0xbfb6404d	-1.4238373
49	0x3e5e7e5e	0.21727893
50	0xbef2e73d	-0.47442046
51	0x3ded93f0	0.116004825
52	0xbfba0cc3	-1.4535145
53	0x3f0a29b2	0.5396987
54	0x3ee59bd6	0.44845456
55	0x3fcb685a	1.589122
56	0x3e3a5380	0.18195915
57	0xbf3f86e2	-0.7481519
58	0x3e01a391	0.12660052
59	0x3e669367	0.22517167
60	0xbf0d3e44	-0.55173135
61	0xbfcad182	-1.5845187
62	0xbe640aa8	-0.2226969
63	0xbe8038fb	-0.25043473
64	0x3e195be0	0.14976454
65	0xbfaaedc6	-1.3353813
66	0xbeeca8b9	-0.46222475
67	0xbceaba68	-0.028653339
68	0xbe8d952b	-0.2765287
69	0xbf85536f	-1.0416087
70	0xbe29cf37	-0.16582952
71	0x3d22f428	0.039783627
72	0x3de52ab6	0.11189787
73	0x3d8b1db3	0.06792774
74	0x3ca417b1	0.020030828
75	0x3f13f11c	0.5778978
76	0x3da3aec5	0.07992319
77	0xbec8c8fd	-0.39215842
78	0x3e8a13c3	0.26968202
79	0xbe961628	-0.2931378
80	0x3e6d4a11	0.23172785
81	0xbea4041c	-0.32034385
82	0xbd34e52e	-0.044163875
83	0x3db1c3e3	0.086799406
84	0x3da0604f	0.078308694
85	0xbeedbfdf	-0.4643545
86	0x3d98789e	0.07444881
87	0xbca0bf33	-0.01962242
88	0xbc9589d0	-0.01825419
89	0x3e40d478	0.1883105
90	0xbb948017	-0.004531871
91	0x3ea624d5	0.32449976
92	0x3f0b157f	0.54329675
93	0xbfa8285a	-1.3137314
94	0x3d40ce65	0.047071833
95	0xbedbb1a5	-0.4290897
96	0x3e78e23f	0.24305056
97	0xbf9ea6a6	-1.2394607
98	0x3f03f6a9	0.5154825
99	0x3f052f13	0.52024955
100	0x3e905b78	0.28194785
101	0xbe1669d9	-0.14688815
102	0xbe1b7195	-0.15180047
103	0xbe0303f7	-0.12794481
104	0xbdd06ad1	-0.101766236
105	0xbe9451e3	-0.28968725
106	0x3e0a65c6	0.13515386
107	0xbd0a4ae2	-0.03376282
108	0x3ef5f03a	0.4803484
109	0x3d8eaa65	0.06966094
110	0x3eae250d	0.34012643
111	0x3f1b35b2	0.6062881
112	0xbee908e3	-0.45514593
113	0x3f1f950a	0.6233679
114	0xbed46ec1	-0.4149075
115	0x3db2a440	0.087227345
116	0x3d687cbe	0.05675959
117	0x3e1e15a1	0.15437938
118	0xbe23095a	-0.15921536
119	0xbbbce305	-0.0057643675
120	0x3f14972f	0.5804319
121	0xbe9cc41e	-0.30618376
122	0xbf6bb0ed	-0.9206684
123	0x3f1bf882	0.6092607
124	0xbee0a381	-0.43874744
125	0x3f0ce4f9	0.55036885
126	0xbf9594e0	-1.1686058
127	0x3f7c942a	0.9866358
128	0x3ec70183	0.3886834
129	0xbe5bd171	-0.21466614
130	0x3f2fbe30	0.6864958
131	0x3e2ed412	0.17073086
132	0xbf30daf6	-0.6908411
133	0xbd598fec	-0.05311577
134	0xbcb5ce18	-0.022193
135	0x3d4b7717	0.04967412
136	0xbdfa15e5	-0.12211207
137	0xbd50b574	-0.050954297
138	0xbd825cd5	-0.063653626
139	0xbf17642d	-0.5913723
140	0xbea5bdd6	-0.32371396
141	0x3d91ddca	0.07122381
142	0x3f0cdac0	0.55021286
143	0x3f5e16e0	0.86753654
144	0x3e570d81	0.21001245
145	0x3f5247d7	0.8214087
146	0xbe169272	-0.14704302
147	0xbedf2fe4	-0.43591225
148	0x3d591f8a	0.053008594
149	0x3d78b008	0.06071475
150	0xbcb84b7e	-0.022496935
151	0x3dca88c7	0.098893695
152	0xbf27e61c	-0.65585494
153	0x3ecdb7d3	0.4017931
154	0xbfc08640	-1.504097
155	0x3ee96ebb	0.45592293
156	0x3ef6f2d0	0.48232126
157	0x3ccbc0e4	0.02487225
158	0xbc4387c3	-0.011934224
159	0xbeb87f18	-0.36034465
160	0x3ec26047	0.3796408
161	0x3c1315f6	0.008977404
162	0x3e3dd87e	0.18539616
163	0x3e2878ea	0.16452375
164	0x3e37a061	0.17932273
165	0x3ec0c4ae	0.37650055
166	0xbeb80045	-0.35937706
167	0x3e2068bc	0.15664953
168	0x3efce9e2	0.49397188
169	0xbeaca3e2	-0.33718783
170	0xbd068b32	-0.03284759
171	0xbf140daa	-0.5783335
172	0x3eeb98dc	0.4601506
173	0xbf52fe53	-0.8241932
174	0xbee5af14	-0.44860137
175	0xbd6ec43f	-0.058292624
176	0x3e52d48d	0.20588894
177	0x3d77af96	0.060470186
178	0x3dd86a50	0.105671525
179	0x3e1e95b3	0.15486793
180	0xbe10d7a3	-0.14144759
181	0xbe6eff79	-0.23339643
182	0xbf2b6fd0	-0.6696749
183	0x3f70cb1e	0.9405993
184	0x3f01fd7d	0.5077742
185	0x3e359f2d	0.17736502
186	0xbf1f6925	-0.6226981
187	0x3eba6595	0.36405626
188	0x3f80e4bd	1.0069805
189	0x3ce4945e	0.027902778
190	0xbe09a308	-0.13441098
191	0xbe5f3998	-0.21799314
192	0xbd48365c	-0.048879966
193	0xbd456d8c	-0.048200175
194	0x3e690f5b	0.22759764
195	0x3ed4e09e	0.4157762
196	0xbe99ead8	-0.30061984
197	0xbf2d286d	-0.6763981
198	0x3d17ce66	0.03706207
199	0x3dc70fae	0.097197875
200	0x3e6a2947	0.22867309
201	0x3f1556fd	0.5833586
202	0x3dcc6d54	0.0998179
203	0x3e7c49f3	0.24637584
204	0x3f69abc6	0.9127773
205	0xbe6a4cfa	-0.22880927
206	0x3e2730c0	0.1632719
207	0x3e4c3f7a	0.1994609
208	0xbf3adfb7	-0.7299761
209	0xbd7203b9	-0.05908558
210	0x3f1273f1	0.5720816
211	0x3dabe882	0.08393957
212	0x3d96d14c	0.07364139
213	0x3f10a207	0.56497234
214	0xbf696938	-0.91176176
215	0xbe5cdbd5	-0.21568234
216	0xbf287b7a	-0.6581341
217	0xbe5de3cb	-0.21668927
218	0xbdb5e226	-0.08881025
219	0x3ecaceef	0.39611003
220	0x3e6502da	0.22364369
221	0xbece4ed9	-0.4029453
222	0x3e58f0d6	0.21185622
223	0x3dd62444	0.10456136
224	0xbb7a62f3	-0.003820595
225	0xbe47a062	-0.19494775
226	0xbef0d5d4	-0.47038138
227	0xbe130b28	-0.14359725
228	0xbeaac778	-0.33355308
229	0xbea96f5f	-0.33092782
230	0x3f4dcdad	0.8039196
231	0xbead0993	-0.33796367
232	0xbe9e109a	-0.3087204
233	0xbf83cb64	-1.0296445
234	0xbf55d054	-0.8352101
235	0xbe6588b4	-0.2241543
236	0x3ec8de05	0.39231887
237	0xbe437b40	-0.19089985
238	0x3e703e35	0.2346123
239	0x3defcd3d	0.11709068
240	0xbf2c9346	-0.6741222
241	0xbf0ad84b	-0.54236287
242	0xbf40ea4c	-0.7535751
243	0x3f27860c	0.65438914
244	0xbed8bf83	-0.42333612
245	0xbe363050	-0.17791867
246	0x3e88dac8	0.26729417
247	0xbf0934af	-0.53596014
248	0xbf823b05	-1.0174261
249	0xbd76bb81	-0.06023741
250	0xbe9178fc	-0.28412616
251	0x3d95c7ab	0.07313474
252	0x3e9fc14e	0.31202167
253	0xbdfd7c38	-0.123772085
254	0x3df6a583	0.120432876
255	0x3f1a17c1	0.60192496

layer1.bias f4 [64]
0	0x3def2d0a	0.116785124
1	0xbda66481	-0.08124638
2	0x3e1d8ef1	0.15386559
3	0xbd7c6893	-0.061623167
4	0x3e2d501b	0.16925089
5	0x3dd981e3	0.10620477
6	0x3e2552b3	0.16144828
7	0x3e1f9b72	0.15586641
8	0xbe52cefc	-0.20586771
9	0x3df1639c	0.11786577
10	0xbdfd5652	-0.1236998
11	0x3dc2f7c1	0.095199116
12	0xbe19bf3f	-0.15014361
13	0x3d27118e	0.040788226
14	0x3cf1be28	0.029509619
15	0x3d175a06	0.036951087
16	0x3e567940	0.2094469
17	0x3e1a171f	0.15047882
18	0xbdd15eab	-0.102231346
19	0x3db13d02	0.086542144
20	0xbe094be5	-0.13407858
21	0xbdf57a73	-0.11986246
22	0xbceb5e78	-0.02873157
23	0x3e1094bb	0.14119236
24	0x3e1488b7	0.14505278
25	0xbe2abe52	-0.16674164
26	0xbe54cbf9	-0.20780934
27	0xbcdec4cb	-0.027193448
28	0x3e33eafb	0.17570107
29	0xbd942cab	-0.07235082
30	0x3d97357c	0.07383248
31	0xbd901fd5	-0.070373215
32	0x3cf50f3b	0.029914489
33	0x3e514a3c	0.20438474
34	0xbd60671a	-0.054785825
35	0x3e2c683c	0.16836637
36	0xbe4dbab8	-0.20090759
37	0x3e6d5ccf	0.23179935
38	0xbd10b454	-0.035328224
39	0xbd9c239d	-0.0762398
40	0xbd89d4cc	-0.06730041
41	0xbd3f1191	-0.046647612
42	0xbe121790	-0.14266801
43	0x3c046aec	0.008082133
44	0x3e190251	0.1494229
45	0xbe4bfe53	-0.19921236
46	0x3cee087a	0.029056776
47	0xbdd566da	-0.10420008
48	0xbe5133f7	-0.2042998
49	0x3de7c2c9	0.11316449
50	0xbc945ed4	-0.018111624
51	0x3e3a2fe1	0.18182327
52	0x3dfe7b48	0.12425858
53	0x3d1240d7	0.035706367
54	0xbdfb3744	-0.122664005
55	0xbe829e3e	-0.25511354
56	0xbe7f0b71	-0.24906708
57	0xbde2bbfe	-0.11071013
58	0xbe4eebb2	-0.20207098
59	0x3e6bbe87	0.23021899
60	0x3d98ec86	0.07466988
61	0xbe4f04e5	-0.20216711
62	0x3e10378e	0.14083692
63	0x3e815651	0.25261167

layer2.weight f4 [128, 64]
0	0xbe388f70	-0.18023467
1	0xbcf54faf	-0.029945223
2	0xbcaf7a99	-0.021420764
3	0xbef5e5db	-0.48026928
4	0x3f803c86	1.001847
5	0x3e044bbe	0.12919518
6	0xbd50a027	-0.050933983
7	0x3e64ad8c	0.22331828
8	0x3d2f0e3c	0.042738184
9	0x3e989e46	0.29808253
10	0x3f02ca78	0.5109019
11	0xbd164cea	-0.036694445
12	0xbf54c30e	-0.8311013
13	0x3ef2a32c	0.47390115
14	0xbd72eaab	-0.059305828
15	0xbe92692a	-0.2859586
16	0x3b21f121	0.0024710374
17	0xbcf7b76d	-0.030238831
18	0xbf1a3177	-0.6023173
19	0x3e9613f7	0.29312107
20	0xbf0d4240	-0.55179214
21	0xbf122f76	-0.5710367
22	0x3dffc9df	0.12489676
23	0xbc81877f	-0.01581168
24	0xbda931ba	-0.08261438
25	0x3e03aded	0.12859316
26	0x3dc3847b	0.09546753
27	0xbdcbd271	-0.09952248
28	0x3d4c28e8	0.0498437
29	0x3ec1fefc	0.3788985
30	0x3eaa1de7	0.3322594
31	0xbed46938	-0.41486526
32	0xbe1bbc69	-0.15208592
33	0x3edfc914	0.43708098
34	0x3deecb12	0.11659826
35	0x3c5022f0	0.012703642
36	0x3e9f3ddf	0.3110189
37	0xbe811d6b	-0.25217757
38	0x3f1cb213	0.6120922
39	0x3e12dfe5	0.14343221
40	0x3e26c122	0.16284612
41	0x3f31346d	0.6922062
42	0x3f5681fa	0.8379208
43	0xbe63c0bc	-0.22241491
44	0x3ed3a156	0.41334027
45	0x3ec864e9	0.39139488
46	0x3e57cd02	0.21074298
47	0xbd1f3d90	-0.03887707
48	0xbe08d87c	-0.13363832
49	0x3ea5f385	0.32412353
50	0x3f08dd13	0.5346233
51	0x3d5ba9cc	0.053628728
52	0x3e52ba92	0.20578983
53	0x3e98a1f7	0.2981107
54	0xbd8789bb	-0.06618067
55	0xbfa29886	-1.2702796
56	0x3d83851f	0.06421875
57	0x3f14070d	0.5782326
58	0x3e878c81	0.26474383
59	0xbe6e1699	-0.23250808
60	0xbd800009	-0.06250007
61	0x3d1cbc6b	0.038265627
62	0x3e07069c	0.13186115
63	0x3d92b627	0.07163649
64	0xbd55b430	-0.052173793
65	0xbc1e0fe2	-0.009647341
66	0xbc8f172b	-0.017467102
67	0xbdadf61a	-0.08494206
68	0x3cb7c56d	0.022433007
69	0xbe09be7c	-0.1345157
70	0x3d9d5564	0.076823026
71	0x3c183e2c	0.009292167
72	0xbc41cdb4	-0.011828829
73	0xbe058514	-0.13039047
74	0x3ccee83a	0.025257219
75	0xbe1b28cc	-0.15152282
76	0x3d8407b9	0.064467855
77	0x3d871281	0.06595326
78	0x3d5aea7a	0.05344627
79	0x3d4154f3	0.047200155
80	0xbd047ca4	-0.03234543
81	0xbdbe48d0	-0.09291232
82	0xbd90773f	-0.070539944
83	0x3bf6160f	0.007509954
84	0xbd837317	-0.06418436
85	0x3d7f21d8	0.062288135
86	0xbe183c9f	-0.14866875
87	0x3d33ab0c	0.043864295
88	0x3d4a526f	0.04939502
89	0xbd13e2f6	-0.03610512
90	0x3d839da0	0.06426549
91	0x3dc5515e	0.0963466
92	0xbd5b34f0	-0.053517282
93	0xbd1a45eb	-0.037664335
94	0xbdb80ac7	-0.089864306
95	0xbddeaa28	-0.108722985
96	0xbdb843b2	-0.08997287
97	0x3d7f9368	0.062396437
98	0x3dd2401b	0.102661334
99	0x3d1d548e	0.038410716
100	0xbdec1f11	-0.11529363
101	0xbd8bc87a	-0.06825347
102	0x3d869855	0.06572024
103	0x3aa3a7cb	0.0012485919
104	0xbdf8ff14	-0.12158027
105	0xbe27ac9f	-0.16374443
106	0xbe1c1626	-0.15242824
107	0xbe203970	-0.1564691
108	0x3d5e1e94	0.05422838
109	0xbe037f73	-0.12841587
110	0x3c04521f	0.00807622
111	0xbdd9548f	-0.106118314
112	0x3c74989d	0.014928964
113	0x3dbdf189	0.09274585
114	0xbbaae690	-0.0052154735
115	0xbd016606	-0.031591438
116	0xbe156742	-0.14590171
117	0xbc94dc71	-0.01817152
118	0xbd8803fa	-0.066413835
119	0x3df3c64b	0.11903056
120	0xbcc7763f	-0.024348376
121	0xbde0238c	-0.1094428
122	0xbd4f56ab	-0.050619762
123	0x3d2fa461	0.042881373
124	0x3c7b7b59	0.015349233
125	0xbdd09065	-0.10183791
126	0x3c4521d8	0.012031995
127	0xbd8982f4	-0.067144305
128	0xbd93c3ce	-0.07215081
129	0x3d464c57	0.048412647
130	0xbd9f709d	-0.07785151
131	0xbc64aece	-0.013957692
132	0x3d5cdfe5	0.05392446
133	0xbc778e29	-0.015109577
134	0x3c9ebb0b	0.019376298
135	0x3d1bf261	0.038072947
136	0x3d78bd58	0.060727447
137	0x3da32b51	0.07967246
138	0xbd86ad7d	-0.06576059
139	0x3d98e27d	0.07465074
140	0xbc386e58	-0.011256777
141	0xbd8ef363	-0.06980016
142	0x3b7cf78e	0.0038599703
143	0xbd18840f	-0.037235316
144	0x3d8c714c	0.06857547
145	0xbd538394	-0.051639155
146	0xbdb278f2	-0.08714475
147	0xbdd8ef2e	-0.10592495
148	0x3d2cf728	0.042227894
149	0xba8fe9fb	-0.0010979766
150	0x3da87c4c	0.08226833
151	0xbdfae04d	-0.12249813
152	0xbe155e8e	-0.14586851
153	0xbdf6c844	-0.120499164
154	0xbcaa13a8	-0.020761326
155	0xbd3e8146	-0.046510004
156	0xbd39fd88	-0.045407802
157	0xbd359b44	-0.044337526
158	0xbe16e5d9	-0.14736117
159	0xbdccff5c	-0.100096434
160	0xbcaac7fc	-0.020847313
161	0xbd3d1660	-0.046163917
162	0x3daa1134	0.083040625
163	0xbcd28605	-0.025698671
164	0xbd9773a6	-0.07395105
165	0x3c841af6	0.016126137
166	0x3d42d92c	0.047570392
167	0xbcf56982	-0.029957537
168	0x3c0e5cfd	0.008689162
169	0x3ce140bc	0.027496688
170	0xbd175b99	-0.03695259
171	0xbd5ccbc7	-0.053905275
172	0xbd60efff	-0.054916378
173	0x3c8266c5	0.015918145
174	0xbe0e912d	-0.13922568
175	0xbd79d6cc	-0.060995862
176	0x3d2eac8d	0.042645026
177	0xbccbe545	-0.024889598
178	0x3d5bee92	0.053694315
179	0xbcc69666	-0.024241637
180	0x3c015437	0.007893614
181	0xbdd99a34	-0.10625115
182	0xbd6569c5	-0.056009073
183	0xbdb4f764	-0.088362485
184	0x3d0cd860	0.03438604
185	0xbd25df57	-0.040496197
186	0x3d3a6fe4	0.045516863
187	0x3cbaabf5	0.022787074
188	0x3dfb9d89	0.12285907
189	0xbd474896	-0.048653208
190	0xbdce7a40	-0.10081911
191	0xbdccabff	-0.09993743
192	0xbe289fe9	-0.16467251
193	0xbd892418	-0.066963375
194	0xbd9304b4	-0.071786314
195	0xbe0e1ede	-0.13878962
196	0x3c77882a	0.015108148
197	0xbd7a0e1d	-0.061048616
198	0xbd8a7f71	-0.06762589
199	0xbd80dc25	-0.06291989
200	0x3ccf4800	0.025302887
201	0xbd462868	-0.04837838
202	0x3e190a07	0.14945231
203	0xbcba9402	-0.022775654
204	0x3ddb5766	0.10710029
205	0xbc959998	-0.018261716
206	0x3d208ac5	0.03919484
207	0xbd086f5c	-0.033309326
208	0xbe25dda9	-0.16197838
209	0xbcfdec1a	-0.030996371
210	0xbd37eea4	-0.04490532
211	0x3d551cd7	0.052029457
212	0xbe039fb1	-0.12853886
213	0xbce7d268	-0.028298572
214	0xbb470ec0	-0.0030373782
215	0xbd6c7218	-0.057725996
216	0x3d890869	0.06691057
217	0xbd85a25e	-0.0652511
218	0xbdd4467a	-0.10365005
219	0xbe17fe41	-0.14843084
220	0xbe1b3dec	-0.1516034
221	0xbb98ef25	-0.00466718
222	0xbe0d20ad	-0.13781996
223	0x3cb910f7	0.022591097
224	0xbd9e7d69	-0.07738764
225	0xbdd15aa9	-0.1022237
226	0xbd9ff4fe	-0.078104004
227	0xbe295c48	-0.16539109
228	0x3dedda7a	0.11613937
229	0xbdd228f5	-0.10261718
230	0x3df7a742	0.12092449
231	0x3d0fbf6e	0.03509467
232	0xbe155fce	-0.14587328
233	0xbdad2141	-0.08453608
234	0xbd8ed290	-0.06973755
235	0xbe22f969	-0.15915455
236	0x3d91691f	0.071001284
237	0xbdec4c84	-0.11538032
238	0xbdeb2749	-0.114821024
239	0x3db0b390	0.08627999
240	0xbdd63be8	-0.10460645
241	0xbce27668	-0.027644351
242	0xbdf6388c	-0.12022504
243	0xbd96e5fd	-0.073680855
244	0xbd8497e4	-0.06474283
245	0x3d8aebf8	0.06783289
246	0xbdefc9d3	-0.11708417
247	0xbda120a6	-0.07867555
248	0xbc2438a0	-0.010023266
249	0xbdd91822	-0.10600306
250	0x3e057021	0.13031055
251	0xbc65585e	-0.013998119
252	0xbe07c7c0	-0.13259792
253	0xbb19e880	-0.0023484528
254	0xbc0c3982	-0.008558633
255	0xbd21eec2	-0.039534338

layer2.bias f4 [128]
0	0x3d85642a	0.065132454
1	0xbd80e33d	-0.06293342
2	0xbd66d7c1	-0.056358103
3	0xbd4e528a	-0.050371684
4	0x3d5fe248	0.054659158
5	0x3e5aedb6	0.21379742
6	0x3b9abbda	0.0047221007
7	0x3d407d52	0.046994515
8	0xbbbbc905	-0.0057307505
9	0x3d1c94f3	0.038227987
10	0x3e125141	0.14288808
11	0x3e2e58ed	0.1702611
12	0x3e107d8c	0.14110392
13	0xbde17978	-0.110094965
14	0x3d30c499	0.04315624
15	0xbe17cf8f	-0.14825271
16	0x3dd5aaf8	0.10433
17	0xbdf634ba	-0.120217755
18	0x3ceeb3ca	0.029138464
19	0x3db533cc	0.0884777
20	0x3e2af8ec	0.16696519
21	0xbd881dee	-0.06646334
22	0xbe031490	-0.12800813
23	0x3e692fa6	0.22772083
24	0x3dbde642	0.09272434
25	0x3e41bc83	0.18919568
26	0x3d96ba14	0.0735971
27	0x3d928590	0.07154381
28	0x3d5440ec	0.051819727
29	0x3d77d278	0.060503453
30	0x3dee82c3	0.116460346
31	0xbe03200a	-0.1280519
32	0x3e68e11d	0.22742124
33	0x3db4188b	0.08793744
34	0x3ae35362	0.0017343576
35	0x3d48f155	0.049058277
36	0x3e263654	0.16231662
37	0x3de2c1d8	0.11072129
38	0x3e346e02	0.1762009
39	0x3e466b08	0.19376767
40	0x3ccbdfcf	0.024886994
41	0x3b6afd80	0.0035856664
42	0xbda9b51c	-0.08286497
43	0xbb3ff1dd	-0.002928845
44	0x3da216f5	0.07914535
45	0x3e3a019b	0.18164675
46	0x3e6f77f1	0.23385598
47	0xbdcb0379	-0.09912772
48	0x3db1d859	0.08683843
49	0xbcd4720b	-0.025933286
50	0xbe719227	-0.23590909
51	0x3e73981a	0.23788491
52	0x3e4f7b1a	0.20261803
53	0xbe103af3	-0.14084987
54	0xbd392e26	-0.045210026
55	0x3db17219	0.086643405
56	0x3cb54c0e	0.022130992
57	0xbbdc6ee0	-0.0067270845
58	0xbe06d1f9	-0.13166036
59	0xbd15d9d8	-0.036584705
60	0xbe1291c0	-0.14313412
61	0xbd17cd88	-0.037061244
62	0xbe05c80a	-0.1306459
63	0xbe1e1188	-0.15436375
64	0x3e2392de	0.15973994
65	0xbc758596	-0.014985463
66	0x3e4b5e77	0.19860254
67	0x3e790356	0.24317679
68	0x3d2d3b50	0.042292893
69	0x3d31b9af	0.043389972
70	0xbe0b66f6	-0.13613495
71	0xbe04f58e	-0.12984297
72	0x3da35595	0.07975308
73	0xbdc51a3f	-0.09624147
74	0xbd22c67c	-0.03974007
75	0xbdadd904	-0.08488658
76	0x3d9310fb	0.07180973
77	0xbe12acad	-0.14323683
78	0x3da2a2c2	0.079412
79	0xbd8b1c8d	-0.06792555
80	0x3d5fe444	0.05466105
81	0xbcd937db	-0.026515892
82	0x3e1df006	0.15423593
83	0x3e120da3	0.14263014
84	0x3d3bee8f	0.045881804
85	0x3e09db06	0.13462457
86	0xbe0d00c7	-0.13769828
87	0x3dcb666c	0.09931645
88	0xbe3e9be3	-0.18614154
89	0x3d38e395	0.045138914
90	0xbdae1dc3	-0.0850177
91	0xbcefd4e8	-0.029276326
92	0x3b458bbc	0.0030143103
93	0xbe243106	-0.16034326
94	0x3e27c038	0.1638192
95	0x3cd44450	0.02591148
96	0xbe031c03	-0.12803654
97	0x3d23973c	0.03993915
98	0x3e09f7d8	0.13473451
99	0x3db4fdb3	0.08837452
100	0xbe50077b	-0.20315354
101	0xbdb62a6f	-0.08894812
102	0xbdc3afb6	-0.095549986
103	0xbe635aba	-0.22202578
104	0x3e7902b0	0.24317431
105	0x3e00cb14	0.12577468
106	0x3dfb9cc3	0.12285759
107	0xbe026609	-0.12734236
108	0x3e446337	0.19178472
109	0xbdafa0ac	-0.085755676
110	0xbe359894	-0.17733985
111	0xbe0d3a0c	-0.13791674
112	0x3e751789	0.23934759
113	0x3e93481b	0.2876595
114	0x3e99fe8d	0.3007702
115	0xbcb47627	-0.022028996
116	0x3dab6e30	0.08370626
117	0xbdc6cc93	-0.09706988
118	0x3df46cc0	0.11934805
119	0xbdc7d25e	-0.09756921
120	0xbd7ef056	-0.06224092
121	0xbe27b675	-0.16378196
122	0x3db2d088	0.087311804
123	0x3d293677	0.041311707
124	0x3dd75cba	0.10515733
125	0xbe1a8fa6	-0.1509386
126	0xbd4dd683	-0.050253402
127	0x3dc83af0	0.097768664

layer3.weight f4 [64, 128]
0	0x3dac4589	0.084117
1	0xbc284ff2	-0.010272967
2	0x3d96680b	0.07344063
3	0x3ce9363f	0.02846825
4	0x3d970220	0.07373452
5	0x3f302beb	0.68817014
6	0x3d6a4230	0.057192028
7	0x3d0bbfa6	0.034118317
8	0x3d825756	0.06364314
9	0xbeb5f6e9	-0.3553994
10	0x3e942886	0.28937167
11	0xbeb38393	-0.3506132
12	0x3e51b17c	0.20477861
13	0xbce367c7	-0.027759446
14	0xbd61269c	-0.05496846
15	0xbca2fdd6	-0.019896429
16	0x3ed5d655	0.41765085
17	0x3daf973d	0.08573768
18	0x3dc7e477	0.09760373
19	0xbeb10f13	-0.34581813
20	0x3e1bc0ee	0.15210316
21	0xbee607fd	-0.4492797
22	0xbf5323b4	-0.82476354
23	0x3f34d903	0.70643634
24	0x3e3548ba	0.17703524
25	0x3dd42f6f	0.1036061
26	0x3f374209	0.71585137
27	0xbcc30aa9	-0.023808794
28	0xbf6cd934	-0.92518926
29	0xbe9c7fd7	-0.30566284
30	0xbeb92940	-0.36164284
31	0xbe7ef70b	-0.24898927
32	0x3e8152b5	0.25258413
33	0x3e14d950	0.14536023
34	0x3efd291c	0.49445426
35	0xbe1a9cff	-0.15098952
36	0x3eed7401	0.46377566
37	0x3e1d4f46	0.15362272
38	0x3cc63f1b	0.024200013
39	0x3e80533c	0.25063503
40	0x3ea3827e	0.31935495
41	0xbe589376	-0.21150002
42	0xbec4a51d	-0.3840722
43	0x3e805506	0.25064868
44	0x3e7e63aa	0.24842706
45	0xbe44dd15	-0.19224961
46	0x3f10b5d2	0.56527436
47	0x3df9aa7b	0.1219072
48	0x3c34dc0b	0.01103879
49	0x3df4fcb0	0.11962259
50	0x3d82663e	0.063671574
51	0x3e8e102b	0.2774671
52	0x3f1d0f7b	0.61351746
53	0x3d557081	0.052109245
54	0x3e1f52ed	0.15558977
55	0x3db3e7e8	0.08784467
56	0x3e8e2948	0.2776587
57	0x3d28bf1e	0.04119789
58	0xbd1403b1	-0.036136333
59	0xbe084e42	-0.13311103
60	0x3e150220	0.14551592
61	0xbd1bf047	-0.038070943
62	0x3d34d397	0.0441471
63	0x3c527a18	0.012846492
64	0x3ecfe5f0	0.40605116
65	0xba49f246	-0.0007703643
66	0x3e4d00c9	0.20019831
67	0x3ec0124e	0.37513965
68	0x3b4e99a4	0.0031524682
69	0x3f1bf230	0.60916424
70	0xbb2ff30f	-0.0026847755
71	0xbe876924	-0.26447403
72	0xbf26dcd9	-0.65180737
73	0xbcff95c8	-0.031199351
74	0x3d816d66	0.06319694
75	0xbb4f00b4	-0.0031586112
76	0xbe208b69	-0.15678181
77	0x3d2d39f7	0.042291608
78	0x3e8b1c82	0.27170187
79	0x3d5e1adf	0.054224845
80	0x3e6f14f0	0.23347831
81	0x3e7df694	0.24801093
82	0x3f2a5963	0.66542643
83	0x3e57cb3e	0.21073624
84	0x3b98f7c5	0.0046682083
85	0xbe08f31c	-0.13373989
86	0x3d5664ab	0.0523421
87	0x3f1b07bf	0.60558695
88	0xbcafe9d1	-0.021473797
89	0xbeafcc3f	-0.34335515
90	0xbd3cb4cf	-0.04607087
91	0xbc0dc0a4	-0.008651886
92	0x3ea93e56	0.3305537
93	0xbe81b844	-0.25335896
94	0x3ee75ce8	0.4518807
95	0xbde567fa	-0.112014726
96	0x3da42345	0.0801454
97	0x3e6b48f7	0.22977053
98	0x3f203be0	0.6259136
99	0x3e38fc24	0.18064934
100	0x3d5d9e8b	0.054106276
101	0xbd0b3d8a	-0.033994235
102	0xbc3f0edb	-0.011661257
103	0xbcd79311	-0.026315244
104	0x3ed6a03a	0.41919118
105	0x3e7db15e	0.24774691
106	0x3e26be6f	0.16283582
107	0x3fa60323	1.2969707
108	0x3e9176da	0.2841099
109	0x3d95413c	0.07287833
110	0x3ae86abb	0.0017732003
111	0xbda9510a	-0.0826741
112	0xbea0e124	-0.3142177
113	0xbf40f137	-0.75368065
114	0xbe5cef18	-0.21575582
115	0x3d91f0c4	0.071260005
116	0x3e899c14	0.2687689
117	0xbbb27da1	-0.005447105
118	0x3eb0d4de	0.34537405
119	0xbbaf7da8	-0.0053555556
120	0xbe1cb61d	-0.15303846
121	0xba1ff7fd	-0.0006102322
122	0x3d6d4195	0.057923872
123	0xbc6b6067	-0.014366246
124	0x3cc0de74	0.023543574
125	0xbb745bab	-0.0037286084
126	0xbe874754	-0.26421607
127	0x3f1484bf	0.58015054
128	0xbcb9eed5	-0.022696892
129	0xbcea636d	-0.028611863
130	0x3be5a2b8	0.007007923
131	0xbcb1b911	-0.021694692
132	0xbdc98b3b	-0.09841009
133	0xbdea62bc	-0.11444613
134	0xbce9045e	-0.028444465
135	0xbdabee68	-0.08395082
136	0xbded046e	-0.115731105
137	0xbd1e1b62	-0.038600333
138	0xbcf1180b	-0.02943041
139	0xbe0048b4	-0.12527734
140	0x3d1d1d1a	0.03835783
141	0xbbba82af	-0.005691848
142	0x3dac034c	0.08399066
143	0xbd89bbdd	-0.06725285
144	0xbd1df83d	-0.038566817
145	0xbc7de075	-0.015495409
146	0xbe0448be	-0.12918374
147	0x3d028da3	0.031873357
148	0xbd3b385c	-0.045708045
149	0xbc42d131	-0.011890695
150	0x3ca0736b	0.019586286
151	0x3ce39465	0.027780721
152	0xbcd9e746	-0.026599538
153	0x3d1028c3	0.035195123
154	0xbd95ee8b	-0.07320889
155	0xbc2c325c	-0.0105100535
156	0xbd042d13	-0.03226955
157	0xbd975237	-0.07388728
158	0xbcdfd38f	-0.027322559
159	0x3d77545d	0.06038319
160	0x3cf878dc	0.030331068
161	0x3aababc4	0.0013097455
162	0xbd002cc8	-0.031292707
163	0x3cc5ea59	0.024159597
164	0xbd414232	-0.04718227
165	0xbc31b516	-0.010846397
166	0x3d5d80ed	0.05407803
167	0xbc1f6eb9	-0.009730988
168	0x3c6571c7	0.014004177
169	0xbd04df73	-0.03243966
170	0x3d116578	0.03549716
171	0x3c9295d8	0.017893717
172	0xbdf712be	-0.12064122
173	0xbd7bd067	-0.061478045
174	0xbc4df08e	-0.01256956
175	0xbd8a5bea	-0.067558125
176	0xbe0ffb60	-0.14060736
177	0x3b479aeb	0.0030457329
178	0x3d620fbd	0.05519079
179	0xbdd9e0d1	-0.106385835
180	0xbd7d1736	-0.061789714
181	0xba846e41	-0.0010103659
182	0xbd8a613a	-0.06756826
183	0xbe03958a	-0.12850013
184	0x3cd7d224	0.02634532
185	0x3dc5b1e1	0.09653068
186	0xba4ce503	-0.0007816108
187	0xbcc18b4f	-0.023625998
188	0x3cd78c83	0.026312118
189	0xbd188b5e	-0.037242286
190	0x3dab246b	0.083565556
191	0x3dac1477	0.08402341
192	0xbc6aaba1	-0.014323146
193	0x3c5962b0	0.013268158
194	0x3d175b50	0.036952317
195	0xbd238660	-0.03992307
196	0x3d09ec77	0.033672776
197	0x3d0b19d6	0.033960186
198	0xbb832d76	-0.004003222
199	0x3cdcfef5	0.026977042
200	0xbcbeba6c	-0.023282252
201	0xbda64b83	-0.081198715
202	0x3ccac443	0.024751788
203	0xbce3e394	-0.027818479
204	0x3b5ed346	0.003400044
205	0xbc1eec44	-0.009699885
206	0xbd646e05	-0.055768985
207	0x3c374e64	0.011188123
208	0x3ca48433	0.020082569
209	0xbe001cf5	-0.12511046
210	0x3bc22896	0.0059252484
211	0xbd03d1ec	-0.03218262
212	0x3cbbe45b	0.022936037
213	0x3d0064be	0.031346075
214	0x3c161221	0.009159596
215	0xbda07ca6	-0.07836275
216	0xbcaa5c28	-0.020795897
217	0xbb7f4b41	-0.0038954767
218	0xbd066ef1	-0.032820646
219	0x3d50ac8c	0.050945804
220	0xbe12ab99	-0.14323272
221	0x3ad683e7	0.0016366214
222	0xbc8241c9	-0.01590051
223	0xbc54f9c9	-0.012999007
224	0xbdd02f24	-0.10165241
225	0xbc972af6	-0.018453103
226	0xbdc60018	-0.09667987
227	0xbe0dc32c	-0.13843983
228	0x3d22ccff	0.03974628
229	0xbc5ede83	-0.013602856
230	0x3dbe5f8f	0.0929557
231	0x3d3caa51	0.046060864
232	0xbd84b07c	-0.06478974
233	0xbd8e07c4	-0.06935075
234	0x3ce64819	0.02811055
235	0xbdbed2a7	-0.093175225
236	0xbc6ebfc5	-0.014572089
237	0xbd8235df	-0.06357931
238	0xbd08ac29	-0.03336731
239	0xbcbff5b3	-0.023432588
240	0xbd66754f	-0.056264218
241	0xbd8dd060	-0.0692451
242	0xbc351056	-0.011051258
243	0xbb7b4180	-0.0038338602
244	0xbdd236c9	-0.10264356
245	0x3da89949	0.08232362
246	0xbdd5a3f4	-0.10431662
247	0xbd9902e7	-0.07471257
248	0x3cce9995	0.025219718
249	0xbd2d4981	-0.042306427
250	0x3cc88890	0.02447918
251	0x3d555ffd	0.052093495
252	0xbd8bd8d8	-0.06828469
253	0xbd510f88	-0.051040202
254	0xbdeaedf5	-0.11471168
255	0xbd8978ff	-0.06712531

layer3.bias f4 [64]
0	0x3defdc22	0.11711909
1	0xbde1d38e	-0.11026679
2	0x3ce82acd	0.028340722
3	0xbd07e372	-0.033175893
4	0x3c8cc024	0.017181464
5	0xbd9c48fb	-0.076311074
6	0xbcd57a98	-0.026059434
7	0xbcd67bf4	-0.026182152
8	0x3e216a78	0.15763271
9	0x3d9865f4	0.07441321
10	0xbddfdc2b	-0.109306656
11	0xbc9a1e94	-0.018813409
12	0xbdec6b92	-0.11543955
13	0x3e49afd2	0.19695976
14	0x3e2570a4	0.1615625
15	0x3d0406c9	0.032233033
16	0x3cfb30e7	0.030662967
17	0xbe01dfcd	-0.1268303
18	0xbc4da4fc	-0.012551542
19	0x3e35013a	0.17676249
20	0xbc15cdca	-0.009143302
21	0xbdc61bf3	-0.096733
22	0x3ed715c3	0.4200879
23	0xbdd5a590	-0.10431969
24	0x3e1d02e5	0.15333135
25	0x3d4ab63c	0.0494902
26	0xbb10ec0a	-0.0022113346
27	0xbab6f561	-0.0013958627
28	0x3e044ba7	0.12919484
29	0xbda4e3c6	-0.08051257
30	0x3dac96b1	0.084271796
31	0xbd9970e6	-0.07492237
32	0xbddc3fb0	-0.10754335
33	0x3b4532da	0.0030090124
34	0xbdfaf736	-0.12254183
35	0xbdb0a0b2	-0.086244
36	0xbe1054ed	-0.14094897
37	0xbc9c1ed6	-0.019057672
38	0x3cbd5f58	0.023116753
39	0x3de2097e	0.11036967
40	0x3bfed55c	0.0077768993
41	0xbda49451	-0.080361016
42	0x3e6846f1	0.22683312
43	0x3dc2f1c0	0.095187664
44	0x3e55bbd9	0.2087244
45	0x3c98a61f	0.0186339
46	0xbda69d69	-0.08135492
47	0x3cd95ac3	0.026532536
48	0x3e265329	0.1624266
49	0x3e26d263	0.16291194
50	0x3e43a7e2	0.19107011
51	0x3d1be890	0.038063586
52	0x3d0dac21	0.034587983
53	0x3e5fc021	0.21850635
54	0xbde3fd88	-0.111323416
55	0x3e127d7b	0.1430568
56	0xbd91ba64	-0.07115629
57	0x3d641362	0.055682547
58	0xbd02ad52	-0.031903572
59	0xbde838f7	-0.1133899
60	0x3d6b52c6	0.057451986
61	0xbdfdca0f	-0.12392055
62	0x3d81119f	0.06302189
63	0x3d8439de	0.0645635

slot_head.weight f4 [13, 64]
0	0xbd4afa99	-0.049555395
1	0xbe266733	-0.16250305
2	0x3d93b7fe	0.07212828
3	0xbc0d91cd	-0.008640719
4	0x3d8049a2	0.06264044
5	0xbdac9fe2	-0.08428933
6	0xbdb3381a	-0.08750935
7	0xbb75c911	-0.0037503878
8	0x3e9e4bce	0.3091721
9	0xbe248adb	-0.16068594
10	0xbf36408d	-0.71192247
11	0xbd71876e	-0.058967046
12	0xbe0c648c	-0.1371023
13	0x3deb5e67	0.11492615
14	0x3d78b7d5	0.06072219
15	0xbf93b630	-1.1539974
16	0xbf3fb27d	-0.74881727
17	0xbe0045cb	-0.12526624
18	0xbd740138	-0.059571475
19	0xbe0f6d4d	-0.14006539
20	0xbddf3cc4	-0.10900262
21	0xbe0422b8	-0.12903869
22	0x3eff6fb6	0.49889916
23	0xbaf2c497	-0.0018521723
24	0x3ee08f34	0.43859255
25	0x3d7a136e	0.061053686
26	0x3e482369	0.19544758
27	0xbea62a87	-0.3245432
28	0xbb4c9416	-0.0031216196
29	0x3ea2110c	0.3165363
30	0xbc29266f	-0.010324105
31	0xbcd5c920	-0.02609688
32	0xbdbd800c	-0.09252939
33	0x3db48dd3	0.08816113
34	0xbb4a17ed	-0.0030837015
35	0xbdadc653	-0.08485093
36	0x3d5024e0	0.050816417
37	0xbe01bb67	-0.12669145
38	0xbf422195	-0.7583249
39	0xbc21107d	-0.009830591
40	0xbe14dd5f	-0.14537571
41	0xbdcebdaf	-0.10094773
42	0xbef1d609	-0.47233608
43	0xbee5844a	-0.4482749
44	0x3d10004e	0.03515654
45	0x3c86ff47	0.016479148
46	0xbe2045f3	-0.15651684
47	0xbee79a48	-0.45234895
48	0xbeb027fc	-0.34405506
49	0xbe1ae10e	-0.15124914
50	0xbeb54a2a	-0.35408145
51	0x3f1c0d32	0.60957634
52	0x3c8d1fcf	0.017227082
53	0xbeb3a691	-0.35088018
54	0xbe1a7095	-0.15082009
55	0x3ec23a3b	0.3793505
56	0xbcc7c182	-0.024384264
57	0xbf055ffa	-0.52099574
58	0x3d050574	0.032475904
59	0xbe1988e8	-0.14993632
60	0x3e858ad0	0.26082468
61	0xbd716afa	-0.05893991
62	0x3d9e93f9	0.07743067
63	0xbd18c4f6	-0.03729721
64	0x3ea4a95a	0.32160455
65	0x3dc4ead6	0.09615104
66	0xbb1c399d	-0.002383805
67	0xbd8a5efe	-0.067563996
68	0x3d85f826	0.06541471
69	0xbd5d88b0	-0.054085433
70	0xbd6668ef	-0.056252416
71	0xbaa01839	-0.001221425
72	0xbd2707ac	-0.0407788
73	0x3dc5999e	0.09648441
74	0xbea1e01b	-0.3161629
75	0x3df49461	0.119423635
76	0x3c678fe1	0.0141334245
77	0xbead58bf	-0.3385677
78	0x3df4e16e	0.1195706
79	0xbf14a10e	-0.5805825
80	0x3e5daf3b	0.21648876
81	0xbe1ccf00	-0.15313339
82	0xbdfff404	-0.12497714
83	0x3dec1632	0.11527671
84	0x3c7f3014	0.015575428
85	0xbd9710d6	-0.07376258
86	0xb955a5d6	-0.00020375042
87	0xbd766aae	-0.06016033
88	0xbd21fd3b	-0.03954814
89	0x3d6e0afb	0.05811594
90	0x3e99de48	0.300524
91	0xbe4be14e	-0.19910166
92	0x3ee53414	0.44766295
93	0xbd82bb27	-0.06383353
94	0x3e3ae8d0	0.18252873
95	0x3db56ba5	0.08858422
96	0x3c21f26a	0.009884456
97	0xbd42ae31	-0.047529403
98	0x3ac59eb5	0.0015077206
99	0xbd16ca75	-0.03681417
100	0x3d5f1e3e	0.0544722
101	0xbcf31f07	-0.02967788
102	0xbe4366ce	-0.19082186
103	0x3eb8cbf6	0.3609311
104	0x3df47556	0.119364426
105	0xbdb41c6c	-0.087944835
106	0x3de8fb19	0.11376018
107	0xb9707abc	-0.00022933906
108	0x3e200a75	0.15628989
109	0x3df7d0d5	0.121003784
110	0xbdd8ee03	-0.10592272
111	0xbe53f6da	-0.20699635
112	0xbfc818bf	-1.5632552
113	0x3e4b6892	0.19864109
114	0xbddb335b	-0.10703155
115	0xbdb6b975	-0.08922092
116	0xbd9ca5ce	-0.07648812
117	0xbea25172	-0.31702763
118	0x3cd5b605	0.02608777
119	0x3e80e815	0.25177065
120	0xbafa97c7	-0.001911872
121	0xbd40c4ef	-0.04706281
122	0x3dc4bf0d	0.096067525
123	0x3c782cd7	0.015147409
124	0xbf513d09	-0.8173376
125	0xbd8f4cd1	-0.069970734
126	0xbe2bbc5a	-0.16771069
127	0x3dff008d	0.12451277
128	0xbe8dc10c	-0.27686346
129	0x3d88c385	0.066779174
130	0x3c5c9f7f	0.013465761
131	0xbd14180c	-0.036155745
132	0xbd6d22a6	-0.05789437
133	0x3a691119	0.00088907924
134	0x3ce855f9	0.028361307
135	0xbdb56a36	-0.08858149
136	0x3e71cd5f	0.23613499
137	0x3e3c5e79	0.18395413
138	0x3dff3eef	0.124631755
139	0xbdbd59f6	-0.09245674
140	0xbdec01c4	-0.11523774
141	0x3ef879ab	0.48530325
142	0x3eb2000a	0.34765655
143	0xbf44b455	-0.76837665
144	0xbeb276fb	-0.348564
145	0xbd97444c	-0.073860735
146	0x3d7e8acc	0.062144086
147	0xbf2e3ec8	-0.68064547
148	0x3d8a11c4	0.0674167
149	0x3d481ea7	0.048857357
150	0x3d3d59f0	0.04622835
151	0xbd731b6b	-0.05935232
152	0x3ecaf137	0.39637157
153	0xbd8416a9	-0.064496346
154	0xbf39c396	-0.72564065
155	0xbeaadf39	-0.3337343
156	0xbe8683ca	-0.26272422
157	0xbf87a92a	-1.05985
158	0xbee03190	-0.43787813
159	0xbcb5900b	-0.022163412
160	0xbdb1ce7e	-0.086819634
161	0x3d004cd6	0.031323276
162	0x3da526f4	0.0806407
163	0xbd5f56e6	-0.054526232
164	0xbe227ea4	-0.15868622
165	0xbda5dc57	-0.08098667
166	0xbeb077c0	-0.34466362
167	0xbe03b648	-0.12862504
168	0xbdef9448	-0.11698204
169	0xbdb710af	-0.08938729
170	0xbee03260	-0.43788433
171	0xbe4749d3	-0.19461755
172	0x3ec9f0c9	0.39441517
173	0x3d99549c	0.07486841
174	0xbe15a21f	-0.14612626
175	0x3da4dd01	0.08049966
176	0x3e574d0a	0.21025482
177	0x3e915b24	0.28389847
178	0xbf227819	-0.63464504
179	0xbe9fb9cb	-0.31196436
180	0xbe1239df	-0.14279889
181	0x3e4a13ad	0.19734068
182	0xbd266ed9	-0.040633056
183	0xbef2ec6a	-0.47445995
184	0x3d870840	0.065933704
185	0xbee3645f	-0.44412515
186	0xbd246ed2	-0.04014475
187	0x3d6ae063	0.057342898
188	0x3e89f779	0.2694662
189	0x3c8b85a1	0.017031493
190	0x3e92a74b	0.2864326
191	0xbd868b68	-0.065695584
192	0x3e2c02dd	0.16797967
193	0x3d8cc4c3	0.06873467
194	0x3d50916a	0.050919928
195	0x3d382115	0.044953424
196	0x3c9d79a8	0.01922305
197	0xbbd3f344	-0.0064682085
198	0xbda3ed48	-0.08004242
199	0xbea70a04	-0.3262483
200	0x3ed31ee1	0.41234496
201	0xbe29193c	-0.16513532
202	0xbc9ae67a	-0.018908728
203	0x3b8e908f	0.004350729
204	0xbdbb6f0d	-0.09152041
205	0xbdb93e62	-0.09045102
206	0x3eb76c71	0.35824922
207	0xbe279e43	-0.16368966
208	0xbe25efc1	-0.1620474
209	0xbdfe9c48	-0.12432152
210	0x3d1957b4	0.037437156
211	0x3ef639ef	0.48091075
212	0xbd66a64d	-0.05631094
213	0xbdfc4170	-0.12317169
214	0xbeed9d8a	-0.46409255
215	0xbbaa028a	-0.005188291
216	0x3e620eb3	0.2207592
217	0x3d6da0cc	0.058014676
218	0xbeacbcbe	-0.3373775
219	0xbd81e97c	-0.06343362
220	0xbf348353	-0.70512885
221	0x3e85d0a1	0.26135734
222	0xbe844b4f	-0.25838706
223	0x3d6705b6	0.05640193
224	0xbd89cfd6	-0.06729095
225	0xbd668d5e	-0.056287162
226	0xbe2121a1	-0.15735485
227	0x3dae5b65	0.08513526
228	0xbdf7d777	-0.121016435
229	0xbd9c4439	-0.076302
230	0x3e1d5da4	0.15367752
231	0xbe9e3e08	-0.309067
232	0xbd87ba3b	-0.066273175
233	0xbd947ef4	-0.07250777
234	0x3eb0b0b3	0.3450981
235	0x3c85e67d	0.016345257
236	0xbe91bdd2	-0.28465134
237	0xbc04c9b2	-0.008104729
238	0x3d378b7f	0.04481077
239	0xbebded75	-0.37095228
240	0xbde5a28d	-0.11212645
241	0xbf0a5e50	-0.5405016
242	0x3e70437f	0.23463248
243	0x3dc479ff	0.095935814
244	0x3e005221	0.1253133
245	0x3f01324e	0.50467384
246	0x3d6b11c3	0.057389986
247	0xbf830b13	-1.0237755
248	0xbc0f05a4	-0.008729372
249	0x3e7bf453	0.24604921
250	0xbd3fc25f	-0.046816226
251	0xbc33fd66	-0.010985708
252	0x3e017fcf	0.12646411
253	0x3d8c7ccd	0.06859741
254	0xbe09c4fe	-0.13454053
255	0x3f0cf1a6	0.55056226

slot_head.bias f4 [13]
0	0xbe236850	-0.15957761
1	0x3d82b2ee	0.063817844
2	0x3a2e0b54	0.0006639261
3	0x3e81300e	0.25231975
4	0xbdf49d6f	-0.119440906
5	0x3c111e78	0.008857362
6	0x3e88e002	0.26733404
7	0xbe0d026d	-0.13770457
8	0x3dd9e798	0.10639876
9	0xbb959a82	-0.004565538
10	0x3e516143	0.20447259
11	0xbe4eb15d	-0.20184846
12	0xbdf172e1	-0.117894895

rotation_head.weight f4 [3, 64]
0	0x3e932e81	0.28746417
1	0x3e0171fc	0.12641138
2	0x3d964f92	0.073393956
3	0x3d3405f7	0.043951
4	0xbbb6a8d0	-0.0055743232
5	0xbcad2c4d	-0.021139288
6	0x3de2e553	0.110788964
7	0x3e7f2b57	0.24918877
8	0x3e073113	0.13202314
9	0xbbbcf6a3	-0.005766706
10	0x3ec5d8c4	0.38641942
11	0x3ae56d36	0.0017503861
12	0xbdc16342	-0.0944276
13	0x3d927da7	0.071528725
14	0x3eb55a56	0.35420483
15	0xbe895e42	-0.26829726
16	0x3c8c2175	0.017105797
17	0xbd9f3be1	-0.07775093
18	0x3d82fa56	0.06395404
19	0x3eb5801f	0.3544931
20	0x3d8792cc	0.06619796
21	0xbc77d32c	-0.015126031
22	0xbe93808c	-0.2880901
23	0xbd8d7119	-0.06906337
24	0x3e867945	0.26264396
25	0x3e268251	0.1626065
26	0x3dcf3e72	0.101193324
27	0xbeadd2a4	-0.3394977
28	0x3ea702c1	0.3261929
29	0x3db41161	0.08792377
30	0xbded9d94	-0.11602321
31	0x3d75999c	0.059960946
32	0x3ca3fa98	0.020016953
33	0x3def3398	0.116797626
34	0xbd8ecd67	-0.06972771
35	0xbd016699	-0.031591985
36	0x3e347b11	0.17625071
37	0xbce3eae2	-0.027821962
38	0xbd3a036c	-0.04541342
39	0x3ea4f0ed	0.32215062
40	0x3d1b4e32	0.03791637
41	0xbd51583a	-0.05110953
42	0xbe9045b1	-0.2817817
43	0xbe0a3d2f	-0.13499902
44	0xbd062c16	-0.032756887
45	0x3e0fe850	0.14053464
46	0x3d823825	0.06358365
47	0x3e54ccd8	0.20781267
48	0xbe6182a0	-0.22022486
49	0xbd8c538a	-0.06851871
50	0x3e60e8d9	0.21963824
51	0x3d0f6ce4	0.035015956
52	0xbd197aa1	-0.037470464
53	0x3b0e9798	0.0021757837
54	0xba013209	-0.00049284153
55	0xbe443db8	-0.19164169
56	0x3bfb7392	0.007673689
57	0xbde6229d	-0.11237071
58	0x3bbaa518	0.0056959502
59	0xbd3e9914	-0.046532705
60	0xbe69c46c	-0.22828835
61	0xbdb3a855	-0.08772341
62	0x3f0374b3	0.51349944
63	0x3d46a223	0.04849447
64	0xbd03032f	-0.031985458
65	0xbc8346f8	-0.016025051
66	0xbd33fcc4	-0.043942228
67	0xbde50842	-0.11183216
68	0x3c005781	0.007833363
69	0xbceb0611	-0.028689416
70	0xbd0d5c82	-0.03451205
71	0xbdfadc5e	-0.12249063
72	0x3d8876ed	0.06663308
73	0x3d27dcd1	0.04098207
74	0xbe97ab6c	-0.29622972
75	0xbdf13ed1	-0.117795594
76	0xbd9b3614	-0.07578674
77	0xbda92727	-0.08259421
78	0xbe864179	-0.26221827
79	0x3e859c0a	0.2609561
80	0x3e499ca6	0.19688663
81	0xbddb0bca	-0.10695608
82	0x3d4b7800	0.049674988
83	0xbe8194d6	-0.25308865
84	0xbd053af2	-0.032526918
85	0x3da4bc5f	0.080437414
86	0x3e73d2a4	0.23810822
87	0x39058c2f	0.00012736091
88	0xbe050b7f	-0.12992667
89	0xbd4cf01b	-0.05003367
90	0xbdc3dee2	-0.09563996
91	0x3ec7b674	0.39006388
92	0xbe29eb30	-0.16593623
93	0x3e075132	0.13214567
94	0x3e1dfb48	0.15427887
95	0x3d111839	0.03542349
96	0x3c70dab9	0.014700585
97	0xbdb98b6c	-0.09059796
98	0xbd0ef987	-0.034905937
99	0xbdab2b1d	-0.083578326
100	0xbd56557f	-0.05232763
101	0xbc25e576	-0.0101255085
102	0x3e45b31d	0.19306608
103	0xbd9d37ea	-0.076766804
104	0xbd2c840e	-0.042118125
105	0x3d825d70	0.06365478
106	0x3e99315e	0.29920477
107	0x3e59fa24	0.21286827
108	0x3e7547ff	0.23953246
109	0x3d4ccaf6	0.049998246
110	0xbd6f3ef6	-0.058409654
111	0xbd9ba2cf	-0.07599413
112	0x3e49f666	0.197229
113	0x3d66c94d	0.05634432
114	0xbdd8e946	-0.105913684
115	0xbdad964e	-0.08475934
116	0xbc4f732f	-0.012661739
117	0x3d8924aa	0.06696446
118	0x3da840db	0.08215495
119	0x3e0297c3	0.12753205
120	0xbdef7527	-0.11692267
121	0x3dffb297	0.12485235
122	0xbd529afb	-0.051417332
123	0x3d345966	0.04403057
124	0x3e5907f9	0.21194448
125	0xbda93912	-0.082628384
126	0xbed751f6	-0.4205472
127	0xbe340458	-0.17579782
128	0xbe924bf3	-0.2857357
129	0x3d28b9da	0.041192867
130	0x3c95926c	0.018258296
131	0xbd39187d	-0.04518937
132	0xbc700301	-0.014649154
133	0x3dd8bb53	0.10582604
134	0x3dab2391	0.08356393
135	0xbe730fdb	-0.23736517
136	0xbdef43c6	-0.11682849
137	0xbe2e419a	-0.17017213
138	0xbda56aab	-0.08076986
139	0xbd0e7910	-0.034783423
140	0xbcf8a9fe	-0.030354496
141	0xbe68e6c2	-0.22744277
142	0xbe0ef6b6	-0.139613
143	0x3d55b7f2	0.052177377
144	0xbe1bf114	-0.15228683
145	0x3db4932e	0.08817135
146	0xbd58c41c	-0.0529214
147	0xbe66bc61	-0.22532798
148	0xbdfdda30	-0.123951316
149	0xbd7b0f84	-0.061294094
150	0xbe263200	-0.16230011
151	0x3ae5f876	0.0017545361
152	0xbe916e0d	-0.28404275
153	0x3d3ac6c5	0.045599718
154	0xbe70882e	-0.23489448
155	0xbeb112e9	-0.3458474
156	0xbd9cb953	-0.07652535
157	0xbee0d123	-0.4390956
158	0xbe8a50b2	-0.2701469
159	0xbe2c0d93	-0.16802053
160	0xbda69988	-0.081347525
161	0xbe18960b	-0.14900987
162	0xbe0fb4d8	-0.1403383
163	0xbe499d9b	-0.19689028
164	0xba2fe803	-0.00067102927
165	0xbd5057a6	-0.050864838
166	0xbe967af4	-0.2939068
167	0xbe22a146	-0.15881833
168	0xbd3285c5	-0.043584604
169	0xbdb129a0	-0.086505175
170	0xbe8f353a	-0.27970296
171	0xbe346192	-0.17615345
172	0xbe43b213	-0.19110899
173	0x3dac0b86	0.084006354
174	0xbcbbc25f	-0.022919832
175	0xbe2300bc	-0.15918249
176	0xbf0f73a7	-0.56035846
177	0xbe3d8d22	-0.18510869
178	0xbe69e6b7	-0.22841917
179	0xbda13cfa	-0.078729585
180	0x3c7d2cdd	0.015452591
181	0xbf42652b	-0.7593562
182	0xbc90d904	-0.017681606
183	0xbf48e2ec	-0.78471255
184	0x3c0a13b3	0.008427548
185	0xbe6a5809	-0.22885145
186	0x3d89ee15	0.06734864
187	0x3d7ffa49	0.06249455
188	0xbed704d3	-0.41995868
189	0x3d524307	0.051333454
190	0xbe11ef35	-0.14251406
191	0xbe2765d5	-0.1634744

rotation_head.bias f4 [3]
0	0x3dd70510	0.104990125
1	0xbb7d6d66	-0.0038669943
2	0xbe2dc116	-0.16968188
