outputs/trained_models/placement_model_20250802_062934.pth (torch, 79173 bytes, 10 tensors)

layer1.weight f4 [64, 15]
0	0xbf4d4bd2	-0.8019382
1	0xbf58ebf3	-0.8473503
2	0xbe972241	-0.2951832
3	0x3f01d3ae	0.5071362
4	0x3e71f255	0.23627599
5	0xbea496f2	-0.32146412
6	0xbf0c1192	-0.5471431
7	0xbcb19f96	-0.021682542
8	0x3f196bd9	0.5993019
9	0x3f2126ef	0.6295003
10	0x3f22dea3	0.63620967
11	0xbd91d529	-0.07120735
12	0x3e10fe0f	0.14159416
13	0x3cf8b484	0.030359514
14	0xbc97e617	-0.018542333
15	0x3ea793e7	0.32730028
16	0xbf06b477	-0.5261912
17	0x3f43f901	0.76551825
18	0x3e0dfe76	0.138666
19	0xbe8b68cd	-0.27228394
20	0x3e895e29	0.2682965
21	0x3f082bd1	0.5319186
22	0xbeec4479	-0.4614599
23	0x3ed0b632	0.40764004
24	0xbe2d6327	-0.16932355
25	0xbee7a6fa	-0.4524458
26	0xbe45edba	-0.19328967
27	0x3aec8558	0.0018045111
28	0x3eab6775	0.3347737
29	0xbd90e352	-0.07074608
30	0x3edbc00e	0.42919964
31	0x3f1eae9b	0.61985177
32	0x3d855c1b	0.06511708
33	0xbe839b53	-0.2570444
34	0xbf594848	-0.8487592
35	0xbf24247b	-0.64118165
36	0xbecf8dc4	-0.40537846
37	0xbe505585	-0.20345123
38	0xbe2cc5a9	-0.16872276
39	0x3df77977	0.120837145
40	0xbecacc60	-0.3960905
41	0xbebc30f0	-0.36756086
42	0x3e9a9f9a	0.3019989
43	0xbf079cfa	-0.529739
44	0x3e5142c9	0.20435633
45	0xbe7cbfdf	-0.24682568
46	0x3f418ef7	0.7560877
47	0xbf9f9eb7	-1.2470311
48	0x3e099cda	0.1343874
49	0xbf6650d5	-0.8996709
50	0xbddf2fb4	-0.108977705
51	0xbd305c7a	-0.043056943
52	0xbf33d1da	-0.70242083
53	0x3f528a99	0.82242733
54	0x3e8d3498	0.27579188
55	0x3f0331a0	0.51247597
56	0xbc32879c	-0.01089659
57	0xbed36f60	-0.4129591
58	0x3e7a6199	0.24451293
59	0xbecc539a	-0.39907533
60	0xbf6d7c7a	-0.9276806
61	0xbe97a062	-0.2961455
62	0xbf3e41a4	-0.7431891
63	0xbc8c8481	-0.017153027
64	0xbdbf17d5	-0.093307175
65	0x3f63c75f	0.8897609
66	0xbdf9a6aa	-0.12189992
67	0xbdf5a669	-0.11994631
68	0x3f539fa2	0.82665455
69	0xbeefd7c7	-0.46844313
70	0xbcb41cd5	-0.021986404
71	0xbf60a60f	-0.87753385
72	0x3e211b3f	0.1573305
73	0xbc8c0f77	-0.017097218
74	0x3e173f82	0.1477032
75	0xbf305170	-0.68874264
76	0x3f81830d	1.0118119
77	0x3ed68968	0.41901708
78	0x3ef2836c	0.47365892
79	0x3ed25f7e	0.4108848
80	0x3f01ca5c	0.506994
81	0x3ef989f0	0.4873805
82	0xbec8706a	-0.39148265
83	0x3f59f472	0.8513862
84	0xbefc77b9	-0.4931009
85	0xbd535e4a	-0.051603593
86	0xbf2648d2	-0.64954865
87	0xbda3f5ab	-0.08005842
88	0x3dc3bb3b	0.09557196
89	0x3e62f4a7	0.2216364
90	0xbf39cebe	-0.7258109
91	0x3eaf6007	0.3425295
92	0x3ebab9c6	0.3646986
93	0x3e8ad843	0.2711812
94	0xbebf6109	-0.3737872
95	0xbe6ed9c4	-0.23325258
96	0x3d102334	0.035189822
97	0x3ec42061	0.38305953
98	0xbfab345d	-1.3375355
99	0x3f0af74a	0.54283583
100	0xbdcecf2d	-0.100981094
101	0xbe7abb71	-0.24485566
102	0xbd38c178	-0.04510638
103	0x3d8d32cf	0.068944566
104	0xbe9266a3	-0.2859393
105	0xbee1fdf6	-0.4413907
106	0xbd990c23	-0.07473018
107	0xbdd3257d	-0.10309885
108	0xbe465fdf	-0.1937251
109	0xbefe4095	-0.49658647
110	0xbf6ac5cf	-0.9170808
111	0xbecdb1b9	-0.40174654
112	0xbf35813f	-0.7090034
113	0xbe261df7	-0.16222368
114	0x3f80affe	1.0053709
115	0xbfa75849	-1.3073817
116	0x3ea51235	0.32240453
117	0xbf2278c0	-0.634655
118	0xbf6b7051	-0.91968256
119	0x3ea19991	0.31562474
120	0x3f0257a1	0.5091496
121	0x3c84b546	0.01619972
122	0xbf219ad7	-0.6312689
123	0x3f1192af	0.56864446
124	0xbe276e5e	-0.16350695
125	0xbf6045b7	-0.87606376
126	0xbe6320bb	-0.22180454
127	0xbe6a044d	-0.22853203
128	0xbf65d36c	-0.8977573
129	0x3ee3450b	0.44388613
130	0xbcd593d2	-0.026071463
131	0x3d6e0e5b	0.05811916
132	0x3de14286	0.109990165
133	0x3d0000f1	0.031250898
134	0xbca00684	-0.019534357
135	0x3dd4fbab	0.10399564
136	0xbf0bc0bc	-0.54590964
137	0xbd018928	-0.031624943
138	0xbe72a6ef	-0.23696493
139	0xbdb880bc	-0.09008929
140	0xbe310353	-0.17286424
141	0x3e49adef	0.19695257
142	0x3e58ba74	0.21164876
143	0x3f51f39b	0.8201234
144	0x3f5575f7	0.83383125
145	0xbeb1ea49	-0.34749058
146	0x3dc1ef7e	0.09469508
147	0xbef845a9	-0.48490646
148	0xbf1b138a	-0.6057669
149	0xbc7a2c7a	-0.015269393
150	0x3e8f6f3e	0.2801456
151	0xbf0ffb8b	-0.562432
152	0xbf2599e9	-0.64687973
153	0xbec7da68	-0.39033818
154	0xbe7e807a	-0.24853697
155	0x3da08e46	0.078396365
156	0x3f1a30dc	0.60230803
157	0xbee7f582	-0.45304495
158	0xbdc833b6	-0.09775488
159	0xbe991c2c	-0.29904306
160	0xbdc65e87	-0.096859984
161	0x3d2094a6	0.039204262
162	0x3e55dadb	0.20884268
163	0x3bb18714	0.005417714
164	0xbe811f2c	-0.25219095
165	0xbf2b1084	-0.66822076
166	0xbff0f46b	-1.882459
167	0x3e5417d5	0.20712216
168	0x3ed3f199	0.41395262
169	0xbe942d8f	-0.28941008
170	0x3ed68f8e	0.419064
171	0xbf324ce2	-0.69648564
172	0x3e9053fa	0.2818907
173	0xbeee8e2e	-0.4659285
174	0x3f1593a3	0.584284
175	0xbe877aa6	-0.2646076
176	0x3e4cc428	0.19996703
177	0xbc35655c	-0.011071529
178	0x3e453949	0.19260134
179	0x3de90fa3	0.113799356
180	0xbe87effd	-0.26550284
181	0x3ee9b4df	0.45645806
182	0x3e5bc895	0.21463235
183	0xbf543602	-0.8289491
184	0xbddc2e98	-0.107510746
185	0x3ef12e0a	0.47105438
186	0x3f91cd80	1.1390839
187	0x3e84dc04	0.2594911
188	0xbee715b8	-0.45133758
189	0xbf650d0b	-0.89473027
190	0x3e3123b2	0.17298773
191	0x3e455d6c	0.19273919
192	0x3daaefeb	0.08346542
193	0xbdf7e8e5	-0.12104968
194	0x3e586721	0.2113309
195	0x3ae27eb0	0.0017280187
196	0x3f045e11	0.51706034
197	0x3ea6ee34	0.3260361
198	0x3effa859	0.49933127
199	0xbe5daf89	-0.21648993
200	0xbf320f8f	-0.6955499
201	0xbeca3f92	-0.39501625
202	0x3c6a3b42	0.014296355
203	0xbfa5b206	-1.2944953
204	0xbf398c24	-0.7247946
205	0x3f315a0f	0.69278044
206	0x3e59a1a4	0.21253067
207	0xbe2df5a2	-0.16988233
208	0xbf0ccc6c	-0.54999423
209	0xbeb99093	-0.36243114
210	0x3e82a872	0.2551914
211	0xbce5b237	-0.028039081
212	0xbe530c0b	-0.20610063
213	0xbe60e581	-0.21962549
214	0xbe32e23c	-0.17469114
215	0x3e414cea	0.18876997
216	0x3e268ea2	0.16265348
217	0x3cf3c1a3	0.02975542
218	0xbd40d3c1	-0.047076944
219	0xbe1052bc	-0.1409406
220	0xbd8c1080	-0.068390846
221	0xbe3f72c8	-0.1869613
222	0xbe25fea2	-0.16210416
223	0xbd2dda19	-0.042444322
224	0xbe7ac43b	-0.24488918
225	0xbf9e7ad0	-1.2381229
226	0x3e0a0d0b	0.13481538
227	0x39fe1cef	0.00048468212
228	0x3f0cea64	0.5504515
229	0xbf3abe5c	-0.72946715
230	0x3c839cf1	0.016066046
231	0xbe25f837	-0.16207968
232	0xbdcee246	-0.10101752
233	0x3e1509b1	0.14554478
234	0x3c99ef90	0.01879099
235	0xbf70af32	-0.94017327
236	0x3dc06e48	0.093960345
237	0xbdda37e0	-0.106551886
238	0x3e0d24dd	0.13783593
239	0x3e595589	0.21224035
240	0xbe43510a	-0.19073883
241	0xbd89d7d1	-0.06730617
242	0x3e134b76	0.14384255
243	0xbdc999e4	-0.098438054
244	0xbd4e7a93	-0.050409865
245	0xbd6f089f	-0.05835783
246	0xbd9007b4	-0.07032719
247	0x3dbcca65	0.09218291
248	0xbd7bbd48	-0.06145981
249	0xbc47fe21	-0.012206585
250	0x3d980fb6	0.074248716
251	0xbd6c8493	-0.05774362
252	0xbe0a8f38	-0.13531196
253	0xbcec8ece	-0.028876688
254	0xbe3a556a	-0.18196645
255	0x3f305398	0.68877554

layer1.bias f4 [64]
0	0xbd8f0d7c	-0.06984994
1	0xbe771ac0	-0.24131298
2	0x3c58f85f	0.01324281
3	0xbcad0ece	-0.021125223
4	0xbd25a1ab	-0.04043738
5	0xbe829bc3	-0.25509462
6	0x3e3eaad4	0.18619853
7	0xbd88b1df	-0.06674551
8	0x3ead91c5	0.33900276
9	0xbd7c0dc8	-0.06153658
10	0x3e6c3963	0.23068766
11	0xbd4c3146	-0.04985168
12	0xbd84fb8b	-0.064932905
13	0xbe579627	-0.21053372
14	0xbe7dfada	-0.24802724
15	0x3e3d39a6	0.18479022
16	0xbe1e4113	-0.15454511
17	0xbe87577e	-0.2643394
18	0xbcc86ab1	-0.024464937
19	0x3eb1d041	0.34729198
20	0x3e042e2a	0.12908235
21	0xbd365279	-0.044512246
22	0xbe4e2937	-0.2013291
23	0xbdf77cc2	-0.120843425
24	0x3e740578	0.23830211
25	0xbe12cc71	-0.143358
26	0xbdc23bbf	-0.09484052
27	0xbe179a70	-0.14805007
28	0xbe8203e4	-0.25393593
29	0x3e054d58	0.13017786
30	0x3d8d8966	0.06910972
31	0xbe5ed47f	-0.21760748
32	0xbe0047f6	-0.12527451
33	0x3d95ac40	0.07308245
34	0xbc788348	-0.015168019
35	0x3ca714ae	0.020395603
36	0x3e39dbd6	0.18150267
37	0xbd14ccf2	-0.036328264
38	0x3dbdeb62	0.09273411
39	0xbe0bbb98	-0.1364578
40	0xbe222912	-0.1583598
41	0x3e807edc	0.25096786
42	0xbe00e7c0	-0.12588406
43	0x3e2554d4	0.1614564
44	0xbeb1efa7	-0.34753153
45	0x3ddd0eed	0.107938625
46	0xbe1d152a	-0.15340105
47	0xbe96c1a6	-0.29444617
48	0xbc2cd446	-0.010548657
49	0xbe833e71	-0.25633577
50	0x37ea01f4	2.7895883e-05
51	0xbe7ed502	-0.24885944
52	0xbb500e4b	-0.00317468
53	0x3d9973a3	0.07492759
54	0xbea876be	-0.32903093
55	0x3cdd94f8	0.027048573
56	0xbcc6e26f	-0.024277894
57	0xbeafa3b5	-0.34304586
58	0xbe7afc4b	-0.24510305
59	0xbde30164	-0.110842496
60	0xbd926464	-0.07148054
61	0x3e1a6be3	0.15080218
62	0xbc4d1618	-0.012517475
63	0x3c19b888	0.009382375

layer2.weight f4 [128, 64]
0	0xbe49503e	-0.19659516
1	0x3e317100	0.17328262
2	0xbec75a4b	-0.38936076
3	0x3e1da381	0.15394403
4	0x3f279616	0.6546339
5	0x3e86d65b	0.26335415
6	0xbd85a828	-0.06526214
7	0x3e1c9d3e	0.15294358
8	0xbd9aea00	-0.07564163
9	0x3e0d76a6	0.13814792
10	0x3e0c9f6e	0.13732693
11	0x3dd93ff0	0.10607898
12	0x3ddffa6d	0.10936437
13	0x3f1bba71	0.6083136
14	0x3dfc1704	0.123090774
15	0x3e9adaf4	0.30245173
16	0xbdedde08	-0.11614615
17	0xbe959abc	-0.29219615
18	0xbe292d88	-0.16521275
19	0xbec94042	-0.39306837
20	0xbe6adb84	-0.22935301
21	0x3e02eff5	0.12786849
22	0x3dd2430e	0.10266696
23	0xbe5b59c9	-0.21420969
24	0x3d9f0734	0.07765046
25	0x3eb42d2f	0.35190722
26	0xbe37ca44	-0.17948252
27	0xbec9df81	-0.39428332
28	0x3eb41c0c	0.35177648
29	0xbe73b2db	-0.23798697
30	0x3e6d89c8	0.2319709
31	0xbc5cca50	-0.013475969
32	0x3ee14df4	0.44004786
33	0xbf315131	-0.69264513
34	0x3e500a2f	0.20316385
35	0xbe8891ff	-0.26673886
36	0xbdee3d00	-0.116327286
37	0xbcce6a46	-0.02519716
38	0x3e6e271e	0.2325711
39	0xbbbd0c54	-0.005769292
40	0x3f67dd01	0.905716
41	0x3e56f60e	0.209923
42	0xbe67ace7	-0.22624551
43	0xbe1a8e07	-0.15093242
44	0xbe921a68	-0.2853577
45	0xbf13e9a3	-0.57778376
46	0xbdc5d0fd	-0.09659002
47	0x3eabbd10	0.3354268
48	0xbe0d18d9	-0.1377901
49	0x3f5be026	0.858889
50	0x3e7e7879	0.24850644
51	0x3dcc5ea0	0.09978986
52	0x3f102fbb	0.5632283
53	0x3e242c0d	0.16032429
54	0xbe114b47	-0.14188872
55	0xbf5ff047	-0.8747601
56	0x3e943e0b	0.28953585
57	0xbe1fa257	-0.15589271
58	0xbf1ee76f	-0.6207189
59	0xbea7f836	-0.32806557
60	0xbe682a97	-0.22672497
61	0x3e6fe54a	0.2342731
62	0xbe139a38	-0.14414299
63	0xbd0ede8f	-0.034880217
64	0xbeca94ff	-0.395668
65	0x3d6ceb0a	0.05784134
66	0x3ed2ec9c	0.41196144
67	0xbe1abebd	-0.15111823
68	0x3d0027d6	0.03128799
69	0xbbed6b15	-0.007245431
70	0xbd146678	-0.036230534
71	0x3f000ce4	0.5001967
72	0x3e322877	0.17398249
73	0x3efe2d89	0.49644116
74	0xbdf69bf2	-0.12041463
75	0x3e68df00	0.22741318
76	0x3e7b77f2	0.24557474
77	0xbed03c52	-0.4067102
78	0x3dc4845c	0.09595558
79	0x3d2d0065	0.042236704
80	0xbd6d5120	-0.057938695
81	0xbf288fa3	-0.6584417
82	0x3c2bd59f	0.010487943
83	0x3ea11777	0.31463215
84	0xbf0fce6f	-0.5617437
85	0xbdd72cfc	-0.10506627
86	0x3df73cec	0.12072167
87	0xbec499fa	-0.38398725
88	0x3e32a86e	0.17447063
89	0x3e9be3f4	0.30447352
90	0xbeb91f0d	-0.36156502
91	0xbe9f288e	-0.31085628
92	0x3eb93030	0.36169577
93	0xbdb804e5	-0.089853086
94	0x3ea7b085	0.3275186
95	0x3c2e5a86	0.0106417
96	0x3f09531b	0.53642434
97	0xbc812611	-0.015765222
98	0x3dee2078	0.11627287
99	0x3e6ab79b	0.22921602
100	0xbd714aa0	-0.05890906
101	0x3cd8842d	0.026430214
102	0xbc6926e8	-0.014230467
103	0xbf3078e4	-0.68934464
104	0xbf1595b6	-0.58431566
105	0x3df3d11c	0.11905119
106	0xbe82f8b9	-0.25580385
107	0xbf8816b0	-1.0631924
108	0xbf0a7c84	-0.54096246
109	0x3e7ae51d	0.24501462
110	0x3e00b8cb	0.12570493
111	0x3ee65a8a	0.4499095
112	0xbead7772	-0.33880192
113	0x3eefffee	0.46874946
114	0xbe30d4f8	-0.17268741
115	0xbbc21140	-0.0059224665
116	0xbdefb241	-0.11703921
117	0x3d42508e	0.047440104
118	0xbd85fd59	-0.06542463
119	0xbf041581	-0.5159531
120	0x3e29f3f9	0.16596974
121	0x3f3d637b	0.7397992
122	0xbf1da095	-0.61573154
123	0xbf4b25ea	-0.7935473
124	0xbebd8818	-0.37017894
125	0x3e1201b0	0.14258456
126	0xbeeb68bb	-0.4597834
127	0x3db58417	0.08863085
128	0x3f150bfc	0.5822141
129	0xbdad385d	-0.08458016
130	0x3dee87f7	0.11647027
131	0x3e1beb1b	0.15226404
132	0xbe6c8171	-0.23096253
133	0x3efede33	0.497789
134	0x3e049cc7	0.12950431
135	0xbdfdce32	-0.12392844
136	0xbaf8d4b4	-0.0018984289
137	0xbde7beb9	-0.11315674
138	0x3c9277b7	0.01787935
139	0x3f057d0a	0.5214392
140	0xbd356c4d	-0.044292737
141	0xbda5f91c	-0.081041545
142	0x3d3e6fd4	0.046493366
143	0x3e0b88fc	0.13626474
144	0x3d9846ac	0.074353546
145	0x3e9f91e3	0.3116599
146	0xbcb6cc14	-0.022314109
147	0x3d69df1a	0.05709753
148	0x3db79415	0.08963791
149	0x3da5113f	0.0805993
150	0x3c5469c0	0.012964666
151	0xbdefee6a	-0.11715396
152	0x3e11029d	0.14161153
153	0xbe56351a	-0.20918694
154	0x3e81196d	0.2521471
155	0x3b2053b1	0.0024463946
156	0xbead0739	-0.33794573
157	0xbdcee852	-0.10102905
158	0xbe42e558	-0.190328
159	0xbd8111cc	-0.063022226
160	0xbe203297	-0.15644298
161	0xbe579b2c	-0.21055287
162	0x3d1f78af	0.038933452
163	0xbcd8840d	-0.026430154
164	0x3cdea20e	0.027176883
165	0xbde58955	-0.11207835
166	0x3e837efb	0.25682816
167	0x3e74813f	0.23877428
168	0x3ff27da7	1.8944596
169	0x3e1a4434	0.1506508
170	0x3dea5c4c	0.114433855
171	0x3ccf9e69	0.02534409
172	0x3e8273e9	0.25479057
173	0xbeb49129	-0.35266998
174	0xbf196b98	-0.599298
175	0xbe94d800	-0.29071045
176	0x3efeeec0	0.49791527
177	0xbf003c97	-0.5009245
178	0xbbf5bb9f	-0.007499173
179	0xbd31ecec	-0.043438837
180	0x3dba9e3c	0.09112212
181	0xbdc6063f	-0.0966916
182	0xbceb9db8	-0.02876173
183	0x3e2dbfb4	0.1696766
184	0xbe4fff32	-0.20312193
185	0xbe848955	-0.25886026
186	0x3e7b98c1	0.2456999
187	0xbeb591bc	-0.3546275
188	0xbe514fbd	-0.20440574
189	0xbe25970e	-0.16170904
190	0x3dc163b8	0.09442848
191	0xbd64c9e7	-0.05585661
192	0x3d7d5f35	0.061858375
193	0xbc9c5849	-0.019085066
194	0x3d709658	0.05873713
195	0xbd084ebc	-0.033278212
196	0x3d9e070b	0.07716187
197	0x3c8eec37	0.01744662
198	0xbdcecfb3	-0.10098209
199	0x3a1b1217	0.00059154764
200	0xbd716891	-0.058937613
201	0xbdb8d8b2	-0.09025706
202	0xbdd222e6	-0.102605626
203	0xbd702c4f	-0.058636006
204	0xbddf21af	-0.108950965
205	0xbd388f43	-0.0450585
206	0x3c8df5b8	0.017329082
207	0xbe170c6f	-0.14750837
208	0xbc308a30	-0.010775134
209	0x3d419f4c	0.047271058
210	0x3a959caa	0.0011414487
211	0xbbfd81da	-0.007736427
212	0xbe14a6cb	-0.14516751
213	0xbd73eca8	-0.059551865
214	0xbd8cd3f4	-0.06876364
215	0xbcf908e9	-0.030399757
216	0xbda218ef	-0.07914912
217	0xbcc12dfa	-0.023581494
218	0xbcc482ec	-0.02398821
219	0x3d6c6e38	0.0577223
220	0x3db6fc94	0.08934894
221	0xbd7a6351	-0.06112987
222	0xbe3078d5	-0.17233594
223	0x3dee9f5a	0.11651488
224	0xbd6ae3b2	-0.057346053
225	0xbde63a5c	-0.112416
226	0xbe7604cb	-0.24025266
227	0x3d078abe	0.0330913
228	0xbe485ac2	-0.19565871
229	0xbe538fba	-0.20660296
230	0xbd47cded	-0.04878037
231	0x3e3c6994	0.1839965
232	0x3d2a4230	0.041567028
233	0xbdb50f83	-0.08840849
234	0xbe21a893	-0.15786962
235	0xbe02743d	-0.12739654
236	0x3ded898b	0.115985
237	0xbe66e7c1	-0.22549345
238	0xbdb83e7b	-0.08996292
239	0xbd58e893	-0.052956175
240	0x3d82b270	0.063816905
241	0x3e17599e	0.1478028
242	0xbd6366b5	-0.05551787
243	0x3d5422c0	0.051790953
244	0xbe55cf16	-0.20879778
245	0xbd4b43f7	-0.049625363
246	0xbd7c4870	-0.06159252
247	0x3c94e00e	0.018173244
248	0xbd8c6e20	-0.06856942
249	0x3c8e6f7f	0.01738715
250	0x3e0f9b2e	0.1402404
251	0x361b2e18	2.312363e-06
252	0xbd37edcf	-0.044904526
253	0xbccea17f	-0.025223492
254	0x3cd53948	0.02602829
255	0x3d47bd22	0.048764355

layer2.bias f4 [128]
0	0x3d4bb1b2	0.04973001
1	0x3e2da7f9	0.16958608
2	0xbdca75ea	-0.098857716
3	0xbe250e53	-0.16118746
4	0xbd140729	-0.03613964
5	0xb82aeda0	-4.0752464e-05
6	0xbe1f5136	-0.15558323
7	0x3dde3ac7	0.10851055
8	0xbd249530	-0.04018134
9	0xbc66fd47	-0.014098472
10	0x3db30a08	0.08742148
11	0xbe101408	-0.14070141
12	0xbccc7511	-0.024958165
13	0x3ed37457	0.41299698
14	0xbe0c3f66	-0.1369606
15	0xbdd2bb4e	-0.10289632
16	0xbdf13fc6	-0.11779742
17	0x3e1ca7f8	0.1529845
18	0x3dcbdc3e	0.09954117
19	0x3e3fd76f	0.18734525
20	0xbe2ace74	-0.16680318
21	0x3d1efe64	0.038816825
22	0x3e92b3a8	0.28652692
23	0x3e357439	0.17720117
24	0xbbf65c60	-0.007518336
25	0x3e006505	0.12538536
26	0x3ded6e46	0.115932986
27	0x3cccdc03	0.025007254
28	0xbe1baac2	-0.15201858
29	0x3de5ce5a	0.11220999
30	0x3dc6900f	0.09695446
31	0x3da8ccdd	0.082421996
32	0x3d98a45d	0.07453225
33	0x3ebc567d	0.36784735
34	0x3e2ea1b8	0.17053878
35	0xbe2164ce	-0.1576111
36	0x3da293e5	0.07938365
37	0x3e43e783	0.19131283
38	0x3e031dea	0.1280438
39	0x3cad9a27	0.02119167
40	0xbe98a17d	-0.29810706
41	0x3e079f55	0.13244374
42	0x3df3f5bf	0.11912107
43	0xbd81b042	-0.06332447
44	0x3e710fe1	0.23541214
45	0xbe459db7	-0.19298445
46	0xbe329fc4	-0.17443758
47	0x3e44d769	0.19222797
48	0x3e30f8a9	0.17282356
49	0x3dbc47ea	0.09193404
50	0x3e262464	0.1622482
51	0x3dcfb6da	0.10142298
52	0x3e23d9bf	0.16001032
53	0x3e0f2710	0.13979745
54	0x3e72f39f	0.23725747
55	0x3e4959d6	0.19663176
56	0xbdd968aa	-0.10615666
57	0xbdbea1c6	-0.093081996
58	0xbd9c87ee	-0.07643114
59	0x3e1d51e3	0.15363269
60	0x3e7ea91c	0.24869198
61	0xbe64594b	-0.22299688
62	0xbd77e6a6	-0.060522698
63	0x3e4228b5	0.18960841
64	0xbd7e8fb5	-0.06214877
65	0x3e53bbc7	0.206771
66	0xbdedfb7a	-0.11620231
67	0xbc0ace90	-0.0084721
68	0x3dc6eef9	0.09713549
69	0x3e26ce8a	0.16289726
70	0x3e6b0339	0.22950448
71	0x3ea7b8fc	0.3275832
72	0x3e16beab	0.14721172
73	0x3d3362fb	0.043795567
74	0x3e80743a	0.25088674
75	0x3deed0ba	0.11660905
76	0x3e6dd6d0	0.23226476
77	0x3d81d61d	0.06339667
78	0xbe79a98e	-0.24381086
79	0xbdce6e59	-0.10079641
80	0x3e5919c9	0.21201243
81	0x3e05adc3	0.13054566
82	0x3e28b503	0.164753
83	0xbeb9ff4d	-0.36327592
84	0x3d34362e	0.043996982
85	0x3e352874	0.17691213
86	0xbd9f6c01	-0.07784272
87	0xbe5c5d27	-0.2151991
88	0x3da95208	0.08267599
89	0x3c91f951	0.017819079
90	0xbe6cd73f	-0.23128985
91	0x3cb0bd0b	0.021574518
92	0xbdd13a0a	-0.10216148
93	0xbe977752	-0.29583222
94	0x3e5c5468	0.21516573
95	0x3ec607ae	0.38677734
96	0xbdb2ba5f	-0.08726954
97	0x3d87830d	0.06616793
98	0xbeb15ef4	-0.34642756
99	0x3e5408bf	0.20706461
100	0x3e439391	0.19099261
101	0x3d21280c	0.039344832
102	0xbda519b7	-0.08061545
103	0xbe2ff206	-0.17182168
104	0xbb16008c	-0.002288851
105	0x3e91cdac	0.28477228
106	0xbe29b12a	-0.16571489
107	0xbe45ba5f	-0.19309376
108	0x3e1bec71	0.15226914
109	0x3e426949	0.18985476
110	0x3e031536	0.1280106
111	0xbc6d8370	-0.014496669
112	0xbc9c37d6	-0.019069593
113	0x3d9f2874	0.07771388
114	0xbeb3ceb8	-0.3511865
115	0xbe0ac3f7	-0.13551317
116	0x3e50c4ff	0.20387648
117	0xbe1b4b7e	-0.15165517
118	0xbdf3d629	-0.11906082
119	0xbdad0db1	-0.08449877
120	0x3deb5dbc	0.11492488
121	0xbcc803c0	-0.02441585
122	0xbe178f44	-0.14800745
123	0xbe15d547	-0.1463214
124	0xbdecb736	-0.11558382
125	0x3e8d090f	0.27545974
126	0x3e04955c	0.12947601
127	0xbe86e3e4	-0.26345742

layer3.weight f4 [64, 128]
0	0x3e8a31be	0.26991075
1	0x3ef84de7	0.48496935
2	0x3da55828	0.08073455
3	0xbe157c8d	-0.14598294
4	0x3d89a2ab	0.067204796
5	0x3e5b5c58	0.21421945
6	0x3d69e44e	0.057102494
7	0x3cdccc83	0.026952988
8	0xbdad9257	-0.08475178
9	0x3f8506ba	1.0392678
10	0xbca98ded	-0.020697558
11	0x3d2580fe	0.04040622
12	0xbc654d22	-0.013995441
13	0x3e98d723	0.29851636
14	0x3e228385	0.15870483
15	0xbd886092	-0.06659044
16	0xbecb8380	-0.39748764
17	0x3ceb7120	0.028740466
18	0xbe9765c3	-0.29569826
19	0x3e4a9bf0	0.19786048
20	0xbed0d71b	-0.40789112
21	0xbe7929fb	-0.2433242
22	0x3f1c7e2c	0.61130023
23	0xbe3703fd	-0.17872615
24	0x3eea7bf6	0.457977
25	0xbde6b4a4	-0.11264923
26	0x3e5defd9	0.21673526
27	0xbe0d844c	-0.13819999
28	0x3d3f5b4f	0.046717938
29	0x3deca79f	0.11555409
30	0x3ecf00bc	0.40430248
31	0x3f00f1cb	0.50368947
32	0x3ec4d912	0.38446862
33	0x3e6a2a38	0.22867668
34	0x3cc52078	0.024063334
35	0x3f29ebad	0.6637524
36	0x3e7b130e	0.24518988
37	0x3e66a908	0.22525418
38	0x3e09499d	0.13406987
39	0x3ec34476	0.3813817
40	0x3d8fb32d	0.07016597
41	0x3edcb699	0.4310806
42	0x3ea98e53	0.33116397
43	0xbe51621f	-0.20447586
44	0x3e39cbde	0.18144175
45	0xbd49026c	-0.049074575
46	0xbec9c419	-0.39407423
47	0xbee45148	-0.44593263
48	0x3ee9a2dc	0.45632064
49	0x3f26e6f4	0.65196157
50	0x3e489ab0	0.19590259
51	0x3e37489e	0.17898795
52	0x3e0ed2ef	0.13947652
53	0x3e19d3fd	0.15022273
54	0xbeeedc63	-0.46652517
55	0x3d4adb4a	0.049525537
56	0x3d7a9a81	0.061182503
57	0x3da21a58	0.07915181
58	0xbbd69682	-0.0065487036
59	0x3e1a78d2	0.15085152
60	0x3ca2a002	0.019851688
61	0x3e0af5ba	0.135703
62	0x3d863ba1	0.06554342
63	0x3e2ec4f2	0.17067316
64	0xbdad1e83	-0.08453085
65	0x3e1cb87c	0.1530475
66	0xbad5b5e9	-0.0016304824
67	0x3dfd56d3	0.12370076
68	0x3e6c8d4f	0.2310078
69	0x3cbe75a4	0.023249455
70	0x3ec73356	0.38906354
71	0x3f572155	0.84035236
72	0xbe5f9c8a	-0.21837059
73	0x3e7000d4	0.23437816
74	0x3e29350b	0.1652414
75	0x3edb1bbb	0.42794594
76	0x3ea270eb	0.31726775
77	0xbf78e633	-0.97226256
78	0xbe452e82	-0.19256023
79	0x3d9bd4f3	0.07608976
80	0x3daf357e	0.08555125
81	0x3e719a4d	0.23594017
82	0x3ed9edae	0.42564148
83	0xbe112b97	-0.14176784
84	0x3e284612	0.1643298
85	0x3ebbf969	0.36713722
86	0xbe4528e7	-0.19253884
87	0xbd432263	-0.047640216
88	0x3e8a3a58	0.26997638
89	0xbe479354	-0.19489795
90	0xbdbdb4c3	-0.09262993
91	0x3ed5ff94	0.41796553
92	0xbd5cf689	-0.05394605
93	0xbf17308b	-0.59058446
94	0x3e1b92d9	0.15192737
95	0x3e31e00f	0.17370628
96	0x3ec532b4	0.38515246
97	0x3ebc2960	0.36750317
98	0xbe1d8911	-0.15384318
99	0x3e87a358	0.2649181
100	0x3eb6fa97	0.3573806
101	0xbccdc572	-0.025118563
102	0xbdd78e4c	-0.10525188
103	0xbc955ea2	-0.018233601
104	0xbd27234d	-0.04080515
105	0x3e3958f9	0.18100347
106	0x3dbf96f1	0.09354962
107	0xbbbf1026	-0.0058307825
108	0x3e43315e	0.19061801
109	0xbdc47705	-0.09593014
110	0x3ec76a55	0.38948312
111	0x3e6e7d1c	0.23289913
112	0xbe5284bc	-0.20558447
113	0x3db3b63e	0.08774994
114	0x3e43ce84	0.19121748
115	0x3c854d70	0.016272277
116	0x3e12a2b0	0.14319873
117	0xbc6e4ab0	-0.014544174
118	0xbf61ff46	-0.8828014
119	0x3daedc40	0.08538103
120	0x3d8a57a6	0.06754999
121	0xbe8c2724	-0.27373612
122	0x3e4a8445	0.1977702
123	0xbcb27e66	-0.021788787
124	0xbdab0926	-0.08351354
125	0x3ec55451	0.3854089
126	0x3eb6ca4e	0.3570122
127	0x3d66a28f	0.05630737
128	0x3ce5de0a	0.028059978
129	0x3c7560c2	0.014976682
130	0xbd497ca3	-0.04919113
131	0xbd3b17b3	-0.0456769
132	0x3cf248dc	0.029575758
133	0xbd3f9124	-0.046769276
134	0xbd390b07	-0.045176532
135	0xbd7014f2	-0.058613725
136	0xbd01b857	-0.03166994
137	0xbd4466a0	-0.047949433
138	0x3caf5753	0.021403944
139	0xbd0fa7c2	-0.035072096
140	0x3de4c528	0.11170417
141	0x3c750164	0.014953945
142	0xbdeb4f52	-0.114897385
143	0x3db190f9	0.086702295
144	0x3cdfbe11	0.02731231
145	0xbd41b7ab	-0.0472943
146	0x3d9b60a9	0.07586796
147	0xbda5951e	-0.080850825
148	0xbd2834f1	-0.041066114
149	0xbdc71d12	-0.097223416
150	0xbdb2beea	-0.0872782
151	0x3c07e5dc	0.008294549
152	0xbdbc268f	-0.09187042
153	0x3cd27baf	0.025693743
154	0xbd8d6985	-0.06904892
155	0xbafdcff0	-0.0019364338
156	0x3d0e74d2	0.034779377
157	0xbd402635	-0.046911437
158	0x3cb41d6b	0.021986684
159	0x3ca02c91	0.0195525
160	0xbd9c2800	-0.07624817
161	0xb9d2dcbc	-0.0004021878
162	0x3d0e6dab	0.034772556
163	0x3b1ea4ad	0.002420704
164	0xbd34503b	-0.044021826
165	0xbda5ff58	-0.081053436
166	0xbcbf6fa0	-0.023368657
167	0xbd35faef	-0.044428762
168	0x3d37d340	0.044879198
169	0xbdd64efc	-0.10464284
170	0x3bdbb94e	0.0067054396
171	0xbcdbf53c	-0.026850335
172	0x3cf76e9d	0.030204112
173	0xbd83353f	-0.0640664
174	0xbd933dc4	-0.07189515
175	0x3ca2d6a6	0.019877743
176	0xbd110dac	-0.03541343
177	0xbda9e8d2	-0.0829636
178	0x3d1f8be4	0.03895177
179	0xbd8ecfba	-0.069732144
180	0x3dbd8460	0.09253764
181	0xbde8d8dc	-0.11369488
182	0xbdb4942e	-0.088173255
183	0xbcecb1d5	-0.02889339
184	0xbc6a6cfb	-0.0143082095
185	0xbccbe6c9	-0.02489032
186	0xbd9f58f8	-0.07780641
187	0xbd2ed227	-0.042680886
188	0xbda356d9	-0.07975549
189	0x3dcbdda7	0.09954386
190	0x3c7aee03	0.0153155355
191	0xbc9eb460	-0.019373119
192	0xbd08d6ff	-0.03340816
193	0xbda84837	-0.08216899
194	0xbd1cdc2c	-0.03829591
195	0xbdcca635	-0.09992639
196	0x3d25945d	0.040424693
197	0xbd0b08a0	-0.033943772
198	0xbdd50e47	-0.10403114
199	0xbd246499	-0.040135
200	0xbdc0b15d	-0.09408829
201	0xbd0479ab	-0.032342594
202	0xbd2556c7	-0.04036596
203	0x3d26a3ff	0.040683743
204	0x3d5f9ebe	0.054594748
205	0x3d015372	0.03157372
206	0x3c9c1596	0.019053262
207	0x3da8fcf5	0.08251373
208	0xbdbace63	-0.091213964
209	0x3ca47269	0.020074086
210	0x3cbfb5ed	0.023402179
211	0x3cf2010f	0.02954152
212	0x3d8efc56	0.06981723
213	0xbde1b9ed	-0.11021791
214	0xbca7567f	-0.020426987
215	0x3dd21ed2	0.10259785
216	0xbd9a3d31	-0.075312026
217	0xbdda9732	-0.106733695
218	0x3d771fe4	0.060333148
219	0x3c8eefeb	0.017448386
220	0xbe05424c	-0.13013572
221	0x3c882217	0.016617818
222	0x3cc1da61	0.023663701
223	0x3daa94e9	0.083291836
224	0xbbb3f409	-0.0054917377
225	0xbc8f925b	-0.017525842
226	0xbc62d428	-0.013844527
227	0xbde9fd03	-0.11425211
228	0xbd99c541	-0.07508326
229	0xbd5d8e4a	-0.054090776
230	0x3d4fca5b	0.05073009
231	0x3d841e4e	0.06451093
232	0x3cdeb15a	0.027184177
233	0xbdefe1f3	-0.11713018
234	0xbd3aa6c6	-0.045569204
235	0x3d5bd854	0.053673103
236	0x3b17966c	0.002313043
237	0xbddb52f6	-0.10709183
238	0xbdccff1a	-0.10009594
239	0x3c506d36	0.01272135
240	0xbdd54770	-0.10414016
241	0x3cc89893	0.024486816
242	0x3cc16ac6	0.023610484
243	0xbd3d9765	-0.04628696
244	0xbd98d246	-0.074619815
245	0xbc8a549d	-0.01688605
246	0xbdfbb27a	-0.12289901
247	0xbd5379fe	-0.051630013
248	0x3b48ee41	0.0030659589
249	0x39559ca9	0.00020371623
250	0xbcabfc53	-0.020994341
251	0xbdaa8ec8	-0.083280146
252	0x3cb750ab	0.022377333
253	0xbd19f830	-0.037590206
254	0xbdeb28da	-0.11482401
255	0x3d4e181e	0.05031597

layer3.bias f4 [64]
0	0x3db2ab3c	0.087240666
1	0xbbc11b0d	-0.0058931173
2	0x3dc1580f	0.09440624
3	0x3d11424b	0.035463613
4	0xbdc2ac85	-0.09505562
5	0xbdb4d582	-0.08829786
6	0x3e6c9b18	0.23106039
7	0xbdc9d7e8	-0.09855634
8	0xbd1acb68	-0.03779164
9	0xbd594a67	-0.05304947
10	0xbe08e7ef	-0.13369726
11	0x3bd0ad13	0.0063682883
12	0xbd2fc226	-0.042909764
13	0x3d38f67e	0.04515695
14	0xbdfe77dd	-0.12425206
15	0xbdd17781	-0.10227872
16	0xbde2bd00	-0.11071205
17	0x3d342c1a	0.04398737
18	0xbd9e80e2	-0.07739426
19	0x3da954d5	0.082681336
20	0xbd8f6fda	-0.07003756
21	0xbde9f022	-0.11422755
22	0xbde506c9	-0.11182935
23	0xbda961e5	-0.08270625
24	0x3d2e8ce3	0.04261483
25	0xbd82738b	-0.06369694
26	0xbde34f46	-0.110991046
27	0xbd290e21	-0.04127324
28	0x3e238d39	0.15971841
29	0x3da2a3d7	0.07941406
30	0xbc50d8f6	-0.01274704
31	0xbd5d7015	-0.054061968
32	0xbdb57244	-0.08859685
33	0xbc0a8cb4	-0.008456398
34	0x3c4ea46b	0.0126124425
35	0xbc991efa	-0.018691529
36	0xbe024897	-0.12723003
37	0x3e7cb6b0	0.24679065
38	0xbd90f181	-0.07077313
39	0xbd695031	-0.056961242
40	0xba1f6929	-0.0006081039
41	0x3e60b5c2	0.21944335
42	0x3e930cec	0.28720796
43	0x3dab2721	0.083570726
44	0xbc1f1642	-0.0097098965
45	0x3e24fce4	0.16112095
46	0xbd9590ad	-0.07302985
47	0x3e940b52	0.28914887
48	0xbc9a61c5	-0.018845448
49	0x3c80a733	0.015704727
50	0xbd06d72b	-0.032920044
51	0xbe7f5196	-0.24933466
52	0xbdf1601d	-0.1178591
53	0x3ea7e695	0.32793108
54	0xbd81f4a4	-0.063454896
55	0x3dea3198	0.114352405
56	0xbd726ff0	-0.059188783
57	0xbcf08284	-0.02935911
58	0x3d550743	0.05200888
59	0x3dcceeef	0.100065105
60	0x3d895a4c	0.06706676
61	0xbd1f830c	-0.038943335
62	0xbdd2cd21	-0.102930315
63	0xbe34b24c	-0.1764614

slot_head.weight f4 [13, 64]
0	0xbf27f487	-0.65607494
1	0x3d5ddd77	0.054166283
2	0xbf7dd080	-0.9914627
3	0x3c7c65fb	0.015405173
4	0x3da43048	0.080170214
5	0x3dcb5d60	0.09929919
6	0xbed0871f	-0.4072809
7	0xbe48f21e	-0.1962361
8	0xbf08ff83	-0.5351488
9	0x3c81fa38	0.015866384
10	0xbf077955	-0.52919513
11	0xbd1fe8aa	-0.039040245
12	0xbeac542f	-0.33657977
13	0xbdead003	-0.11465456
14	0x3ebd9a64	0.37031853
15	0xbe0b83ae	-0.1362445
16	0xbe9c443a	-0.30520803
17	0x3d4dc9da	0.05024133
18	0x3ed8bc02	0.4233094
19	0xbf812f43	-1.0092548
20	0xbd07cac8	-0.03315237
21	0xbd9ae5b0	-0.07563341
22	0x3d8825d4	0.0664784
23	0xbf7b1353	-0.9807636
24	0xbbaf97c6	-0.005358669
25	0x3c1ba64a	0.009500096
26	0x3d7ee11e	0.062226407
27	0xbca1ca2f	-0.019749729
28	0xbf09da4f	-0.5384874
29	0xbe2904e6	-0.16505775
30	0xbde24d59	-0.11049909
31	0xbdb36f56	-0.0876147
32	0x3df79cfd	0.1209049
33	0xbd95c9dc	-0.07313892
34	0xbdfda53c	-0.123850316
35	0xbe2821f5	-0.16419204
36	0xbd918c98	-0.07106894
37	0xbe5fc408	-0.21852124
38	0x3d68bf99	0.056823347
39	0xbf36af64	-0.71361375
40	0xbdc23958	-0.09483594
41	0xbeb01424	-0.34390366
42	0xbeb5192e	-0.35370773
43	0x3dcd6dbd	0.100306965
44	0x3cbba17f	0.022904156
45	0xbf47b998	-0.7801757
46	0xbe1db16c	-0.15399712
47	0x3ed08d41	0.40732768
48	0x3f1a381d	0.6024187
49	0x3d8b9a44	0.06816533
50	0xbd0fdb6c	-0.035121366
51	0x3e8d847c	0.2764014
52	0x3d7382e7	0.05945101
53	0x3dd5f465	0.10447005
54	0xbe18d020	-0.14923143
55	0x3e69483e	0.22781464
56	0xbd397701	-0.045279507
57	0x3f90041d	1.1251255
58	0x3f1c63ec	0.6108997
59	0xbc4e05e6	-0.0125746485
60	0xbea409a1	-0.32038596
61	0xbcf7a667	-0.030230714
62	0xbd4fa277	-0.050692048
63	0xbd80d9e0	-0.06291556
64	0x3e0e7500	0.1391182
65	0x3dfd2711	0.12360967
66	0x3d85f17c	0.065402
67	0x3d82f1d3	0.063937806
68	0x3cc7a8ad	0.024372423
69	0x3d3d52f8	0.046221703
70	0xbe830eb7	-0.25597164
71	0xbe8f4a14	-0.27986205
72	0x3de39971	0.11113251
73	0xbde46907	-0.11152845
74	0x3cb5a5fd	0.022173876
75	0xbd4501a0	-0.048097253
76	0xbf5287d0	-0.82238483
77	0x3ab28ab3	0.0013621658
78	0xbe2d76d1	-0.16939856
79	0xbd849485	-0.0647364
80	0xbda0749c	-0.078347415
81	0x3e5d6c78	0.21623409
82	0x3de2ba95	0.11070744
83	0x3d715dfb	0.058927517
84	0x3c08ec4c	0.008357119
85	0x3e4164f4	0.18886167
86	0xbc716ea6	-0.014735853
87	0xbdd61441	-0.10453082
88	0x3c8e4da7	0.017371012
89	0xbc85a651	-0.016314657
90	0x3dbfcde4	0.093654424
91	0xbdfdef63	-0.12399175
92	0x3e1e7e6d	0.15477915
93	0x3eb9c10a	0.3628009
94	0xbdd48396	-0.103766605
95	0xbd11dfd9	-0.03561387
96	0x3e7f11c6	0.24909124
97	0x3e14b88b	0.14523523
98	0xbdaf8185	-0.08569626
99	0x3d86fb56	0.06590907
100	0x3d4685ab	0.04846732
101	0x3e89bf7d	0.26903906
102	0x3d17f308	0.037097007
103	0x3e170fb1	0.1475208
104	0x3e10405c	0.14087051
105	0x3e2ae6b3	0.16689567
106	0x3c9d4743	0.01919902
107	0xbf4bfaee	-0.79679763
108	0xbd966152	-0.07342781
109	0x3d83515d	0.06412003
110	0x3d5233e0	0.051319003
111	0x3edf9a74	0.43672526
112	0x3e729bb6	0.23692212
113	0xbd965029	-0.07339508
114	0x3b99a9f7	0.004689451
115	0x3a324438	0.00068003265
116	0xbe0fbeb0	-0.14037585
117	0xbeab9051	-0.33508542
118	0xbe00e9dc	-0.1258921
119	0x3cd1cbbf	0.025609849
120	0x3d711166	0.058854483
121	0x3f3b0a9a	0.7306305
122	0xbe117982	-0.14206508
123	0xbed9fca5	-0.42575565
124	0x3e19a462	0.15004113
125	0xbe113364	-0.1417976
126	0xbd8852f1	-0.06656445
127	0x3c9960a2	0.018722836
128	0xbf3d8a01	-0.740387
129	0x3b3a24a4	0.0028403187
130	0xbf499805	-0.7874759
131	0x3d61ea3c	0.055155024
132	0xbcb65db0	-0.02226147
133	0x3d80214c	0.06256351
134	0x3e41a775	0.18911536
135	0xbec902e8	-0.3926003
136	0xbe99ecd7	-0.30063507
137	0x3ba83533	0.005133295
138	0xbf8debdb	-1.1087602
139	0xbd99e1b1	-0.0751375
140	0xbea6428c	-0.32472646
141	0xbe029ae0	-0.12754393
142	0x3ea22fd2	0.3167711
143	0x3cb668e8	0.02226682
144	0xbee76b45	-0.45199028
145	0xbe240539	-0.16017617
146	0x3e6181fb	0.2202224
147	0x3f916d47	1.1361474
148	0x3d552aa5	0.052042622
149	0x3dae8cf7	0.08522981
150	0x3dafa2b2	0.085759535
151	0xbf0f21b1	-0.55910784
152	0x3d9a4356	0.075323746
153	0x399b60e4	0.00029636093
154	0x3da97074	0.08273402
155	0x3d0ba58a	0.034093417
156	0xbf2d6e3d	-0.67746335
157	0xbf961e67	-1.1728028
158	0xbc2e368f	-0.010633125
159	0x3da51583	0.08060744
160	0x3e93ae34	0.28843844
161	0xbd251ec6	-0.04031255
162	0xbce816a2	-0.028331105
163	0xbda959e9	-0.08269102
164	0xbdfc07c2	-0.12306167
165	0xbe84500b	-0.25842318
166	0xbd3d4317	-0.04620656
167	0xbea83951	-0.3285623
168	0x3d102394	0.03519018
169	0xbe782fdf	-0.24237011
170	0xbf0b9e01	-0.5453797
171	0x3f050929	0.519671
172	0xbc91fc52	-0.017820511
173	0xbe8c8707	-0.27446768
174	0xbd17ddd2	-0.03707678
175	0xbf29d1bd	-0.6633566
176	0x3da531a4	0.08066109
177	0xbdcfc2eb	-0.101445995
178	0xbe075d8f	-0.13219284
179	0xbfabb0ab	-1.341329
180	0xbd768082	-0.06018115
181	0x3e846fcb	0.2586654
182	0xbf0b43e0	-0.54400444
183	0xbf3e74a8	-0.74396753
184	0x3c2b4090	0.010452405
185	0xbe7a09e2	-0.24417832
186	0x3e0256e6	0.12728462
187	0x3ec54b8d	0.38534203
188	0xbd3b9b34	-0.04580231
189	0xbdf3d923	-0.1190665
190	0x3cf595d7	0.029978676
191	0x3dbd3ed3	0.092404984
192	0xbe03b358	-0.12861383
193	0xbc11ab5a	-0.008890951
194	0xbda370a2	-0.079804674
195	0x3d3e8f42	0.04652334
196	0xbdee2166	-0.11627464
197	0x3d0927e4	0.03348531
198	0x3e004b17	0.12528645
199	0x3dfdb5d1	0.12388194
200	0xbf405c0e	-0.75140464
201	0xbd988d85	-0.07448868
202	0x3f700b49	0.9376722
203	0xbc506493	-0.012719291
204	0x3d0b03a1	0.033939008
205	0xbd350ebd	-0.04420351
206	0x3dd870aa	0.10568364
207	0xbdd1dc90	-0.10247147
208	0xbf43d0ac	-0.76490283
209	0x3e3d40f7	0.18481813
210	0x3cbdb464	0.023157306
211	0xc00911a3	-2.1417015
212	0xbb76b8f9	-0.0037646873
213	0xbeee3648	-0.46525788
214	0xbb80a5a9	-0.003925998
215	0xbdb567ae	-0.08857666
216	0xbd74e2fe	-0.05978679
217	0x3d054a56	0.032541595
218	0xbe10b248	-0.14130509
219	0x3db1fcef	0.086908214
220	0xbf0c2eef	-0.54759115
221	0x3e169614	0.14705688
222	0x3d8aea0f	0.067829244
223	0x3e144de2	0.14482835
224	0x3dc42443	0.09577229
225	0x3e077b94	0.13230735
226	0x3dc761fa	0.097354844
227	0x3cbce470	0.023058146
228	0xbd9d8da4	-0.076930314
229	0x3ec9aaa3	0.39387998
230	0xbdf4a468	-0.119454205
231	0xbd28f3fd	-0.04124831
232	0xba8b93ae	-0.001064887
233	0x3dd7404c	0.105103105
234	0x3e6d560e	0.23177359
235	0x3ebbc06f	0.36670253
236	0x3d2279a4	0.039666787
237	0xbff376d1	-1.9020635
238	0xbdcbabf1	-0.099449046
239	0x3e61f381	0.22065546
240	0xbfa4de8f	-1.288042
241	0xbb6392d5	-0.003472497
242	0x3d959bc8	0.073051035
243	0xbe83c11b	-0.25733265
244	0xbd7d84f5	-0.061894376
245	0x3e21dbc6	0.15806493
246	0xbf0a9665	-0.54135734
247	0x3f07a082	0.5297929
248	0x3bff32f6	0.0077880574
249	0xbe33e1b0	-0.17566562
250	0x3ecb0a8c	0.39656484
251	0x3eae9979	0.34101465
252	0x3e6c83c7	0.23097144
253	0xbda51962	-0.08061482
254	0x3d1c986a	0.03823129
255	0xbe1d84ee	-0.1538274

slot_head.bias f4 [13]
0	0x3dc4aa0f	0.096027486
1	0x3d50600b	0.050872844
2	0x3d8ccbb0	0.06874788
3	0x3dbbc466	0.091683194
4	0x3efdce8c	0.49571645
5	0xba8191b2	-0.000988534
6	0x3de49311	0.11160863
7	0xbe734c5b	-0.23759596
8	0xbe140cf6	-0.14458069
9	0x3df131c9	0.11777074
10	0x3ef2175f	0.47283456
11	0xbe856d98	-0.26060176
12	0xbf010a2f	-0.50406164

rotation_head.weight f4 [3, 64]
0	0x3de519b5	0.11186544
1	0xbd571eaa	-0.052519478
2	0xbe45059c	-0.19240421
3	0xbd269a24	-0.040674344
4	0x3e18a6b4	0.14907342
5	0xbcf5b08d	-0.029991413
6	0x3d356b04	0.04429151
7	0xbe70fd26	-0.23534068
8	0xbcc163e4	-0.023607202
9	0xbd428f03	-0.047499668
10	0x3e2ddf29	0.1697966
11	0xbbca12e7	-0.006166804
12	0xbe7c2384	-0.24622923
13	0xbd7ff1e5	-0.062486548
14	0x3f500df0	0.81271267
15	0x3d74faf4	0.05980964
16	0x3d78751a	0.06065855
17	0x3e3f962f	0.18709634
18	0x3d599a67	0.053125765
19	0xbe0913af	-0.13386415
20	0xbde07fd7	-0.109618835
21	0x3e1fa2ad	0.155894
22	0x3d96bd8a	0.073603705
23	0xbd12d59d	-0.03584825
24	0x3d5f17e2	0.054466136
25	0x3daa23d2	0.083076134
26	0xbc8c79e1	-0.01714796
27	0x3cda670e	0.026660468
28	0x3f0384b0	0.5137434
29	0x3e10d34c	0.14143103
30	0xbd47bdb6	-0.048764907
31	0xbadd7a2a	-0.001689737
32	0x3e0b1531	0.13582303
33	0xbd3257e6	-0.043540858
34	0xbd270efc	-0.040785775
35	0xbc411107	-0.011783845
36	0x3b8fc53c	0.004387526
37	0x3e4ebe6a	0.20189825
38	0xbdbca855	-0.09211794
39	0xbdaa6672	-0.08320321
40	0xbd841cb2	-0.06450786
41	0x3dc42415	0.095771946
42	0xbdc3ed28	-0.09566718
43	0xbdac5c5c	-0.08416054
44	0xbb10420c	-0.0022012023
45	0xbe87fb37	-0.2655885
46	0x3d0d00f9	0.034424756
47	0xbd93c5ab	-0.072154365
48	0x3dd0d415	0.101967014
49	0xbd8d674e	-0.069044694
50	0x3d5c03bb	0.053714495
51	0xbe92b970	-0.28657103
52	0x3dd193a3	0.102332376
53	0x3dfc0d26	0.12307195
54	0x3e590bae	0.21195862
55	0xbd868ba3	-0.06569602
56	0xbc5ce352	-0.013481932
57	0x3e96a4f3	0.2942272
58	0x3de270fe	0.11056708
59	0x3e8cbdae	0.27488464
60	0x3f0905fe	0.5352477
61	0xbdb0b0d0	-0.08627474
62	0xbce12e39	-0.027487861
63	0xbcf4f664	-0.029902644
64	0xbe04a22c	-0.12952489
65	0x3d575a70	0.052576482
66	0x3e9059e0	0.2819357
67	0xbe1ab5a6	-0.15108356
68	0x3dab9cbe	0.083795056
69	0x3debd751	0.11515678
70	0x3e04cda2	0.12969068
71	0x3e55c1a9	0.20874657
72	0x3de2d76b	0.11076244
73	0x3d7dded7	0.061980095
74	0xbe9c7ffa	-0.30566388
75	0x3b4de492	0.0031416756
76	0x3e7f1936	0.24911961
77	0xbda339b0	-0.079699874
78	0xbf36469e	-0.71201503
79	0x3c8d3b23	0.017240113
80	0xbd32544f	-0.043537434
81	0xbe15ab3c	-0.14616102
82	0x3e6182df	0.2202258
83	0x3e26dfef	0.16296361
84	0x3ab7c989	0.0014021854
85	0x3c12ca9c	0.008959439
86	0x3d91fdb6	0.0712847
87	0x3e1ebd12	0.15501812
88	0xbdc563c6	-0.09638171
89	0x3d0dc683	0.034613144
90	0x3cea3033	0.028587436
91	0x3c9035e5	0.017603824
92	0xbed949dc	-0.42439163
93	0xbd418210	-0.047243178
94	0x3ddfe27e	0.10931872
95	0x3cd67cf4	0.02618263
96	0xbd122203	-0.035676967
97	0x3d0a2164	0.03372325
98	0xbd03d776	-0.0321879
99	0xbdb719f7	-0.08940499
100	0xbd84f405	-0.064918555
101	0xbd23b724	-0.03996958
102	0xbe102958	-0.14078271
103	0x3e6b7000	0.22991943
104	0xbdf9747f	-0.12180423
105	0x3d287132	0.041123576
106	0x3e838f66	0.25695342
107	0x3d72c827	0.05927291
108	0xbd133790	-0.03594166
109	0x3d87e09a	0.06634636
110	0xbd8e88ff	-0.06959724
111	0x3ded1159	0.115755744
112	0x3d533b73	0.051570367
113	0x3c9694b6	0.018381458
114	0xbc3769cb	-0.011194657
115	0x3e03921b	0.12848704
116	0xbd5f86b1	-0.05457181
117	0x3dbf9155	0.09353892
118	0xbe45d0b1	-0.1931789
119	0x3df12fa3	0.11776664
120	0xbd9e93fb	-0.07743069
121	0xbebe0542	-0.37113386
122	0xbcc1c958	-0.023655578
123	0xbe19b67f	-0.15011023
124	0xbeeab691	-0.45842412
125	0x3d98487c	0.074357
126	0x3d5194ce	0.0511673
127	0x3ddc637e	0.10761164
128	0xbe64c05e	-0.22339007
129	0xbdfb818b	-0.12280568
130	0xbf401959	-0.7503868
131	0xbd514215	-0.05108841
132	0xbdf176cd	-0.117902376
133	0xbe1a471f	-0.15066193
134	0xbe553dad	-0.20824309
135	0xbf1a08c1	-0.6016961
136	0xbe89e073	-0.26929054
137	0x3d53719e	0.051622026
138	0xbf87842d	-1.0587212
139	0x3ca223a6	0.01979239
140	0xbf3057e3	-0.68884104
141	0x3db1df66	0.08685188
142	0xbd799161	-0.06092966
143	0xbe086a47	-0.13321792
144	0xbe6da5cf	-0.23207782
145	0xbe88ae87	-0.26695654
146	0xbe811f97	-0.25219414
147	0xbdcdec7e	-0.10054873
148	0x3d749d4f	0.059720334
149	0xbe8c8d96	-0.27451771
150	0x3cd18175	0.025574425
151	0xbf49adc2	-0.7878076
152	0x3d99098a	0.074725226
153	0x3d0ddf5f	0.03463685
154	0xbd0da0e2	-0.034577258
155	0xbd2e113a	-0.042496897
156	0xbdd4e004	-0.1039429
157	0xbca56ca4	-0.020193405
158	0x3cd76e24	0.026297636
159	0x3d93d6db	0.07218715
160	0x3a93ae8b	0.0011267228
161	0x3d115331	0.035479728
162	0xbd3887c4	-0.04505135
163	0x3d15c1c3	0.03656174
164	0x3d227a3f	0.039667364
165	0xbe836d06	-0.25669116
166	0xbc00eefa	-0.007869476
167	0xbe96d3d8	-0.294585
168	0xbdda70c1	-0.10666037
169	0xbe8765a6	-0.2644474
170	0xbe9673bb	-0.2938517
171	0xbf1e8aa3	-0.6193029
172	0xbd030880	-0.031990528
173	0xc08e8cc1	-4.454682
174	0xbc417b5b	-0.011809195
175	0xbe011efe	-0.12609479
176	0xbec7bf7e	-0.39013284
177	0xbd01dd43	-0.031705152
178	0xbdb44b3c	-0.08803412
179	0xbf1373a2	-0.57598317
180	0x3dc5b316	0.096532986
181	0xbd752e7d	-0.059858788
182	0xbdd25f34	-0.10272065
183	0xbe86db0d	-0.26338997
184	0x3da0e1b8	0.078555524
185	0xbeb42498	-0.3518417
186	0xbe7cd869	-0.24691929
187	0xbe85abaa	-0.26107532
188	0xbdeff4ef	-0.11716639
189	0x3d6b42b4	0.05743666
190	0xbdbfbea5	-0.093625344
191	0xbd3440c3	-0.044007074

rotation_head.bias f4 [3]
0	0xbe2a3ea2	-0.16625455
1	0x3e4324bb	0.1905698
2	0xbe44838f	-0.1919081
