outputs/trained_models/placement_model_20250802_062643.pth (torch, 79173 bytes, 10 tensors)

layer1.weight f4 [64, 15]
00000000: f113 a1be 079f 303f b86f e8be c6d9 c6be
00000010: 5631 193f e362 36bf f05f 2cbe a218 293f
00000020: 86de 9dbe 42a7 393f 50d9 b73e d852 25bf
00000030: 872a 2f3e 5761 633e bbd0 4c3e 3b13 2cbe
00000040: fe0b d23d 930c 14bf 1388 87be 892d 2cbf
00000050: 6792 683f 34f1 f03e 6d6f b83e 6063 993e
00000060: b9d0 97be 94f2 f23e 3456 f43d 2ae3 093e
00000070: 66f6 99be ea5c 243e 5eb1 7e3e 559e 09bf
00000080: 00a0 363f 706c 713e 1966 13bf ec80 e73e
00000090: d7bf 4f3e af0c 66bf cf0c 3d3f ce58 603e
000000a0: d086 9b3e f657 963e 10e0 5c3d 9044 febe
000000b0: 5681 a3be 812e 2cbf 37cc 113e eddf a73e
000000c0: 92c7 fdbe 5786 8a3d 8539 2f3e 5036 873e
000000d0: 18d1 03be 9ad5 89bf fec4 a83e 18c1 533f
000000e0: 84bc ba3d 536d 183e b194 91bd 425b 4abe
000000f0: 8b7c be3e 0f55 10bf 84fd 47bf 78f3 c53e
00000100: 6d4d 113f 03bd 343f 945b f7bd 0fc6 46bc
00000110: e47c 87bc 1e01 63be c3a1 443f 9dfb 55be
00000120: a713 523e 30e2 b3bc bb26 61be 9da1 59be
00000130: 2615 0cbe 10c2 96be 144a 373e 522b 303e
00000140: 1411 7fbe 80a6 223f f6f5 d8be b266 453f
00000150: 9380 b3bc e11e f83e 094a 79bc bc0d 923e
00000160: d2b5 4e3e 6e84 95be 91e5 dfbe 43b3 203f
00000170: 9579 90be 3cf3 79bf c6fc 36bf 8a63 cdbe
00000180: f485 b0be f8cf 4bbf 5c15 183f d4e9 f3bd
00000190: fd51 05bd 7f5d 033e 5a51 97be eb3c 45be
000001a0: 23ac fdbe 744d 93bd 1d1a 44bf 5bff cabd
000001b0: e642 6f3e a320 67bd 2e81 71bf 6835 cabe
000001c0: 44a7 5fbd 67d2 1b3f 9739 113f 8701 553f
000001d0: 91e0 6a3e 294e f33d 2834 8ebe e78a 023e
000001e0: a22a 0ebf 0fd1 8fbf 3355 123e 4769 c0be
000001f0: c4b6 3abf eb46 6a3e d316 95bc 8e28 ec3e
00000200: e411 22bf ba45 8bbf 70a3 35be 5f21 ae3d
00000210: cb9b c4bd 9359 543e d36c 5f3e 1f23 2dbd
00000220: a604 3e3e c447 93bf babc 1cbf acc5 f5bd
00000230: 22d9 063f 81b3 a23e 1743 87be 948e c0be
00000240: 3e1d a6be 8ab6 b23e 52a5 983e 7b23 01be
00000250: 5cb7 923e 27b2 06bd 42f4 ae3e 04f3 5fbf
00000260: 0983 2fbf fce7 69bf 2550 8d3c 3822 d53d
00000270: 1da9 8b3d bf4d 14be f7fe a9bd 66b1 a4bc
00000280: 9383 86be 4ede d23d dbf8 843e 6bab 2c3e
00000290: a7e2 403d 0f02 78bf a05a 4dbf fbdc 033f
000002a0: 63af 3f3f 0bf5 4f3f f70d 2b3f a68d d73e
000002b0: ab57 9bbe d360 cdbe dd14 d53e deae 993e
000002c0: 7bf4 71bd 0243 403d 8b31 29bd 461b e7bc
000002d0: 7d68 f33e 7d39 2abf 3234 ae3e 6096 463e
000002e0: 8e63 0f3f 177d dabd 81ea 033f 8f0c dcbe
000002f0: 60d0 04bf efa2 02bf 64c9 d4bc 2388 7e3d
00000300: 1354 5dbe 67ee 08bf 6012 bbbc 898c c23e
00000310: 4a5c 1cbd 279d 7fbe 62e4 24bf fe82 03bf
00000320: 77fc 26bf ebeb b5be 9f6c 0f3e fd35 9fbe
00000330: da18 1ebc cc7c 5f3e 3956 69be 504b 4f3e
00000340: 6779 8f3d 3eba 583e f212 ad3e cc22 fd3c
00000350: 562b 1dbf 9122 87bd 3483 ff3e 42ca 213f
00000360: 095e 233f 5458 6abd 503f 223f 62cf 51bf
00000370: f4fa e63d d8de 02be ed69 633d 3c92 0c3e
00000380: 86e0 8cbe 7885 69bf a19f 713f 0bf9 4b3f
00000390: 9e64 58bf 809f 163f ee5b 07be 8667 d5bb
000003a0: 99da 0abe ac98 a83e 1ffa b3bd 81bf 9d3e
000003b0: 845d 53bd c96d 28bc fadc b63d dacf 4cbc
000003c0: 560e b5bf bdf0 45bf c7e4 853e 6724 e8be
000003d0: fb5f 203f adbb 993d 268c 14be fd76 40bf
000003e0: 591a 2a3e 1165 7a3d 7827 783e aa1d 4b3e
000003f0: 206a 6cbe 1dbb a63d 8b5f f73d f6ed b83e
-0.31460527 0.68992656 -0.45397735 -0.38838023 0.59840906 -0.7124464 -0.16833472 0.6605321
-0.30833834 0.7252084 0.35907984 -0.64579535 0.17106067 0.22205101 0.200015 -0.16804211
0.102561936 -0.57831687 -0.26471004 -0.6725698 0.9084839 0.47059023 0.3602251 0.2995863
-0.2965143 0.47450697 0.119305044 0.13465562 -0.300708 0.16051069 0.24872348 -0.5375722
0.7133789 0.23576522 -0.57577664 0.45215547 0.20288025 -0.89863104 0.7384767 0.21908876
0.3037629 0.29363984 0.05392462 -0.49661684 -0.31934613 -0.6725846 0.14238058 0.3278803
-0.49566323 0.067639045 0.17111786 0.26408625 -0.12872732 -1.0768311 0.32962793 0.8271651
0.09117988 0.14885454 -0.07108439 -0.19761375 0.37204394 -0.5637979 -0.7812121 0.38662314
0.5675877 0.7060091 -0.12078014 -0.012132182 -0.016539045 -0.22168395 0.7680933 -0.20896764
0.2051531 -0.02195844 -0.21987431 -0.21253057 -0.13679942 -0.29444933 0.17899352 0.17204025
-0.24908859 0.6353531 -0.42375153 0.77109826 -0.021911895 0.4846106 -0.015215405 0.28526103
0.20186546 -0.29202598 -0.43729833 0.6277353 -0.2821776 -0.9763677 -0.7147945 -0.40115005
-0.34477198 -0.7961421 0.5940759 -0.119098336 -0.032548893 0.12828635 -0.29554254 -0.1926152
-0.49545392 -0.071925074 -0.76602346 -0.099119864 0.23365363 -0.05642761 -0.9433774 -0.3949387
-0.054602876 0.60867923 0.567285 0.83205456 0.22937228 0.11880142 -0.27774167 0.127483
-0.555338 -1.1235675 0.14290313 -0.3758032 -0.7293513 0.22878616 -0.01819936 0.4612469
-0.6330855 -1.0880654 -0.17738128 0.08502459 -0.09600028 0.20737295 0.21818857 -0.042269822
0.1855646 -1.1506276 -0.61225474 -0.120005935 0.5267507 0.31777576 -0.26418373 -0.37608778
-0.32444185 0.3490489 0.2981363 -0.12611191 0.28655517 -0.032884743 0.3417073 -0.8748019
-0.6855932 -0.91369605 0.01725013 0.10406917 0.06819365 -0.14482783 -0.08300584 -0.020104121
-0.26272258 0.102963075 0.25971112 0.16862266 0.047091153 -0.9687814 -0.8021641 0.51509064
0.74876994 0.8123328 0.66818184 0.42100257 -0.30340323 -0.40112934 0.4161748 0.30016226
-0.059071045 0.046938904 -0.041307013 -0.028211247 0.47540656 -0.6649397 0.34024197 0.19393301
0.56011283 -0.1066839 0.515297 -0.4297833 -0.51880455 -0.51029867 -0.025974937 0.06214155
-0.21614103 -0.53488773 -0.02283591 0.37997845 -0.03817395 -0.24962293 -0.64410985 -0.51371753
-0.6522898 -0.35531554 0.1400628 -0.31095877 -0.00964948 0.2182495 -0.22786798 0.20243573
0.070055775 0.21164796 0.33803517 0.030900382 -0.6139425 -0.0659839 0.49904788 0.63199246
0.6381536 -0.057213143 0.6337786 -0.81957066 0.11278334 -0.1278032 0.05552094 0.13727659
-0.27515048 -0.9121928 0.943842 0.79676884 -0.8452853 0.5883713 -0.13218662 -0.006512585
-0.13559951 0.3292898 -0.08787941 0.30810168 -0.051602855 -0.010280081 0.08928867 -0.012500728
-1.4145 -0.7732046 0.26151106 -0.45340273 0.62646455 0.075064994 -0.14506587 -0.7518156
0.16611613 0.06113154 0.24233806 0.19835535 -0.23087358 0.08141158 0.1207877 0.3611905

layer1.bias f4 [64]
00000000: 745d 38be a49c 5dbd ba73 ffbc 4302 67be
00000010: d5c9 a5be d986 ef3d d661 ccbc 51e7 163e
00000020: f7dc 12be e105 f4bd 8338 403d b55e 82bd
00000030: d5d6 58be 2428 343e 67bf cfbe 7c3a 44bd
00000040: 2aa7 d5bd 16b8 2a3e 1b45 323e 55ef b8bd
00000050: cbed 3a3e 137a 4c3d 28ab 66be ee27 d8bd
00000060: 29fd 363e 1bd9 403e 0abd 50bd 7b95 533e
00000070: fb79 01be f001 1d38 b65b da3d 97cf 54be
00000080: bccb 083e d818 1a3e 2a0e d8bd b352 f33d
00000090: 3797 10be d94c a63d 6b50 813e a108 833e
000000a0: f303 973d 45fc 963d 8c42 34be 373a 7bbe
000000b0: 9aa4 7c3e 854e 753e d3a6 23be c231 d3bd
000000c0: e803 6d3c 0f4f 66be 0ed1 623e 3dd7 75be
000000d0: f300 623d 3288 093e 6375 a33d 0721 12bd
000000e0: 01ab e43d 9d0a 53bd d7ac 81be 28c9 513e
000000f0: 13d6 5f3e f79f 55bd 5d5e 933d 8017 3bbe
-0.180044 -0.054104462 -0.031183112 -0.22559457 -0.32380548 0.11695642 -0.024948996 0.14736678
-0.14342104 -0.11915184 0.046928894 -0.0636572 -0.21175702 0.17593437 -0.40575716 -0.047907338
-0.10432275 0.16671786 0.17409174 -0.09030024 0.18254773 0.049921107 -0.22526228 -0.10554491
0.1787001 0.18832819 -0.05096153 0.20662491 -0.12644188 3.743352e-05 0.10662024 -0.20782314
0.13358968 0.1504854 -0.105495766 0.11881008 -0.14120184 0.08120126 0.25256667 0.2559252
0.073738 0.07372335 -0.1760351 -0.24533926 0.24672166 0.23955734 -0.15981607 -0.10312225
0.014466263 -0.22491096 0.2215006 -0.24007888 0.055176686 0.1343086 0.07981374 -0.03567603
0.11165429 -0.051523793 -0.2532718 0.20486891 0.21859007 -0.052154507 0.07195733 -0.18270683

layer2.weight f4 [128, 64]
00000000: 35c5 4fbf a0aa 3f3e e6a4 3e3c e742 39bf
00000010: 8e4e 18be fa42 273e 43d2 14bf 93ab 543e
00000020: 591a 75bf 10c1 bc3d 9912 de3d 1888 b5be
00000030: 1524 7bbe df2f 603d 39f2 313f 0dfa 903e
00000040: 6c7d 05bf 5fb3 8dbd 2c3a 403e 751c 1a3e
00000050: a082 4d3e 9d97 a63d def0 2fbf c8c3 ad3d
00000060: 7085 9cbe ca96 acbc 2c2a 88be b8a9 a1bb
00000070: cac6 cb3d 7835 98be 0bc4 bbbd 00d0 22bf
00000080: 2d72 013e fa52 da3d e63e 533e a531 a2bd
00000090: b041 2f3d 2b56 7b3e d89c 8d3e e470 a6bc
000000a0: efd0 71bd 44ca fd3d fae2 aebe 1ca0 19bf
000000b0: 43eb 753d 9e3c 9d3d 81e8 21bf 7448 df3e
000000c0: 5b3c 5dbd a754 453d 9248 b63d 4fc9 91be
000000d0: 96f0 bbbe d0ab 983e 39b4 2ebd 1a67 6a3d
000000e0: da25 9dbe 65f0 383d e38e e7be 51fb e23d
000000f0: 5446 023d b924 00bf 64d1 fcbd e33b bbbd
00000100: 9518 40bf 47b9 28be c046 be3d 3df3 83bf
00000110: b6f0 d63b 69c6 643e 3b7b 2a3f 7006 cb3d
00000120: e45a a2be 4908 873e 2ed2 f0bd 425d c13d
00000130: 9cb6 90be 3e6d 893e fa07 293e dfe4 c6be
00000140: 9873 0bbf 36bf 443e 17f7 0a3e 2169 a6be
00000150: eae5 623e 933f 143e 7259 01bf c47a d83e
00000160: 8eb6 62be 871e 54be 5a4e cebe 26b8 cbbc
00000170: b21a b23e d31b 10bf a121 3abe 3be3 5dbf
00000180: cd4f 0d3e dc9f 2b3d 5ca1 c3bb 62e6 5ebe
00000190: 2c6c 40be dbc9 3abd ef0b b43e 5f6e 853e
000001a0: 02c5 243e ca56 76bb 0274 9fbb ec0a cbbe
000001b0: cd80 4c3e c5dc 3b3e 6334 06bf 7862 dd3e
000001c0: 7e01 04be e9ef 7a3e 1ecf 143e aeea 6cbf
000001d0: 902f 23be 1e24 e73d cb6c 853c d4ac 7ebe
000001e0: 3a41 f5bd a1e6 5c3d 4d0b a23e 8a93 7a3e
000001f0: 7309 b23d e39f 49bf 7b7f dabd f252 d8be
00000200: c57b 6e3c 0e6a 623d 09c6 06bf 439b 013f
00000210: 3e3f dbbd 995e f1bc b634 97bf efd8 b53e
00000220: 38ef 8db9 9848 fbbe aa5c 583d aa15 803d
00000230: f8f0 a93e 01e8 5e3d 4a0f 3c3f e8b4 a13e
00000240: cd51 cc3e c54f 05be 3126 28bc b7d5 26bf
00000250: f17f fc3d a9f7 62be 0074 c73d d504 58be
00000260: 3e16 703f 922d f53e df07 5dbe f36e 573d
00000270: aa3b a4bd 7e5b 1c3f 1428 5c3e e3b3 d63e
00000280: 57c7 a13e c07c aebc efa5 8c3e 9246 14be
00000290: 84b3 c53a f2b6 a73e 5987 9fbe ece4 d13d
000002a0: b736 43bf 729b 1d3c 74cd ebbe ef36 943e
000002b0: 0d99 603d bf66 f23e c1e4 9d3e 3216 87be
000002c0: 66f4 f93d 66a1 cdbe dac2 973e d065 1f3e
000002d0: 36a6 ce3e 7dda 603e a619 20be 966a b0bd
000002e0: a29f 983e b55a c9be 6c0a 4fbf f127 5ebc
000002f0: af71 13be 8711 713f 8d1f c6bd 180a b93e
00000300: a7b0 cbbe 0b30 7ebe e97e ab3e a05a 9bbe
00000310: 0a04 363f c178 2f3e 18ba a43f f679 b73d
00000320: 50a5 c2be f00d 483e 6988 c4be 132b 343e
00000330: d5d3 a0be 6596 24be 9c44 66bd 3d2a b7be
00000340: 3d31 00bf 6a3e 003e 9b38 d2bc 6381 053f
00000350: 04d5 333b f6d8 bc3d fa22 1f3f 7b53 0b3f
00000360: 6503 0c3d 1b8c 823e 4ab5 013f 6d68 b2bc
00000370: de31 a33d 86e9 3ebf 69c0 7abd d1f8 71bf
00000380: d78c ae3d db91 ac3d 1c34 1a3e 5521 db3e
00000390: 2ed1 b8be 1779 d0bd 98ab 72be b6f3 cd3e
000003a0: 58f6 76bc 718a 33be c39d f03d 9ac1 3abf
000003b0: 9ade 443e 4c49 2cbe 1784 46bf f95c 19bf
000003c0: 6d85 073e 3659 4a3f 0cab 53bd cc2e 80be
000003d0: 13d6 8cbe 926a 753e 0808 1c3e 433b 13be
000003e0: b83f cbbd 4a86 b8bd cc5e 8e3e 6e71 e63e
000003f0: 423a 98bd 774a 1b3e 1e53 413e a624 1dbf
-0.8116029 0.18717432 0.011635995 -0.7236771 -0.14873716 0.16334143 -0.58133334 0.20768575
-0.9574333 0.09216511 0.10843391 -0.35455394 -0.24525483 0.054733153 0.6951023 0.28315774
-0.52144504 -0.06918978 0.18772191 0.15049918 0.2006936 0.08134387 -0.6872691 0.08484608
-0.30570555 -0.021067996 -0.26594675 -0.004933562 0.099500254 -0.29728293 -0.091682516 -0.6359863
0.12641211 0.10660358 0.20629463 -0.07919625 0.042787254 0.24544589 0.27658725 -0.020317502
-0.059037145 0.12392095 -0.34157544 -0.6000993 0.060038816 0.076775774 -0.632454 0.43609965
-0.054012638 0.048176434 0.089005604 -0.284739 -0.3670699 0.29818583 -0.042652342 0.05722723
-0.3069294 0.045151133 -0.452262 0.11083091 0.03180535 -0.50056034 -0.123446256 -0.09142282
-0.7503751 -0.16476928 0.09290838 -1.0308605 0.0065594567 0.22341312 0.66594285 0.09913337
-0.3170997 0.2637351 -0.117588386 0.09441616 -0.2826432 0.26841158 0.16506949 -0.3884649
-0.5447326 0.19213566 0.1357082 -0.32502082 0.22158018 0.14477377 -0.5052711 0.42281163
-0.22139952 -0.2071477 -0.40294152 -0.024868082 0.34785992 -0.56292456 -0.18176891 -0.8667485
0.13799973 0.0419005 -0.0059701633 -0.21767572 -0.18791264 -0.04560266 0.35165355 0.2606077
0.16090778 -0.0037588351 -0.004866124 -0.3965677 0.19971009 0.18345936 -0.52423686 0.43239188
-0.12891194 0.24505581 0.14532134 -0.9254559 -0.15936112 0.11286186 0.016287228 -0.24870616
-0.119753316 0.053930882 0.31649247 0.24470344 0.086932085 -0.7875959 -0.10668846 -0.42250782
0.014555876 0.055276923 -0.5264593 0.50627536 -0.10705422 -0.029464053 -1.1812961 0.3551707
-0.00027071848 -0.49078822 0.052822746 0.06254132 0.33191657 0.054420475 0.7346083 0.31583333
0.3990616 -0.13018711 -0.010263012 -0.6516985 0.123290904 -0.22164787 0.09738922 -0.21095593
0.9378394 0.4788633 -0.21585034 0.052596044 -0.080191925 0.61077106 0.21499664 0.41934118
0.31597397 -0.02129972 0.27470347 -0.14480045 0.0015083407 0.32756764 -0.3115795 0.102487415
-0.76255363 0.009619581 -0.46055186 0.2894816 0.05483346 0.47344014 0.30838588 -0.2638412
0.122048184 -0.401622 0.29640847 0.15566182 0.40361184 0.21958347 -0.15634784 -0.0861408
0.2980929 -0.39327016 -0.8087528 -0.013559327 -0.14398836 0.9416737 -0.096739866 0.36140513
-0.39783213 -0.24823014 0.33495262 -0.3034258 0.71099913 0.17135908 1.2869291 0.08958809
-0.38016748 0.19536567 -0.38385323 0.17594557 -0.31411615 -0.16072996 -0.056217775 -0.35774413
-0.5007513 0.12523809 -0.025661757 0.52150553 0.00274402 0.092210695 0.62162745 0.54424256
0.034182925 0.25497517 0.5066725 -0.02177831 0.07968496 -0.7457508 -0.061218653 -0.9452029
0.08522957 0.08426257 0.1505894 0.42798868 -0.3609709 -0.10179346 -0.2369827 0.40225
-0.015073381 -0.1753328 0.11748841 -0.7295166 0.19225541 -0.16824836 -0.77545303 -0.5990749
0.13234492 0.79042375 -0.051676795 -0.25035703 -0.27507076 0.23966435 0.15237439 -0.14378075
-0.09924263 -0.090099886 0.278067 0.45008415 -0.07432987 0.15165125 0.18879363 -0.61384046

layer2.bias f4 [128]
00000000: 701a 803e 02a4 823e cd3e 733d dfcc 063e
00000010: 37e4 9d3c 52d9 2fbe b0d3 3ebd ad9b b2bd
00000020: 4105 9f3c 185b f23b 4df3 40be b445 18bd
00000030: cf8a ba3d 9f28 a2bd 5271 0e3e 5a6b 3f3e
00000040: 228c 0b3d bf77 563e 3b0d 083e 6a7b 6bbc
00000050: e5dc a33e a80e 5b3d fe88 083e d886 3d3e
00000060: e58c 19be 1fe0 3ebd 2ddf dabc 52dc 373e
00000070: 3628 543d 83d9 ab3d e399 543e ee4b 5a3e
00000080: 269e c2bc f21a 073e c162 ab3d 40ab 9cbd
00000090: 3fa6 543e 17d5 0b3e 73ad 173e c9d2 17be
000000a0: 4c29 1a3e ad78 87bd c319 213e 0c1d d63d
000000b0: 7840 28be 4c95 c2bc 350c 133c b68f 24be
000000c0: 88b3 7c3e 6a58 4dbd ccc2 0d3e 7807 65bd
000000d0: 547b 7fb9 49ef 903d d7cd 243d 2840 acbc
000000e0: f3f8 2d3d 3419 15be 5c86 dc3c 0e42 1f3e
000000f0: 6c0e 053d 5a27 c23d a2d9 143e 94c5 503d
00000100: 81c7 223e 1745 39bd 60bf d1bd 5dc6 ffbc
00000110: a3d2 ae3d d362 49be d986 843d 9ad4 d0bd
00000120: 8d65 e4bd 1ec4 423e b9ea fe3d 4e45 0c3e
00000130: 7468 583d 3a9c fd3d 0ef2 243e 9d54 723d
00000140: 7b80 aabd 6ee7 e8bc bf18 fe3d 54c6 38bc
00000150: f138 e53d d78f e0bd 6e7e bfbc 5ed5 573d
00000160: 1fd8 003e 9d9e 17be 11fe 763e 3278 3ebd
00000170: f5b0 ff3d 21b1 05be 87de d6bd 792c 15bd
00000180: 8764 e13d 5965 8b3d 80a6 003e a5c3 c8bc
00000190: bd34 e03d 6ee6 d7bc 4341 083e 535d 883c
000001a0: 606a 0539 d39f 053e 7bf3 103e 15d2 173e
000001b0: 02ef 9fbd a1ae cc3d 5da8 14bc 62a2 0a3e
000001c0: 3bab a53d c449 853e e552 03be 053c 6ebd
000001d0: 61bb dcbd c5ad ddbd 0673 b83d f97d 14be
000001e0: 3414 1cbe ff16 6fbb 1c0f 9dbd fd77 a1bd
000001f0: 21fd 523e 1474 39bd df70 14be 202c 043e
0.2502017 0.25515753 0.059386063 0.1316409 0.01927386 -0.17172745 -0.0465886 -0.08721099
0.019411685 0.007396113 -0.18842812 -0.03717585 0.09108507 -0.07917904 0.13910416 0.18693295
0.034069188 0.20944117 0.13286297 -0.014372686 0.32004467 0.053480774 0.13333508 0.1850847
-0.14995153 -0.046600457 -0.026717747 0.1795514 0.05179616 0.083910964 0.20761828 0.21318027
-0.023757052 0.13193873 0.08368445 -0.07649851 0.20766543 0.13655506 0.1481226 -0.14826502
0.15054816 -0.06614814 0.15732484 0.10454759 -0.16430843 -0.02375283 0.008975078 -0.16070446
0.2467786 -0.050133146 0.1384384 -0.055915326 -0.00024364638 0.0707689 0.040235367 -0.021026686
0.042473745 -0.14560395 0.026919536 0.15552542 0.032484457 0.09480162 0.14536145 0.050969675
0.15896417 -0.045231905 -0.1024158 -0.031222517 0.085362695 -0.19666605 0.06471033 -0.101968005
-0.11152182 0.19020125 0.124471135 0.13698313 0.05283399 0.123833135 0.16107962 0.059162725
-0.08325287 -0.028430667 0.12407064 -0.011277754 0.11192501 -0.10964935 -0.023375716 0.052693717
0.12582444 -0.148066 0.24120356 -0.046501346 0.12484924 -0.1305585 -0.104916625 -0.036419366
0.11005502 0.0680644 0.12563515 -0.024507353 0.10947559 -0.026354995 0.13306145 0.016646063
0.00012723496 0.1304925 0.1415538 0.14826234 -0.07809259 0.09994245 -0.009073344 0.13538507
0.080893 0.2603284 -0.1282459 -0.058162708 -0.10777927 -0.108241595 0.09006314 -0.1450118
-0.15242082 -0.0036482213 -0.076688975 -0.07884214 0.20604374 -0.045276716 -0.14496182 0.12907457

layer3.weight f4 [64, 128]
00000000: 6a60 87bc 7cd2 1ebd dcc9 023d 668b 75bd
00000010: 80c9 b2bd 7154 7bbc 45b6 edbc bee8 14bd
00000020: ea5b 84bd 7d6f d7bd 3fe0 3fbd e3c7 0fbd
00000030: 8dab 03be c69d 5fbd a085 bfbd e46d 833c
00000040: cf0f 14bd ca37 0dbd cce2 c8bd 4af5 3fbd
00000050: ea08 9fbd f4b0 73bd ee50 5cbd 188d cc3c
00000060: f13f d83c 6a28 b03d 0026 bc3c 1613 babc
00000070: 5c69 09bd cbcb ffbd b583 d8bb 9090 1abd
00000080: f474 3dbd cb16 183c c5e0 60bd 1e7e babd
00000090: a684 ce3b d598 3b3d 5447 1ebd dd4e 9f3d
000000a0: 1a15 033b 4ac6 47bc e592 043b a85c 89bd
000000b0: 2088 ba3b 4cf0 0f3d d603 653d 486b d6bc
000000c0: 0ceb b73c dcbb b2bd 4bd3 1fbc ba01 d7bd
000000d0: 2a20 6bba 9c95 a5bd ada3 d3bb 0fe8 dfbc
000000e0: 128b 6fbd 1e27 a83d 3253 313d 14b5 b3bb
000000f0: 09e2 de3d a6de 96bd f495 36bd f3f6 00bb
00000100: bc55 94bd 06be d9bd 3903 403d 801b d2bd
00000110: 330e 82bd cd14 44bb 99f2 cbbd 01bc c13c
00000120: d3e9 0abd 36b0 37bd fcbe 4bbd 7939 a4bc
00000130: 5bca 903b ad1b 80bd a6fc 7c3c 93b7 843b
00000140: 41d0 95bd 56e4 263d 006a adbd bc0a cc3b
00000150: 9e1a f1bd 7893 65bc 4ae2 78bd 1b82 223d
00000160: db92 85bd d184 983d 3f3c b1bd c9ae 7fbd
00000170: 2553 01be d5db ea3c dc02 d73b d2cd 21bd
00000180: 191a 55bb 4853 45bd a24e 04be b652 cdbd
00000190: cd79 d03c 870b 94bc a0f6 01bc d444 323c
000001a0: a62c 803c a286 41bd 0d2e d9bd 5aa5 1c3c
000001b0: 5727 d23b 3415 b5bd 6ae1 513d 05fe 0fbd
000001c0: e4e4 2a3d a49e e1bc e6d8 083a 9a1b f5bd
000001d0: 1ebb 8bbc 542b 993d d34e 86bd 73b5 8b3d
000001e0: 5654 80bc dc28 80bc 8af3 a7bc 5fec febd
000001f0: 3f89 99bd 8f55 1c3c f289 90bb 358e 243d
00000200: 8bdb 14be c60b cb3e db24 64bf bed1 ae3e
00000210: 2f6e 52bd fbb8 3fbc b4ef 3a3c dbcc 223d
00000220: 36b4 2b3f 57c1 edbd 9416 1c3d fcc8 993e
00000230: 2a48 b9bd 2856 323e 77d7 823e fd3c 303e
00000240: b69c 7a3e 2f6b 443e 5c23 c23b 3c6d 12bd
00000250: acf3 543e 203a b2bb 81a7 533e 0ac5 a83c
00000260: 73ae 943d c659 8cbe a754 43bd a01c 083e
00000270: 6228 403d 75bf 0abe 8e6a b13d ba31 673e
00000280: 0266 153e 9b3a 813e 9e6c 3d3d 061e 8d3c
00000290: b519 d6be df26 a03e 8d53 ab3e 98c0 fd3b
000002a0: 312c 4c3e 6860 e0bc 64a6 8f3e 15ae 153c
000002b0: a830 0d3f a9be ef3c 2894 8fbf 3fb5 d63d
000002c0: 0747 c63c 9681 2b3f ef2f c83d c6fe 843e
000002d0: 839d 5b3d 976d ecbe 62f0 d43d 1493 3abd
000002e0: d5af c93d c43a e5bc 4ce7 023e 9c4d ec3d
000002f0: e6f6 98bc a4ac 213e a7f9 72bd bb06 6a3e
00000300: c8a5 e4bb 1457 933c 09a9 0c3e 7f29 983d
00000310: 3429 703e c0bb 66bd 7c31 083e ee51 a53d
00000320: 0578 c83d a0cc 26bd 09ce 59be 0d1b 5dbe
00000330: 5465 003f 0b21 1abd 1012 10be 2eed b03d
00000340: 6af5 813d e31f 213e 2833 92be 3ef8 3d3e
00000350: dce7 e1bd d200 a63d c260 65bc 885a 31be
00000360: 2915 e33e 817b a23d f86f c13e 0247 9e3e
00000370: 1d7b a83e 53e7 8fbc 90b1 663d d6a9 ee3b
00000380: 05c2 143f c8c1 693e 1487 0a3d 3a97 7e3e
00000390: 1513 57bd 45b3 88bb e86d 803e 90d5 0f3f
000003a0: cc57 413d 4db4 18be 0cbc debe 4f52 223f
000003b0: 98f0 6e3e 0b90 9f3e 031a e63c 2bac 283f
000003c0: f6c4 173f 584f ac3e 7a8b 3e3d 5097 ad3c
000003d0: 4521 59be a5ce 8b3e d20c bdbe 38d3 7d3d
000003e0: 1a09 163f 2bfe 223e 7434 34bd 3b17 483e
000003f0: 38d1 ecbe aa75 f53e 04e8 8c3c e96d 10be
-0.016525466 -0.038774952 0.03193079 -0.059947394 -0.08729839 -0.015339957 -0.029017577 -0.036354773
-0.06462844 -0.105193116 -0.046844717 -0.035102736 -0.1285841 -0.054593824 -0.09351659 0.01604361
-0.03614789 -0.034477033 -0.09808883 -0.046864785 -0.07765372 -0.059494928 -0.053788118 0.024969622
0.026397677 0.08601458 0.022967339 -0.022714179 -0.033547744 -0.12490042 -0.0066074976 -0.03773552
-0.046254113 0.009282778 -0.054901857 -0.09106086 0.006302434 0.04580005 -0.038642243 0.07778714
0.0020001591 -0.012193272 0.0020229158 -0.06707126 0.005692497 0.035141274 0.05591186 -0.026174203
0.022450946 -0.087272376 -0.009754966 -0.10498376 -0.00089693314 -0.08085176 -0.0064587207 -0.027332334
-0.058482237 0.08210586 0.04329223 -0.0054842327 0.108829565 -0.073666856 -0.0445766 -0.0019678443
-0.07242915 -0.10631947 0.046878073 -0.102591515 -0.063503645 -0.0029919625 -0.09958381 0.023649218
-0.0339144 -0.044845782 -0.049742684 -0.020046936 0.004418654 -0.06255279 0.015441095 0.004050204
-0.07315112 0.040745102 -0.084674835 0.0062268656 -0.11772655 -0.01401221 -0.06076268 0.03967486
-0.06522151 0.07447208 -0.08654069 -0.062422547 -0.12629373 0.028669277 0.00656162 -0.039502926
-0.0032516776 -0.048175126 -0.12920621 -0.100255415 0.025448704 -0.018071903 -0.007932335 0.010880668
0.01564629 -0.047247536 -0.106044866 0.009560907 0.006413381 -0.08841935 0.051240362 -0.03515436
0.041722193 -0.027541466 0.00052203087 -0.11968155 -0.017056998 0.07478967 -0.06558003 0.06821718
-0.015665215 -0.015644483 -0.02050187 -0.12447428 -0.07496881 0.009541883 -0.0044109756 0.04017468
-0.14536874 0.3965742 -0.89118737 0.34144396 -0.05137461 -0.011701818 0.011409689 0.039746147
0.67071855 -0.11609142 0.03810747 0.3003615 -0.09046967 0.17415679 0.25555012 0.17210765
0.24473843 0.19181512 0.0059246253 -0.035748705 0.20796078 -0.005439058 0.20669366 0.020601768
0.07259836 -0.27412242 -0.047688153 0.1329217 0.046913512 -0.13549598 0.08662902 0.22577563
0.14589694 0.25240025 0.046246164 0.01722623 -0.41816488 0.31279656 0.33462182 0.007743906
0.19938733 -0.02738972 0.28056633 0.009135743 0.5515237 0.029265719 -1.1217089 0.10483789
0.02420379 0.6699461 0.097747676 0.25975627 0.05361701 -0.4617736 0.10397412 -0.04555042
0.098479904 -0.027982123 0.12783545 0.1153824 -0.018672418 0.15788513 -0.05932012 0.2285413
-0.0069777705 0.017985858 0.13736357 0.0742979 0.23453218 -0.056331396 0.13300127 0.080722675
0.09788517 -0.04072249 -0.21270002 -0.2159235 0.50154614 -0.03762917 -0.1406939 0.086389884
0.06345637 0.1573482 -0.28554654 0.18551728 -0.11030552 0.08105625 -0.01400012 -0.17319691
0.4435208 0.07933713 0.37780738 0.3091355 0.32906428 -0.017566359 0.05632168 0.0072834296
0.5810855 0.22827828 0.033820227 0.24862376 -0.052508432 -0.004171761 0.25083852 0.56185246
0.04720287 -0.1491253 -0.43502843 0.6340684 0.23333967 0.31164584 0.028088575 0.6588771
0.59284914 0.33654284 0.046519734 0.021190315 -0.21204098 0.27306095 -0.36923844 0.061969012
0.5860764 0.1591727 -0.043995336 0.19540112 -0.4625337 0.47941333 0.017200477 -0.14104427

layer3.bias f4 [64]
00000000: a25d e63c 6e01 483d 2ea9 d1bd 40ce 1bbc
00000010: e51c 2a3d e051 5b3e 129c 92bc 7024 8b3d
00000020: e8f4 fe3d 6a38 e53d b5ac a0bc 35cd 373e
00000030: 38f7 943e b40d 283d 3f32 873d 0c9f e23d
00000040: 64c4 9cbd c902 c6bd 32f9 d4bd 2c8b 61bd
00000050: 8646 163e 9111 9b3c 0aa3 35be 1387 7bbd
00000060: 4bbc 82bd 6074 cfbd b47a 92bd 4c0f 37bd
00000070: 8b8b b63c 0e1c 73bd c755 e3bd d7b3 1e3d
00000080: 9be9 ccbd 5984 45bd f446 343e 5163 8abd
00000090: c3e1 343e 8d88 f1bd 5c1b e9bd 9de0 343e
000000a0: 0eba a4bd 0699 1f3e f24f fb3c 56fd b33a
000000b0: 7051 47bb 6af4 053c 15e7 76bd 6f40 87bd
000000c0: 4bcf 23be bf12 60bd 755d 353e 0238 e83d
000000d0: 70a7 5f3e 6c3f ff3d 78da 8fbd d8b7 5d3c
000000e0: 8a99 8fbc 1639 273d e60e 653c 649e 0bbe
000000f0: 3ee4 963e a248 fa3b 887f 343b 92be 87bb
0.02812082 0.04882949 -0.102373466 -0.009509623 0.041531462 0.21417952 -0.017896686 0.06794059
0.12449056 0.11192401 -0.019613603 0.17949374 0.29094863 0.041028693 0.066013806 0.11065492
-0.07654646 -0.096685 -0.10399093 -0.055064365 0.1467534 0.018929275 -0.17737976 -0.061408114
-0.0638357 -0.10129619 -0.0715231 -0.044692323 0.022283336 -0.059352927 -0.11100345 0.038745727
-0.10005494 -0.04822192 0.17605191 -0.06757224 0.17664246 -0.11793623 -0.113821715 0.17663808
-0.080432996 0.15585718 0.03067777 0.0013732116 -0.003041353 0.008175949 -0.06027897 -0.066040866
-0.15997045 -0.054705378 0.17711432 0.11338808 0.21841216 0.12463269 -0.070240915 0.013532601
-0.017529268 0.040825926 0.013980603 -0.1363464 0.2947101 0.007638053 0.0027541835 -0.004142591

slot_head.weight f4 [13, 64]
00000000: 796e 11be 18f2 a33e aa75 95bd 362b d8bd
00000010: f8fe 8cbc b312 9d3e 6458 b73d 40b3 223e
00000020: 4217 7abd c342 82bd 48b2 ac3d ad13 9e3e
00000030: eb42 003f bd1f 03be 8225 8abe 2ffc 03bf
00000040: 0d40 ba3d 68f5 cc3c f314 f6bd 3f25 123d
00000050: e37f 35bf d260 dabf 8c14 0e3c 6fa8 b93d
00000060: 8eba ffbd a823 7b3d 30f8 773d 9a05 ddbe
00000070: 69ee 553d 7949 8a3c e695 92bc 97f2 6d3e
00000080: 83f3 083d cf54 cd3d a662 febd 0c79 32be
00000090: 4ffc cc3d f8a5 c7bd ef6f f4bd ebeb 33bd
000000a0: 3c50 4bbe c7ec 52bf 554d 443d 19fe 58bd
000000b0: f9ac b3be f6a0 ffbb ae07 a03d 0d21 86bc
000000c0: 122f c73c 00cb f0ba a06e 183e f433 ecbd
000000d0: 5c75 00bf 073d 6ebd e165 fdbd acba 643d
000000e0: 38a7 313c e668 0cbe 78a8 653e 5739 4d3d
000000f0: 6192 693e a8e6 153d ccb1 a43d edac 8a3c
00000100: 299f 2a3d 8996 013d aa27 e4bd c0a9 18bd
00000110: cc3a c03d cb59 7cbd 90a6 a03e 8d93 adbe
00000120: 9d36 073f 817b e73d 9c51 c23c 47ba 68bf
00000130: 3a4f 923e 7ed1 10ba 163b 7a3b fcb8 abbd
00000140: acfe ae3d aef3 9ebd e9fe a23d 6d4e bfba
00000150: b5dd a6bb a4d9 be3d 0f4d 063d 83b2 b2bd
00000160: 5b9a 4bbd e9a5 92bd 917d 8dbd e133 a43c
00000170: 092a 1ebd 9653 eebd a587 1ebe fd06 453e
00000180: d5a6 29bd 3a4a b93e 568f 07bc f41a 81be
00000190: 100c 1d3e ff47 2abd 0926 09bd 184e e93e
000001a0: 0a75 dc3b 2268 a2bd bbc4 5dbd 9825 9bbd
000001b0: d396 91be 7805 e6bc 34df 85bb a398 f6bd
000001c0: 38f3 f1be 5770 e63d 7baf 64bf 564a d93d
000001d0: d64b 29be 2623 ccbe 2c14 dd3d 7207 073e
000001e0: 100a e03d d2e7 89bd c6cf d03e 4703 f9bd
000001f0: 2a20 08bf 5334 d83d 1cf7 303d 86a8 4bbd
00000200: ff9f 16be 98cc d3bc a3ee c7bd e4ff b3bd
00000210: 294d 10be bb11 1abf f6c1 c5be a732 813c
00000220: 3c99 d6bd 5019 2e3e 5919 e3bd fc7f 043f
00000230: 72b5 c43b 849a 50bd 68d4 a0be 4cbf d33e
00000240: 0a78 3fbd f5ee 163d ecad a1bc 246f 9bbc
00000250: bad7 1bbf 9315 debe 56fa dfbc da5f 813d
00000260: d2ba 24be e4d5 c6bd f8b8 073e c780 6bbe
00000270: c856 b4bc 7506 e93b 1c83 163c f066 21be
00000280: 966a 003b 403d 18be 5eff 6abe 7e7e 1c3d
00000290: bef8 2abf 9034 0bbe a0f6 ae3d e3bc c6be
000002a0: 43c4 0cbd c6a7 94bd 6f87 453d c43e ce3c
000002b0: 366d 9d3e 12e7 05bb dd76 c2bc c745 eebc
000002c0: 58bd 143e 1aab 783d ecf4 193f 195b 443d
000002d0: 9fa6 c6be 5e50 2abe 20d6 07be cf5e 13be
000002e0: 955a 2dbf a74b 6abd e3c4 5f3e ebc0 37bc
000002f0: 222a 0a3f 50a5 9bbd 486f 923d a63b 65bb
00000300: 7651 c63d 262d 5a3e 882a 0ebe 5af6 9e3c
00000310: d08c ebbc ec64 09be 0a39 f0bd 25ff 383e
00000320: 6894 efbe b621 a13e 3178 b9bc 3ead 0a3b
00000330: aa85 fd3d ffc2 cebc fb32 46be e428 e43d
00000340: 3d4d 38bd 483e 1fbc b26f 2cbd 8539 f13c
00000350: 80b8 243e 2b2d 34bf eaa5 9dbd 6799 14bd
00000360: 247e 16be bc3d c5bc aace b03d c2ac 83be
00000370: 234f 123e 4f1c e7bd 7d64 4cbc 78f0 633e
00000380: a462 5bbd 815d b13d 20f3 dfbe 618a 0cbe
00000390: 4ee7 55be 6cf9 913c f519 b6bd f0ad 92bd
000003a0: 1bee d8bd 3b6c a43e 1438 abbd ef1d fe3b
000003b0: b282 1b3d a444 b53d e3ae af3c e108 73bb
000003c0: e219 b63e 0d37 87bd e613 9e3e 4b5d 84b9
000003d0: 20d5 ef3c 0fb6 bd3d 234d 8b3d 0a14 083b
000003e0: a1b1 293f 0ee7 8cbd 4462 863d 8ad4 07be
000003f0: 0a61 bebf 293e 2d3c 34fb 133e 46b6 5ebd
-0.14202298 0.3202064 -0.07297833 -0.10555117 -0.017211422 0.3067833 0.08952406 0.15888691
-0.061057337 -0.0636039 0.08432442 0.30874386 0.5010211 -0.12805076 -0.2698174 -0.51556677
0.09094248 0.025019363 -0.120157145 0.035680052 -0.70898265 -1.7060797 0.008671891 0.09065329
-0.12486754 0.0613133 0.060539424 -0.43168336 0.05222932 0.016880738 -0.017893743 0.23237072
0.033435356 0.100259416 -0.124211594 -0.17428988 0.100090615 -0.09748453 -0.11935412 -0.04392616
-0.19854826 -0.82392544 0.047925312 -0.0529767 -0.35092905 -0.0078011705 0.07813965 -0.016373182
0.024314437 -0.0018371046 0.1488595 -0.11533347 -0.50179076 -0.05816367 -0.123729475 0.055842087
0.010843091 -0.1371189 0.22427547 0.05010351 0.22809745 0.036596924 0.080417246 0.01692816
0.041655693 0.031637702 -0.11140378 -0.03727126 0.093862146 -0.06160907 0.31377077 -0.33901635
0.5281771 0.113028534 0.023720555 -0.90909237 0.2857607 -0.0005524381 0.003818219 -0.08384892
0.085446686 -0.07761322 0.079587765 -0.0014595516 -0.0050923475 0.093188554 0.032788333 -0.08725455
-0.04970775 -0.07160551 -0.069087155 0.020044269 -0.038614307 -0.116370365 -0.15481432 0.19240947
-0.04141887 0.36189443 -0.00827392 -0.25215876 0.15336633 -0.041572567 -0.03348354 0.45567393
0.0067278193 -0.07930018 -0.054142695 -0.0757553 -0.28435382 -0.02807878 -0.004085446 -0.12040832
-0.47255874 0.11251896 -0.8933026 0.106098816 -0.16532835 -0.39870566 0.10794863 0.13186434
0.10939419 -0.06733669 0.4078352 -0.12158828 -0.5317408 0.10556855 0.043204412 -0.049721263
-0.14709471 -0.025854394 -0.09762313 -0.08789042 -0.14091934 -0.60183305 -0.38624543 0.015771223
-0.10478446 0.17001843 -0.11088819 0.5175779 0.0060030753 -0.050928608 -0.31412053 0.41356885
-0.046745338 0.03684898 -0.019736253 -0.018973894 -0.6087605 -0.43375835 -0.02734105 0.0631711
-0.16086891 -0.09708765 0.13254154 -0.22998343 -0.022014037 0.0071113654 0.009186532 -0.15761924
0.001959478 -0.14867115 -0.22948977 0.03820657 -0.667858 -0.1359427 0.08543134 -0.38815984
-0.034366857 -0.07258563 0.048224863 0.025176413 0.30747384 -0.0020431918 -0.023738319 -0.029086007
0.14525354 0.06071005 0.60139346 0.04793844 -0.38798997 -0.1663222 -0.13265276 -0.14391635
-0.6771634 -0.057201054 0.2185245 -0.011215429 0.5397054 -0.0759989 0.071501315 -0.003497818
0.09683506 0.21306285 -0.13883412 0.019404579 -0.028753668 -0.13417405 -0.11729629 0.1806608
-0.46792912 0.31471032 -0.02264032 0.002116039 0.1237901 -0.025239466 -0.19355385 0.11140612
-0.044995535 -0.009719439 -0.04209871 0.029446373 0.16086006 -0.7038142 -0.07697661 -0.03627911
-0.14696556 -0.024077289 0.08633168 -0.2571774 0.14288001 -0.11284696 -0.01247513 0.222597
-0.053560868 0.086604126 -0.43740177 -0.13724662 -0.20889017 0.017819129 -0.0889167 -0.07162082
-0.1059229 0.32113823 -0.083603054 0.007755033 0.037966438 0.08850983 0.021445697 -0.003708415
0.35566622 -0.06602297 0.30874556 -0.0002524651 0.02927643 0.092632405 0.06801822 0.0020763897
0.66286665 -0.06880008 0.065617114 -0.13264671 -1.4873364 0.010573902 0.14451295 -0.05437305

slot_head.bias f4 [13]
00000000: c17d 18bd fb0b 4b3e bf5e 123d 9793 6ebe
00000010: 9198 493d b346 c13d a546 e23b bede 513e
00000020: df85 08bd 5860 6abd e994 163e 9a6b 48be
00000030: 06d3 56be
-0.037229303 0.19828789 0.03573489 -0.23298489 0.049217764 0.09437313 0.006905394 0.20495126
-0.033330794 -0.057220787 0.14705242 -0.19572297 -0.20978937

rotation_head.weight f4 [3, 64]
00000000: 3b3f aebd f55b 77bd fe91 4d3c 37f8 1bbd
00000010: 6cc5 b9bb 7d74 703e 781b af3e dd8b ae3d
00000020: 6b0f 623d 8b3c debd 09bc 733d b7c0 013f
00000030: a1ac 2fbd d0c6 9fbc c2d8 fc3d 1fff 883d
00000040: 0985 1e3b eb7a 97bd bec1 84bc df34 95ba
00000050: 9e25 553e 15ba d8be cf00 36be 3803 3fbd
00000060: d18a bd3c b94a 2fbd 1b44 c5bc a6b9 d4bd
00000070: d9c3 05bd d283 463c 9abf 90bd 9ae1 9b3e
00000080: efa3 bf3c d2b9 d43e ad48 85bd 4f10 d83e
00000090: 596e 893d cb64 613d b348 27bd 1a08 a73d
000000a0: d276 70bd ff7e 873e bf02 cbbc 87c5 7fbd
000000b0: b787 9f3d b9cd 8a3c 1800 a8bd eaab 1abc
000000c0: b1d7 bf3c aa5e 9dbd b4d8 893e 2148 063f
000000d0: 34b1 04be 1650 1fbe 90f1 ab3d 0df2 98bd
000000e0: 3e1a 02be dcd8 843c a9fb b13d e727 0abc
000000f0: 2299 31be 8c35 5d3d 7fdc 573d 5936 c2bd
00000100: 2ffa 27bd cdb2 813e a873 fc3d 5cee 353d
00000110: 007a 0dbe c10c 63bd d84c 95be 71f1 473e
00000120: 0e8a c53d f645 913e 34ec 9fbd 3cd3 e1be
00000130: 350d 5f3e 207a cb3d a763 913d 33a3 dabd
00000140: f0bd abbd 9540 983d cf4d 783c abcc a6bd
00000150: 461c 33be c1fd d13e e606 103e 9c1f a3bd
00000160: 0e44 573d a9cc f5bd 1147 a33d 8ab8 293e
00000170: fcca bb3d a566 0dbe fa93 c3bc 6b4e aabe
00000180: bf28 ce3c 221d 8ebe 30c6 0a3e 7477 a7be
00000190: a706 423e 70f1 6f3d ace6 e83c 16ba 7e3d
000001a0: 3648 43bd 53ef 2dbd 0c1c 07be 0acb ccbd
000001b0: a031 fd3d 5cee 733d fecb 0d3c 5e7f 373d
000001c0: 694e 993d 813d 49bc 3765 cebe 8503 d0be
000001d0: 1470 803e ebca a33e 6d2b 523d ed8e 8bbd
000001e0: d55e b13e 98e7 cebd 9dfc adbd cb2c 293e
000001f0: bf3a a4bb db93 6ebd f72a debd f36c 8b3c
00000200: 59f9 a03c cbfd 75be 50fc 113d 0bae 30bd
00000210: 9cae 9a3c ca8e 25bd 7d3e b1be f70c 41be
00000220: 6730 4fbe 194f 9cbe 3fc5 583d 301b adbd
00000230: 7444 4cbe 25cf 02bd ddbe 53be 9aa9 07bf
00000240: f3f5 b23d 82bb e9bd d73f 34be c761 08be
00000250: ddb4 38be c566 27bf bfeb 9b3c 16f2 103d
00000260: 7b27 b7bd cf67 ccbd b429 02be c1c1 94be
00000270: 15df 053d ec86 843d 9bef 6abd e343 77be
00000280: a93d 14bd 5d29 7ebe eb27 84be 5a9f 88be
00000290: ce38 51bd 0956 e5bd 56f3 623c 5949 febd
000002a0: 7c30 10be bfe6 57be 218d 5d3d 34d5 463c
000002b0: 2fb2 fdbd a48d 60bd b5c0 a73c ba1d 80bd
000002c0: c256 96be c9b6 d1bd 290d 05bf 26df 5dbd
000002d0: 8753 88be 8804 50be d12a 843d 68ce 7ebc
000002e0: ae59 2dbf 6b58 253d cd7c 65be 86ad ecbd
000002f0: e892 16bf eb55 ad3d d614 923d 70de 97bd
-0.08508154 -0.06039043 0.012547014 -0.038078513 -0.0056692865 0.23481937 0.34200644 0.085227706
0.055190485 -0.108513914 0.059505496 0.50684685 -0.04288924 -0.01950398 0.12346031 0.066892855
0.0024188182 -0.073964916 -0.016205665 -0.0011383555 0.20815131 -0.4232947 -0.17773746 -0.04663393
0.023137482 -0.04279587 -0.024080327 -0.10386972 -0.032657478 0.012116389 -0.07067795 0.30445558
0.0233936 0.4154802 -0.065080024 0.42199942 0.067105 0.055027764 -0.040840816 0.08155842
-0.058707066 0.26464078 -0.024781583 -0.062444236 0.077895574 0.0169438 -0.08203143 -0.009440402
0.02341828 -0.07684071 0.26923144 0.5245381 -0.12958223 -0.15557894 0.08395684 -0.074680425
-0.12705323 0.016216688 0.086905785 -0.008432365 -0.17343572 0.054006144 0.052700516 -0.09483022
-0.041010078 0.25331727 0.12326747 0.04441677 -0.1381607 -0.055432085 -0.2916019 0.19525696
0.096454725 0.28373688 -0.07808724 -0.44106472 0.21782382 0.09935403 0.07099085 -0.10675659
-0.08385837 0.07434193 0.01515527 -0.08144506 -0.17491254 0.4101391 0.14065132 -0.079650134
0.052555136 -0.120019265 0.07972539 0.16574302 0.091695756 -0.13808687 -0.023874272 -0.33262953
0.025165914 -0.27756602 0.13552165 -0.32708323 0.1894785 0.058579862 0.028430305 0.062189184
-0.047676288 -0.042464565 -0.13194293 -0.09999664 0.12362981 0.05955349 0.008654593 0.0447992
0.07485659 -0.01228273 -0.40311596 -0.40627685 0.2508551 0.31990752 0.051310945 -0.0681437
0.34642664 -0.10102767 -0.08495448 0.16520993 -0.005011886 -0.058246475 -0.10848039 0.017019724
0.019650148 -0.24022596 0.035641015 -0.04313473 0.018882088 -0.040419377 -0.34617987 -0.18852602
-0.20233308 -0.30529097 0.052922484 -0.08452451 -0.19947988 -0.03193583 -0.20678277 -0.52993166
0.08738317 -0.114127174 -0.17602478 -0.13318549 -0.18037744 -0.6539119 0.019033311 0.03538712
-0.08943077 -0.099807374 -0.12711221 -0.29054072 0.03268345 0.06471047 -0.05735741 -0.2414699
-0.036191616 -0.24820466 -0.25811705 -0.26684076 -0.051079564 -0.111980505 0.013851961 -0.12416334
-0.14080995 -0.21084116 0.05408967 0.0121357925 -0.123875014 -0.05482258 0.020477632 -0.0625567
-0.29363066 -0.102399416 -0.51973206 -0.05416789 -0.26626226 -0.20314229 0.06453479 -0.015552141
-0.67714965 0.040367525 -0.22410889 -0.115565345 -0.5881791 0.08463653 0.071328804 -0.074154735

rotation_head.bias f4 [3]
00000000: ab0b 393d 5370 cabc 1896 24bc
0.045177143 -0.024711763 -0.010045551
