outputs/trained_models/placement_model.pth (torch, 78789 bytes, 10 tensors)

layer1.weight f4 [64, 15]
00000000: c98f 183f ec13 b83e 3dd7 c9be 2070 f93d
00000010: 8141 5bbf 0cfa 57be b61b 923e 7d87 3b3f
00000020: b7ae a2be 2dad 1abe feb3 963d be8a 96be
00000030: 9282 3c3d 403c 243a d8e1 34bf fb6f 8e3e
00000040: 962f 99be 9367 8fbf 16d7 bbbe 67ab 003f
00000050: 9390 a93d 37fc 863c 70c4 8c3e 3052 953e
00000060: 7d47 5b3e 48e7 0b3f 7766 babe dc80 cbbe
00000070: 7979 97bd 0d65 7e3e 7b44 5cbe 1f5d b5be
00000080: 5f7d af3e e69b 4e3e 6850 93bf 445b 9cbe
00000090: 214c febe 8cc9 19be c906 e8bd abbc 433f
000000a0: 5a5c 963f bb9e cd3d 6dbe e2bc e347 1ebf
000000b0: 03dd c4bd 7a93 60be 1966 ac3e 9969 383f
000000c0: 0bd1 bebd b0e9 013f 2826 04bf 1620 3e3d
000000d0: e79a 0c3f b37e 00bf af27 733f b788 78be
000000e0: 2cf5 84bf 1221 ed3d 7b76 113e 3823 b23d
000000f0: b5bb 0a3e 9d48 e3be 63aa 1fbe 5fc6 303f
00000100: 6034 0ebf 1641 b63b 8d0b b5be b74a afbe
00000110: 4058 b73e d10a eb3e 283b 84bf ecd5 cabe
00000120: 393f 033e fb9e 4c3e 83b9 ecbd ced9 b1be
00000130: bd94 00bf 373a b0be 9c4c c9bb 4625 16bf
00000140: 400b 18bf 51b2 b73e e6e6 8fbe 1f07 99bf
00000150: 0d4b 12be b141 72bf fa5c 643d af11 8b3c
00000160: 62c7 5bbc 9567 b33e 17db 17bf 620b 2d3e
00000170: 1770 453e 9d68 cbbe 467a ad3e 6e0d 0fbf
00000180: d984 74bf 972f 37bf 86ca f0be 1e06 d93e
00000190: c956 8ebf b64b 7c3d c63c fc3b 1f17 743c
000001a0: 9d02 d3bd dbcf 1dbe b5f3 3f3f eed0 0abf
000001b0: ce12 933e a4ff 023f 7bc1 9d3e 3533 93bf
000001c0: 5fea 2fbf 4f7e df3d cc2a be3e 2ae2 b2bd
000001d0: 62f3 da3d 59bd 07bf e2ee 273e 5641 2cbd
000001e0: dd65 94bf 2770 413f 3055 5abf 1c32 1a3e
000001f0: 5eb1 923e 155e 193d 01af 4e3f dcd9 903e
00000200: 2eb5 323f ab07 aabe 626b b63e 030a c4bd
00000210: b58d 043e 345b 073e e173 b73c 1a48 543e
00000220: 4ec3 ca3e 0f80 94be 20b8 f8bc c399 d7bd
00000230: b1a3 3e3f ae3e 303e f4ba eabf 1bb1 8ebf
00000240: 45e0 4e3d 51b6 1abf a056 4c3e 45ad 1fbe
00000250: c8ab 733e 0e86 10be c68b 95be 8a82 b93d
00000260: 006f 51bf cc81 c83e 3b4e 0a3e 2885 193f
00000270: c178 11bf dce8 d53e ebdd 5fbf b409 193f
00000280: f5af de3d b612 cdbc 7147 acbc 7e77 953e
00000290: e989 4d3d c446 563f d2d4 ac3d 47ad 49bf
000002a0: d852 cb3b 14c8 923d 2289 813e 0efb ecbe
000002b0: 3f73 b8be 043c d23e 03a1 af3e 1ad9 e7be
000002c0: 1442 a4bb 4632 c13d dd1a 7ebc 3549 323e
000002d0: 3a67 e03e 30d9 993e b3ba 74bf cf08 923e
000002e0: 309e b9bf 0c0e bc3e a4d9 d83e f64f 1b3e
000002f0: 51b3 a73d ac9c d9be d9c9 803e ecde 0b3e
00000300: 8c09 093e ac02 173e 83a4 39bf 5cca 3ebe
00000310: 1b2c 5ebf 61bd 4cbe 0981 e03d 81d2 343f
00000320: aad9 cd3e e090 98be ad84 d0be a9e4 5bbf
00000330: 7074 3f3f a6e1 a03d c71b f9bd a36d 37bc
00000340: b686 babe 1451 dbba 95c1 61bd 6ebc 38bf
00000350: e2d3 a9bf 7f24 88bf ee1b 523f fd3d a03e
00000360: 0e51 8fbe f8d8 35bd 937f 4bbe 3147 47be
00000370: 24a3 0a3e 1470 d63c 1842 edbd c6c8 e13d
00000380: c791 24bc 6e10 0c3f 71e7 d1bd 86c5 223e
00000390: d2c6 8cbe e07f 113e 85c8 f23e c307 e53e
000003a0: 7dfb 80be 7c8c a6bd 4564 e83e 22b6 69be
000003b0: 5783 4d3e dd1a da3d 4435 1e3e f61c 3c3e
000003c0: 6de3 08bd 8e7b 1bbf 104a a5be 7046 1f3e
000003d0: 6759 8b3e 0bed 4a3f 2a94 57bd 10dc 893e
000003e0: e08f 963e 931d a0bf bdd6 173f 3054 8e3e
000003f0: 9ce2 00bf 2dad da3d 6380 5cbe 1b5b 82bf
0.595944 0.359527 -0.39422026 0.12179589 -0.85646826 -0.21091479 0.28536767 0.73253614
-0.31773922 -0.15105124 0.073585495 -0.29402727 0.04602296 0.00062650815 -0.7065711 0.2781981
-0.29919118 -1.1203483 -0.36687535 0.5026154 0.082795285 0.016477687 0.2749362 0.29164267
0.2141399 0.5464978 -0.364063 -0.3974675 -0.07396216 0.24843235 -0.21510498 -0.35422608
0.34275338 0.20176658 -1.1508913 -0.3053838 -0.49667457 -0.1501829 -0.11329419 0.7645976
1.1746933 0.10040041 -0.027678693 -0.6182844 -0.09612467 -0.21931258 0.33671644 0.7203613
-0.093172155 0.50747204 -0.5162072 0.04641732 0.5492386 -0.5019333 0.9498243 -0.24270903
-1.038732 0.11578573 0.14205353 0.08698124 0.13548167 -0.44391337 -0.15592341 0.6905269
-0.5554867 0.005561958 -0.35360375 -0.3423669 0.35809517 0.4590669 -1.0330553 -0.39616334
0.12817086 0.19982521 -0.11558821 -0.34736484 -0.50226957 -0.34419414 -0.0061431658 -0.58650625
-0.59392166 0.35878232 -0.2810585 -1.1955298 -0.14286442 -0.9463149 0.05575273 0.016976206
-0.013414236 0.35039964 -0.5931868 0.16898873 0.1928104 -0.3972825 0.3388235 -0.5587987
-0.9551521 -0.7155699 -0.47029513 0.4238748 -1.1120235 0.06159564 0.0076976744 0.014898091
-0.10303233 -0.15411322 0.7498124 -0.5422505 0.28725284 0.51171327 0.30811676 -1.1500002
-0.68716997 0.10912763 0.37142026 -0.087345436 0.10690953 -0.53023297 0.1639972 -0.042054497
-1.1593586 0.75561756 -0.85286236 0.15058178 0.28650945 0.03744324 0.80735785 0.28291214
0.6980771 -0.33208975 0.35628802 -0.09572222 0.12944682 0.13218385 0.022394123 0.2073063
0.3960213 -0.2900395 -0.030361235 -0.105273746 0.74468523 0.1721141 -1.8338304 -1.1147798
0.05050685 -0.6043444 0.1995492 -0.15593441 0.23795998 -0.14113638 -0.292082 0.090581015
-0.8181 0.39161527 0.13506405 0.59968805 -0.5682488 0.4177922 -0.87447995 0.5978043
0.10873405 -0.025033336 -0.02103016 0.29192728 0.05018035 0.8370173 0.0843903 -0.78780025
0.006204944 0.07167068 0.25299937 -0.4628529 -0.36025426 0.41061413 0.3430253 -0.45282823
-0.00501276 0.09433417 -0.015509334 0.17410739 0.43828756 0.30048513 -0.9559738 0.28522345
-1.45014 0.36729467 0.42353547 0.15167221 0.08188499 -0.42502344 0.25153998 0.13659257
0.13382548 0.14747113 -0.7251665 -0.18631881 -0.8678605 -0.19994117 0.109621115 0.70633703
0.40205127 -0.2979803 -0.40726224 -0.8589578 0.74787045 0.07855539 -0.12163501 -0.011195573
-0.364309 -0.0016732537 -0.055116255 -0.7216252 -1.3267787 -1.0636138 0.8207387 0.31297293
-0.27991527 -0.04439637 -0.19872884 -0.19460751 0.13538796 0.02617649 -0.11584872 0.110246226
-0.010044522 0.5471257 -0.10249222 0.15895662 -0.27495438 0.14208937 0.4741861 0.44732484
-0.2519187 -0.08132264 0.45389 -0.22823384 0.20069633 0.10649655 0.15450007 0.18370423
-0.033420015 -0.60735404 -0.32283068 0.15554214 0.27216646 0.7926795 -0.052631535 0.26925707
0.29406643 -1.2509025 0.5931204 0.27798605 -0.5034578 0.10677562 -0.2153335 -1.0184053

layer1.bias f4 [64]
00000000: f0a5 9f3d 862b b7bd ff20 473e 65c0 33be
00000010: 25d4 7c3d 1026 8a3e 427d 8e3e d42c e6bd
00000020: eaa7 aabe 8103 23be 24bb 41be 3bbf 6e3d
00000030: 7c9f 9ebc f423 dc3c 6c8d a13d 9ad5 ebbd
00000040: 80fe d7bd ef00 5fbe c41e 71bd 716e 57bd
00000050: 693e 7a3d ce13 82be 472d 46bc 7aaf cb3d
00000060: 370d 413e 442f c0bd 0fd1 903e 7893 113e
00000070: b649 f53d edbe 5a3c 6184 23bd 5c01 85bc
00000080: d4a9 e33d ba8a 573e b0a6 253e d622 853d
00000090: 3cad b1bd 07f1 70bc a62c ec3d 1567 bebd
000000a0: 71d1 48bd dc5f 6e3e f85d 8f3e 9706 07be
000000b0: d3da 503e c2b6 603e b72a 1f3d 0f00 83be
000000c0: a911 273d 280b dabd a233 f53d c78c 89bc
000000d0: 07f5 713d 6112 213e 7add 773d 95ac 21be
000000e0: e656 8e3e 43ac 0c3d 2d36 533d cb1f 673e
000000f0: fb5b 583e 084b 563e 2fc3 3f3e dc2c 3bbc
0.07795322 -0.08943848 0.19446181 -0.17553861 0.061725754 0.26982164 0.2782994 -0.11239019
-0.33331233 -0.15919305 -0.18919045 0.05828784 -0.019363157 0.026872613 0.07888302 -0.11515351
-0.10546589 -0.217777 -0.05886723 -0.05259556 0.061094675 -0.25405735 -0.012095756 0.09945579
0.18852697 -0.09384015 0.282845 0.14216411 0.1197695 0.013351184 -0.03992117 -0.016236
0.111163765 0.21049014 0.16176867 0.06500785 -0.0867562 -0.014705903 0.115319535 -0.09297005
-0.049027864 0.23278755 0.2800138 -0.13186108 0.20395975 0.21944717 0.038859095 -0.25585982
0.040788326 -0.10646659 0.11972739 -0.01679076 0.059071567 0.15729667 0.06051395 -0.15788491
0.27800673 0.03434397 0.051565338 0.22570722 0.21128838 0.2092706 0.187268 -0.0114242695

layer2.weight f4 [128, 64]
00000000: 21d4 ebbe 5199 b4be a2e2 1a3d 0a08 953e
00000010: f33f 8cbe 615a cbbe ef68 f13d 7b48 2cbf
00000020: 8834 7d3c 69d7 ec3e cd59 8a3e 55b5 00be
00000030: d893 ccbe f126 543e 8a57 1ebf be66 653d
00000040: 9ee5 633e 2434 7d3e 9b86 3abf 583b 823e
00000050: 77b1 08bf 5323 8f3e afd8 da3e 91d3 0e3e
00000060: f41f bf3e a155 81bf 2f99 08be 89ee 9f3c
00000070: bf25 303e 6081 1dbe 8347 5cbe aab9 97be
00000080: d34a 88bd a20a 00be 0aea 19bf 75ff 893d
00000090: 8a9a 04bf 342d c03d 89be b43d 8a59 83bd
000000a0: f3cb eb3c e94b 3bbf e062 75be db08 253f
000000b0: 318a 823e c18a f93e f2c1 243e 3f75 9d3e
000000c0: 79c5 fa3e 039c 603e 950b ad3d 4ee7 acbf
000000d0: 4aac 22be a32c 423d e7a3 96bd 9414 ba3e
000000e0: 0e79 a03e f3f9 263e bbdc 603d 80e1 9a3e
000000f0: 7e97 9a3d 01d5 0a3e 65e9 ba3e e6ab 59bf
00000100: 799d a53e df1a 783e 24cd 27be 14f0 8f3d
00000110: a070 813e b407 d5be 27fb 023e 5a4f a53f
00000120: 4d25 e6be 617f 753e 18c3 a6bc 9e0a 0a3e
00000130: 186a 68bd ce7e 4cbf edb6 04be 77bb 2e3c
00000140: a6ff 903e 394e 8b3d 213e 2dbe 8ded 22bd
00000150: 1f88 0a3f 51f8 4cbd ba3f b3be 17f9 39bf
00000160: 0aa4 edbe 51e2 2cbf bdda 5a3e 6955 bcbe
00000170: 3b29 13be 6a36 b7be 89c3 0a3f 3a59 b73d
00000180: a062 f73d 133e 463d 7d9d 13bf 2979 72bd
00000190: 3df7 e43e 3126 bb3e f81c a1bd 9bdd 99be
000001a0: abba 043f a200 b73e 0121 edbe ae03 bbbe
000001b0: a78d fdbd 1fc4 eb3d 72be 5f3e 6d14 e3be
000001c0: e653 c3be 80da a9be f548 0d3f 2a20 743e
000001d0: df88 f2bd 70c6 e9b9 9ea7 bcbf ea76 453f
000001e0: a356 223e 5422 06be a630 183e d709 8e3d
000001f0: 9b32 c23c 0c63 943e f7e9 b83e 6570 bd3e
00000200: d876 9c3d 3022 76bc b8c5 f43c da76 8abd
00000210: 40b0 84bd 206e aa3c 30f2 d93c b4c7 4d3d
00000220: b47d ea3d 2e88 983d 0696 c03d 125e dfbd
00000230: 489f 21bd f253 a6bd 685b e43c 06a5 d1bd
00000240: 8059 ff3c e2d5 d3bd 3e5f a13d be67 d6bd
00000250: 10f1 67bd bead fdbd 981b c4bd c068 5e3c
00000260: a443 8b3d f48b 83bd 7cc4 a8bd 8421 dfbd
00000270: a0d7 dd3b f604 cdbd ba85 bb3d 00d7 ac3a
00000280: 24c1 6a3d d847 6a3d c0b9 fdbc e07e c93c
00000290: fc93 7a3d 5efa ddbd 20cf f83d f027 713c
000002a0: 46ad d5bd bcb6 b6bd 2c6e acbd b626 cb3d
000002b0: a072 523c 6475 9cbd b089 f7bc 0060 7b3c
000002c0: d2cb dfbd 0083 c8bd 9681 8b3d 8433 77bd
000002d0: 7219 8dbd 28a0 11bd 3ce7 84bd e075 d33b
000002e0: 060a dbbd 52bf a3bd d8cb 9ebc 343a 83bd
000002f0: b0a0 813c 74eb a73d 0471 d2bd 9091 2f3c
00000300: 2ca0 963e 7e73 c43e beb1 8abe 5eea b63c
00000310: de72 013e e41d 89be 2dda d9be 1709 5dbe
00000320: bb08 0ebf f298 8fba b1eb 5abf 1118 76bd
00000330: 3c7d 843e 682c 86bf 7ce8 9cbd eb78 da3d
00000340: e062 0c3f 2ec7 873e 8057 383f 32a8 74bd
00000350: a563 3a3f 2396 013f f9be 063d ee85 fabe
00000360: c403 10be 06b2 a2be 64ac 1fbe 9747 33be
00000370: e968 0bbd a501 fd3c a5dc 2f3d 501c 003f
00000380: 1dfa 523e 28d0 383e 0a01 cebe e63d 2fbe
00000390: 9863 673e 1554 ae3e 67dc dcbd 182c 2abf
000003a0: c0b6 5e3e 08a0 b33e a112 69be 60af 373f
000003b0: 404a 2e3e 9c4d ddbd eac3 5d3e 3526 40bf
000003c0: 4405 bf38 1555 1b3e 91a8 aebd d932 ecbe
000003d0: 57c1 983e f348 843e d2c9 6abf 68ed 743f
000003e0: ccb2 89be 1a7a 6fbd 3482 a13c 6826 4abe
000003f0: ceec 263e 5596 963e c8ef ec3d 5171 273f
-0.4606028 -0.3527322 0.03781379 0.29107696 -0.2739254 -0.3971739 0.117875926 -0.67298096
0.015454419 0.46258095 0.27021638 -0.12569173 -0.39956546 0.2071798 -0.61852324 0.056006186
0.22255561 0.24726921 -0.7286164 0.254359 -0.5339579 0.27956638 0.4274344 0.13947894
0.37329066 -1.0104257 -0.13339685 0.019522922 0.17201899 -0.15381384 -0.21511655 -0.29633838
-0.066548966 -0.12504056 -0.6012274 0.06738178 -0.5179831 0.09383622 0.08825404 -0.064135626
0.028783774 -0.73162705 -0.23963499 0.6446664 0.25496057 0.48738673 0.1608961 0.30753514
0.48978785 0.21934514 0.08449475 -1.3508089 -0.15886036 0.04740585 -0.07355481 0.36343825
0.31342357 0.16306286 0.054898005 0.30250168 0.07548426 0.13557817 0.3650619 -0.8502792
0.32346705 0.24229 -0.16386849 0.07028213 0.2528124 -0.4160744 0.1279112 1.2914841
-0.44950333 0.23974372 -0.0203567 0.13480613 -0.056741804 -0.7988099 -0.12960406 0.010664812
0.28320044 0.06802029 -0.16918232 -0.039777327 0.54113954 -0.0500415 -0.35009557 -0.72645706
-0.46414214 -0.6753283 0.21372505 -0.36783913 -0.14371197 -0.35783702 0.5420461 0.089525655
0.12079358 0.048399042 -0.57662183 -0.05919758 0.44719878 0.36552575 -0.078668535 -0.30051884
0.5184733 0.3574267 -0.46314242 -0.36526245 -0.12380534 0.115120165 0.21849993 -0.4435152
-0.38149947 -0.33174515 0.5518945 0.23840395 -0.11842512 -0.0004458907 -1.4738653 0.77134573
0.15853362 -0.13099033 0.14862308 0.069354706 0.023705771 0.28981817 0.36116 0.36999813
0.07639855 -0.015022799 0.029879436 -0.067609504 -0.064789295 0.020804465 0.026604742 0.05023928
0.11449757 0.07447849 0.09403615 -0.10906614 -0.039458543 -0.0812148 0.027875617 -0.10236554
0.031170607 -0.10343529 0.07879494 -0.10469006 -0.05662638 -0.12386654 -0.095755756 0.013574779
0.06800011 -0.06423178 -0.082406014 -0.108950645 0.0067700893 -0.10010712 0.09156366 0.0013186634
0.0573131 0.05719742 -0.030972362 0.024596632 0.061176285 -0.108387694 0.12148881 0.0147189945
-0.1043344 -0.089215726 -0.08419451 0.09919493 0.012844712 -0.07639578 -0.030217022 0.015342712
-0.109275475 -0.09790611 0.06811826 -0.060351864 -0.06889619 -0.035553128 -0.06489417 0.006453261
-0.10695271 -0.07995476 -0.01938431 -0.06407586 0.015823692 0.08199206 -0.10275462 0.010715857
0.29419076 0.38369364 -0.27088732 0.022328552 0.12641475 -0.26780617 -0.42549267 -0.21585499
-0.5548207 -0.0010955615 -0.85515887 -0.060081545 0.25876796 -1.0482302 -0.076615304 0.106675945
0.5483837 0.2651915 0.72008514 -0.059730716 0.72808295 0.50619715 0.03289697 -0.48930305
-0.14063936 -0.31776446 -0.15593106 -0.17507778 -0.034035597 0.030884573 0.042935032 0.500432
0.20603223 0.18048155 -0.40235168 -0.17113456 0.22596586 0.34048524 -0.10784226 -0.6647353
0.21749401 0.35083032 -0.22761013 0.71751976 0.17020512 -0.108058184 0.21656767 -0.750583
9.1085705e-05 0.15169175 -0.08528245 -0.46132544 0.29835007 0.25836906 -0.91714203 0.95674753
-0.26894224 -0.058466054 0.019715406 -0.19741213 0.16301271 0.2941157 0.11569172 0.6540728

layer2.bias f4 [128]
00000000: dc24 123e 400e 9d3d 34be 9fbd 8e49 273e
00000010: a0e9 793e f028 d33c bfd7 7b3d 37b7 0a3e
00000020: 703a 053e feb8 413e a170 13bd 326a 953e
00000030: adc3 183e f7c2 02be ef36 fc3d 193d a1bd
00000040: 98ec a1bd 7f5b 593d 824d 703e 4a7f 95be
00000050: 8377 433d 4111 cb3d c4f4 183d 97d2 1cbe
00000060: f5bd 593e e3fc 803d 02e8 0bbe 74a6 773e
00000070: 32e7 423e 080d 193e baa1 d53b 4118 183e
00000080: dd43 6cbe e52a bbbd 761a 463e 5d47 e23b
00000090: 66f4 9eba d8db ab3e e5cc e63c 6447 4ebd
000000a0: 2d79 6abb b4c1 a0bb 0aca bb3d 89bc 07be
000000b0: 55a6 fcbd 2a5f f2bd 4ee0 793e 7415 1a3e
000000c0: 6838 e33b 9351 19be 8241 9c3d 758d f7ba
000000d0: 88c7 0cbd 7207 083e c1bd 6dbd 4c66 b03d
000000e0: 5ca8 a9bd 6b4c 173e 0b15 4dbe 2d25 563c
000000f0: a893 e4bc 7ab8 0e3e ee76 20be 9d0a 0fbd
00000100: 3f00 cc3d 0e1a d93b 05d4 2c3e db6b 9a3d
00000110: c7c9 c1bc fd2f d6bc 9750 083e 0c55 3ebe
00000120: afcf a33d 8d02 38be ebaf 243e ef06 483e
00000130: 9d78 713d 5a1d 8c3c 8698 903d 6624 1d3e
00000140: 74ad 0fbe ea97 f4bd 7da9 6a3e bd36 1e3e
00000150: 3cd0 48be 1ece 023c 2c85 a23d 473a 0a3e
00000160: df46 7cbc 1ba3 3fbe 2336 8f3c 7ed1 66bd
00000170: 8f08 803c bbd5 cebd afde 613e a686 66be
00000180: 8220 0d3e 1e71 a8bc 41ec 113d 879f d7bd
00000190: b3c1 37be 8c66 a13e 2e18 0f3e 35da 1cbe
000001a0: 179d a03c dbd1 593e 0455 093e 2cf6 b3bd
000001b0: 6d85 643e b804 2f3e 697e 003e b9a5 cb3c
000001c0: 9893 cfbd b227 493e f46f 243d 9f28 c3bb
000001d0: 43c0 603e de8b 94bd 4761 2f3e f1a3 823c
000001e0: 0ad0 803e b12f b6bd f74f 1bbd 74fb 3fbd
000001f0: 0042 2b3e fae0 f83c db6f 7f3e 8854 1a3e
0.14271873 0.076687336 -0.0779995 0.16336653 0.24405527 0.025776356 0.06148505 0.13546453
0.13010573 0.18918225 -0.035996083 0.29182583 0.14918394 -0.12769686 0.12315165 -0.078729816
-0.07906455 0.053065773 0.23467067 -0.29198676 0.047721397 0.099154 0.0373428 -0.15314709
0.21263869 0.06298234 -0.13662723 0.2418459 0.19033507 0.14946377 0.0065195234 0.14853002
-0.23072763 -0.09139041 0.19346032 0.00690548 -0.001212728 0.33566165 0.028173873 -0.050361052
-0.0035777793 -0.0049059037 0.09169395 -0.13255514 -0.12336413 -0.11834557 0.24401972 0.15047246
0.0069342144 -0.14972524 0.07629682 -0.0018886762 -0.034369975 0.1328409 -0.05804229 0.086132616
-0.08284065 0.14775245 -0.20027559 0.013070387 -0.02790244 0.1393756 -0.15670368 -0.03492223
0.099609844 0.0066254204 0.16877754 0.07540103 -0.023655785 -0.02614593 0.13311993 -0.1858713
0.07998597 -0.17969723 0.16082732 0.19533895 0.058952916 0.01710384 0.070603415 0.15345916
-0.14031011 -0.11943038 0.22916217 0.15450568 -0.19610685 0.0079837125 0.07935557 0.13498794
-0.015397756 -0.18714564 0.01748187 -0.05635213 0.015629081 -0.100993596 0.22057603 -0.22512302
0.13781932 -0.020561751 0.0356257 -0.10528474 -0.17944984 0.3152355 0.13974068 -0.15317614
0.019606156 0.2127146 0.13411337 -0.08787188 0.22316523 0.17091644 0.12548222 0.024859296
-0.10135573 0.19644049 0.04014583 -0.00595577 0.21948342 -0.0725324 0.17126952 0.015947314
0.2515872 -0.08895815 -0.037918057 -0.046870664 0.16724396 0.030380715 0.24945013 0.15071309

layer3.weight f4 [64, 128]
00000000: cfba 8ebf f276 ea3e c065 543d 9873 a43e
00000010: b661 fe3e 9011 52bf fc51 813b 01b0 bdbe
00000020: d017 af3b 8fd3 cc3e 70f5 d03b 5ba4 d03d
00000030: aa60 a23e 646f 253a 306f 7e3d 2569 77be
00000040: bf07 d13d d226 82bc ef7e 643e 5b93 10be
00000050: 0e51 41bc 290e 333e 4177 88be f2ca 993d
00000060: 842a 0abe e9ee 5abc d7d2 9e3d 6e73 cf3e
00000070: dab3 733d 26e2 6fbe 16c0 983d aaff b13e
00000080: 53de fb3d 0147 0cbc fc58 b93d ab9b c3bc
00000090: c193 87be e89c 773e b8be 8a3c 8575 86be
000000a0: b835 fa3d 7623 15bf b245 efbe dfad 223e
000000b0: 80bf 9f3f 22c5 4bbd e197 d4bd 618b e5bd
000000c0: a1cb 29be 2f90 9abd b8c0 563d e61e 693e
000000d0: 441e b63e 06e1 a33e 668f 7a3d cb7f b73e
000000e0: 6993 41be 6f7f b73e 6f22 c73d d0d0 97bc
000000f0: 2290 b3ba 15ff 063e e8db 28bc 4b1f 933e
00000100: b02c 433e 5ce8 bebc eb75 433e 1bc1 b13e
00000110: e791 9abe 6371 783d 9363 bb3e 6b8f acbd
00000120: a71f 653e e516 26bd d9b2 813c 395c 493e
00000130: ea7e 313e 76ed 2e3f cef1 cb3e 4b90 3f3e
00000140: 3741 b93e 0505 ffbd d958 f23d 1cc7 b73e
00000150: 32ae 643e c076 1bbe 177f 933e 0113 1bbd
00000160: d1de 8f3e 9e1d bb3e 8cc3 43bd 04a7 37bd
00000170: 5700 cc3e 393e f33d 1028 553d 8fc3 acbe
00000180: caac 85be 5da0 b7be 1e89 c23b 1e80 f93d
00000190: d4b9 dcbc afc7 b53c 8423 4c3e 9d46 87be
000001a0: 8002 1fbe 3380 8a3e 03a6 7d3e 9455 84bd
000001b0: 4151 3ebe c535 af3d 4d2b cd3e 959e c83e
000001c0: 87fc eabe 7bc4 803d e0b6 a7be ed95 2abf
000001d0: c994 783e bbf1 ba3e b031 313e 5446 36bc
000001e0: 89bf ba3d c7f4 083d 5297 0abe 7293 6dbe
000001f0: 179e cf3e 4545 09bf ca07 b63c 24d7 f53e
00000200: 7d6c afbd dd54 70bd c8a3 83bc 139f 3c3d
00000210: 5021 d9bc b0e4 993c bbc9 38bc e892 d2bd
00000220: c337 983c 794d 223d 9f98 91bc c43d c43d
00000230: 4957 e1bb 41f4 713b aee8 283d a98c 52bb
00000240: 5b7d 073d c69d c9bd fca6 96bd 54b9 e9bd
00000250: 67af 933c e2fd 943c ad92 353b 62c9 82bd
00000260: 47c2 61bd 27b1 1cbd 8b50 a03c 2af0 353d
00000270: 30f7 0f3a 3c9b 223c bfa2 e4bd dd07 efbd
00000280: 7c4a 83bd a1a9 963d ee2a afbd 6afc c03b
00000290: 8bd5 943c 1012 5dbd f580 debd 5c26 343d
000002a0: 6b1a 4c3d 1cd9 093c 3044 a53c 8cd8 033d
000002b0: 3677 adbd 7825 b2bb d702 e1bd ee42 e7bc
000002c0: 6290 a1bd 05ad df3c 925e 84bd 7c55 db3d
000002d0: ea6e 23bd ee89 b1bd 1478 663d f00b 603d
000002e0: 707f 9d3a 9f44 d6bd fd91 04bd 5a0f 433d
000002f0: 2e3c edbc 6813 fdbd cbb7 4cbc f753 343d
00000300: fa11 6cbb b00f 143b 97fd 88bd f8e3 2d3d
00000310: 4e06 adbc 276d 193d 18c6 9cbd 8f36 3fbd
00000320: 4768 85bd 4f59 fe3b d0d3 d9bd 4cf7 91bd
00000330: a887 96bc bcea dd3b 2039 463d 5dd6 463d
00000340: add1 3fbc b6a8 86bd 2645 b3bd 5025 ec3c
00000350: eecf 573d 1739 5e3d d327 7f3d 9954 76bd
00000360: 4dad a3bc dc4c 9fbc fe27 89bd 19d2 f7bd
00000370: 110f 88bd 3ae3 e53c b435 16bc 50ac 64bd
00000380: 52fc 0c3d 699f 9abc 9df7 79bd c0f7 89bd
00000390: b7cc 293d bc43 ecbd e194 8c3c bb9e 1d3d
000003a0: ab59 8cbd 98fa e4bd 8539 673d 3fc0 003d
000003b0: 3fc7 31bd 8c95 1abe b0f3 be3b fc19 1c3d
000003c0: 76b6 38bd 3350 df3d af68 b1bd 4bdb 29bd
000003d0: 33bf 8dbd 829f 94bd 7523 193a 5289 83bd
000003e0: d043 62bc b5a4 eebd 5db1 ed3c 6b27 f7bc
000003f0: c3fe f63c a6ed d2bd b4ef c83a 8971 9ebc
-1.115076 0.45793873 0.05185485 0.3211944 0.49683923 -0.8205805 0.003946541 -0.37048343
0.005343415 0.40005156 0.0063769147 0.10187598 0.31714374 0.0006310849 0.062117755 -0.24161203
0.102065556 -0.015887652 0.22314046 -0.14118712 -0.01179911 0.1748587 -0.26653484 0.07509412
-0.13492781 -0.013362625 0.07755058 0.40517753 0.05949769 -0.23426113 0.074585125 0.3476537
0.12298264 -0.0085618505 0.090501755 -0.02387794 -0.26479915 0.24180949 0.016936645 -0.26261535
0.12217277 -0.58257234 -0.4673286 0.15886639 1.2480316 -0.049748547 -0.10380531 -0.11208225
-0.16581585 -0.07547032 0.052429885 0.22765693 0.35569966 0.32007617 0.06117191 0.35839686
-0.18903889 0.35839412 0.097233646 -0.018532187 -0.0013699571 0.13183244 -0.010306336 0.28734812
0.19060016 -0.023304157 0.19087951 0.3471764 -0.3018944 0.06065501 0.36599407 -0.08425792
0.22375356 -0.040549178 0.015832352 0.19664086 0.1733357 0.68331087 0.3983292 0.18707387
0.36182567 -0.12452129 0.118333526 0.35894096 0.22332075 -0.15182018 0.288079 -0.03785992
0.28099683 0.36546034 -0.04779391 -0.044837013 0.3984401 0.118771024 0.05204016 -0.3374295
-0.2610839 -0.35864535 0.005936756 0.121826395 -0.026944079 0.022189943 0.19935423 -0.2642106
-0.15528297 0.27050933 0.2477036 -0.06461635 -0.18585683 0.085551776 0.40072098 0.39183488
-0.45895788 0.06287476 -0.3275671 -0.6663502 0.24275507 0.3651255 0.1730411 -0.011125166
0.09118564 0.033436563 -0.13534287 -0.23200777 0.405503 -0.5362132 0.022220511 0.48015702
-0.08565614 -0.058674682 -0.016069308 0.046050142 -0.026505142 0.018785805 -0.011278565 -0.102819264
0.018581277 0.039624665 -0.01777297 0.09582093 -0.0068768603 0.0036919268 0.041237526 -0.0032127297
0.033078533 -0.09844546 -0.073560685 -0.11412302 0.018027974 0.018187467 0.0027705834 -0.06386067
-0.055116918 -0.038254883 0.019569656 0.04441849 0.0005491851 0.009924706 -0.11163854 -0.11671422
-0.06410691 0.07356573 -0.0855311 0.005889465 0.018168231 -0.053972304 -0.1086444 0.043981895
0.04982988 0.008413579 0.020174116 0.032188937 -0.08470003 -0.0054365955 -0.1098687 -0.028230157
-0.07888867 0.027304182 -0.0646335 0.10709664 -0.039900698 -0.08668886 0.05626686 0.054698884
0.0012016129 -0.10462307 -0.032365788 0.047622062 -0.02895936 -0.12357217 -0.0124949915 0.044025388
-0.0036021457 0.0022592358 -0.066889934 0.042453736 -0.02112117 0.03745761 -0.07654971 -0.04668289
-0.0651403 0.0077621113 -0.10636103 -0.07127246 -0.018375233 0.0067723673 0.048394322 0.048544277
-0.011707705 -0.06575148 -0.087534234 0.028826386 0.05268853 0.054253664 0.06229384 -0.060139272
-0.019980097 -0.01944583 -0.06697081 -0.1210062 -0.06643499 0.028062452 -0.009168077 -0.055828393
0.03442032 -0.01887484 -0.061027158 -0.06736708 0.041454997 -0.11536357 0.017160835 0.038481455
-0.0685304 -0.111806095 0.05645134 0.03143334 -0.043402907 -0.1509611 0.0058273897 0.038110718
-0.045095883 0.10903969 -0.08662545 -0.0414689 -0.06921234 -0.07256986 0.00058417703 -0.06422676
-0.013810113 -0.11652509 0.029015237 -0.030170163 0.030150777 -0.10299234 0.0015330226 -0.019341247

layer3.bias f4 [64]
00000000: 636b d83d efe6 92bd 80c9 afbd e5eb 683e
00000010: 2817 ef3c b6c7 b8bd b96d 2a3e 916a d23d
00000020: ec3a e8bd 26b5 f9bd 944a 8bbd 1acd b1bd
00000030: a5b7 d8bd f2c2 08be c5db f13c 8753 f0bd
00000040: 2ae2 063d 2cdf 063d 943c e3bd ae21 a2bd
00000050: c377 dc3c ce69 153b 839a 94bd 2ae5 1b3d
00000060: c87b 9d3c c80f de3d 4d1e 683e b506 f7bd
00000070: e571 303c 89bb 193e 959f 83bd 18d1 e8bd
00000080: dc25 a8bc e06a 013d 56c4 003e 66bd 9bbd
00000090: cbb0 66bd 0127 67be ccd0 f3bc 1f26 73bc
000000a0: b9db 92bd cf38 c5bd e53c 3d38 3caf 3dbe
000000b0: f34a 223e 54b6 463e 54cc b23c d99a 183d
000000c0: 362f 053e 258a 8d3e 9806 ae3e 64da b93d
000000d0: e931 8abd 05f0 adbd 492f 303d 0c14 033e
000000e0: bb0b 093e 1450 103e 102c 0dbd 8dd7 ce3c
000000f0: b432 d6bd 79ba 03be 7683 55bd fd1c a3bd
0.105673574 -0.07172953 -0.08583355 0.22746237 0.029185846 -0.09022467 0.16643418 0.10274232
-0.113393635 -0.121927544 -0.06801334 -0.08681698 -0.105819024 -0.13355616 0.02952374 -0.117346816
0.03293053 0.032927677 -0.11095539 -0.0791658 0.026912576 0.002279866 -0.07256033 0.038060345
0.019224063 0.10842854 0.22667809 -0.12061826 0.010769342 0.15012945 -0.06426922 -0.113680065
-0.020525865 0.031596065 0.12574896 -0.07604484 -0.056320947 -0.22573473 -0.029762648 -0.014840632
-0.07170815 -0.09629976 4.5117824e-05 -0.18523878 0.15848903 0.1940549 0.021825947 0.03725705
0.13006291 0.27644458 0.33989406 0.09074858 -0.06747801 -0.08493046 0.043013845 0.12800616
0.13383381 0.14093047 -0.03446585 0.025249267 -0.104588896 -0.12864102 -0.052127324 -0.079645135

slot_head.weight f4 [13, 64]
00000000: ff52 d33d bbcb d5bd 2566 f5bd e5e6 0cbd
00000010: 6137 073e c506 5b3d b8b3 c2be 211b 903e
00000020: 1039 d7bd 8b69 0fbe 3eb1 a13d 8c13 983c
00000030: 0eb7 ffbc 3735 0ebe 571e e43e fd8f acba
00000040: 4087 843e 5105 b4bc a32b 373d a0d4 15be
00000050: fd25 d43c 319f 8fbc 113c 0d3c 2c58 0bbd
00000060: 628c 3c3d 289d 80be 0ee4 8ebf c61e e83d
00000070: 5970 a33d bc1e c73e 23c3 7dbd 960d 19be
00000080: a741 02be cb40 c1bd 62fb 2dbf 1839 1bbf
00000090: f3d8 5ebd 5a61 05be 56b1 37bd 55c5 7f3e
000000a0: 88b8 72bd 02af 1abc 7fef 583d 38a4 343e
000000b0: 12ce 9a3e 6918 35bf 6767 a33d b453 203e
000000c0: 4e6b e23b b6fd f1bd 23ac 9dbe 423b a5be
000000d0: ba86 f4bc 1929 f9bd c63c 7d3d a8b5 5c3e
000000e0: 9039 103e 2e77 3d3e 5e22 683d 4954 acbe
000000f0: 2c9b 453d 6647 8d3d cdd1 b33d f124 f4bd
00000100: 5a05 0d3e ccdc 123d a5a2 b03d 9333 22be
00000110: afa9 aebe 7ee8 9a3c 9ce4 853e 7559 85be
00000120: f7ff cc3c b716 a5bd ce20 9d3d 8d25 3c3d
00000130: a556 543d f82b a13d 933b 993e a055 8b3d
00000140: 7f9f 593e 2d9d 94bd 7f4b 9d3d 3628 c3bd
00000150: 6ec3 e83d 330a 2d3c 8375 b23d ce25 423e
00000160: 8fc6 773b e18c 113e 4413 da3d 0018 57be
00000170: ba48 b7bd c597 a13e 80fd 1c3e 120c f6bd
00000180: 49d7 a3be 673f 94bd 4007 c83d 6dad 3e3e
00000190: 6413 8e3c 4b72 853d d2f5 93bc a69a ac3d
000001a0: 1894 8fbc 540a efbd 9601 ea3b c254 c6be
000001b0: 1155 923e 5c47 c4be f29c ce3d 81cb acbd
000001c0: c2e8 893e 40b5 69be ee4f 3d3e d513 2fbd
000001d0: 3ce4 3cbd 5545 32bc 8e7c d33d e9ba 823e
000001e0: 48e8 acbe f02a e23e 5738 0a3e 1af4 993e
000001f0: c024 c63d 8f91 f2bd 73a0 23bd 0fb0 5f3d
00000200: 83de f5bd a07e 60bd 43ae b8bd c712 d73d
00000210: 8b4f 533e 8b46 903d 1c5d e8be 0bd5 473d
00000220: 82d4 0a3e b0e0 77bd 2a73 abbd c02c f83c
00000230: 1c22 563d 2842 c33b acc6 de3d e258 90bd
00000240: ee55 89bd 6151 693d 6ded 6a3d be56 8b3d
00000250: 614a 863c 840d 543b ac6c 993d 87c5 dc3d
00000260: 003f a9bc 65e9 70be 9a16 27bf 6fa0 4bbe
00000270: fb98 373d fac7 f13e 2d9a 213c 9d79 683d
00000280: 43fb a33e f335 e7bd 7297 0a3f 4a7c f5bc
00000290: 40ea 1cbe 7f5e 88be 4571 42bd 39ac fe3e
000002a0: 8387 a2bd c6e8 013d 2bc4 11be 49b6 ddbc
000002b0: e1c0 423e c118 2d3e f43e e9bc 617a cd3b
000002c0: fdcb 32bf 167d 89bf 3e7a 13bf 4260 613e
000002d0: eb7f d43c 7b73 00be 0a12 18be e9fe 02bf
000002e0: 62b9 ee3c 4b55 febe 5cc1 c4bc 8883 dcbe
000002f0: 45d4 93bd aa3b 0fbe 5d7f 4b3b 36e9 70bc
00000300: 73f0 a4be f0b2 e93d 3ac0 ecbb 403b 6f3e
00000310: f67e bc3d 124d cb3d 5915 e5be 7f4f f6bd
00000320: 597d 573d 8a18 9dbd 1fd1 24bd e09f 88bc
00000330: 29b8 ec3c de62 a7bd 212f 19bf d5d4 113d
00000340: f9c0 3ebd ee05 b9bd 1e84 673d c184 84bb
00000350: f42f 17bd 8c42 e23d 45cf 91bd be72 84bc
00000360: 0dea e7bc 8a87 3dbe 3658 073e f74b 2ebe
00000370: 8804 a4bd 77dd a13e 7188 813c 663a 9fbd
00000380: e552 4cbe 170a d4bc 2def f8be 64e5 5a3d
00000390: 6e46 19be 2bfc 0bbe 141b f6bc c5f6 76be
000003a0: e3f8 143d a8f5 b13d 7548 223d 797c dc3e
000003b0: d491 a9be 6137 d43e f6f0 adbd a2cf a83e
000003c0: 7b5b b03d 4d60 e6be 809e 3b3e bfcf b8be
000003d0: a4ee 08bd 3542 79bd 1a88 ef3d 57cb 54bb
000003e0: 49b0 673e 0f91 cb3e edec c83c 2941 573e
000003f0: bd2b e0bd 7fd6 8abd 7fa0 18be 9195 a23d
0.103185646 -0.10439249 -0.11982373 -0.034399886 0.13204719 0.053473253 -0.3802774 0.28145698
-0.10508931 -0.14005105 0.078951344 0.018564008 -0.031215217 -0.13887487 0.44554397 -0.001316547
0.25884438 -0.021975191 0.04471935 -0.14631891 0.02589702 -0.017531963 0.008620278 -0.034019634
0.046032317 -0.251199 -1.1163347 0.113339946 0.07980413 0.38890636 -0.061953675 -0.14946589
-0.12720357 -0.094361864 -0.67961705 -0.60633993 -0.054406118 -0.13025418 -0.044846855 0.2497762
-0.059258014 -0.009441139 0.052962776 0.1764077 0.30235344 -0.7074037 0.07978707 0.1565693
0.0069097644 -0.1181597 -0.30795392 -0.32271773 -0.029849399 -0.12166042 0.061825536 0.21553671
0.14084458 0.18502495 0.0566734 -0.33658054 0.048243687 0.06898384 0.08780251 -0.119211085
0.13771573 0.0358551 0.08624772 -0.15839987 -0.34113833 0.018909689 0.26150978 -0.26044813
0.025024397 -0.08060973 0.076722726 0.04593425 0.051840443 0.078697145 0.29928264 0.06803441
0.21252249 -0.072565414 0.07680415 -0.09529154 0.113654 0.010561514 0.0871382 0.18959734
0.003780756 0.14213897 0.10648206 -0.21005249 -0.08949418 0.31561103 0.15331078 -0.12014021
-0.32000187 -0.072386555 0.09767008 0.18620844 0.01734323 0.0651594 -0.018061552 0.08427934
-0.017526671 -0.11671892 0.0071413023 -0.3873654 0.28580526 -0.38335693 0.10088529 -0.08437253
0.26935393 -0.22823048 0.18487522 -0.042743523 -0.0461161 -0.010880788 0.10326491 0.25533226
-0.33770967 0.44173384 0.13498054 0.30069047 0.09674978 -0.11844169 -0.03994794 0.054611262
-0.12005331 -0.05480826 -0.09017613 0.10501628 0.20635812 0.07044705 -0.45383537 0.048787158
0.13557628 -0.060517013 -0.08371575 0.030294776 0.052278623 0.005958814 0.108777374 -0.07048203
-0.06705843 0.056962375 0.057355333 0.06803654 0.016392889 0.0032356689 0.07491431 0.10779863
-0.020659924 -0.23526533 -0.6526886 -0.1988542 0.044823628 0.47222883 0.0098634185 0.056756604
0.32027635 -0.11289587 0.5413734 -0.029966492 -0.15323734 -0.26634595 -0.047471303 0.4974077
-0.07936003 0.03171613 -0.14234988 -0.02706446 0.1901889 0.16903974 -0.028472401 0.006270692
-0.6984251 -1.0741298 -0.576084 0.22009376 0.025939902 -0.12544052 -0.14850631 -0.5117021
0.029141132 -0.49674448 -0.024017982 -0.430691 -0.072182216 -0.13987604 0.0031051256 -0.014704039
-0.32214698 0.11411083 -0.0072250636 0.23362446 0.092039034 0.09926809 -0.4474285 -0.120268814
0.052609775 -0.07670696 -0.040238496 -0.016677797 0.028896408 -0.08173154 -0.5983754 0.035603363
-0.04657075 -0.09034334 0.05652248 -0.004044146 -0.036910966 0.11047849 -0.07119612 -0.016167995
-0.028309846 -0.18508735 0.13217244 -0.17021166 -0.08008677 0.31614277 0.01581213 -0.077748105
-0.19953497 -0.025883717 -0.48619977 0.05344142 -0.14968273 -0.13670413 -0.030042209 -0.24117573
0.03637017 0.08689433 0.03961988 0.43063715 -0.3311907 0.414485 -0.08493225 0.3297091
0.086111985 -0.44995347 0.18322182 -0.36095998 -0.03343071 -0.060854156 0.11695881 -0.0032469833
0.22625841 0.39759108 0.024527038 0.2102095 -0.109458424 -0.06779193 -0.14904974 0.07938684

slot_head.bias f4 [13]
00000000: 8645 153d af65 ecbd 9a5a b7bd 2e7c e03d
00000010: 86d2 c93e ee19 62be 7083 733e 0c90 b4bc
00000020: 471e 9d3d a028 1a3e 9579 943e 9caf cbbd
00000030: ec8e 15be
0.036443256 -0.11542832 -0.08952828 0.109611854 0.3941843 -0.22080204 0.23780608 -0.022041343
0.076717906 0.1505456 0.2899901 -0.09945604 -0.14605302

rotation_head.weight f4 [3, 64]
00000000: 6691 113e 927a 203d eb0d 613b ac6d 8b3e
00000010: fe3f abbd 87ec 0fbe 37c2 73be 3f45 10be
00000020: 48bc acbd dc2b e33d 57fa 1e3c 3e3f 2c3e
00000030: 57a3 c4bc a764 3d3d ccaa 7b3e ad8d 353d
00000040: d91c 483e f24c 753d c50c 35bd 8cd9 4dbd
00000050: 43b9 6ebd f37e b0bd 3213 cabc 882e de3d
00000060: 8dd7 f53c 8bc8 d13e cfd2 55bd 2ea0 3abb
00000070: 973e d23d af1e 923a c0bd a8bc 7c27 b3bd
00000080: 21a3 49be 9fbc 6a3d b1b4 983d 63ac bebe
00000090: 8a1f 0dbd 43aa 81bc f24e 94bd 6489 5a3d
000000a0: 0ad5 d83d d68d 7a3c cd98 b53d 2879 9a3e
000000b0: 3750 1c3f b7a5 813d 3e1f b4bd 6f72 7d3e
000000c0: ec61 a2bd 4c43 babd 5bdd f73d 24bb 743e
000000d0: 6808 373d d11e e7bc 9156 f63d c2b5 1abd
000000e0: e0a8 d13d ac2e 8d3e 1bab 673c f465 343f
000000f0: ad26 aebc ec92 273d ef91 8dbd bdbc 9f3d
00000100: 5437 0fbd fda6 babd 0585 713d d738 9fbd
00000110: 7fcd 083e 12b1 84bd 3e3b c03e 0f38 cd3e
00000120: 44f0 8dbd 10d1 ba3c 5ec2 823d 134b 0f3d
00000130: a477 83bb ea73 143e 3a14 2ebe 0abf 303d
00000140: 8df5 74be d9db e3bd 5877 ca3d 70ab bebd
00000150: be45 d4bd ff32 0bbe 7903 523d f1e9 f5bd
00000160: 5623 673d d739 75be 244e 303e 8719 823d
00000170: 6dd6 6f3c 4ec6 5b3e 32a3 cb3d 7ddf 44bd
00000180: 1282 ca3e b1f4 093d 7a96 9dbd 7516 7a3e
00000190: a911 10be 9d89 913d a936 c83d 759e 513e
000001a0: 82e0 85bd 9854 813d 119b 8bbd bb84 85be
000001b0: 3abf 0bbf ec4b debd 4b04 03be 2af4 3cbc
000001c0: 5509 6abc d014 c63d be01 503d b158 62be
000001d0: 410c 9d3b 476c 953a 1469 6d3c a2a3 733e
000001e0: 0447 003e e126 a7be 707a 57bd 5981 23bf
000001f0: 74d1 013c de95 cfbc f4bf 253d 8cee fbbc
00000200: 9e7c fabd fd60 8ebd dece 61bd 3964 18bd
00000210: f19a 78be a93f b23d cfb2 86be 6429 8dbe
00000220: 7bcc 513d 89a5 adbc 122c b6bd 44cb 59bd
00000230: 433b 8b3b c8f8 853d 6b5f 1ebe b2fa 8dbd
00000240: 9cd9 4cbe 936e 843d d147 14be 246c 323d
00000250: 082e 963d 12e1 983d ab1a 56bd 2074 1fbd
00000260: 3c33 f8bd 9e87 64be 8167 6cbe 5760 00bd
00000270: c321 e2b9 04de 8dbe bf9c 0c3d 224f debd
00000280: bb7c 98be 2da3 323d 1d89 67be 9c4b 4fbf
00000290: 2658 18be cff7 c4bc 8da6 38bc f976 14be
000002a0: 82ab 443d 5d8f 62be 2474 903d 8c7a 7fbe
000002b0: 74d4 c1bd 9110 9abe 3bb6 0cbe 8736 3cbe
000002c0: 1328 89be 4b4f 95be 410f 3bbd 0639 3bbe
000002d0: 482f 7ebc 9335 00be 7291 9e3d 02d0 21be
000002e0: 8766 77be 44ed 10be f580 483d 4108 cebd
000002f0: 603c be3d e4d3 cdbd bb2c 9b3d 0dd2 cdbc
0.14215621 0.039179392 0.003434057 0.2723211 -0.08361815 -0.14055072 -0.23804556 -0.14088915
-0.08434349 0.1109235 0.00970324 0.16821 -0.024003668 0.046238568 0.24576873 0.044324566
0.19542255 0.059887834 -0.04420163 -0.050256297 -0.058282148 -0.08617964 -0.024667356 0.10848719
0.03001001 0.40973315 -0.052202996 -0.0028476822 0.10265844 0.001114806 -0.020598292 -0.087477654
-0.19691135 0.05730879 0.07456339 -0.37240896 -0.034453906 -0.015828257 -0.0724162 0.053353682
0.10587509 0.015292605 0.08867035 0.3017056 0.610599 0.06330436 -0.087950215 0.24750684
-0.07928833 -0.09094867 0.12102767 0.23899513 0.04468575 -0.028212937 0.1202823 -0.037770994
0.102372885 0.2757467 0.014139916 0.7046807 -0.021258676 0.0409116 -0.069126 0.07799671
-0.034964874 -0.09113882 0.058964748 -0.07774513 0.1335964 -0.06479086 0.37545198 0.40081832
-0.06930593 0.022804767 0.06384729 0.034983706 -0.004012065 0.14497343 -0.16999903 0.04315094
-0.23921795 -0.11125917 0.09886044 -0.09310043 -0.10364865 -0.13593672 0.051272843 -0.120075114
0.056430183 -0.23947845 0.17217308 0.06352525 0.014638525 0.21462366 0.099432364 -0.048064698
0.3955236 0.03368062 -0.07694717 0.24422629 -0.14069237 0.07106326 0.097760506 0.20470603
-0.06536962 0.06314963 -0.06816686 -0.26077828 -0.54588664 -0.10854325 -0.12794606 -0.011532823
-0.0142844515 0.096719384 0.05078291 -0.22104146 0.0047927205 0.0011400067 0.014490385 0.2379289
0.1252709 -0.3264685 -0.052607 -0.63869244 0.007923473 -0.025340017 0.040466264 -0.030753396
-0.122308 -0.06952093 -0.055128925 -0.037204955 -0.24277855 0.087035485 -0.26308295 -0.2757064
0.0512204 -0.021197097 -0.088951245 -0.053172365 0.004249008 0.06541592 -0.15466087 -0.06932582
-0.20004886 0.06466403 -0.14480521 0.043560162 0.073329985 0.07464804 -0.052271526 -0.038929105
-0.12119147 -0.22317359 -0.23086359 -0.031341877 -0.00043131234 -0.27708447 0.034329172 -0.10854937
-0.29782662 0.043612648 -0.22610898 -0.80974746 -0.14877376 -0.024043946 -0.011270178 -0.1449851
0.048015125 -0.22125001 0.07053402 -0.24949092 -0.0946435 -0.30090764 -0.1374139 -0.18380176
-0.26788387 -0.29162058 -0.045668844 -0.18283471 -0.015514202 -0.12520437 0.07742585 -0.15802005
-0.24160205 -0.1415301 0.048951108 -0.10060168 0.09288859 -0.100501806 0.07576891 -0.025124574

rotation_head.bias f4 [3]
00000000: 4974 05bd 5155 5e3d f6f1 46bd
-0.0325816 0.054280583 -0.048570596
