outputs/trained_models/placement_model_20250802_084113.pth (torch, 584899 bytes, 16 tensors)

layer1.weight f4 [128, 15]
00000000: 93d8 b63e 95b9 1fbe 2555 143e d6fa fe3c
00000010: d375 29be 4701 b4be 1c1e 073c 9295 c0be
00000020: e155 943e 1290 a6bd 89af 4e3d 6a10 2abf
00000030: 3704 9ebc ee3b 683e aa3a 50be 2e82 16bf
00000040: 3fa6 f5bd f437 0dbf 5042 9cbd 74c9 1d3d
00000050: 639e 8abc ce90 74be a4b8 c6bd 4e12 93be
00000060: 9414 343e 634d a5be 0cd3 a2be bd29 0e3f
00000070: 8839 d6be 1cd6 1fbf 1fec ee3e 413f b33d
00000080: 17e6 8abe cd14 66be af5a 21be 9239 2b3d
00000090: 2ed2 ec3d ecff 94bd 2373 77be a193 9fbe
000000a0: 52bf 8ebe fe22 053e 4840 193f 88f3 00bf
000000b0: e343 56bf f090 6b3e 7a31 f6be 3b7a c53d
000000c0: 5c77 563e 9e7e 653d e1ed 06bc 1ac3 66bd
000000d0: bfc2 8fbe d94c 50be 2e02 fdbd 2d46 7b3e
000000e0: 6ef4 25be 77b2 95be fdbe 933e d44a 5dbe
000000f0: e4c2 93bd da8b 23be 6965 d7bd e582 4e3e
00000100: c557 44be 4902 00bd 3275 823d 34ec 5d3d
00000110: acb3 053e c743 6abe 4f7b ecbd 7017 99bd
00000120: bec2 9e3e 27eb 97be 1384 b23e 0bd4 e63d
00000130: 5192 4f3e 7df1 d2be 93e2 1a3e a861 9ebe
00000140: 78d9 1bbe 3aff 15be 47ab 36be a1dd a4bd
00000150: 9a7e 8fbe 94fd 4cbd d8d8 7fbe ff9b 523e
00000160: 6d34 c13d 8eb2 85bd ca8e 29bf 83ef 9b3d
00000170: e6ff 023e 7bd3 9fbe 90c4 863d 87b0 dabe
00000180: be51 41be 9075 673d 33e3 a5be c40c 153e
00000190: 50dd 1d39 ba1c 933d 8e75 bb3e f69e 35be
000001a0: bb50 fcbe f76b b83d 2644 9cbd 52f9 abbe
000001b0: 6d20 c4be 1ef5 073d d477 21be 159d 023e
000001c0: 6b3f 0abd 3337 45be 14cb dfbe 1be8 8a3d
000001d0: d7b2 2d3f 6d07 3fbf 855d ed3e ec32 e0be
000001e0: 1f5f 89bd 0240 8d3e 0657 8dbe 557c 2a3e
000001f0: a591 8cbd 8d7d 85be 31cd ac3d c86a 543e
00000200: 2829 053e 8f6b 82bd bad2 eabd 3ac9 40bd
00000210: a658 db3e 9063 dabe 8a51 29bf 08de 9bbe
00000220: af79 0d3e 5164 a6be a40b 633e ea16 d4bd
00000230: f19d bdbe 69f6 533e f10f 143e feef 34be
00000240: 3dd5 19be 0dc8 d33c 5b93 0cbe 0584 29be
00000250: c07f 2f3e 7494 dfbe eac5 f83d 286b 5b3c
00000260: c7fd 84bc 1b07 2a3e 1e61 96bb 5d8d 123d
00000270: bf7a 313e d72b 92be 4d1f d63a f193 1f3c
00000280: fffc 9dbe c5ad a1be e939 adbe 9663 c53e
00000290: c94a 89be 1b62 6a3e df64 1dbe 347b 913d
000002a0: ca00 2cbd 5570 a2bd 1fc3 dd3d e288 053e
000002b0: 8351 7b3d 7206 703e 7568 b5bd eb57 04bd
000002c0: 4c2c d0be f95f 82be b045 533d a192 abbe
000002d0: 739e 2b3e b484 cbbe 588e 84be a8c0 5abe
000002e0: 92a1 653d 5a1d eab9 7d73 4f3d 8512 a73d
000002f0: 3e7b 84be 814b 213e 40a4 523d afa7 d8be
00000300: c05b 0b3f 9048 283e 7ca7 cebc 0819 85bd
00000310: 0856 d73d 614c d13d 1243 9ebe c425 4c3e
00000320: acfd e83d bf29 303d c2f8 f53d d39e 29bd
00000330: ef89 35be 842a 41be c17f ad3e 6ddc f4be
00000340: 7620 c13e 51e4 c3be 67cf 483d 158d 693d
00000350: 0eed c63d 6223 4bbe c41c c13d fcf4 2fbd
00000360: ad8c af3d cf65 903e af8d 013e 4377 20be
00000370: ddf1 753d c8cf 23be 77a0 5fbe ebe0 a8be
00000380: 8076 103e 4152 e2bd 7b94 6cbe 2787 7fbe
00000390: 7bd4 bcbe 3ed1 303e 444d 19be 7f81 4ebe
000003a0: c9d8 88be 79b0 f9be ce13 88bd 4557 2d3e
000003b0: dde4 ed3e b9e9 5c3e 4d19 503d 27e1 65be
000003c0: 1968 533c 7d94 9cbd 91b5 1a3e c05d 863d
000003d0: 7d61 efbd 613b 89bd 9a28 90be 3abc 9cbe
000003e0: e15e ea3d 85e6 afbe 35ce b23e 9c3a d13e
000003f0: ddb1 febe d3f4 2b3e f4b6 92be 60ae 903e
0.35712108 -0.15598138 0.14485605 0.031125467 -0.16548853 -0.35157225 0.008246925 -0.37614113
0.2897177 -0.08132948 0.050460372 -0.66431296 -0.01928912 0.22679111 -0.20334879 -0.5879239
-0.119945996 -0.551635 -0.076298356 0.0385222 -0.016921228 -0.23883364 -0.09703186 -0.28724903
0.17585975 -0.32285604 -0.3180164 0.5553244 -0.41840768 -0.6243608 0.4666452 0.08752299
-0.2712867 -0.22468872 -0.1575725 0.04180295 0.11563526 -0.07275376 -0.24165015 -0.3116732
-0.2788034 0.1300163 0.5986371 -0.503716 -0.83697337 0.23004508 -0.48084623 0.09642454
0.2094397 0.056028955 -0.008235426 -0.056338407 -0.28078267 -0.20341815 -0.12353931 0.24538489
-0.16206524 -0.2923772 0.2885665 -0.21610576 -0.07214907 -0.15971318 -0.10517389 0.2016712
-0.19174106 -0.03125218 0.063700095 0.05418034 0.1305682 -0.22877418 -0.11546957 -0.074751735
0.31007951 -0.29671595 0.3486639 0.11270913 0.20270659 -0.41199866 0.15125494 -0.3093388
-0.15219676 -0.14648142 -0.17838775 -0.08050085 -0.28026277 -0.05004652 -0.24985063 0.2056732
0.094338275 -0.06528197 -0.66233504 0.076140426 0.1279293 -0.31216034 0.0658046 -0.42712805
-0.18878838 0.0565086 -0.32399902 0.14555651 0.00015055132 0.071832135 0.36613125 -0.1773642
-0.49280342 0.09004968 -0.07630186 -0.33588654 -0.3830599 0.033192746 -0.15768367 0.12755235
-0.033751886 -0.19259338 -0.43709624 0.06782552 0.6785101 -0.74620706 0.46360412 -0.4378885
-0.06707596 0.27587897 -0.27605456 0.16648991 -0.06863717 -0.2607235 0.08437575 0.20743859
0.13003981 -0.063681714 -0.11465974 -0.047066905 0.4284107 -0.42654085 -0.66140044 -0.30442834
0.1381595 -0.3249841 0.2217241 -0.10355933 -0.37034562 0.20699467 0.14459206 -0.17669675
-0.1502275 0.025852228 -0.13728087 -0.16554268 0.17138577 -0.43667948 0.12147124 0.013392247
-0.016234292 0.16604273 -0.004589214 0.035779346 0.1733198 -0.28549072 0.0016336233 0.009739862
-0.30857083 -0.31577888 -0.33833244 0.3855254 -0.2681487 0.22888987 -0.1537051 0.07103577
-0.04199294 -0.07931582 0.10828232 0.13040498 0.061357033 0.23439959 -0.08857814 -0.032310408
-0.40658796 -0.25463846 0.05158013 -0.33510306 0.16759662 -0.39749682 -0.2588985 -0.21362555
0.05606229 -0.00044653827 0.050647248 0.08157829 -0.25875276 0.15751459 0.051426172 -0.42315432
0.54436874 0.1643393 -0.025226347 -0.06498915 0.10514456 0.10219646 -0.30910546 0.19936281
0.11376509 0.043008562 0.120103374 -0.041411232 -0.17728399 -0.18863875 0.3388653 -0.47824422
0.37720078 -0.3826013 0.04902592 0.057019312 0.09713183 -0.19837716 0.09429315 -0.042958245
0.08571754 0.28202674 0.12651704 -0.15670495 0.060045112 -0.15997231 -0.21838556 -0.329841
0.14107704 -0.11050845 -0.23103516 -0.249539 -0.3688086 0.1726732 -0.14970881 -0.20166586
-0.26727894 -0.4876745 -0.066444024 0.16927822 0.4646367 0.21573533 0.05080538 -0.2244917
0.012903237 -0.076455094 0.15108325 0.0656085 -0.11688516 -0.06700779 -0.28155977 -0.30612355
0.11443878 -0.3435556 0.34922948 0.40865028 -0.49745074 0.16792612 -0.28655207 0.28258038

layer1.bias f4 [128]
00000000: d9c0 4cbe 3c19 3fbe 8ae3 a9be b089 a9bd
00000010: 826e 823e 46e1 15be c53d 03bf c8fd 1e3e
00000020: 0f12 05bf 2f8d e8bd 23ac d73c b682 debe
00000030: d816 51bd 8636 33be 6552 9fbe 598b b03e
00000040: f0fb 3f3c 29f7 663d 3224 c7bd 8be1 85be
00000050: 67fc f6be 6b94 f4be 3738 c8be 3878 ed3d
00000060: 6439 333e a23e 4bbe 0522 983e a992 9fbe
00000070: b153 f13d a289 f1bd 9984 e0be c766 01be
00000080: d649 b0be f25f f2bd 1f12 953d 2254 e13d
00000090: cc7e 3f3e 2945 0dbf 8d26 02bf 8c5b 303d
000000a0: 742d 31bd fe22 323e bf11 5d3d cb97 24bf
000000b0: 69aa 02bf 53f8 4b3e 6825 78be dbaf 27bc
000000c0: 8163 babd af67 4c3d 120b 5b3e 20d1 6d3d
000000d0: 86d8 c6be 8bd1 bdbc bf2d bebe 7c70 e1bd
000000e0: ec54 3e3e 6d0c b0be 7235 84be a750 e5bc
000000f0: 5d49 bcbe aed4 953d f30a 11be 5f82 08bf
00000100: 2728 06bf 8edb 083e 88ce fb3c c0e3 c8be
00000110: 084c 473c 6f9b 3b3e 917a 44be d429 2cbc
00000120: eabf 10be c9ec a6bb 3603 14be 77b6 aebe
00000130: 433f 4f3e 72cb 1cbf 3812 a8be da49 25bf
00000140: 66d4 e1be 6632 13be 682e cd3d 8e33 c8be
00000150: 7f1e 923e ca91 ecbe 2185 53be 3cf9 8ebe
00000160: 93ab 2c3e 438b 21bd c701 62bd 05be c6be
00000170: 5f27 82bd 3545 90b9 d5c9 573e 5b37 f23d
00000180: 1562 4bbd 52b8 c1be 1bb6 833d 9bba 08bf
00000190: 4f72 b23d ac67 313e 95ec c8be abf9 a53e
000001a0: 89b5 f0be 221b 16bf 4d8f 78be 71ef ba3d
000001b0: a633 7dbd 45ee 3cbe 9512 0cbe c06e a33a
000001c0: 8535 803c 9b97 4c3e 66ef d6be ff3e 563d
000001d0: 46ce d1be 5aea f93d 5a8b 79be 1621 c5bc
000001e0: 7a15 e4be f6a2 073e 8e96 a9be 8dbb e63d
000001f0: b7e1 bc3c a82b abbe 0bd2 e13c 8139 42bd
-0.1999544 -0.1866197 -0.3318141 -0.08278215 0.25474936 -0.14636716 -0.5126613 0.15526497
-0.5198068 -0.11355054 0.026327198 -0.434591 -0.051047176 -0.17501268 -0.3111755 0.34481314
0.011717781 0.056388054 -0.097237006 -0.26148638 -0.48239443 -0.47769484 -0.3910539 0.115951955
0.17502362 -0.19848111 0.29713455 -0.3116658 0.11783541 -0.117938295 -0.43851164 -0.12636863
-0.34431332 -0.11834706 0.07278847 0.11002375 0.18700713 -0.55183655 -0.50840074 0.043056056
-0.043256238 0.17396161 0.053972002 -0.6429412 -0.51041275 0.19918947 -0.2423302 -0.010234798
-0.0910101 0.049903568 0.21390942 0.058060765 -0.3883707 -0.023171207 -0.37144276 -0.11007783
0.18587083 -0.3438448 -0.25822026 -0.02799256 -0.36774722 0.07315956 -0.14164333 -0.5332393
-0.5240502 0.13365003 0.03073813 -0.3923626 0.012164123 0.18321012 -0.1918738 -0.0105080195
-0.1413571 -0.005094145 -0.1445435 -0.34123585 0.20238976 -0.6124793 -0.328264 -0.64565814
-0.4410736 -0.14374694 0.10018617 -0.39101833 0.28538892 -0.46204978 -0.20656253 -0.27924526
0.16862325 -0.03943945 -0.055177476 -0.38816848 -0.06355166 -0.00027517384 0.21073087 0.118269645
-0.049654085 -0.37835938 0.06431218 -0.5340974 0.08713209 0.17324704 -0.39242998 0.32417044
-0.470135 -0.5863515 -0.24273415 0.09127701 -0.061816834 -0.18450268 -0.13678963 0.0012468919
0.01565052 0.19979708 -0.41979522 0.05230617 -0.40977687 0.12202902 -0.24369565 -0.024063628
-0.44547635 0.13245758 -0.33122677 0.11266241 0.023056848 -0.33431745 0.027565977 -0.04741812

layer2.weight f4 [256, 128]
00000000: 7b04 4a3d 11f3 d23c 205e a9be edf5 acbb
00000010: dd36 453d 7c41 b73d 626c 8bbe 1d11 65bd
00000020: 9370 07be 9216 92be a004 96bd c0ef 04bd
00000030: 66bc 15be 550b 2dbe d694 07bc 296c 7ebd
00000040: 0651 3bbd 3906 973d 4bc4 04bf e6bd fb3d
00000050: 29a0 453d 9813 80bb 8e6b a4be 64a4 4dbd
00000060: 7e4f bfbe 3759 a1be 97b4 aa3d 4123 a6bd
00000070: f9ca d73c a469 3bbd 769b ca3d bacb a93c
00000080: d455 9cbc 524e 85be 2506 03be 9fba eabb
00000090: 1029 7a3b f2db 06bd 5639 883b 4fae 8c3c
000000a0: a73f 9e3d e689 18be 64e6 6b39 145d 6abe
000000b0: 78a3 963d ddb6 c33d 36a9 a9be 07b8 98bc
000000c0: fb7c 583d 970c 433d d717 a43c 41e6 cebc
000000d0: d710 373e c7b9 723d f2e2 6bbe 5838 8e3c
000000e0: 0a71 603d b27f 1cbe 8a8d b8bd 4751 cbbd
000000f0: 40c0 d0bd 04ff 50be 5a1f b73d 1121 c9be
00000100: 0ff8 253d 2d6b a73d 59d9 adbd fb81 89bd
00000110: a540 c83c 0c01 343e 17b1 3a3e 908a 223c
00000120: ff98 6b3d 623e 11bf ff05 363c fbc1 a53d
00000130: f537 26be d119 1b3e a1b0 ca3c f3d1 11bd
00000140: 4b34 bebd 6783 a43c b9f0 823d 693c 1c3d
00000150: 05f5 02be 7834 8ebd 0f49 113d 0ff1 17be
00000160: 90e2 58bd 3c42 14be f2f0 49be 128b 31be
00000170: c508 17bd 7a7c a2bd 7f4b cdbd 6266 7e3d
00000180: 02f4 0a3e 4442 343d 2bf0 b1be 41ac bebc
00000190: c592 a43d bb5d f33c c922 71bd 7805 b13b
000001a0: 89b5 69bd f987 87bd a04e fd3c 7a23 ef3c
000001b0: 01f9 09bf 552a b3bc 7130 11bc fe11 943d
000001c0: 488e fd3c 7d4a 13be e97d f3bc 301f 2cbc
000001d0: 6e1c 67be efa3 52be 27f2 25bd 9af7 67be
000001e0: 302d c0bd 687c 7cbe 0014 9cbd d622 c4bd
000001f0: e464 88be bb72 ccbd 618b 34be f1c8 db3d
00000200: 9fa1 f53d f62b 40be 2f39 a5be 8280 eabd
00000210: 4458 63bc b666 d7be 05ae 813e 17be b83d
00000220: 5538 f8be ef9b 713d f4ab 51be b171 79bd
00000230: a2f8 cebc dac5 443d b1e2 903d 2d29 25bd
00000240: bada 683d d227 f13d eb64 60be e9a1 b3bd
00000250: fbb7 96ba 31a4 9fbc fc3e 98be 3e25 3bbd
00000260: 3c31 44be fbb9 1fbe 359e d23d c284 8a3c
00000270: 6c78 8ebc 88e2 8cbb 4269 0d3d 50e4 bebe
00000280: 13f7 e3be 47ee 6dbe 309a e0be 23bb e83d
00000290: a2df 323d ccd2 b03d 5569 cdbd 5bb4 1c3e
000002a0: e598 193d f4e6 f4be d0ae 1ebe 2f78 17be
000002b0: d268 003e 6229 9cbc 7af1 00bd bd7b abbe
000002c0: 44f9 2a3b cfc3 bbbc 1f55 553d d565 c9bd
000002d0: dfa1 f5bd 360d 913c bc4a 083e 598a b0bd
000002e0: 16ae e83c 2af7 8c3d f08a eebd 4510 b1be
000002f0: 41a1 873d 36d5 3b3d 2231 36be 134d cabe
00000300: 939a a8be 6fb0 40bd 541b 5c3c 0bca 923e
00000310: bf90 a03d 7ae4 853b a584 9dbd c97a 973b
00000320: e9ef 733c 6006 ecbe 35b7 59be 89bb dabb
00000330: 2bcc 65be 3fcf 1cbd c81e 4f3d 5a91 d43c
00000340: 3df5 85be 3a76 be3d 10d9 273d 02bd 373c
00000350: 73bf 0ebd ac13 863d d8a9 bebd 8a64 acbd
00000360: b4d3 acbd b776 22be 439f 6fbe 0291 7abe
00000370: 66a1 033e 95d5 14bd 838b 253d 625d 493e
00000380: a05b 5b3b 07ea 023e d07f b13d cb92 3a3d
00000390: e2a9 393e e62f 113e cf3d 3dbb 7402 40bd
000003a0: 7953 86bc d956 2d3e 2fcd 49be 4a16 82bc
000003b0: c959 c4bd 20d5 9dbd d4b6 39bd 5e6a 00be
000003c0: 2ed7 f9be 4d3b 193d 2f9f a53c aaa7 5ebd
000003d0: aeb6 ffbd d1d8 73be c6df 3e3d 647a 8abe
000003e0: 8be6 edbd cec1 d33d 7c2c c7bd a7da d8bd
000003f0: 76d4 86be 3985 e8be 77eb c7bd 072b a7bd
0.04932068 0.025750669 -0.33079624 -0.00527834 0.048148025 0.08948037 -0.27231127 -0.055924524
-0.13226537 -0.28532845 -0.07325101 -0.032455206 -0.1462265 -0.16898854 -0.008275231 -0.06211487
-0.045731567 0.07374234 -0.5186202 0.1229208 0.048248444 -0.0039085858 -0.32113308 -0.050205603
-0.37365335 -0.31513378 0.08335226 -0.08112193 0.026341902 -0.045755044 0.09892933 0.020727027
-0.019083895 -0.26036316 -0.12795313 -0.0071633602 0.0038171448 -0.0329246 0.0041572256 0.01717296
0.077269845 -0.14896354 0.00022497174 -0.22887069 0.07355398 0.09556363 -0.3313691 -0.018642439
0.052853566 0.04761943 0.020030899 -0.025256278 0.17877518 0.059259202 -0.23035792 0.017360851
0.054795302 -0.15283087 -0.090113714 -0.09927612 -0.10192919 -0.2040978 0.08941527 -0.3928304
0.04051977 0.08174739 -0.084887214 -0.06714245 0.024444887 0.17578524 0.18231617 0.009920731
0.057518955 -0.56735814 0.011109828 0.080936395 -0.16232283 0.15146567 0.024742426 -0.035600614
-0.09287318 0.020082189 0.063935705 0.03814355 -0.1278878 -0.06943601 0.035470065 -0.1483805
-0.05295044 -0.14478391 -0.1972082 -0.17338207 -0.036873598 -0.07933898 -0.10024165 0.06210936
0.13569644 0.04400851 -0.34753546 -0.023275496 0.080358066 0.02970778 -0.058871064 0.0054022633
-0.05705789 -0.066177316 0.03092128 0.029191721 -0.53895575 -0.021870771 -0.008861647 0.07229994
0.030951634 -0.14383884 -0.029723125 -0.010505483 -0.22569439 -0.20570348 -0.040514138 -0.22653046
-0.09383619 -0.24656832 -0.07621002 -0.09576957 -0.26639473 -0.099828206 -0.17631294 0.10731686
0.119937174 -0.1876677 -0.3227019 -0.11450292 -0.013876025 -0.4207055 0.2532808 0.09020632
-0.48480478 0.0589866 -0.20475751 -0.06089944 -0.025265042 0.04804025 0.07074488 -0.04032247
0.05684922 0.11775173 -0.21913497 -0.08771116 -0.0011498922 -0.019487472 -0.29735553 -0.045689814
-0.19159406 -0.1559829 0.10284082 0.016909007 -0.017391406 -0.0042994656 0.03452421 -0.37283564
-0.4452444 -0.23235427 -0.43867636 0.113638185 0.043670304 0.08633956 -0.10029856 0.15303175
0.037499327 -0.47832453 -0.15496373 -0.1479194 0.12539986 -0.019062702 -0.03148029 -0.33492842
0.0026088515 -0.022920517 0.05208313 -0.09833876 -0.11993765 0.017706495 0.13309759 -0.08620138
0.028403323 0.0688308 -0.11647594 -0.34582725 0.066225536 0.04585763 -0.1779218 -0.39511928
-0.3293043 -0.04704326 0.01343425 0.28669772 0.07840108 0.0040860744 -0.076913156 0.0046227914
0.014888742 -0.46098614 -0.21261294 -0.006675188 -0.22441165 -0.038283583 0.050566465 0.025948215
-0.26163664 0.09299894 0.04097849 0.011214497 -0.03485055 0.06546721 -0.09309739 -0.08417614
-0.08438817 -0.15865599 -0.23400597 -0.24469379 0.12854537 -0.0363365 0.040416252 0.19664529
0.003347136 0.12784587 0.086669564 0.04555015 0.18131211 0.14178428 -0.0028875952 -0.04687734
-0.016397225 0.16927661 -0.19707178 -0.015879769 -0.09587438 -0.07706666 -0.045340374 -0.12540576
-0.48796982 0.03741007 0.020217506 -0.054359116 -0.12486015 -0.23813178 0.046600126 -0.27046502
-0.11616238 0.103397 -0.097252816 -0.105885796 -0.2633397 -0.4541414 -0.09761708 -0.08162504

layer2.bias f4 [256]
00000000: 781c 5c3e 5722 4d3e e73f 243d 3e32 8fbe
00000010: 1133 3abc 7462 36be a337 363e e973 9cbe
00000020: afbc bb3d f383 22bf 735c c5bd 102f 0b3e
00000030: 01c6 5ebe 66a5 ddbd 16c5 cf3d da9b b43d
00000040: 0a3d 233e 8977 cc3d 36f3 2c3e 2a4d fdbe
00000050: 7f16 223d 8d01 7d3e 5b5a 03be d4f1 1e3e
00000060: e4bd b03d ea75 52bd 1c70 d8bd 8329 99be
00000070: 0277 1d3e 2812 9a3e c4f1 9ebd f955 943e
00000080: f8f1 0ebf 09da 93bd a310 1c3e 3dd7 873d
00000090: eb5b fe3d d7df 20be 89b4 67bd 5895 11bf
000000a0: d597 19be a934 8e3d 0219 f0be 4ed3 cbbe
000000b0: 6af8 64bd dd32 90be bab4 febd 1df3 113d
000000c0: f87a 1d3d e8a4 4a3d cbc2 0b3e d8fb a9be
000000d0: 8cb1 63be 2257 f2bb 9a9d 8bbd 5244 d63d
000000e0: 57f7 683e aeb5 5a3d aa65 8cbe 7263 c03d
000000f0: ce53 58bc 2127 68be c3f5 6e3e 7cbc d43d
00000100: d816 0abe fb9b 3f3e 4272 d2bd 83e5 48be
00000110: 0ad6 963d 147b a139 7294 6cbe 2050 c4be
00000120: f6d0 433e 8d76 183e c465 09be 1dcb 933e
00000130: 6276 c73d 5967 733d c9e4 fc3d bf36 1cbd
00000140: bbf5 8ebe fdb1 a7be 772b 4bbe 1289 b5be
00000150: 0e5f b7be 0b26 033e 90f5 293e dc5f 523d
00000160: 661d 75bd ae33 81be 1d0b 8f3e 5f0a 07be
00000170: 1e19 d3be 3244 1abe 7437 f03d 0996 043d
00000180: 522c b9bd 8de2 6c3e 4354 f93d d272 85be
00000190: 7d8f dc3c a5fa 8f3e fec8 5e3e 7d7c aebd
000001a0: 60c0 d5be db08 9f3e a0e6 82be cf4d 01bf
000001b0: 65d8 ce3c defa 103c da78 6b3e ac4b f43d
000001c0: 4352 3c3e d76b c9bc 74d8 ac38 2bf4 bfbe
000001d0: 45c8 233e 9039 8dbe b969 64be c264 c1be
000001e0: dc69 dabd f26f 16bf 6767 01be da2b 2c3d
000001f0: ba8e f23d dba0 12bd b877 3ebe c3cc 95be
00000200: 31a8 303e 4c6e c93d 1787 87be 194b 2ebe
00000210: 180e 97be 3886 55be 46ae 0b3d 42b8 213e
00000220: eabf 68be ced6 77be a22e 6c3d 2034 833d
00000230: ea8a f43d 94e0 e5be 4cab 943c f8bb 53be
00000240: eff9 1bbe ed10 bd3d 5124 15bf c0f1 033e
00000250: 5a03 683e f0ab ca3d 0c57 123e bc77 c5bd
00000260: 3382 40be e7c5 a03d 1e2c d1be 66b4 183c
00000270: a80b 46bd 12d2 cabe 1c25 4b3e 29e1 75be
00000280: 81ab acbe 9382 7bbe 86a2 ca3d 978d 9cbc
00000290: fd0a 45bf bf2b 4ebd 1554 dabc 70b5 35be
000002a0: 5953 acbe 8b02 8f3d 546a bbbe 1a43 ec3c
000002b0: edbb 02be edba ab3e 3130 04be c23e 9a3d
000002c0: a917 a7be d19e 37be 60ec 37bd 4520 a9be
000002d0: e1f0 ef3d fed3 dbbd 38f2 68bd 4a52 3bbe
000002e0: 976d 543e 99bf 313e c9a0 cf3d c33b ef3d
000002f0: f3ca 4cbe 9e3b 08bd 442f 5dbe 0bf7 263e
00000300: 9ff2 9bbd 4414 aebe f34e 193c f144 1c3e
00000310: 6df6 08bf 3b3c 07be 622f 7f3d cb7d 1abc
00000320: d146 9c3c 01df f83d e122 86be d02c 03be
00000330: c324 163e 4e86 6abe b06b 9bbe f879 4f3e
00000340: 6d2b c3be df74 713e c65b 3dbe 9852 093e
00000350: 20ad 553e 4950 9cbe 0657 3b3e 50e9 19bd
00000360: 0a50 d23c 1cc2 833e dac8 113e e7af 13be
00000370: 3a85 e83d bb64 163e 21b8 9f3e d15d 553e
00000380: a37a f83d 843c 5d3d 82c9 333e 1317 25be
00000390: f641 05be eedd 36bd d306 49be 7279 0ebe
000003a0: a438 b33d 45cd ce3d bdcc 44bd 44ab efbd
000003b0: d6ed 863d f004 8abe f00f 05be 098f 19bf
000003c0: 7074 963c 347b 833d 5210 02bd 173e 323e
000003d0: ff7d cfba a4ca 883e 32c6 243e a1e0 083e
000003e0: 9e8b 143e b19d 9cbe 22de 1c3e 6a76 bebd
000003f0: 58bb e7bd 0fff a43d ea2f 30be 3102 fbbd
0.21495235 0.20032631 0.040100005 -0.2796802 -0.011364714 -0.17810994 0.17794661 -0.30557182
0.09166848 -0.6348259 -0.09636774 0.13592172 -0.2175522 -0.10822563 0.10145013 0.08818789
0.15941253 0.09983737 0.16889653 -0.49472934 0.039572235 0.24707623 -0.12827437 0.15521938
0.08629969 -0.051381983 -0.10568258 -0.29914483 0.15377429 0.30091977 -0.07760957 0.28971842
-0.55837965 -0.07219321 0.15240721 0.0663285 0.12419876 -0.15710388 -0.056568656 -0.56868505
-0.14999326 0.06943638 -0.4689408 -0.3980965 -0.05590097 -0.28163806 -0.124368146 0.03563224
0.03844735 0.049473673 0.13648526 -0.33199954 -0.22235698 -0.007395641 -0.068171695 0.1046225
0.22750603 0.05339592 -0.27421314 0.09393968 -0.013203574 -0.22671176 0.23335938 0.10387513
-0.13485277 0.18711846 -0.10275699 -0.19618802 0.073650435 0.00030800013 -0.23103502 -0.3834238
0.19122681 0.14888974 -0.13417727 0.288659 0.097393766 0.059424732 0.12348325 -0.038138147
-0.27921852 -0.32752982 -0.198408 -0.3545614 -0.35814708 0.12807481 0.16597581 0.05136095
-0.05984249 -0.2523474 0.27938166 -0.1318755 -0.412301 -0.15065077 0.11729327 0.032369647
-0.090416566 0.23133297 0.12174275 -0.26064163 0.02692389 0.28120914 0.2175636 -0.08519838
-0.41748333 0.31061444 -0.25566578 -0.5050935 0.02524967 0.008848874 0.2299532 0.11928496
0.18390755 -0.024587555 8.241917e-05 -0.37490973 0.15994366 -0.2758298 -0.22305955 -0.37772185
-0.10664722 -0.58764565 -0.12637101 0.042034008 0.11843629 -0.035797935 -0.18600357 -0.29257783
0.1725166 0.098354906 -0.26470253 -0.17020835 -0.2950294 -0.20851982 0.034101747 0.15792945
-0.2272946 -0.24203035 0.05766166 0.064064264 0.11940558 -0.44897902 0.018148087 -0.20677173
-0.15232061 0.09231744 -0.5825854 0.12885189 0.22657529 0.09896076 0.14291018 -0.09641978
-0.18799667 0.07850247 -0.4085397 0.009320354 -0.04835096 -0.39613396 0.19838375 -0.24011673
-0.33724597 -0.24561529 0.0989428 -0.019110484 -0.7696989 -0.05033469 -0.026651422 -0.17744994
-0.3365734 0.06982907 -0.3660456 0.02884059 -0.12767 0.3354105 -0.12909009 0.07531501
-0.3263524 -0.17931677 -0.04490316 -0.33032432 0.11715866 -0.10733794 -0.056871623 -0.1829311
0.2074493 0.17358245 0.10138089 0.116813205 -0.19999294 -0.03325998 -0.21600062 0.16305177
-0.07614636 -0.33999836 0.009357202 0.15260674 -0.53501016 -0.1320657 0.062301047 -0.009429405
0.019076737 0.121519096 -0.26198485 -0.12810063 0.14662461 -0.22902796 -0.30355597 0.20261371
-0.3811907 0.23579739 -0.1849204 0.13410413 0.20866823 -0.30530003 0.18294916 -0.03757602
0.025672931 0.2573403 0.14236775 -0.1442257 0.11353536 0.14686863 0.31195167 0.2083657
0.12132766 0.05401279 0.17557338 -0.16122083 -0.13013443 -0.044645242 -0.1963151 -0.13913515
0.08751038 0.10097746 -0.048046816 -0.11702588 0.06588332 -0.26956892 -0.12994361 -0.5998388
0.018366069 0.064199835 -0.031753846 0.17406498 -0.0015830396 0.26717103 0.1609123 0.13366939
0.14506385 -0.3058906 0.15319112 -0.092999294 -0.1131503 0.08056461 -0.17205778 -0.12256277

layer3.weight f4 [256, 256]
00000000: 3617 2fbe 9c9c debd ccf5 fd3d 37e8 ffbc
00000010: d9e2 51bd 3744 c03d 4167 ebbd 00a6 a4bd
00000020: 0bf0 38be 1a42 ffbd 7c55 fcbd 7daf 17be
00000030: 422a cfbd cacc a0bc b7ad 53ba a8fa 94bc
00000040: 78b6 66bb 51a0 093e 3fab 453d dc67 a0bd
00000050: 7ef9 dabd 20e3 1f3e 79d8 a4bd f2aa ccbd
00000060: baed 55be e7d1 0f3e b5ee c6bd b255 c4bd
00000070: 4605 473c 5654 8fbe 774a e6bc 98bb a93d
00000080: c7cc ac3d de2c 853d 9a83 9f3d b1b1 cfbd
00000090: cdbb c43d 71d6 e7bd c189 36bd bae9 133e
000000a0: f467 79bc 8f41 1dbe 3b25 d8bd e131 683b
000000b0: 2f2b 01be a3f7 15bd c54f 60bd 3809 4ebd
000000c0: 34b6 8d3d bf62 35bd 9ee5 cbbd 4bc7 b9bc
000000d0: d556 dcbd fa85 50be 9754 5abd e1aa 95bd
000000e0: 66cc edbd 9fe0 343d 55f9 ba3d 394e 05be
000000f0: 6dea 813c ea3d febd 3b87 10be cb2a e0bd
00000100: 11bb 843d 0d49 54bd 8d75 29bd 2baa 09be
00000110: 7855 2f3c fb45 83bd 961c f53d e2ac 3d3d
00000120: efef e4bb ba0a 25bd 4471 943c 471a 27be
00000130: 7f7e 1abe 4758 f43c f63b d5bc 2cc7 593d
00000140: 6d32 2b3e 8c49 d23d 95bb 663d 39a0 503d
00000150: 096e f53c 0525 0bbe 5b6a d7bd 941b 0f3e
00000160: 3656 e8bd 35e0 dabd 8ae7 65bd 136f d53d
00000170: 78de 84bd f131 303e f031 95bd 40ce 96bd
00000180: fc62 f73c f438 253c 4ed4 0fbe 77bd c03d
00000190: 6c5b de3d 97db 743d bbff 24be 8b43 eabd
000001a0: bcc5 03bd 2fef e0bc bdcd 62be 840d 8bbd
000001b0: b349 01bd a08e fcbd f561 403d 1280 69bc
000001c0: f086 903d 353d 3fbe a348 76be 9f3a 173e
000001d0: 2948 2abe ba4e 28be b96a 043e 04fb 733d
000001e0: 62f7 97bd 0fe0 803d 3159 84bd d3b5 8fbe
000001f0: 6729 c1bd b379 0abe 2e36 b6bd 1dc9 ccbb
00000200: 6197 17be a45c 31bd f241 5b3d 8350 c53d
00000210: c7cc 60be 568e 06bd 2747 3f3e 6c5e 29be
00000220: 3c51 2f3e ed8e 9bbe 9eea 01be 1f59 1abd
00000230: e7cb 31bd 48f0 b0be fc40 c4bd c995 593c
00000240: 87ef 41be 451d b4bc 5a6f 88bd b109 e7bc
00000250: 0279 61bd 7454 e03b b285 cb3c b53f d0bd
00000260: c464 6fbd bc1b 363d f796 fa3d 8eba 50be
00000270: 15b6 523d cd2b db3d 0b08 b53c ad04 193e
00000280: 193c 05be 3054 c6bd 94c1 ecbd 8486 ecbd
00000290: 2112 bcbd 2eae 563d 80e1 02be 7e72 3fbe
000002a0: 4f44 1abe 7cda b13c 6b38 99bd 042e 28bd
000002b0: 6aad 23bd 61ae 7c3d 09bf f4bc 205e 813d
000002c0: b6bb 30be fc9f 2f3c 9081 353d 7245 d9bd
000002d0: ccc4 a73d 9e65 22be 764f 09bd d535 cabd
000002e0: 7f33 e4bd db9d 333c 6404 f4bd 91b6 e0bd
000002f0: b540 94bd fc5b 61bd 928d 9cbd 788e b03d
00000300: a6e4 2b3b 1fe8 783c 0101 7cbe b4f4 9bbd
00000310: 838b 55bd 3335 043e e6d1 cfbc 3f52 88bd
00000320: 0d0c abbb 0a01 acbd 8a09 20bd e76f 053e
00000330: 98f3 82bd 67ce e73d e28f 513d 6678 95bc
00000340: b41b 79bd f5e2 05be 959c 013e 6961 9dbc
00000350: 64ce 80bd b70e e6bc 4a15 39be 69b1 d2bd
00000360: bc6a 2f3c 32d0 e8bd ab25 a93c 64e4 633d
00000370: 7c3c 513d ae99 68bd 27ff d7bd 1fdc ad3d
00000380: ebc2 9fbd 15ca 143e e819 43bd eddd df3d
00000390: 05db 56be 4f03 d5bd 5caf 78be 2494 893d
000003a0: 240d 0cbe acf1 893d 37a8 01be fc87 e63d
000003b0: 8b4e c73d 0014 7dbc 9a68 ca3d da58 e2bd
000003c0: 7625 03be f57f b93d 5928 dd3c 7509 45be
000003d0: 5148 5ebc 7ae5 fcbd dfa7 64be d699 64be
000003e0: ff4b 56bd 1350 3d3b 7d38 c0bd 62e3 64bc
000003f0: 5f71 2bbd a712 ccbd 8a56 bcbd abb0 6e3d
-0.17098698 -0.108697146 0.12400398 -0.031238658 -0.05124173 0.09388011 -0.114943035 -0.080394745
-0.18060319 -0.1246378 -0.12320992 -0.14813037 -0.10115482 -0.019628901 -0.0008074897 -0.018185928
-0.0035203975 0.13440062 0.048259016 -0.078323096 -0.10692118 0.15613985 -0.080491014 -0.09993543
-0.20891467 0.14044915 -0.097134985 -0.095866576 0.012147253 -0.2799403 -0.02811168 0.08287734
0.08437496 0.06502698 0.07788773 -0.10141314 0.09606133 -0.11320198 -0.044564966 0.14444628
-0.015222538 -0.1535704 -0.10553976 0.003543012 -0.1261413 -0.036613118 -0.054763574 -0.05030176
0.06919518 -0.044283625 -0.099559054 -0.022678038 -0.107587494 -0.20363608 -0.053303327 -0.07307983
-0.116112515 0.044159528 0.091295876 -0.13018121 0.015858853 -0.12414153 -0.14114086 -0.10945662
0.064809926 -0.05182748 -0.04137187 -0.1344382 0.01070153 -0.06409832 0.11968343 0.046307452
-0.00698661 -0.040293433 0.018120416 -0.16318618 -0.15087317 0.02982725 -0.026029568 0.05316846
0.16718455 0.10267934 0.056331236 0.05093405 0.029959695 -0.1358834 -0.105183326 0.13975364
-0.113445684 -0.10687295 -0.056129016 0.10421576 -0.06487745 0.17206551 -0.072849154 -0.07363558
0.030198567 0.010084379 -0.14045832 0.094111376 0.10857281 0.05977973 -0.16113178 -0.11438664
-0.032170996 -0.027457802 -0.22148795 -0.06789687 -0.031564426 -0.12331891 0.04696842 -0.014251726
0.07056987 -0.18675692 -0.24051146 0.14768456 -0.1662909 -0.16436282 0.12931336 0.05956556
-0.074202314 0.06292736 -0.064623244 -0.28068408 -0.09431725 -0.13522987 -0.08897053 -0.0062495605
-0.1480384 -0.04330124 0.053529687 0.09634497 -0.21953116 -0.032850586 0.18679486 -0.16539925
0.17120832 -0.3038248 -0.12687156 -0.03768265 -0.043407347 -0.3455832 -0.09582707 0.0132803405
-0.18939029 -0.021986613 -0.066618636 -0.028202863 -0.055047043 0.006846005 0.024844024 -0.10168401
-0.058445707 0.044460043 0.122358255 -0.20383665 0.05144318 0.10701714 0.022098562 0.1494319
-0.13011207 -0.09684026 -0.115603596 -0.11549094 -0.09183145 0.052412204 -0.12781334 -0.18696019
-0.1506512 0.021710627 -0.07481464 -0.04105951 -0.039960302 0.06168974 -0.029876249 0.06316781
-0.17259106 0.010719296 0.044313014 -0.10608949 0.08191833 -0.15859076 -0.033523045 -0.09873549
-0.111426346 0.010962929 -0.119149 -0.10972322 -0.072389044 -0.055019364 -0.0764419 0.08620924
0.0026228814 0.015192061 -0.24609758 -0.07615033 -0.052135002 0.12910919 -0.025368642 -0.06656312
-0.0052199424 -0.08398636 -0.039071597 0.13030969 -0.06394118 0.11318665 0.051162608 -0.018245887
-0.060817435 -0.13074858 0.12657388 -0.019211488 -0.06289366 -0.028083188 -0.18074527 -0.102877446
0.0107066 -0.11367835 0.020647844 0.055637732 0.051083073 -0.056787185 -0.10546713 0.084892504
-0.078008495 0.14530213 -0.047632128 0.10931001 -0.20981987 -0.10401022 -0.24285644 0.06717709
-0.13676888 0.067355484 -0.12661825 0.11256406 0.09731778 -0.015446663 0.098832324 -0.11052103
-0.12807259 0.09057609 0.026996778 -0.19241889 -0.013567046 -0.12348457 -0.22329663 -0.22324309
-0.05231857 0.002888684 -0.09385774 -0.013970228 -0.041856166 -0.09964495 -0.091961935 0.058273952

layer3.bias f4 [256]
00000000: 35c6 64bc 759d febe 349e 863a eec2 883d
00000010: 2e84 063e 727f 153d e180 5d3e 5213 bf3d
00000020: 9433 143e 8305 c13d 0113 90be 7051 243e
00000030: a9a5 74be 1f2a c4be 4281 163c 7f8d 69bd
00000040: 30d1 a0bb 331a 7abe d225 b0be d9bf 06bc
00000050: 3772 c33d 761d 2ebd 5184 193e 92fb 8b3e
00000060: 06d1 d9be c23e 5e3e 80f2 fa3d 465e 523d
00000070: aadc 1c3e 8bed 913d a8ff b2be d762 373c
00000080: bad9 b3bd 759e 87be 2393 7a3d a876 293b
00000090: 8957 023e e667 20be 6eac 1e3e d75f 10be
000000a0: 5602 d6bc 1d64 c63d 342f a3be 7912 b4bd
000000b0: 9ed9 88bd 8fca c63d 2b73 27be 9cec 82be
000000c0: 89e7 673e e31e 63bd 07d7 2ebc cce4 7c3d
000000d0: 1694 333e 7ab9 62be 387b 89be 6327 7abd
000000e0: d869 de3d 7f4a 9d3d 585c f53d 8860 0abd
000000f0: 7cf0 103e 5126 03bc 2ee3 ee3d c1d3 39be
00000100: 3321 de3d 4a2d 213d 6b4e 88bd 071f 3dbe
00000110: 536b d23d c312 df3c 2172 2e3e 9743 acbc
00000120: 30bc a7bd 7a6d d03d 2bb5 afbd 1ff4 18be
00000130: 5b30 f23d 6857 4f3d 5da7 29be 1093 a73d
00000140: 8a60 6cbd a65c e0bd 12be 6d3e 8b6e a33e
00000150: 7129 2ebe 63b2 ac3c aa9e 06be f127 a93c
00000160: 1518 a4be b5d9 9cbd e792 25bd 99d5 ee3c
00000170: e42f e53d e1af af3c 23f5 913c 5a41 27be
00000180: 8ca2 a13d d7ea 96bc 9e40 2ebc aa64 2ebf
00000190: 75a0 0c3d da6a a43d 3978 a1bd 7233 e6bd
000001a0: 181a db3d 71c1 f9bd 3f51 a23d e734 fbbb
000001b0: c5db 74bd 25f6 083e f625 3d3d 8e63 dbbe
000001c0: 3ba5 af3d 45c0 753e eb99 e93d 1ec0 16bd
000001d0: dd97 75bc 8d31 3e3d 7abc 013d 7570 b8bd
000001e0: 8d13 d13c 4ef8 033e ba6d 9c3d 8c5e 953d
000001f0: e6ec 0e3e ed5d 70be 75d5 163e 1972 81be
00000200: 51cb f1bd 5f47 64be 4577 b5bc 7509 433e
00000210: 6b85 bfbd 8db7 483e 594f 813e eeea 2c3d
00000220: 09be 8ebe af67 b9be 7627 30bb 27bb 2d3c
00000230: 1edc 1b3d 0de6 473e 1e85 34be f011 f2be
00000240: 6196 743d 4849 17bd f270 a3bd 2939 47be
00000250: 35e1 9abd 9244 f1bd 03bc 3e3e 2605 7ebc
00000260: b07c c6bd 6e7d 9dbd 4ccd cbbd efc4 2c3a
00000270: 25d7 2b3e cb97 263e a457 04be 8300 83bc
00000280: 0518 623e d7d1 333d 0705 0a3e 6a15 003c
00000290: 853d ed3d de14 1e3e f0b3 003d e94f 7f3e
000002a0: db85 ddbd 4408 ac3d 405a 443d 2a4d 9e3d
000002b0: 314e b03c e453 2fbd b93c 3dbd 9a6b 3c3e
000002c0: 8533 a0bd 6b32 26be 433c b43b a1f9 1fbd
000002d0: d45f 21be 50a3 a1bc e3da bebe 75d5 b03d
000002e0: c665 42be 7ee1 713d 7fe3 ff3c f027 c5bb
000002f0: a319 9bbb 3ed9 3fbe 71e0 72bd 7d51 0fbe
00000300: 21a8 e73d ada7 eabd 5ffa a23d 53e9 c13d
00000310: f027 87bd a6bf 02bd 7875 0dbc 5812 163d
00000320: faa5 3a3a fded a6bc a7cc a1bd 3ad7 f1bc
00000330: d2e3 133e 5341 c0bd bd25 b63d 5881 593e
00000340: 1cb9 c639 2e71 dabd df25 83bd 860a da3b
00000350: 6951 d53d 056d 14bd 5ea7 7abd ec2e e13c
00000360: 39f9 43be 04fb 0a3d 83d9 ffbd 238a 8bbe
00000370: f43e 5d3e 5c85 24bd 7d3e 833d 549c 26be
00000380: f003 e5bd 36b8 47bd a2e7 31be 2839 243d
00000390: fb8f aebd 5b04 e6bd cf9e debe 30a6 bfbc
000003a0: 10e2 7d3e 86fb a93a 6bcb ca3c 8056 49be
000003b0: 1e77 57be 4031 1e3c 9a58 933d 2957 853d
000003c0: 2f62 cfbd 3ffc 113e 9c75 9ebd d8d3 803e
000003d0: 8771 eabc 47e8 8a3d 1cbc 143e 4852 aabe
000003e0: f7a3 b1bd 7fad 66bc fb79 913e c115 8a3d
000003f0: 64cc 40bd 4625 64bd 20d3 8e3e a0cf b43d
-0.013963272 -0.49729505 0.0010270537 0.06677805 0.1313636 0.036498494 0.21631195 0.09329857
0.144728 0.094248794 -0.281395 0.16046691 -0.2389132 -0.38313386 0.009186091 -0.057019707
-0.0049077496 -0.24424057 -0.34403855 -0.008224451 0.09543269 -0.042508565 0.14991881 0.2734037
-0.42542285 0.21703628 0.122532845 0.051359437 0.15318552 0.07125386 -0.34960675 0.011192999
-0.087817624 -0.2648808 0.061175477 0.0025858078 0.12728705 -0.15664634 0.15495464 -0.1409906
-0.02612416 0.09687064 -0.3187195 -0.08792586 -0.06682132 0.09706604 -0.16352527 -0.25571144
0.22646917 -0.055449378 -0.010671384 0.061741635 0.17536959 -0.22141066 -0.2685182 -0.06107272
0.10860032 0.076802246 0.11980504 -0.033783466 0.14154238 -0.008004741 0.11664425 -0.18147184
0.10846176 0.03934983 -0.06655582 -0.18468867 0.10274377 0.027230626 0.17035724 -0.021028323
-0.08190191 0.10177131 -0.08579477 -0.14936875 0.11825629 0.050620466 -0.1656775 0.08182347
-0.057709254 -0.10955171 0.23217037 0.31920275 -0.17007996 0.021081155 -0.13146463 0.020648928
-0.32049623 -0.07658712 -0.0404233 0.029154586 0.11190775 0.02144617 0.017817086 -0.16333523
0.078923315 -0.018422527 -0.010635523 -0.6812235 0.03433271 0.08028193 -0.07884259 -0.11240281
0.10698336 -0.12195099 0.07925653 -0.0076662186 -0.0597799 0.13375147 0.04617878 -0.42849392
0.08576437 0.23999126 0.11406311 -0.03680431 -0.01498982 0.046433974 0.031673886 -0.090058245
0.025522018 0.1288769 0.07638116 0.07293424 0.13957557 -0.2347333 0.14729865 -0.25282362
-0.11806358 -0.22292851 -0.022151599 0.19046576 -0.09351619 0.19601269 0.2525585 0.042216234
-0.2787936 -0.36211917 -0.002687899 0.010603703 0.038051717 0.19521351 -0.17628905 -0.4727931
0.059713725 -0.03693512 -0.07980527 -0.19455399 -0.07562486 -0.11780657 0.18626408 -0.015504157
-0.09691751 -0.076899394 -0.09951267 0.00065906247 0.1678129 0.16268842 -0.12924057 -0.015991455
0.22079475 0.04390129 0.1347848 0.0078176055 0.115839995 0.15437648 0.0314216 0.24932827
-0.108165465 0.08400014 0.04793763 0.077295616 0.02152166 -0.042804614 -0.046200488 0.18400422
-0.078223266 -0.1623017 0.005500348 -0.039056424 -0.15759212 -0.019731194 -0.37276372 0.08634464
-0.18984136 0.059052937 0.031236408 -0.006016724 -0.0047332807 -0.18735215 -0.059296075 -0.13995929
0.11311365 -0.11457763 0.07957911 0.09468331 -0.06599414 -0.03192105 -0.008633964 0.036638588
0.00071200693 -0.020377154 -0.079003625 -0.029521573 0.14442375 -0.093874596 0.08893917 0.21240747
0.0003790342 -0.106661186 -0.06403708 0.0066540865 0.104159184 -0.03623678 -0.06119477 0.027488194
-0.1913804 0.033930793 -0.12492659 -0.27253827 0.21606046 -0.040166244 0.06408403 -0.16270572
-0.11182392 -0.04875966 -0.17373517 0.04009357 -0.08523556 -0.112312995 -0.43480536 -0.023394674
0.24793267 0.0012968637 0.0247552 -0.19661903 -0.21041533 0.009655297 0.07194634 0.06510765
-0.10126149 0.1425638 -0.07737276 0.25161624 -0.028618587 0.06782585 0.14524883 -0.332659
-0.08673852 -0.014079451 0.28413376 0.067424305 -0.047069922 -0.05569961 0.2789545 0.08828664

layer4.weight f4 [128, 256]
00000000: b020 5b3c 8975 5fbe 1071 7ebe ef38 07be
00000010: 360c 2ebe 2a53 33be 4712 353d 7085 0ebe
00000020: 26df 9a3e f4e4 22be 1ad3 65be b6ba 05be
00000030: a228 25be 9867 abbd 6180 7bbe 802b 1ebe
00000040: 2fbf eabc 3e5a 8fbe 9c31 21bd bede 70be
00000050: ce59 f43c 70e6 64bc 8c66 983e 409e 5cbe
00000060: a67b 08be 8d1c 79bd 64f5 ebbd a0a0 663e
00000070: d2a3 88bd 20b8 913d 7ea1 35be 036b 503c
00000080: 73a4 003e 462b babc 7669 4a3e 8f02 49be
00000090: d0b2 80be 5209 013e 7444 063e 2b0d dcbd
000000a0: 1736 ab3d 0733 fd3d ff77 393d 77a8 613d
000000b0: 3fc9 17be b184 d93c 2b55 543c 0124 dbbd
000000c0: b057 4abd e849 6f3d d770 413d 8a39 453e
000000d0: dc81 02be 5c95 a1bd 8d61 58be fbdd f33d
000000e0: c3dd b8bd 6d9e 9ebd da43 f43c c93e f63a
000000f0: c194 eabd b994 09be 74af 94bd d9a6 87bd
00000100: 6899 28be e49a 1fbd 1e0f 973d a4d3 45bd
00000110: c960 8f3d 1e33 5e3c 8694 d8bd 6d4b 31be
00000120: 4bd0 a0be 7651 c1bd c629 8f3d 7b04 36be
00000130: 79e3 4ebe ce0e 30bc 3c42 153d 1d17 24be
00000140: 7817 18bd a2ab 25be a9bf 64be 92c6 c8be
00000150: 2645 6d3c bf11 82be ac49 e0bd 0cc5 ea3d
00000160: 6776 29be 045d 823d eb8f 9cbd 6a29 d2bd
00000170: 3684 c4bd 6d82 9cbe d13c 32be 3a08 e4bd
00000180: 8ff2 38be ea7b 063e 05f6 d4bc 029b f6bc
00000190: dc25 debd 0727 18be 46e2 f13d a0d8 ce3c
000001a0: 5322 18be a2f1 bc3d d729 a03d 15e5 05be
000001b0: 3311 b43d 03e9 ae3c afc4 0a3e cf0a 02be
000001c0: ad32 593d 982d 0dbe 6ad8 37be 16ec 9cb9
000001d0: b7b3 e33d b88a 363e 92b8 e3bc 58d7 e9bd
000001e0: f1f0 333d 221f 20be 148f 05be 4562 f5bd
000001f0: 3497 05bd d807 37be 41e3 5b3d c6dd 84bb
00000200: b685 6a3e 7f6f 4e3c aac3 efbd bb82 27bd
00000210: 5752 9cbe 6052 cbbd 51a0 4bbd c9f5 e13d
00000220: 7b5b 17be 65ae 23be f69b 2cbd f9ab 3fbe
00000230: e52f 453d 5cc3 ee3c e6c6 75bd b199 b1bd
00000240: 44ef 44be 52fa ee3d 1e9c 17bd a0db d13d
00000250: 749a f13d dac1 1d3e c677 1bbe c65e 88be
00000260: 9b32 87be 2952 debd 5600 eb3c 7830 68bd
00000270: 0871 cbbd 3605 a1bd 48c8 81bd 7d89 8cbd
00000280: 772d 623d a4a3 cd3d 4f85 81bd 708e 84bd
00000290: 40b8 87be b6b3 fcbd 454b fd3d 791c 22bd
000002a0: 303d 58be dbd1 cabd 79df 28be e87c 973c
000002b0: 2a7f 0fbd 78fb b0be ac7a dd3b bb9e 85be
000002c0: fcb8 5f3d d309 42be 0700 013e 620d 5bbc
000002d0: fe89 853e 0213 46bd 0c75 8c3c 3818 ebbc
000002e0: bf31 e53d a3be 253e f0b6 1dbd 22fd 293c
000002f0: 3f66 06be 0131 a2ba 2bdd 06be 7c7f a83d
00000300: 6069 8fbd 762a d23d 6712 90be 7d79 35be
00000310: 8bfe 9bbd 3e62 50be 2ff6 d93d d1bd 74be
00000320: 5639 38be 3171 d7bd cea4 49bd 6c03 e5bd
00000330: 8019 18bd 841b ecbc 900c d2bd 54d2 083e
00000340: c952 bfbe 8183 64bd 4dea 8abd 4569 bdbd
00000350: 22a3 0dbe 0d0f 25bd 77b2 49be 62e6 7bbe
00000360: 7d0e 33be bce1 0b3d a36e 493d 4ab2 49be
00000370: 0b85 e23b 1ddb 16be 2171 1e3e 1da0 c2bd
00000380: 269b 4abd ea40 d8bd f22b 46be a598 f6bd
00000390: 3fd4 8bbe 97dc 913e 45cc d1bd f183 63be
000003a0: 2810 393d fa18 0dbc 798e 4d3d 9368 e63b
000003b0: 9e5e 803e 3b68 183d c328 fc3d cee1 34be
000003c0: 13df 263d 787a 61be 6527 523d 9549 03be
000003d0: 2a0e a33d 4b3c 99bd 9eee 7e3e 5850 76bd
000003e0: 9442 a4bc 1ac6 8c3d ed86 74be 9ebf 62be
000003f0: 25c1 35be 1337 99bb abad 0bbd a26b 9fbd
0.0133744925 -0.2182218 -0.24847817 -0.13205312 -0.16996846 -0.17512193 0.044206884 -0.1391809
0.30248374 -0.15907651 -0.2244381 -0.13059506 -0.16128781 -0.08369368 -0.24560691 -0.15446281
-0.028655617 -0.27998537 -0.03935395 -0.2352247 0.029827978 -0.013970956 0.29765737 -0.21544743
-0.13328418 -0.060818244 -0.11521414 0.22522211 -0.06671871 0.07115197 -0.17737386 0.012720826
0.12562732 -0.022725713 0.19766793 -0.19629882 -0.25136423 0.12601212 0.1311205 -0.10744699
0.08359926 0.12363248 0.045280453 0.0550923 -0.14822863 0.02655253 0.012959759 -0.107002266
-0.04940003 0.058420092 0.047226753 0.1926023 -0.1274485 -0.07889816 -0.21130963 0.11907574
-0.09026673 -0.07745061 0.02981751 0.0018787022 -0.11454154 -0.1343564 -0.072600275 -0.066236205
-0.1646477 -0.038966075 0.0737593 -0.04829754 0.07000882 0.013561992 -0.105752036 -0.17313929
-0.31408915 -0.094393656 0.069903895 -0.17775147 -0.20203961 -0.010745717 0.03644012 -0.16024442
-0.037131757 -0.16178754 -0.22338738 -0.39213997 0.014481818 -0.25404164 -0.10951552 0.11463365
-0.16549073 0.063653976 -0.07644638 -0.10261805 -0.0959553 -0.30568257 -0.17406012 -0.111343816
-0.18061279 0.13133207 -0.025996218 -0.03010321 -0.10847065 -0.14858638 0.11810736 0.02524978
-0.14856844 0.09225775 0.0782048 -0.13075669 0.08792343 0.021351343 0.13551591 -0.12699436
0.053026844 -0.13786924 -0.17953649 -0.00029930536 0.11118262 0.17826355 -0.02779797 -0.11418027
0.04393095 -0.15636876 -0.13042861 -0.11981634 -0.0326149 -0.17874086 0.053683523 -0.0040547578
0.22902569 0.012599825 -0.11707242 -0.04089616 -0.3053157 -0.09927821 -0.049713437 0.11033208
-0.14780991 -0.15984495 -0.042140923 -0.18717946 0.04814138 0.029145889 -0.060004137 -0.086718924
-0.19231898 0.116688386 -0.03701412 0.10246968 0.11797038 0.1540598 -0.15182409 -0.26634806
-0.26405796 -0.108555146 0.028686684 -0.05668685 -0.099336684 -0.07862322 -0.06337029 -0.06862161
0.05521914 0.100409776 -0.06324255 -0.0647248 -0.2650776 -0.12338965 0.12367872 -0.039577935
-0.21117091 -0.09903308 -0.16491498 0.018492177 -0.035033382 -0.34566855 0.0067590084 -0.26097664
0.054619774 -0.1894906 0.12597667 -0.01336989 0.26081842 -0.04835797 0.017145656 -0.028698072
0.11191129 0.16186003 -0.03850454 0.010375293 -0.13124941 -0.0012374223 -0.13170306 0.08227441
-0.070025206 0.10262005 -0.2813904 -0.17722125 -0.076169096 -0.20349976 0.10642659 -0.23900534
-0.17990622 -0.105196364 -0.049229436 -0.11182293 -0.037133694 -0.028821714 -0.10256302 0.13361484
-0.37367848 -0.055789474 -0.067829706 -0.09248594 -0.13831761 -0.040297557 -0.19696985 -0.24599603
-0.17485996 0.034150824 0.049177777 -0.19696918 0.0069128326 -0.14732023 0.15472843 -0.095031954
-0.049464367 -0.105592564 -0.19352701 -0.120408334 -0.27310368 0.2848861 -0.102440394 -0.222183
0.045181423 -0.008611912 0.0501847 0.007031509 0.25072187 0.037208777 0.12312462 -0.17664263
0.040740084 -0.22019374 0.0513071 -0.12821038 0.07961686 -0.07482203 0.24895713 -0.060135216
-0.020051278 0.068737224 -0.23879595 -0.22143409 -0.1774946 -0.004675755 -0.03410117 -0.07784201

layer4.bias f4 [128]
00000000: ae8f 9e3e fbe7 0d3d 373e 5abd d8b1 f33d
00000010: 495a 28bc 4746 c4bd da96 d33d 2431 f2bc
00000020: f555 253d 878b 993d 6eeb c43d 9000 f73b
00000030: 52bf 853e d747 593e 819e 673e 018e 913d
00000040: ea6f 373e 5a79 aa3d c9ac 3fbc 1883 733e
00000050: 2573 a93c bc7c efbd be02 993c 0235 513d
00000060: 4f7d 593e ed52 893d dafe de3c 5c55 13be
00000070: bd2f c13d c589 223e b044 e33d 4ee3 833e
00000080: 0f14 ae3d 436b 2bbc 5a6f 2a3a 404d ec3d
00000090: fd78 093e c6e6 7a3d f7eb 413e 1c9d 5abe
000000a0: f0cc 833e 40f6 203d 4181 a13c 3e01 163d
000000b0: 104c 4c3d b607 9fbb 4fe0 ba3d 23ca f9ba
000000c0: b98b f13c 4a94 e13d 7494 07bc b0b3 5dbd
000000d0: c8fd b03d ecff a2be 635d 04bd 6894 cd3d
000000e0: c643 a7bc e3df 653e d87e 273e c338 dc3d
000000f0: 97fe 0d3e 8bf9 11be f819 873e 886d acbd
00000100: 271e a83c 4004 ddbd 0b38 54be 8b34 263e
00000110: 4c1f dd3a 1de7 03be 2121 143e 056c 19be
00000120: 9612 52be 64ec d63d d2f0 49bc 5c40 babd
00000130: 92e6 29be 7f5e 7f3d 10c1 bcbc 86ee 8c3d
00000140: 8f92 673e 9cef 06bc def7 f1bd 2afe 933d
00000150: 8caf 5dbd 59f9 203e d5c6 433e f111 61be
00000160: d62d 5dbd 0f99 703d e53d 143e 8687 b7bd
00000170: 31fc 07be 5960 cf3d 1a04 013e 5461 2e3c
00000180: 704b 6d3d 1762 533e a394 c8bb 233e a8bd
00000190: 7fbd 1f3e 5811 f63d 3d42 9abd 2260 5fbe
000001a0: 9d45 62bb 5180 23be 423d 04be 12f4 763e
000001b0: 0fb0 343d 0d39 9f3d 0329 5ebe 4d31 7f3d
000001c0: 9499 c63d c46c c53c 5b63 863d a647 c63d
000001d0: 150d be3d 0db1 f23b 579f 5abe 7897 a6bd
000001e0: d9db b53d ed83 903e 852f 7b3b b412 50be
000001f0: 21e9 e63d bf8c 0e3e b7ed a83d 63aa 223e
0.30968994 0.034645062 -0.05328199 0.118991554 -0.010275432 -0.09583717 0.10331507 -0.029564448
0.04036518 0.07497316 0.09615217 0.007537909 0.26122528 0.21218811 0.22619058 0.07107163
0.17913786 0.08323927 -0.01169891 0.23780477 0.020684788 -0.11693713 0.018678065 0.051075943
0.21239208 0.0670527 0.027221132 -0.14388031 0.094329335 0.15872867 0.110970855 0.25759357
0.084999196 -0.010462585 0.0006501578 0.11538172 0.1342506 0.06125524 0.1893767 -0.21348995
0.25742292 0.039297342 0.019714953 0.03662228 0.049877226 -0.004853214 0.09124815 -0.0019057434
0.02948557 0.11014612 -0.00827514 -0.05412644 0.08642155 -0.31835878 -0.032315623 0.10038072
-0.02041806 0.22448687 0.16356981 0.10753014 0.1386665 -0.1425535 0.26387 -0.08419329
0.02052219 -0.10791826 -0.20724504 0.16230981 0.0016870289 -0.12881131 0.14465763 -0.14982612
-0.20514902 0.10494307 -0.012325482 -0.09094307 -0.16591862 0.062345978 -0.023041278 0.06881432
0.22614501 -0.008235838 -0.11814855 0.07226212 -0.054122493 0.15720119 0.19118817 -0.219795
-0.05399879 0.058739718 0.14476736 -0.08961396 -0.13279797 0.10125799 0.12599221 0.010643322
0.05793327 0.20642887 -0.0061212345 -0.08214977 0.15599631 0.12015027 -0.07532165 -0.21814016
-0.0034526356 -0.15966918 -0.12913993 0.24116543 0.044113215 0.077745534 -0.21695332 0.062302876
0.096972615 0.024099715 0.06561919 0.096816346 0.09279839 0.00740636 -0.21349846 -0.08134359
0.08879823 0.2822565 0.0038327884 -0.20319635 0.112749346 0.13920878 0.082484655 0.1588531

layer5.weight f4 [64, 128]
00000000: 2329 fcbd 2251 cc3c 4f82 bf3c 98a4 f93d
00000010: 51ca 03be 57eb 8dbc 8d41 4cbe 5693 04bd
00000020: 7c7e c63c c2d4 9f3e c756 02be e9fc a33d
00000030: 9d2c 3cbe bb1e cd3d 8a2f d33d 5055 c43d
00000040: 79c9 113e 5913 063e 7667 17bd f897 92be
00000050: 2e19 5ebd fb28 143d c71d 90be f253 cdbd
00000060: d413 b13d 7027 2c3e 04d5 ef3d 6885 9d3d
00000070: 004a 663c d59c 76bb 7b43 40bc 7819 133d
00000080: 508b d3bd 7a05 bebd 7d35 893d 13fd 343e
00000090: 3ee7 a3be 13b1 c2bd 1596 013e b52a c4bd
000000a0: feca 3abe 3b8e cb3d 0c57 ffbc 6fa6 dcbe
000000b0: 3c7c 90bd 3523 23be 26a8 3dbd 1b43 8f3d
000000c0: 0ef9 1a3e b741 7c3d d362 d8bc b89f 833d
000000d0: 3984 f23d dc6e da3d 611a 9e3d 4892 81be
000000e0: ad45 c53c c49e 55be fa23 05bc dd49 e33d
000000f0: 0373 203e 71b2 153d 0629 253c 2f4f 9bbd
00000100: c865 d03d 0549 6a3d cb88 433d 3ee1 11bf
00000110: aaa9 5c3d 5d8f 90be 1de1 8dbd b64d 10be
00000120: 92e2 24be 470f 1d3d e23a d73d d7d7 1a3d
00000130: de2f 033d b32f 02bf db76 803d f129 debb
00000140: 8129 253e 9044 9c3d a603 afbc ea29 01be
00000150: 8e8d b23d b044 993d a632 273e 9f4d 3b3d
00000160: 16e9 6c3d 2ecf fcbb 213e 4c3d a887 833c
00000170: c7b5 67bd 4232 1f3e d5b9 153d d6ca 313e
00000180: ac80 d43c 3cc5 5e3e 4862 8bbe 5d9d 8b3d
00000190: 199f dbbd b054 b1bd d74f a93d 350c f53b
000001a0: 9c84 15ba 30cb 14be bb5f db3c 761d ffbc
000001b0: 2f83 b3be 9f35 18be 6e09 b33d f1cb 42bd
000001c0: ebf2 b73d f94f 993d 0682 1a3d eb3f fe3d
000001d0: 9ab3 35be 6ee0 82be cf33 a3bd bb61 0e3c
000001e0: c94a 81be 9672 a5bc 11d4 28be 5154 92bc
000001f0: f459 3bbe 02d3 aa3d 459e 79bd ff3e 13be
00000200: 31ca 8abe eb5e 33bd 03da 48bd 282c 08be
00000210: bd1c 543d 5ef2 5f3d 2d19 253c c3f3 f3bd
00000220: b67b c63b dfeb dc3c c4cd 4f3e b2cb 72bc
00000230: 117b 53bd 6093 e2bc 441a 033d 57a1 dfbe
00000240: af87 b13c 80dc 653d 0bb6 063e b8cc fcbe
00000250: 3dbd 3ebe b34e 903d 8eee 9d3c 4b95 933d
00000260: 5215 59be 82bc 203e d7c9 9a3d 543d 123e
00000270: 54d2 30be 5993 febc 68cb 88be 7f51 833d
00000280: db86 fe3d 1680 a53d 6ac9 073e a26b 02be
00000290: 0c87 f5bd 3a3b 5cbe d83f 73bc db75 32bd
000002a0: 2eea 113d 14ee 8a3d 3075 d03d 7aa1 5fbd
000002b0: 9377 5abc bcb8 3fbd 2b3f ec3d 7570 83bd
000002c0: 188c f93d 3915 733e 3759 373e f239 59be
000002d0: 2032 f43d 62d5 28be 3b36 8fbd 2172 3bbe
000002e0: 1c5e 633d dc1e b4be f270 873d fe0b 893d
000002f0: ea41 afbd 61e2 8cbe 956e c6be 4e04 9c3d
00000300: 9861 82bc 790a cabe 642c a2be bb06 11be
00000310: 17bf 003d 4797 bebd 73dd 143e d961 4abc
00000320: c55e 17bd 7bae 68be b2a8 80be 36cc 16be
00000330: 79ad c8be 8ee9 a8bd 2142 da3e bfb7 41be
00000340: 7f4e 51bd 9b76 04be 81a4 cebc 0ec0 e43c
00000350: a8a4 eabe 9286 013e 357d 493d 4efa 2ebd
00000360: 3e5a 17be e18e 963d f901 ccbd a680 123c
00000370: 623b dc3e 37a5 273e eea3 a03d f81e 06bc
00000380: c55b 1c3e 8b04 0fbe c624 64bc f499 233d
00000390: 6d47 c1bb 9ffc 933d ed34 f03c 53b5 efbc
000003a0: 5ff4 9d3e 4c43 ac3c 4c2f b23d 3e45 ba3e
000003b0: 0f17 953d 75b5 b0bb 632b f2bd 611e 693c
000003c0: 695e 18be d9d4 923e bb20 7f3b 9b1c 0d3d
000003d0: 10bf 7cbc 6ea8 4b3b ad65 50be 89d0 bebe
000003e0: 2997 3a3c 5257 1dbe ba4f f3bc f2f5 13be
000003f0: 4f3a 4b3d c0f5 123e 5b23 81be 46e7 a6be
-0.12312534 0.02494103 0.023377566 0.12189597 -0.12870146 -0.017324133 -0.1994688 -0.032367073
0.024230234 0.3121701 -0.12728415 0.08007223 -0.18376394 0.10015627 0.10311802 0.095865846
0.14237012 0.13093318 -0.036963902 -0.28631568 -0.054223232 0.036171895 -0.28147718 -0.10025777
0.0864636 0.16811919 0.117105514 0.07691461 0.014055729 -0.00376301 -0.011734839 0.03591296
-0.10329306 -0.09278388 0.06699655 0.17674665 -0.3201236 -0.095064305 0.12654908 -0.09578458
-0.18241498 0.09939238 -0.031169437 -0.4309573 -0.07054946 -0.15931399 -0.046302937 0.06995221
0.1513407 0.061586108 -0.02641431 0.06426948 0.11841626 0.10665676 0.07719875 -0.25306916
0.024081076 -0.20861346 -0.008126253 0.11098073 0.15668873 0.036547128 0.0100805815 -0.075834624
0.10175663 0.057198543 0.047737878 -0.5698432 0.05387274 -0.28234378 -0.069277026 -0.14092144
-0.16102055 0.038344648 0.10509278 0.037803497 0.03202807 -0.50854033 0.0627267 -0.006779902
0.16129114 0.07630265 -0.021364044 -0.12613645 0.08718406 0.07483804 0.16327915 0.045728322
0.057839476 -0.0077151274 0.04986394 0.016055897 -0.05656984 0.15546516 0.036554176 0.17362532
0.025940262 0.21754926 -0.2722342 0.06817124 -0.10723705 -0.08658731 0.08267181 0.007478262
-0.0005703659 -0.14530635 0.026779046 -0.031141978 -0.35061023 -0.14864205 0.08742033 -0.047557775
0.0898188 0.07485957 0.037721656 0.12414535 -0.17744294 -0.2556185 -0.07968866 0.008690293
-0.2525237 -0.02019624 -0.16487147 -0.01786247 -0.18296033 0.08341028 -0.060941953 -0.143795
-0.27107385 -0.043791693 -0.049036037 -0.13298094 0.05178522 0.0546745 0.010076803 -0.11911728
0.006057228 0.02696794 0.20293337 -0.014819073 -0.051631037 -0.027658165 0.03200747 -0.4367778
0.021671144 0.05611849 0.13155381 -0.49374938 -0.18626876 0.07046261 0.01927879 0.0720621
-0.2119954 0.1569691 0.07558029 0.14281207 -0.17267734 -0.03107612 -0.26717687 0.064120285
0.124280654 0.08081071 0.13260427 -0.12736371 -0.11988649 -0.21506968 -0.0148467645 -0.043569427
0.03562372 0.06783691 0.10178602 -0.054597355 -0.013334173 -0.046807036 0.11535486 -0.06417934
0.12184924 0.23738565 0.17905127 -0.2121351 0.11923623 -0.16487649 -0.069927655 -0.18305255
0.05550967 -0.35179794 0.066133395 0.066917405 -0.08557494 -0.27516463 -0.38756242 0.076180086
-0.015915677 -0.39461115 -0.31674492 -0.14162724 0.031432237 -0.093061976 0.14537601 -0.01235243
-0.036955614 -0.22722809 -0.25128704 -0.14726338 -0.3919485 -0.08247672 0.42628577 -0.1891775
-0.05110025 -0.1293587 -0.025224926 0.02792361 -0.45828748 0.12648991 0.049191672 -0.042719178
-0.14780518 0.07351471 -0.09961314 0.008941805 0.43014055 0.16371618 0.07843767 -0.008186094
0.15269382 -0.13966577 -0.013924783 0.039941743 -0.005898407 0.07225918 0.029322112 -0.029261267
0.30850503 0.021028183 0.087004274 0.36380953 0.07279789 -0.005392725 -0.118246816 0.014228434
-0.14879765 0.28678015 0.003892942 0.03445111 -0.015426412 0.0031075734 -0.20351286 -0.37268475
0.011388578 -0.15365341 -0.029701103 -0.1444929 0.049616154 0.14351559 -0.25222287 -0.32598323
