outputs/trained_models/placement_model_20250802_065600.pth (torch, 79173 bytes, 10 tensors)

layer1.weight f4 [64, 15]
0	0xbc9180a5	-0.017761538
1	0xbf222fe2	-0.63354313
2	0xbedefd9e	-0.4355287
3	0x3f31968a	0.6937033
4	0xbd7803f8	-0.06055066
5	0xbed2f976	-0.4120595
6	0x3f4ad039	0.7922397
7	0x3f0db0af	0.5534772
8	0x3f495bec	0.78655887
9	0xbe9dc755	-0.3081614
10	0x3f331af3	0.69962996
11	0xbe0fe271	-0.14051224
12	0xbe541d78	-0.20714366
13	0x3dec505a	0.11538763
14	0x3f0aa33e	0.5415534
15	0xbcc83869	-0.024440961
16	0x3f554312	0.83305466
17	0x3e661c83	0.22471814
18	0x3db1cefc	0.08682057
19	0xbe9713a4	-0.29507172
20	0x3ec8ff40	0.3925724
21	0xbf827d96	-1.0194576
22	0xbf552e5f	-0.8327388
23	0x3e7c747b	0.24653809
24	0x3f2903be	0.66021335
25	0x3f0f94bf	0.56086344
26	0xbe248f18	-0.16070211
27	0x3dd608e1	0.10450912
28	0xbdd1a11a	-0.10235806
29	0x3e5dd46b	0.21663062
30	0xbec24230	-0.37941122
31	0xbe41b18c	-0.18915385
32	0xbf72e9c8	-0.9488797
33	0xbee768fe	-0.4519729
34	0xbeb91770	-0.36150694
35	0x3cbbe8a1	0.022938075
36	0x3e1be8f0	0.15225577
37	0xbf62de2c	-0.8862026
38	0xbeb58a60	-0.35457134
39	0x3efd2960	0.4944563
40	0x3e54c8dd	0.20779748
41	0xbea0b215	-0.31385866
42	0xbe42a38e	-0.19007704
43	0x3ed94068	0.4243195
44	0x3e44cb96	0.19218287
45	0x3f44a8cb	0.7682006
46	0xbeb0b337	-0.3451173
47	0x3f20c611	0.62802225
48	0x3f334f32	0.7004272
49	0x3e84ca8e	0.25935787
50	0x3edd354f	0.43204734
51	0x3e4c4f8e	0.19952223
52	0x3e7c197c	0.24619097
53	0x3e24dd8b	0.16100137
54	0xbdbd05b3	-0.09229603
55	0x3f357c6e	0.7089299
56	0xbedb0025	-0.42773548
57	0x3cb6553d	0.022257442
58	0xbec7f311	-0.39052632
59	0x3c9eb700	0.01937437
60	0x3cae0e1f	0.021246968
61	0xbe95e057	-0.2927272
62	0x3e9ecff6	0.31018037
63	0x3eb902d0	0.36134958
64	0xbf53b024	-0.82690644
65	0x3ef9072c	0.48638284
66	0x3eacc8f2	0.3374706
67	0xbf1ca03d	-0.61182004
68	0xbed4fd07	-0.41599295
69	0x3eccd2bb	0.40004525
70	0xbeb018a1	-0.3439379
71	0x3e878b1a	0.26473314
72	0xbce2c61d	-0.027682358
73	0x3e83b55c	0.25724304
74	0xbe5324a0	-0.2061944
75	0xbe85dbfd	-0.261444
76	0x3f0d978c	0.5530937
77	0x3ef9701f	0.48718354
78	0xbef53881	-0.47894672
79	0xbe93f008	-0.28894067
80	0x3eaedd87	0.34153387
81	0x3ce18315	0.027528325
82	0x3f812935	1.00907
83	0xbe7ea441	-0.24867345
84	0x3f53f610	0.82797337
85	0xbeb4b98a	-0.35297805
86	0x3d369203	0.04457284
87	0x3ea7c9fb	0.32771286
88	0x3e07d8be	0.13266274
89	0xbcf3e9cd	-0.02977457
90	0x3f0dad11	0.55342203
91	0xbf92ddfe	-1.1473997
92	0x3e72f29c	0.2372536
93	0xbe468022	-0.19384816
94	0x3f2fe640	0.6871071
95	0xbc79bff2	-0.015243517
96	0x3ecec222	0.40382487
97	0xbeffbff3	-0.49951133
98	0x3ea85068	0.32873845
99	0xbf6fc18a	-0.9365469
100	0xbf724789	-0.94640404
101	0x3d5bdd35	0.053677756
102	0x3df980ee	0.121827945
103	0xbf04eb21	-0.5192128
104	0x3e2418be	0.16025063
105	0xbdccfd85	-0.100092925
106	0x3f16f51b	0.5896775
107	0x3e899492	0.26871163
108	0x3e9dfc2d	0.30856457
109	0x3af9db27	0.0019062505
110	0x3e8fa7e0	0.28057766
111	0x3f0b2779	0.54357105
112	0x3dc03fae	0.09387146
113	0xbec13bc8	-0.37740922
114	0x3e9c094d	0.30475846
115	0xbf141e46	-0.57858694
116	0x3db28f02	0.08718683
117	0x3d1f1893	0.038841795
118	0x3e92da29	0.28682068
119	0x3d157c49	0.03649548
120	0x3f4954b1	0.78644854
121	0x3e5c897b	0.2153682
122	0x3ebd5c01	0.36984256
123	0x3e3aa1f5	0.18225844
124	0x3f0ba30b	0.5454566
125	0x3f1cbfdc	0.61230254
126	0x3d369882	0.044579037
127	0x3e29d6e0	0.16585875
128	0x3e029177	0.12750803
129	0xbf30b877	-0.6903147
130	0x3d71f4b9	0.059071276
131	0xbe497776	-0.19674477
132	0xbeb0124a	-0.34388953
133	0xbea9213c	-0.33033168
134	0x3e904e58	0.28184772
135	0xbe4be61f	-0.19912003
136	0x3ee7dd67	0.45286104
137	0xbeb578d4	-0.35443747
138	0xbf90231d	-1.1260716
139	0x3e9a31b0	0.30116034
140	0xbece2ff8	-0.40270972
141	0x3f10c9d1	0.5655795
142	0xbecc47ef	-0.3989863
143	0x3f0f9173	0.5608131
144	0x3e956cd2	0.29184586
145	0x3d78547f	0.060627457
146	0x3e0f9bfe	0.1402435
147	0xbda2df7d	-0.07952783
148	0x3dd60403	0.10449984
149	0xbee00705	-0.43755355
150	0xbee72a9f	-0.45149705
151	0xbf026adb	-0.509443
152	0x3ec70d7f	0.38877484
153	0x3d853964	0.06505087
154	0x3e99346f	0.29922816
155	0xbec5cb4a	-0.3863166
156	0x3e43db96	0.19126734
157	0xbf6329ea	-0.8873583
158	0xbe924cf4	-0.28574336
159	0xbe2af520	-0.1669507
160	0xbcaba60b	-0.020953199
161	0x3ec49380	0.38393784
162	0x3e1b08b8	0.15140045
163	0x3daad9ce	0.08342324
164	0x3e887410	0.2665105
165	0xbe5c0677	-0.21486841
166	0xbd8bf87c	-0.06834504
167	0x3df4fe95	0.1196262
168	0x3f831dd1	1.0243474
169	0xbde8fdb7	-0.11376517
170	0x3d8135b7	0.063090734
171	0x3f84397b	1.0330042
172	0x3e2ef48f	0.17085479
173	0x3e2dfe5f	0.16991566
174	0x3d86d2b5	0.06583158
175	0x3dd88200	0.105716705
176	0xbf5941e4	-0.84866166
177	0x3e92e3eb	0.28689513
178	0x3ea60b81	0.32430652
179	0xbe901d8b	-0.2814754
180	0xbd01fd55	-0.031735737
181	0xbd490525	-0.04907717
182	0xbbc5634b	-0.0060237995
183	0xbda13dd9	-0.07873125
184	0x3e5e7c4f	0.21727107
185	0x3d306b5f	0.043071147
186	0xbea45d00	-0.32102203
187	0xbe714b27	-0.23563825
188	0x3f037f5d	0.51366216
189	0x3f1582d7	0.5840277
190	0x3ece4bfb	0.40292343
191	0x3d64d462	0.055866607
192	0xbdfe2849	-0.124100275
193	0xbda11ced	-0.07866845
194	0x3e542b24	0.20719582
195	0xbf579d8e	-0.84224784
196	0x3e795d58	0.24352014
197	0xbd9e315f	-0.077242605
198	0xbf334653	-0.7002918
199	0xbeff6467	-0.49881288
200	0xbf138410	-0.57623386
201	0x3d8a20e9	0.06744558
202	0x3ec514a2	0.38492304
203	0x3da01f39	0.07818455
204	0xbf3ae41b	-0.7300431
205	0x3c3eff43	0.011657539
206	0x3e63ba68	0.22239077
207	0x3e022543	0.12709527
208	0x3de9d7ca	0.114181116
209	0x3c5de90e	0.013544334
210	0x3dd63c82	0.1046076
211	0xbe1dbeb0	-0.15404773
212	0xbd38ddf7	-0.045133557
213	0x3bdc95c4	0.0067317206
214	0xbec41bb8	-0.38302398
215	0xbc01497f	-0.007891058
216	0xbf720843	-0.94543856
217	0xbf0e0244	-0.5547221
218	0x3e2fd7d1	0.17172171
219	0x3f68203f	0.90674204
220	0x3eae3527	0.34024927
221	0xbcc0f73f	-0.023555396
222	0x3dcb0bd1	0.09914363
223	0x3e21f7c0	0.15817165
224	0x3d0808f5	0.033211667
225	0xbf63991a	-0.8890549
226	0xbee9a3ac	-0.45632684
227	0x3eebf8c6	0.46088237
228	0x3eeaf7d3	0.458922
229	0xbe0695a0	-0.13143015
230	0xbf44772a	-0.7674433
231	0xbed13cf7	-0.40866825
232	0x3ef9916c	0.4874376
233	0xbdb43444	-0.087990314
234	0xbe999aab	-0.30000815
235	0x3e14e919	0.14542045
236	0x3d51bdc0	0.05120635
237	0xbda590b2	-0.08084239
238	0xbe86621b	-0.26246724
239	0xbf1ebff1	-0.6201163
240	0x3ea7979a	0.3273285
241	0x3e286bcc	0.16447371
242	0xbf2b5bc9	-0.6693693
243	0x3f081fbc	0.5317342
244	0x3da8ccdd	0.082421996
245	0x3ebc34ff	0.36759183
246	0xbe0b72aa	-0.1361796
247	0x3e12ea21	0.14347126
248	0x3edbcc1b	0.42929158
249	0xbe9459ab	-0.2897466
250	0x3dd2b645	0.102886714
251	0x3e338112	0.17529705
252	0x3ec91062	0.39270312
253	0xbdebcd1d	-0.11513732
254	0x3b84a52a	0.0040480094
255	0xbf3d7ea5	-0.7402137

layer1.bias f4 [64]
0	0x3df0443a	0.11731763
1	0xbd258d51	-0.040417973
2	0xbd4eeb1c	-0.050517187
3	0x3e02b62a	0.12764803
4	0x3b904026	0.0044021783
5	0x3e3d6aa8	0.18497717
6	0xbdd46f2c	-0.10372767
7	0x3e25f1b4	0.16205484
8	0x3cc5c1a2	0.024140183
9	0xbe4e7f30	-0.20165706
10	0xbc776763	-0.015100333
11	0xbdf2a167	-0.11847191
12	0x3e8db0ee	0.2767405
13	0x3db3045e	0.08741067
14	0x3e458844	0.19290262
15	0xbc7769e2	-0.015100928
16	0x3e43074f	0.19045757
17	0x3e60e43b	0.21962063
18	0xbda89987	-0.08232408
19	0x3e16475d	0.1467566
20	0xbde6d629	-0.112713166
21	0x3e818760	0.25298595
22	0xbe10eebd	-0.14153571
23	0x3eb41a8f	0.35176513
24	0xbc4358a2	-0.011922987
25	0xbddf6a9f	-0.10909008
26	0xbc5e8285	-0.013580923
27	0xbe43b6ec	-0.19112748
28	0xbe536e8c	-0.20647639
29	0x3dda624d	0.10663281
30	0x3e45374e	0.19259378
31	0xbda15398	-0.07877272
32	0x3e80257a	0.25028592
33	0x3e08fc95	0.13377602
34	0xbe366be7	-0.17814599
35	0x3d0aa462	0.033848174
36	0xbe0cc9f9	-0.13748921
37	0x3e414abf	0.1887617
38	0x3da4eb1c	0.08052656
39	0x3d8861cb	0.066592775
40	0xbc5d706a	-0.013515571
41	0xbe4d0aba	-0.20023623
42	0x3e885ac9	0.26631764
43	0x3e37cbaa	0.17948785
44	0xbe3f635b	-0.18690245
45	0x3ec2854d	0.37992325
46	0xbe0b1fb6	-0.13586316
47	0x3d9bbc36	0.07604258
48	0x3e803908	0.2504351
49	0x3d69a2f3	0.057040166
50	0x3e83e4ed	0.25760594
51	0xbe4c208b	-0.19934289
52	0x3e07293a	0.1319932
53	0xbdbe562a	-0.09293778
54	0x3e2dbb07	0.16965877
55	0x3e2c9011	0.16851832
56	0x3e441fa1	0.1915269
57	0x3d5f5490	0.054524004
58	0x3e0b250f	0.13588355
59	0x3ea1123b	0.3145922
60	0xbd86d693	-0.065838955
61	0x3d67fbd9	0.056636665
62	0x3e2ddff3	0.16979961
63	0x3cef8352	0.029237423

layer2.weight f4 [128, 64]
0	0x3dd277ab	0.10276731
1	0xbdc2483e	-0.09486435
2	0x3e42c1f9	0.19019307
3	0x3dee7c42	0.11644794
4	0x3e2c3d61	0.16820289
5	0xbc964e59	-0.018347906
6	0x3ed9a5a4	0.42509186
7	0x3e5a51a4	0.21320206
8	0xbd4432e4	-0.047900096
9	0xbe01a2db	-0.1265978
10	0xbd0d8cd7	-0.034558143
11	0xbcb4a421	-0.022050919
12	0xbd739f78	-0.059478253
13	0xbeb08e81	-0.34483722
14	0x3d872939	0.065996595
15	0xbea9d553	-0.33170566
16	0xbdd23fcc	-0.102660745
17	0xbe0d0c91	-0.13774325
18	0xbec34dff	-0.38145444
19	0x3e985b35	0.29757085
20	0x3e62b67a	0.22139922
21	0x3d14f51b	0.036366563
22	0xbd875fff	-0.06610107
23	0x3eeb5fff	0.45971677
24	0xbc12d646	-0.00896222
25	0x3ea4098a	0.32038528
26	0x3e7cc80c	0.24685687
27	0x3f5d5023	0.86450404
28	0x3dd9f142	0.106417194
29	0xbc4f5f88	-0.012657054
30	0xbd9c0ea3	-0.07619979
31	0xbcd93d7f	-0.026518581
32	0xbce2ce0a	-0.027686138
33	0xbc221c9b	-0.009894515
34	0xbdc8991c	-0.09794828
35	0xbf436883	-0.7633135
36	0x3ed6f2f0	0.41982222
37	0x3e9c1232	0.30482632
38	0xbe2c9e8a	-0.16857353
39	0xbe217e39	-0.15770806
40	0x3f062cea	0.52412283
41	0x3ed18e6f	0.4092898
42	0x3e164e74	0.14678365
43	0x3d38402f	0.044983085
44	0xbf1d920d	-0.6155098
45	0x3e4af20b	0.19818895
46	0x3f5ab649	0.85434395
47	0x3ef2a9fa	0.47395307
48	0x3dab1817	0.08354204
49	0x3c809ea1	0.01570064
50	0xbd109183	-0.03529502
51	0x3df50efc	0.11965749
52	0xba6ab0a2	-0.0008952712
53	0x39f5cb80	0.0004688166
54	0x3e3c368e	0.18380186
55	0x3e91c08b	0.2846721
56	0x3e122a62	0.1427398
57	0xbe959fed	-0.29223576
58	0xbbfb7041	-0.007673294
59	0x3e99f719	0.30071333
60	0xbf293ebd	-0.66111356
61	0xbdad9949	-0.084765024
62	0x3de4effc	0.11178586
63	0x3e3cc372	0.18433931
64	0xbe084a5a	-0.13309613
65	0x3edf1d06	0.4357683
66	0x3df69640	0.12040377
67	0x3e229384	0.15876585
68	0xbde6638e	-0.11249457
69	0x3d5d281e	0.053993337
70	0x3f1eda64	0.6205199
71	0x3d43f1a0	0.047837853
72	0xbcb2363d	-0.021754378
73	0xbec7a8f9	-0.38996103
74	0x3e3e235f	0.1856818
75	0xbe338b5e	-0.17533633
76	0xbd7a6ba2	-0.061137803
77	0x3eecccff	0.4625015
78	0x3e46d84b	0.19418447
79	0x3ecd1f7b	0.4006308
80	0xbe8fdd07	-0.28098318
81	0x3e93815e	0.28809637
82	0x3e031ecb	0.12804715
83	0xbc8b056a	-0.016970355
84	0x3ec3946e	0.3819918
85	0xbe6263f2	-0.22108439
86	0x3f6713c8	0.9026456
87	0xbe01d1a7	-0.12677632
88	0xbce54885	-0.027988682
89	0x3f78bef8	0.97166395
90	0x3d9f2929	0.077715226
91	0x3e85dc77	0.26144764
92	0xbdae890e	-0.08522235
93	0x3ee83d03	0.45359048
94	0x3de278a9	0.1105817
95	0xbe0461b1	-0.12927891
96	0x3d253dd3	0.040342163
97	0xbe2d6238	-0.16931999
98	0x3e98f13a	0.2987154
99	0xbe1d12a6	-0.15339145
100	0x3f2b5b4b	0.66936177
101	0x3e81b781	0.25335315
102	0x3da41b21	0.08012987
103	0xbe943b3a	-0.28951436
104	0x3ef6846e	0.4814791
105	0x3dfb2db3	0.12264576
106	0x3d8397e1	0.06425453
107	0x3ddaab63	0.10677221
108	0x3e39a7dd	0.18130441
109	0x3db12859	0.08650274
110	0xbedbd7b7	-0.42938015
111	0x3e4c117a	0.19928542
112	0x3c183db4	0.009292055
113	0x3dbcf0a4	0.09225586
114	0xbe0a1529	-0.13484634
115	0x3d7f1c2c	0.062282726
116	0xbe0282d4	-0.1274522
117	0x3dfc26a8	0.123120606
118	0xbd489ff0	-0.048980653
119	0x3e32833d	0.17432876
120	0xbe48ab0b	-0.19596498
121	0xbd924a06	-0.07143025
122	0xbdb9108f	-0.090363614
123	0x3d885953	0.06657662
124	0x3e273c59	0.16331615
125	0x3e58e8d1	0.21182562
126	0x3e870201	0.26368716
127	0x3ca0bd93	0.019621646
128	0x3e4d1c2e	0.20030281
129	0xbf0f8cdd	-0.56074315
130	0xbcf7e5ec	-0.030261002
131	0x3ee5f7d4	0.4491564
132	0x3c4be8f5	0.012445678
133	0xbe0bed12	-0.13664654
134	0x3e52c034	0.20581132
135	0xbcb2a387	-0.021806492
136	0x3ece07c4	0.402403
137	0xbd80d07c	-0.06289765
138	0x3df001fd	0.11719129
139	0x3e369df8	0.17833698
140	0xbde04b4f	-0.10951864
141	0xbef55c5e	-0.47922033
142	0x3e0397e0	0.12850904
143	0xbe62d379	-0.22150983
144	0x3e59a438	0.2125405
145	0x3dbc3a71	0.09190834
146	0x3e1ee119	0.15515555
147	0x3db95a2a	0.090504006
148	0x3d60e093	0.05490167
149	0xbcd3d4ef	-0.02585837
150	0xbe60862d	-0.21926184
151	0xbe564342	-0.20924094
152	0xbf1f1c83	-0.6215288
153	0xbe3d7c2f	-0.18504404
154	0xbe2bfb14	-0.16794997
155	0xbe3396dd	-0.17538019
156	0x3c1b4560	0.0094769895
157	0xbe23b97a	-0.15988722
158	0x3e10f79b	0.14156954
159	0xbe6f2c61	-0.23356773
160	0xbddba663	-0.10725095
161	0x3dad05b2	0.08448352
162	0xbe34f039	-0.17669763
163	0x3eb03610	0.34416246
164	0xbeeda14c	-0.46412122
165	0x3e447631	0.19185711
166	0xbdaa5140	-0.083162785
167	0x3e0f979d	0.1402268
168	0xbcad21db	-0.021134308
169	0x3de06cd7	0.109582596
170	0xbd1a6a21	-0.03769887
171	0xbc53254d	-0.012887311
172	0x3f0d76b2	0.5525924
173	0x3e5b8b7e	0.21439931
174	0xbf5d4e52	-0.8644763
175	0x3df2d73e	0.118574604
176	0x3d87ee6c	0.06637272
177	0x3ebeadf1	0.37242082
178	0x3e40f384	0.18842894
179	0x3d9996a0	0.074994326
180	0x3e87cd79	0.2652395
181	0x3edaaaa2	0.42708308
182	0xbe323cef	-0.17406057
183	0x3ea0f14d	0.31434098
184	0x3db7b11a	0.08969326
185	0x3e987ac0	0.2978115
186	0x3e791f63	0.2432838
187	0x3e3516d4	0.1768449
188	0x3ebcfd72	0.36912113
189	0x3e83a254	0.25709784
190	0xbd1a29be	-0.037637465
191	0x3d044578	0.032292813
192	0x3d1faa5e	0.038980834
193	0x3e84395c	0.25825012
194	0xbda7fb6a	-0.0820225
195	0x3c804e71	0.015662404
196	0xbde4046c	-0.11133656
197	0x3c420023	0.011840853
198	0x3ed47ad1	0.4149995
199	0xbd5fb085	-0.0546117
200	0xbe702422	-0.23451284
201	0xbd81ff17	-0.06347483
202	0xbe3d05f9	-0.1845931
203	0xbd483195	-0.04887541
204	0x3dd54410	0.104133725
205	0xbc994ea0	-0.01871425
206	0x3e38faed	0.1806447
207	0xbd50e15d	-0.050996173
208	0x3c1d020c	0.009583008
209	0xbdf0d1d5	-0.11758772
210	0xbdef904c	-0.11697444
211	0xbd3b0bad	-0.04566543
212	0x3e858d02	0.26084143
213	0xbdf916e5	-0.1216257
214	0x3f535fea	0.8256823
215	0x3d9097ee	0.07060228
216	0x3dcd5bf2	0.10027303
217	0x3dfe1595	0.1240646
218	0x3dcdba18	0.1004526
219	0x3f944d20	1.1586037
220	0xbdba24e0	-0.090890646
221	0x3eec4a8e	0.4615063
222	0x3e113c32	0.14183119
223	0xbd3703ed	-0.04468148
224	0xbdb8e75c	-0.09028503
225	0xbe045370	-0.12922454
226	0x3e3100aa	0.1728541
227	0xbe1cbc82	-0.15306285
228	0x3ecb9393	0.39761028
229	0x3ebe4dbd	0.37168685
230	0xbe4f4b4f	-0.20243572
231	0xbe4850ac	-0.19562024
232	0x3f187bdf	0.5956401
233	0x3e8782b5	0.2646691
234	0x3dd62fc7	0.104583316
235	0xbc98b767	-0.01864214
236	0xbcabbfd9	-0.020965504
237	0x3dead76c	0.1146687
238	0x3f28f5ea	0.66000235
239	0x3e6356c8	0.22201073
240	0xbc01f767	-0.0079325205
241	0xbed2b481	-0.4115334
242	0x3e596842	0.21231177
243	0x3d1941e8	0.03741637
244	0xbcc9dcf5	-0.024641493
245	0xbd7e80ed	-0.062134672
246	0x3c4ed01f	0.012622862
247	0x3d96e1db	0.07367297
248	0x3dc12bf1	0.09432209
249	0xbe4ecd03	-0.20195393
250	0x3d5c6081	0.05380297
251	0x3e6a5c5d	0.22886796
252	0x3ed8b654	0.42326605
253	0xbe637e9f	-0.22216271
254	0x3dfae236	0.122501776
255	0x3cf1db39	0.029523479

layer2.bias f4 [128]
0	0x3dcb3b0c	0.09923372
1	0x3c33f5ce	0.010983897
2	0xbd8c8e53	-0.06863084
3	0xbb411f51	-0.002946813
4	0x3d89e708	0.06733519
5	0x3df3286b	0.118729435
6	0x3d8622f2	0.06549634
7	0x3e70322d	0.2345664
8	0x3e4da5d0	0.20082784
9	0xbdc3a18a	-0.095522955
10	0x3dba5194	0.09097591
11	0x3e19cfff	0.1502075
12	0x3e027ed1	0.12743689
13	0xbdb1705e	-0.086640105
14	0x3e26cd11	0.16289164
15	0xbd5624fc	-0.052281365
16	0x3dfa869f	0.12232708
17	0x3e188da9	0.14897789
18	0x3cd60de3	0.026129669
19	0x3df8dbcf	0.121513
20	0x3d5192fa	0.05116556
21	0xbcea91f6	-0.028634053
22	0x3d912ff2	0.07089223
23	0xbd83111b	-0.06399747
24	0x3c69ca44	0.014269415
25	0x3dde7741	0.1086259
26	0x3b3ee3ff	0.0029127595
27	0x3e43e05b	0.19128554
28	0x3c166604	0.009179596
29	0x3dfebb32	0.124380484
30	0xbdc09067	-0.094025426
31	0x3e292060	0.16516256
32	0x3da992cd	0.08279953
33	0x3d82999f	0.06376957
34	0x3ddc6ca1	0.10762907
35	0x3d17e715	0.03708561
36	0xbdb5e34f	-0.08881246
37	0x3dfeebef	0.124473445
38	0x3e007153	0.1254323
39	0x3e0b4167	0.13599168
40	0xbdeab72f	-0.11460721
41	0x3d58eeeb	0.052962225
42	0x3df6008c	0.12011823
43	0x3d5034a0	0.050831437
44	0x3c32c7da	0.010911906
45	0x3ced54f1	0.028971167
46	0x3d99c6b4	0.07508603
47	0x3e02948d	0.1275198
48	0x3e1d6548	0.15370667
49	0x3e261802	0.16220096
50	0x3e46b521	0.19405033
51	0x3c0df068	0.008663274
52	0x3d4532ba	0.04814408
53	0x3d503a3f	0.050836798
54	0xbc7f5bc7	-0.015585846
55	0xbdaf9b2d	-0.08574519
56	0x3ca7f9c9	0.020504849
57	0xbd16c4aa	-0.036808647
58	0xbde17747	-0.110090785
59	0x3c1af90b	0.0094587905
60	0x3dd8142c	0.105507225
61	0x3cb68bf9	0.022283541
62	0x3da3edb6	0.08004324
63	0x3d62c61e	0.05536472
64	0xbc4dbef4	-0.012557734
65	0x3e22cc48	0.1589824
66	0x3cdc5d8b	0.026900074
67	0x3e00e31d	0.12586637
68	0xbbce89fd	-0.0063030706
69	0x3dc200e7	0.09472828
70	0xbdaaf257	-0.08347004
71	0x3d7e8b6d	0.062144686
72	0x3d8f2094	0.06988636
73	0x3e1dbf0e	0.15404913
74	0x3d9dc9c0	0.077044964
75	0xbda245ad	-0.07923446
76	0x3d7d510d	0.061844874
77	0xbd43ccae	-0.04780262
78	0x3d9b8c31	0.07595099
79	0x3e07dbf4	0.13267499
80	0x3e488e93	0.19585638
81	0x3d458ccc	0.048229977
82	0xbcc461d3	-0.023972427
83	0x3d8b9c05	0.06816868
84	0x3e13c7d1	0.14431693
85	0xbd5227b6	-0.051307403
86	0xbc2a1dcd	-0.010383082
87	0xbd4725b7	-0.048619952
88	0x3e1830ad	0.14862318
89	0xbc607d61	-0.013701768
90	0x3db4ce6f	0.088284366
91	0x3b41b98f	0.0029560064
92	0x3e319cc0	0.17344952
93	0xbd45d0fb	-0.048295002
94	0x3db3d905	0.087816276
95	0x3e0dc235	0.13843615
96	0x3e28dbfe	0.1649017
97	0x3d2b14f3	0.041768026
98	0xbd292c0d	-0.041301776
99	0x3dee924d	0.116489984
100	0x3cb9e47b	0.022691956
101	0x3e17aa28	0.14811003
102	0x3e24e54a	0.16103092
103	0x3e5d55f6	0.21614823
104	0xbd2c2cd7	-0.04203495
105	0xbc1bb0b6	-0.00950258
106	0x3d4a40e3	0.049378287
107	0xbc441464	-0.011967752
108	0x3e2fb3f5	0.17158492
109	0xbd8fb26b	-0.070164524
110	0x3bcb5a4f	0.006205834
111	0x3dcab336	0.09897463
112	0xbd671a84	-0.05642177
113	0x3dc8cd19	0.09804744
114	0x3d99bb11	0.07506383
115	0x3e514a96	0.20438609
116	0x3d0dbe2f	0.0346052
117	0x3e1f4770	0.15554595
118	0xbde3a1d6	-0.11114852
119	0x3db6d120	0.08926606
120	0xbcba1b16	-0.022717994
121	0x3e1a16c5	0.15047748
122	0xbd577407	-0.052600887
123	0x3b9c3245	0.004766735
124	0x3e1ee094	0.15515357
125	0xbd5d1671	-0.05397648
126	0x3dfde3d7	0.123969726
127	0x3d9570ce	0.072969064

layer3.weight f4 [64, 128]
0	0xbe58adf7	-0.21160112
1	0xbd14f1a3	-0.036363255
2	0x3e79798e	0.24362776
3	0xbec03208	-0.3753817
4	0x3e39a736	0.18130192
5	0x3e51fe07	0.2050706
6	0x3e036070	0.12829757
7	0xbe26f042	-0.16302589
8	0x3bf25c2e	0.0073962426
9	0x3d16e724	0.036841527
10	0x3e323662	0.17403558
11	0x3dee1042	0.11624195
12	0xbe800502	-0.2500382
13	0x3d2cd71b	0.042197328
14	0x3dbd238c	0.09235296
15	0xbe93e954	-0.28888953
16	0xbe407a3c	-0.18796629
17	0xbd8eeeb5	-0.069791235
18	0x3e08f274	0.13373739
19	0xbdcb537d	-0.099280335
20	0x3dc36558	0.09540814
21	0x3edce46c	0.43143022
22	0x3e87d464	0.2652923
23	0x3e3476a2	0.1762338
24	0x3e339b11	0.17539622
25	0xbee95384	-0.4557153
26	0xbacc112f	-0.0015569086
27	0xbce39fea	-0.027786214
28	0xbd99c7fe	-0.075088486
29	0xbdac6813	-0.08418288
30	0x3f520254	0.820348
31	0x3e6aafb7	0.22918592
32	0x3f1c44a0	0.61042213
33	0x3e442241	0.19153692
34	0x3cf3555e	0.029703792
35	0xbe9ad0db	-0.3023747
36	0x3d9347fa	0.07191463
37	0xbe044732	-0.12917784
38	0x3de879a4	0.11351326
39	0x3ea875b8	0.32902312
40	0xbef1034e	-0.47072834
41	0x3d6f796c	0.058465406
42	0xbd1416a2	-0.036154397
43	0x3e0e0d17	0.13872181
44	0x3dc72479	0.097237535
45	0x3e7b3bd9	0.24534549
46	0x3daaeb5a	0.08345671
47	0x3dff7dc0	0.12475157
48	0xbe799801	-0.24374391
49	0x3e0db036	0.1383675
50	0x3dd4532a	0.10367425
51	0xbec29413	-0.38003597
52	0xbe2eee08	-0.17082989
53	0xbe38ab7c	-0.18034166
54	0x3e7e3d8f	0.2482817
55	0xbe78a549	-0.24281801
56	0xbd154f9b	-0.03645287
57	0x3d61bb2e	0.05511015
58	0xbe202907	-0.1564065
59	0x3d71a6f9	0.05899713
60	0x3e982894	0.2971846
61	0xbd2a45bc	-0.04157041
62	0xbf2b0f1f	-0.6681995
63	0x3de70d24	0.11281803
64	0x3e0871df	0.13324688
65	0xbd7770ce	-0.060410313
66	0x3ee87ced	0.4540781
67	0x3db88caf	0.09011208
68	0xbddc7bd3	-0.10765805
69	0xbe312b87	-0.1730176
70	0xbec35089	-0.3814738
71	0x3e7f98ec	0.24960679
72	0x3df134d1	0.11777652
73	0x3dceae02	0.10091783
74	0x3eea67c9	0.45782307
75	0x3d14e3b5	0.03634997
76	0x3e1a0400	0.15040588
77	0x3bc66582	0.006054581
78	0x3e4bd96f	0.19907163
79	0xbe84b7e4	-0.25921547
80	0x3d35a6c4	0.044348493
81	0x3e02d20d	0.1277544
82	0x3eb027d7	0.34405395
83	0x3d09ba92	0.033625193
84	0x3e67d5f5	0.22640212
85	0x3dae1ab6	0.085011885
86	0x3e001baa	0.12510553
87	0x3ce40326	0.027833533
88	0x3c980d18	0.018560931
89	0xbcd136cf	-0.02553883
90	0x3e348947	0.17630492
91	0x3e74e0f9	0.23913945
92	0x3d5a5ad8	0.05330929
93	0xbefce2d2	-0.493918
94	0xbe8d34a4	-0.27579224
95	0x3dc7aaba	0.097493604
96	0x3e0ca031	0.13732983
97	0x3e8f10bb	0.27942452
98	0x3de9b9ce	0.114123926
99	0x3c27b17b	0.010235186
100	0x3d971dc0	0.07378721
101	0x3d9cffe5	0.076659955
102	0x3e24269b	0.16030352
103	0xbca5b048	-0.020225659
104	0x3d98a4c1	0.07453299
105	0x3e59b8bb	0.21261875
106	0x3db1bd01	0.08678628
107	0x3e9950a3	0.29944333
108	0x3e3dbbbc	0.18528646
109	0xbdf059eb	-0.117359005
110	0x3de47509	0.11155135
111	0x3d787ede	0.060667865
112	0xbe97d92a	-0.2965787
113	0x3e951097	0.2911422
114	0x3e740825	0.23831232
115	0x3d09cf9f	0.03364527
116	0xbf8b2a40	-1.0872269
117	0x3dcd139e	0.10013507
118	0xbb510966	-0.003189647
119	0x3e861f0d	0.26195565
120	0xbea20896	-0.31647176
121	0x3e9eecb2	0.3103996
122	0xbdfd39f9	-0.12364573
123	0xbc768faa	-0.015048901
124	0xbe0b1c8f	-0.13585113
125	0x3dad042b	0.084480606
126	0x3e9a3415	0.3011786
127	0xbecc92ff	-0.399559
128	0x3ed83275	0.42225996
129	0xbe990e7d	-0.29893866
130	0xbe60be03	-0.21947484
131	0x3cc7f878	0.024410471
132	0x3e21360b	0.15743272
133	0x3ed54c38	0.41659713
134	0xbe024e6e	-0.12725231
135	0x3f2e7b03	0.6815645
136	0x3d758fb7	0.05995151
137	0xbeac3b01	-0.33638766
138	0x3d883d80	0.06652355
139	0x3e042241	0.12903692
140	0x3e9cf87e	0.30658334
141	0x3ccce1ef	0.025010077
142	0x3f1c9ab4	0.6117356
143	0xbea57762	-0.32317644
144	0x3d772fcd	0.06034832
145	0x3ee41b27	0.44551966
146	0xbe314bd4	-0.17314082
147	0x3e175301	0.14777757
148	0xbdb4aa57	-0.08821552
149	0x3b64fd09	0.003494086
150	0x3e14dd7b	0.14537613
151	0xbe60a336	-0.2193726
152	0xbdb7e3e8	-0.089790165
153	0x3fbcefdd	1.47607
154	0xbdce39ea	-0.1006964
155	0x3df4692c	0.119341224
156	0x3c461c70	0.012091741
157	0x3d419c3e	0.047268145
158	0xbe7496aa	-0.23885599
159	0xbe104e3f	-0.14092349
160	0x3d96b764	0.07359198
161	0x3e6ea97b	0.23306839
162	0x3cda5f95	0.026656905
163	0xbe2d9344	-0.16950709
164	0xbbf2f88e	-0.007414884
165	0x3dd2a6ba	0.10285707
166	0xbe52c340	-0.20582294
167	0x3e31e4bd	0.17372413
168	0x3e949688	0.29021096
169	0x3cd7ce7e	0.02634358
170	0xbe430278	-0.1904391
171	0xbdf0bcd2	-0.117547646
172	0x3e6274bd	0.22114845
173	0xbd900afd	-0.07033346
174	0xbe592834	-0.21206743
175	0x3e31c07e	0.17358586
176	0x3f6fe348	0.9370618
177	0x3d72efec	0.05931084
178	0xbe04d640	-0.12972355
179	0x3ea23a80	0.31685257
180	0xbe935445	-0.2877523
181	0x3df1205d	0.11773751
182	0xbdd6fc5f	-0.10497355
183	0xbe940023	-0.28906354
184	0x3e766656	0.24062476
185	0x3e82fd13	0.25583705
186	0xbe58ee93	-0.21184759
187	0x3d2c2c9c	0.04203473
188	0x3bed73b9	0.007246461
189	0x3e2e0628	0.16994536
190	0x3e951560	0.2911787
191	0x3df0ba32	0.11754264
192	0x3e07565d	0.13216539
193	0xbd67e121	-0.056611184
194	0xbcaf86e8	-0.021426633
195	0x3e83a4dc	0.25711715
196	0xbe8746bd	-0.26421157
197	0x3e711780	0.23544121
198	0x3e6c284e	0.2306225
199	0x3ead0357	0.3379161
200	0xbc665d53	-0.014060336
201	0x3dfae8da	0.12251444
202	0xbda227c5	-0.07917742
203	0xbe5a9610	-0.21346307
204	0xbe4af590	-0.19820237
205	0xbab37f55	-0.0013694564
206	0x3f333f12	0.7001811
207	0x3e5cddbe	0.21568963
208	0x3eeaa1f2	0.4582668
209	0x3e46a06d	0.19397135
210	0x3e09b7ce	0.13449022
211	0x3cffd34a	0.03122868
212	0xbe113aed	-0.14182635
213	0x3dbc8def	0.09206759
214	0xbe7b0776	-0.24514565
215	0xbda300fd	-0.07959173
216	0x3e641c42	0.22276405
217	0xbd4bec2e	-0.049785785
218	0x3eb48aca	0.35262138
219	0x3e017054	0.12640506
220	0xbd01e63b	-0.031713706
221	0x3f29a620	0.6626911
222	0x3eaf0c87	0.34189245
223	0xbcad7204	-0.021172531
224	0x3e492456	0.19642767
225	0x3dcc4f0e	0.09976016
226	0xbdbc05e4	-0.09180811
227	0x3edf6529	0.43631867
228	0x3e576ba2	0.21037152
229	0x3d04aa08	0.032388717
230	0xbe85edf0	-0.26158094
231	0x3ecd5d9c	0.4011048
232	0xbdcce20a	-0.10004051
233	0x3efa99b2	0.48945385
234	0x3d48044d	0.048832227
235	0xbf39cee4	-0.72581315
236	0x3c99bd67	0.018767072
237	0xbf59a598	-0.850183
238	0x3c3e5403	0.01161671
239	0x3e8b6a18	0.2722938
240	0xbe098ccf	-0.1343262
241	0x3d6514c0	0.055927992
242	0xbebf7b20	-0.37398624
243	0x3dcab299	0.09897346
244	0x3ed4bfb7	0.41552517
245	0x3e5b6378	0.21424663
246	0xbd0e0406	-0.034671806
247	0xbe369900	-0.17831802
248	0x3d18f07b	0.037338715
249	0xbdffa62e	-0.12482868
250	0xbed650a1	-0.4185839
251	0x3de87c08	0.11351782
252	0x3eebd5e4	0.46061623
253	0xbddda55d	-0.10822556
254	0x3d8b8d06	0.068140075
255	0x3f0c51f3	0.54812545

layer3.bias f4 [64]
0	0x3cec4465	0.028841207
1	0x3e47acd5	0.19499524
2	0x3da5c8b9	0.080949254
3	0xbb4fb86b	-0.0031695615
4	0xbc807219	-0.015679406
5	0xbd8cdac5	-0.068776645
6	0xbd90faae	-0.07079063
7	0x3d9973de	0.07492803
8	0x3d2f2845	0.042763013
9	0x3d9cb86e	0.07652365
10	0xbd10ff5b	-0.035399776
11	0xbbbba135	-0.0057260045
12	0xbce75249	-0.028237479
13	0x3db158f1	0.08659542
14	0x3df6cbfb	0.12050625
15	0x3e025c8b	0.12730615
16	0x3c3d77b4	0.011564184
17	0xbdc38e62	-0.09548642
18	0xbd8ccb50	-0.06874716
19	0x3d0d05eb	0.034429472
20	0x3c0bc898	0.008531712
21	0x3dc474dc	0.09592602
22	0x3c3f07f4	0.011659611
23	0xbcd3d3bb	-0.025857797
24	0x3a6d00f0	0.0009040972
25	0x3d2ad3cc	0.04170589
26	0x3d32ecf3	0.043683004
27	0xbdafc7be	-0.0858302
28	0x3da26f60	0.07931399
29	0xbca011a9	-0.019539671
30	0x3de09a84	0.109669715
31	0xbda2c242	-0.07947208
32	0xbce00f2a	-0.02735098
33	0x3d203bb2	0.03911943
34	0xbd4e743a	-0.05040381
35	0x3de054ae	0.10953651
36	0x3d711561	0.05885828
37	0xbd42b42f	-0.047535118
38	0xbda8eab9	-0.08247895
39	0x3d380b97	0.044932928
40	0x3d761137	0.06007501
41	0x3e09ef2e	0.13470146
42	0x3e0a329c	0.13495868
43	0x3db14f3c	0.08657691
44	0x3e1d3206	0.15351114
45	0xbd6fad81	-0.058515076
46	0x3db0fb8b	0.08641728
47	0x3c0093e7	0.007847763
48	0xbadfad0b	-0.0017065121
49	0xbd3c076e	-0.045905523
50	0x3d693e25	0.05694403
51	0x3dbbd3d5	0.09171263
52	0xbd4ccc31	-0.04999942
53	0x3d236cd2	0.0398987
54	0xbd1326e2	-0.035925753
55	0x3d7ed224	0.062212124
56	0x3e226920	0.15860415
57	0x3cb9ba90	0.022671968
58	0x3d1f2332	0.038851924
59	0x3c9e9407	0.019357694
60	0x3cded724	0.027202196
61	0x3c63d01a	0.013904596
62	0x3e1e4283	0.1545506
63	0x3e15e65f	0.14638661

slot_head.weight f4 [13, 64]
0	0x3bc9e025	0.0061607533
1	0xbe44c158	-0.1921438
2	0x3ea0883a	0.31353933
3	0x3de64ca6	0.11245088
4	0xbec3e281	-0.38258746
5	0x3ebbff1b	0.36718068
6	0x3d0f5f59	0.03500304
7	0x3cc9ae56	0.024619263
8	0x3d4c14a3	0.04982437
9	0xbfd47085	-1.6596838
10	0xbe37b2b2	-0.1793926
11	0x3ad304ba	0.0016099431
12	0xbcec5098	-0.028847024
13	0xbed81f9c	-0.42211616
14	0xbdb0863e	-0.08619355
15	0xbe8607ad	-0.2617773
16	0xbd9cb9e2	-0.07652642
17	0xbc9b30f0	-0.018944234
18	0xbdcb2dba	-0.09920831
19	0xbef42023	-0.47680768
20	0x3cd769fd	0.026295656
21	0xbe1ce033	-0.153199
22	0x3d14a60a	0.03629116
23	0x3df0efa0	0.11764455
24	0xbea9f250	-0.33192682
25	0xbff0de9f	-1.8817939
26	0xbd245661	-0.04012144
27	0x3d5b4af1	0.053538267
28	0xbe531622	-0.20613912
29	0x3d8ac4a4	0.067757875
30	0xbe99d671	-0.30046418
31	0xbd8581b6	-0.06518881
32	0xbdb2f3ea	-0.08737929
33	0x3d2b3d84	0.041806713
34	0x3ece98ec	0.40351045
35	0xbef4ae90	-0.4778943
36	0xbf038e69	-0.51389176
37	0xbf05fce0	-0.5233898
38	0xbd0badc9	-0.03410128
39	0x3e7fda16	0.24985537
40	0x3e435b68	0.19077837
41	0x3e951d11	0.29123738
42	0x3da9fbf1	0.08300007
43	0xbe01a5cf	-0.12660907
44	0x3de3900f	0.11111461
45	0x3eba7269	0.36415413
46	0xbd986269	-0.07440645
47	0x3c3e9176	0.01163136
48	0x3d842b46	0.06453566
49	0x3da2382c	0.0792087
50	0x3e9840b8	0.29736876
51	0xbe32b03b	-0.17450039
52	0x3c6804c1	0.01416129
53	0x3db3963a	0.08768888
54	0x3dd779c4	0.10521272
55	0xbe436a1a	-0.19083443
56	0x3e086bc6	0.13322362
57	0x3ed2bf0e	0.41161388
58	0xbd2a6cd4	-0.041607693
59	0x3e6d9b65	0.2320381
60	0x3e92367e	0.285572
61	0xbd08b6ab	-0.03337733
62	0x3e76d211	0.24103571
63	0x3c247f05	0.010040049
64	0x3e7276a5	0.23678072
65	0x3eaf3a1f	0.3422403
66	0x3dbe8726	0.09303121
67	0x3a8163ee	0.00098717
68	0xbc4e627b	-0.012596722
69	0x3c675af3	0.014120805
70	0x3d975502	0.07389261
71	0x3aa1e31c	0.0012351009
72	0x3e4ef9c7	0.2021247
73	0x3ead91a6	0.33900183
74	0x3e0e1b8f	0.138777
75	0xbe004abb	-0.12528507
76	0x3c658013	0.014007586
77	0xbd15579a	-0.036460496
78	0xbf1c0b12	-0.6095439
79	0x3d0f2e42	0.034956224
80	0xbdaa2bfe	-0.08309172
81	0x3da681d2	0.0813023
82	0x3cffe98e	0.031239297
83	0xbddc9536	-0.10770647
84	0xbb3e1d36	-0.002900911
85	0x3e2e00c3	0.16992478
86	0x3e70c044	0.23510844
87	0x3db7d4a4	0.08976105
88	0xbc6173cc	-0.013760518
89	0x3e3f2ccf	0.18669437
90	0xbf39f23d	-0.7263525
91	0xbb3b551f	-0.0028584672
92	0xbca9e4b0	-0.02073893
93	0xbe8a72ff	-0.2704086
94	0x3eb8960b	0.36051974
95	0x3d9c1cb0	0.07622659
96	0xbcb60ea7	-0.022223784
97	0x3dac2e0b	0.084072195
98	0x3f2648b3	0.6495468
99	0x3caa194f	0.020764021
100	0x3dcfeb08	0.101522505
101	0x3c2458cd	0.010030937
102	0x3d9b9303	0.075964
103	0x3e4648d9	0.19363727
104	0x3cf12a3c	0.029439084
105	0xbbf3a5c5	-0.0074355328
106	0xbd8e202f	-0.06939732
107	0x3eafe310	0.34352922
108	0xbfadff59	-1.3593551
109	0x3e416032	0.18884352
110	0xbe61663e	-0.22011659
111	0x3e870694	0.26372206
112	0xbf50bad5	-0.81535083
113	0xbda40fb2	-0.08010806
114	0xbe04a7dc	-0.12954658
115	0xbe06f57a	-0.1317958
116	0xbe9254db	-0.28580365
117	0xbccd195b	-0.025036504
118	0x3c96ef56	0.018424671
119	0x3e870380	0.26369858
120	0x3deeee3c	0.11666533
121	0xbe91d8d7	-0.28485748
122	0x3dd1241f	0.10211968
123	0x3f3d2d42	0.7389718
124	0x3d3a0d28	0.045422703
125	0xbedfbe47	-0.43699858
126	0x3ecd5481	0.40103534
127	0xbe8c4b12	-0.27401024
128	0x3eb9280f	0.36163375
129	0xbf3671e2	-0.7126752
130	0xbf118710	-0.56846714
131	0x3d5d8db5	0.05409022
132	0xbf072e73	-0.5280525
133	0x3eacd16a	0.3375352
134	0x3dc29337	0.09500735
135	0xbd8c68ac	-0.06855902
136	0xbe7afaeb	-0.2450978
137	0xbe1bd675	-0.15218528
138	0xbf1bd70d	-0.60875016
139	0x3d2c55fb	0.042074185
140	0x3c715142	0.014728846
141	0x3e69d13f	0.22833727
142	0x3cd05a1d	0.025433594
143	0xbeb4d8da	-0.35321695
144	0xbf450c15	-0.7697156
145	0xbdaf7448	-0.08567101
146	0xbcd3c415	-0.025850335
147	0x3e5f47e7	0.21804772
148	0xbd8d00af	-0.06884896
149	0xbdde410d	-0.10852251
150	0xbf763172	-0.961692
151	0xbcfe61e8	-0.031052545
152	0x3e4c6f98	0.19964445
153	0xbf2e4e10	-0.68087864
154	0x3eca1045	0.39465538
155	0xbd8f6f6e	-0.070036754
156	0xbf16d74e	-0.5892228
157	0xbe79518b	-0.24347512
158	0xbe8bd4c8	-0.27310777
159	0xbdd88e12	-0.10573973
160	0xbd9b14fd	-0.075723626
161	0x3db9fbed	0.09081254
162	0xbfc4f302	-1.538666
163	0xbfa06bb8	-1.2532873
164	0xbeed9538	-0.46402907
165	0x3deb2114	0.114809185
166	0x3cbd97e5	0.023143718
167	0x3da5c2c3	0.080937885
168	0xbec1e158	-0.37867236
169	0xbd244e5b	-0.040113788
170	0x3e8eb60d	0.2787327
171	0xbeb2763e	-0.34855837
172	0x3f91f6c5	1.1403433
173	0x3e89e33b	0.26931176
174	0x3e5a3ffc	0.2131347
175	0xbfaed8e7	-1.3659943
176	0x3e7e3eae	0.24828598
177	0x3bb32b40	0.0054678023
178	0xbeedf36b	-0.46474776
179	0xbf31adef	-0.69406027
180	0xbf2c4dc7	-0.6730618
181	0x3cca4e2c	0.024695478
182	0xbde6e570	-0.112742305
183	0x3e1e872a	0.15481248
184	0x3ec84100	0.3911209
185	0x3efeee09	0.4979098
186	0x3e165315	0.14680131
187	0xbc9011c0	-0.017586589
188	0xbeb65a32	-0.3561569
189	0x3f1c4ac0	0.6105156
190	0xbe70ea8d	-0.23526974
191	0xbe0a0723	-0.13479285
192	0x3e5a8bf5	0.21342452
193	0xbdbe700d	-0.09298716
194	0xbecd879f	-0.40142533
195	0x3d7af347	0.061267164
196	0xbdaf1bec	-0.085502476
197	0xbe2c8bcf	-0.16850208
198	0x3ca245f0	0.01980874
199	0x3d90e878	0.0707559
200	0x3ea91314	0.33022368
201	0x3ed5d66d	0.41765156
202	0xbe80141b	-0.2501534
203	0x3bc1e72c	0.0059174504
204	0xbd9e8a71	-0.07741249
205	0xbfb2390e	-1.3923662
206	0x3ed0ddfe	0.40794367
207	0x3eaab5cc	0.33341825
208	0xbf618461	-0.8809262
209	0x3c59ffe0	0.013305634
210	0xbd679b0a	-0.05654434
211	0x3dc3182f	0.09526097
212	0x3decea38	0.11568111
213	0xbf0f8638	-0.56064177
214	0xbe61136a	-0.21980062
215	0xbbf07960	-0.007338688
216	0x3eb230cf	0.34802863
217	0x3e3e7bea	0.18601957
218	0xbdbded39	-0.09273762
219	0xbe0b7838	-0.13620079
220	0xbe2bc193	-0.16773061
221	0x3d805869	0.06266863
222	0x3ef7ae09	0.48374966
223	0xbd89a5d2	-0.06721081
224	0xbdbbb59c	-0.091654986
225	0xbbf4a8d4	-0.007466415
226	0xbfdb2552	-1.7120764
227	0xbe723423	-0.23652701
228	0x3e5722c3	0.21009354
229	0x3f1e49cd	0.6183136
230	0xbca93c66	-0.020658683
231	0x3ebba420	0.36648655
232	0x3e33dcbe	0.17564675
233	0xbf3428f4	-0.7037499
234	0xbe75f2a3	-0.2401834
235	0x3dd55312	0.10416235
236	0xbfd95ecb	-1.6982054
237	0xbebecf5b	-0.37267575
238	0x3ec8a41c	0.39187706
239	0xbcd6aaeb	-0.026204547
240	0x3dd17970	0.102282405
241	0x3dc1318a	0.09433277
242	0x3e3c95dc	0.18416542
243	0xbfd3f112	-1.6557944
244	0xbe9442b1	-0.28957132
245	0xbdb0310e	-0.086031064
246	0xbdba3255	-0.09091631
247	0xbf1925b4	-0.59823155
248	0xbdaa41f2	-0.08313359
249	0xbf0ac265	-0.5420287
250	0x3ef59053	0.47961673
251	0xbee92a3f	-0.45540044
252	0xbe2fd0e2	-0.17169526
253	0x3eac3ec4	0.33641636
254	0xbf08a718	-0.53379965
255	0x3e922f42	0.2855168

slot_head.bias f4 [13]
0	0x3dad1487	0.08451181
1	0xbdb0793f	-0.08616876
2	0x3d076f8d	0.033065367
3	0x3d220a7c	0.03956078
4	0xbd9c8eee	-0.07644449
5	0xbd78674d	-0.06064539
6	0x3de2b0a9	0.110688515
7	0xbda70b33	-0.08156433
8	0xbc7feeaf	-0.015620871
9	0xbdf68a6e	-0.12038122
10	0x3e9ab8bc	0.30219066
11	0xbe2831b3	-0.16425209
12	0xbe66221f	-0.22473954

rotation_head.weight f4 [3, 64]
0	0x3ea2e9e1	0.3181906
1	0x3cfd1027	0.030891491
2	0x3e195d3d	0.14976974
3	0x396103cb	0.00021459085
4	0xbecd17a9	-0.40057114
5	0x3f30288c	0.6881187
6	0x3d7a47ef	0.061103757
7	0xbd9cdfae	-0.07659851
8	0x3e908d7a	0.28232938
9	0xbc3296e3	-0.010900232
10	0x3e3b99d1	0.18320395
11	0xbdd0602a	-0.10174592
12	0xbd968a10	-0.07350552
13	0xbc9e5b7d	-0.019330734
14	0xbe25a54f	-0.16176341
15	0x3eb89ac4	0.36055577
16	0xbdaa2c54	-0.08309236
17	0xbceccbe6	-0.02890582
18	0x3dbef412	0.093238965
19	0x3e36d5ca	0.17854992
20	0x3c78fb7d	0.015196678
21	0xbd7adf7f	-0.0612483
22	0x3c4ffaac	0.012694042
23	0x3d64d7b8	0.055869788
24	0x3d810492	0.062997
25	0x3c7ef448	0.015561171
26	0x3e4364f9	0.19081487
27	0x3d6f3678	0.058401555
28	0x3bc7e7ad	0.006100616
29	0x3d27898d	0.040902663
30	0xbe58890a	-0.21146026
31	0xbd890124	-0.06689671
32	0x3da8f9e1	0.082507856
33	0xbde5b042	-0.11215259
34	0xbf5892b3	-0.84598845
35	0xbc98e179	-0.018662201
36	0x3ebb1297	0.3653762
37	0xbbeb94a2	-0.0071893493
38	0xbde55aa3	-0.11198928
39	0x3ec6f493	0.3885847
40	0x3d6d0325	0.057864327
41	0x3d86e2f5	0.06586257
42	0x3e9fe13a	0.31226522
43	0x3de58d64	0.11208609
44	0x3da60154	0.08105722
45	0x3f28dcec	0.659621
46	0xbd8c454f	-0.06849157
47	0xbe93a0f5	-0.28833738
48	0xbe4a3443	-0.19746499
49	0x3dff616a	0.12469752
50	0xbec7f7a5	-0.39056125
51	0x3f10d38f	0.5657281
52	0xbdd40385	-0.10352234
53	0xbd7dcdcc	-0.06196384
54	0x3d1add0f	0.037808474
55	0x3e3871a4	0.180121
56	0x3e5906a7	0.21193944
57	0xbe692109	-0.22766508
58	0x3e61b4be	0.22041604
59	0x3ea15705	0.31511703
60	0x3e81b195	0.25330797
61	0x3e8eff36	0.27929085
62	0xbdadffac	-0.08496031
63	0xbd2a713c	-0.041611895
64	0xbeb58e78	-0.35460258
65	0x3e62e12e	0.22156212
66	0x3d8a6a1e	0.067585215
67	0xbd95ae14	-0.073085934
68	0x3ed8ef81	0.42370227
69	0xbf24c299	-0.6435943
70	0xbde35226	-0.11099653
71	0xbd314262	-0.0432762
72	0xbe7a7baf	-0.24461244
73	0x3dc3f355	0.09567896
74	0xbdeea999	-0.11653442
75	0xbd4074c3	-0.046986353
76	0x3c54e670	0.012994394
77	0x3de45603	0.11149218
78	0x3df4e595	0.11957852
79	0xbe5a1548	-0.2129718
80	0xbda09d8d	-0.078425504
81	0x3ddae816	0.10688798
82	0x3ce4744b	0.027887484
83	0xbe86da9b	-0.26338658
84	0xbba93722	-0.005164043
85	0x3e0e8f51	0.13921858
86	0x3d3c7d91	0.046018187
87	0xbd764c9c	-0.060131654
88	0x3e1d3cac	0.15355176
89	0x3dd6500a	0.10464485
90	0xbd804cc9	-0.062646456
91	0xbce81171	-0.02832863
92	0x3e3a66ae	0.18203232
93	0x3d8087d1	0.06275905
94	0x3ebd2a0a	0.36946136
95	0x3bd1ad71	0.0063988497
96	0xbd1d24ea	-0.038365282
97	0xbd439634	-0.047750667
98	0x3f4652a6	0.7746986
99	0x3e2ac3ee	0.16676304
100	0xbea5bfdd	-0.32372943
101	0x3d518d68	0.051160246
102	0x3d79e518	0.061009496
103	0xbe998fb3	-0.29992446
104	0xbdae0d0b	-0.084985815
105	0x3d98bed2	0.07458271
106	0xbeb34512	-0.35013634
107	0xbe142cd2	-0.14470223
108	0xbe9d0ad1	-0.30672315
109	0xbf2ae152	-0.6675006
110	0x3e098f22	0.13433507
111	0x3e8371bd	0.25672713
112	0x3dda9201	0.10672379
113	0x3d5b98c0	0.05361247
114	0x3ec1cede	0.3785314
115	0xbf13ebe3	-0.5778181
116	0x3d712ca7	0.058880474
117	0x3e031277	0.12800013
118	0x3ba8e03a	0.005153683
119	0xbd9f5f24	-0.077818185
120	0xbd838ae3	-0.06422975
121	0x3e52f002	0.20599368
122	0xbd975b89	-0.07390506
123	0xbef3e652	-0.47636658
124	0xbda7d729	-0.081953354
125	0xbd9b100b	-0.07571419
126	0x3e599a02	0.21250156
127	0x3dda7d62	0.10668446
128	0xbd6a95ff	-0.057271954
129	0xbc5344a9	-0.012894788
130	0xbd83c96f	-0.06434905
131	0x3d104d19	0.035229776
132	0xbeccee28	-0.4002545
133	0xbea31ef9	-0.31859568
134	0x3d8827aa	0.0664819
135	0xbc832cd6	-0.01601259
136	0xbd1f65c9	-0.03891543
137	0xbe3c1c58	-0.18370187
138	0xbd66b1c6	-0.05632188
139	0x3c113704	0.008863214
140	0xbdf4c2fc	-0.11951253
141	0xbefc51c1	-0.49281123
142	0xbda99e1c	-0.0828211
143	0xbd0f41fc	-0.034975037
144	0xbd20fd8f	-0.039304312
145	0xbba438a0	-0.005011633
146	0xbdf0401b	-0.11730977
147	0xbdc7ff62	-0.09765507
148	0xbd4fa378	-0.050693005
149	0xbe2e399e	-0.17014167
150	0xbdc045f1	-0.0938834
151	0x3d7b94ec	0.06142132
152	0xbe1aa604	-0.15102392
153	0xbdb2541d	-0.087074496
154	0x3d0b140a	0.033954658
155	0xbc3901a7	-0.011291898
156	0xbe0771d7	-0.1322702
157	0xbe0cb5a9	-0.13741173
158	0xbd9c255f	-0.076243155
159	0x3d9f552c	0.07779917
160	0x3c86ab29	0.016439037
161	0x3ca6fc85	0.020384083
162	0x3ca7a610	0.020464927
163	0xbcea6fb3	-0.028617715
164	0xbd7247c0	-0.059150457
165	0xbc44fd99	-0.012023353
166	0x3d88e0cb	0.06683501
167	0x3d648a75	0.055796105
168	0xbdf0d00e	-0.11758433
169	0xbdb186b8	-0.08668274
170	0xbb8602fb	-0.004089711
171	0xbd10b152	-0.035325356
172	0xbd805bd3	-0.06267514
173	0xbe7c3c1b	-0.24632303
174	0xbe6f4cee	-0.2336919
175	0xbe6a17ec	-0.22860688
176	0xbe12fc5b	-0.14354078
177	0x3d96a9ac	0.07356581
178	0xbdea9896	-0.11454885
179	0x3d8cfbb0	0.06883943
180	0xbe18e525	-0.14931162
181	0x3d3d57a3	0.046226155
182	0x3cc76a77	0.024342759
183	0xbe429b6c	-0.19004601
184	0xbe1b5634	-0.15169603
185	0xbe91aced	-0.28452244
186	0xbe3f2322	-0.18665746
187	0xbd6a4244	-0.057192102
188	0xbe40c769	-0.18826069
189	0xbd896390	-0.06708443
190	0xbdfd8459	-0.12378759
191	0xbe4f27cb	-0.20230024

rotation_head.bias f4 [3]
0	0xbdbbac76	-0.09163754
1	0x3dc8ca3c	0.09804198
2	0xbd254c99	-0.040356252
