outputs/trained_models/placement_model_20250802_074416.pth (torch, 314287 bytes, 12 tensors)

layer1.weight f4 [128, 15]
0	0xbe8e29b0	-0.2776618
1	0xbc8d25cb	-0.017229935
2	0xbe180efa	-0.14849463
3	0x3e412b2d	0.18864127
4	0xbea4d42b	-0.3219312
5	0x3e2a02ff	0.16602705
6	0x3ddb62d4	0.10712209
7	0xbdf42194	-0.11920467
8	0xbee82943	-0.4534398
9	0xbdfb6a89	-0.12276179
10	0x3e1d575b	0.15365355
11	0x3ede6b60	0.43441296
12	0xbeeddb64	-0.46456444
13	0x3dac2429	0.084053345
14	0xbf82e0b5	-1.0224825
15	0xbee0dfc2	-0.43920714
16	0x3c5440ce	0.012954904
17	0xbe566c07	-0.20939647
18	0x3dd54d56	0.10415141
19	0xbe9f1cbd	-0.31076613
20	0xbde6ffc5	-0.11279253
21	0x3d987790	0.0744468
22	0x3e618e1d	0.22026868
23	0xbe899669	-0.26872566
24	0x3cd5f893	0.026119506
25	0x3dd13922	0.10215975
26	0x3e3a6a68	0.18204653
27	0xbe9c8fc9	-0.3057845
28	0xbe18e706	-0.14931878
29	0xbef3d9f7	-0.4762723
30	0xbeb50f3f	-0.35363194
31	0x3e427900	0.1899147
32	0xbd45c0c0	-0.048279524
33	0x3e840b54	0.25789893
34	0xbe2c6a55	-0.16837437
35	0x3e280f47	0.16412078
36	0xbe50059b	-0.20314638
37	0xbe928423	-0.28616437
38	0x3e1f627b	0.15564911
39	0x3df9735a	0.12180205
40	0x3d53c29f	0.051699277
41	0xbed3917e	-0.4132194
42	0xbf3a8ce6	-0.72871244
43	0x3e39cbd6	0.18144163
44	0xbd070335	-0.032962043
45	0x3e387aaa	0.18015543
46	0x3e563bf8	0.20921314
47	0xbe7eb0cc	-0.2487213
48	0xbd44b2f8	-0.04802224
49	0xbe526b63	-0.20548777
50	0x3e4973bb	0.19673054
51	0x3e0f75dd	0.14009805
52	0xbe3aa51e	-0.1822705
53	0xbdb6be3f	-0.08923005
54	0x3d82f06c	0.06393513
55	0xbc8d1e99	-0.017226504
56	0x3ec99946	0.3937475
57	0xbec528e9	-0.38507774
58	0x3dc479e6	0.09593563
59	0xbfa3962c	-1.2780204
60	0xbe4790ab	-0.1948878
61	0xbe2fefc8	-0.17181313
62	0x3ec7baa9	0.39009598
63	0xbe3119ee	-0.17295048
64	0xbdc830fe	-0.097749695
65	0xbe242537	-0.16029821
66	0xbe514350	-0.20435834
67	0x3e8f6729	0.28008392
68	0x3e512497	0.20424114
69	0xbdb1e0ce	-0.08685456
70	0xbdc4a904	-0.0960255
71	0x3d56faf2	0.052485414
72	0xbe953350	-0.2914071
73	0x3da13313	0.0787107
74	0xbd80ed33	-0.06295242
75	0x3ddd8232	0.108158484
76	0xbed5635a	-0.41677362
77	0xbd2afba6	-0.041743897
78	0xbd744ef9	-0.059645627
79	0x3e540b62	0.20707467
80	0x3ded0016	0.11572282
81	0x3e428f0a	0.18999878
82	0xbe8b64df	-0.27225396
83	0xbe5d2cac	-0.21599072
84	0x3e712dcf	0.23552631
85	0x3d6bed95	0.057599623
86	0xbdda8ac3	-0.10670998
87	0x3b9e2400	0.004826069
88	0xbe710ff1	-0.23541237
89	0xbee31b3b	-0.44356713
90	0xbdadf4c4	-0.08493951
91	0x3e8e1070	0.27746916
92	0xbdb8fdbb	-0.0903277
93	0x3ce649ac	0.028111301
94	0x3e619c27	0.22032224
95	0xbd7d9bba	-0.06191609
96	0xbed86752	-0.42266327
97	0xbda37448	-0.07981163
98	0xbd5189ff	-0.051156994
99	0xbe435305	-0.19074638
100	0x3e96a55b	0.2942303
101	0xbe215ddf	-0.15758465
102	0xbef5fa38	-0.48042464
103	0x3e151575	0.14558966
104	0x3d5065ed	0.050878454
105	0x3e51c29c	0.20484394
106	0xbe1d323a	-0.15351191
107	0x3d307cad	0.04308765
108	0x3d5be21d	0.053682435
109	0xbd98ee16	-0.07467286
110	0xbdd839cc	-0.10557899
111	0xbe3f6aae	-0.18693039
112	0x3e604bd5	0.21903928
113	0x3df54bce	0.11977349
114	0x3d4e830b	0.05041794
115	0xbcc7517f	-0.024330853
116	0xbce925d8	-0.028460428
117	0x3f1dfb67	0.61711735
118	0xbefc3dde	-0.4926595
119	0xbeb6b2e0	-0.35683346
120	0xbe1d3327	-0.15351544
121	0x3d97b875	0.07408229
122	0xbd228db4	-0.03968592
123	0x3d6d6477	0.05795714
124	0xbeacab4e	-0.33724445
125	0xbe8bc72e	-0.273004
126	0xbe1892e5	-0.14899786
127	0x3e90c759	0.2827709
128	0xbea4207a	-0.32056028
129	0x3e034a07	0.12821208
130	0x3e2b723e	0.16742799
131	0xbee73144	-0.45154774
132	0xbe5e2c65	-0.21696623
133	0x3ed61def	0.41819713
134	0xbdce6a9d	-0.100789286
135	0xbe356708	-0.17715085
136	0x3dc955a9	0.098307915
137	0xbc4cd84e	-0.012502743
138	0x3bc791c3	0.006090374
139	0xbd32def3	-0.043669652
140	0xbdbd9535	-0.092569746
141	0xbdfe851b	-0.124277316
142	0xbeaf2ed3	-0.34215412
143	0x3e446d99	0.19182433
144	0xbda01a4d	-0.078175165
145	0x3cd99ffa	0.02656554
146	0xbea5a3d8	-0.32351565
147	0x3f070a68	0.52750254
148	0xbe043b17	-0.12913166
149	0x3f1e9c53	0.6195728
150	0xbec51d1b	-0.38498768
151	0x3d74b4d1	0.059742752
152	0x3c7c8d8a	0.015414605
153	0x3d8dc3ba	0.069220975
154	0x3d81f0be	0.06344746
155	0x3ddf5cc8	0.109063685
156	0x3dbaeb83	0.091269515
157	0x3b4a38b2	0.0030856547
158	0x3e4360ca	0.19079891
159	0x3dc405a7	0.095713906
160	0xbe3a95d2	-0.18221214
161	0xbf2226cf	-0.6334047
162	0xbe557a1f	-0.20847367
163	0xbec1d035	-0.37854162
164	0xbdfa1c18	-0.1221239
165	0x3e662052	0.22473267
166	0x3e0d009c	0.13769764
167	0xbe98d849	-0.29852512
168	0xbe91e9d9	-0.28498724
169	0x3d13eb26	0.036112927
170	0xbd456b98	-0.048198313
171	0xbd81d974	-0.06340304
172	0x3d74af77	0.05973765
173	0xbe05d5e7	-0.13069879
174	0x3dfe7ae6	0.12425785
175	0x3e259ff0	0.16174293
176	0xbe18ec39	-0.14933862
177	0xbe05dab7	-0.13071714
178	0x3ea229ef	0.31672618
179	0xbf455984	-0.77089715
180	0x3e432a0d	0.1905901
181	0xbdf7fe3a	-0.12109037
182	0xbe98a322	-0.2981196
183	0x3e4e32bc	0.20136541
184	0xbdfdab77	-0.1238622
185	0x3dad292a	0.08455117
186	0xbbf5c8f3	-0.0075007617
187	0xbbf9182f	-0.00760176
188	0xbdcabd81	-0.09899426
189	0xbe52d927	-0.2059065
190	0x3cd873ed	0.026422465
191	0x3f2680fd	0.6504057
192	0xbe48830b	-0.19581239
193	0x3f007a00	0.5018616
194	0xbeba5355	-0.36391702
195	0x3db8de67	0.09026795
196	0xbf0e3cf1	-0.5556174
197	0xbeba165a	-0.36345178
198	0xbd9ba0ec	-0.07599053
199	0x3ca993b9	0.020700322
200	0xbeacac14	-0.33725035
201	0x3e0b1672	0.13582781
202	0x3dd95545	0.10611967
203	0xbc15cd9a	-0.0091432575
204	0xbee9844c	-0.45608747
205	0xbea13545	-0.31485954
206	0xbcfa3bde	-0.030546125
207	0xbe80d38f	-0.25161406
208	0x3e45ba2b	0.19309299
209	0xbdeff097	-0.11715811
210	0xbeeafdfb	-0.45896897
211	0xba788ef5	-0.00094817515
212	0xbd11c4c1	-0.03558803
213	0x3e0cd174	0.13751775
214	0x3d4d5429	0.05012909
215	0x3d7024d5	0.058628876
216	0x3b092b84	0.0020930478
217	0x3c907313	0.017632997
218	0xbe1f3ed9	-0.15551318
219	0xbdaa477a	-0.08314414
220	0x3e1fc3fd	0.15602107
221	0xbeb068a7	-0.34454843
222	0x3e754a23	0.23954062
223	0x3dd0d393	0.101966046
224	0xbe85ac80	-0.2610817
225	0xbede0e7a	-0.4337042
226	0xbea25e71	-0.31712678
227	0xbd1eaf21	-0.038741235
228	0xbe299b8a	-0.1656324
229	0xbe4a8c2e	-0.19780037
230	0x3e00648b	0.12538354
231	0x3e8f322c	0.27967966
232	0xbe7250c9	-0.2366363
233	0x3da2f6b8	0.07957214
234	0xbdd26ec8	-0.10275036
235	0x3ddb8f72	0.107207194
236	0x3eb7fe9d	0.35936442
237	0xbe721c76	-0.2364367
238	0x3eaa5a0f	0.33271834
239	0x3ddaf4e2	0.10691239
240	0x3e7d1458	0.24714792
241	0x3dfaa3bb	0.1223826
242	0x3e8e4080	0.27783585
243	0xbdf51496	-0.11966817
244	0x3d0b72c2	0.03404499
245	0xbe10541c	-0.14094585
246	0xbd09d161	-0.033646945
247	0xbede4050	-0.43408442
248	0xbe56fa98	-0.20994031
249	0x3dd1fca5	0.10253266
250	0xbd752cbd	-0.05985712
251	0x3d56faa8	0.05248514
252	0xbeb45b83	-0.35226068
253	0x3ee70e2b	0.45127997
254	0xbe130396	-0.14356837
255	0x3e9f4a98	0.31111598

layer1.bias f4 [128]
0	0xbbcf6a9b	-0.006329847
1	0xbdc3bc69	-0.09557421
2	0xbe8e41be	-0.27784532
3	0xbf0569b7	-0.52114433
4	0xbec32f74	-0.3812214
5	0xbeb54f93	-0.35412273
6	0xbe9f819a	-0.31153566
7	0x3dec7fc1	0.115478046
8	0xbe0d09cc	-0.13773268
9	0x3e9da63c	0.3079089
10	0xbf0afb1e	-0.54289424
11	0x3e4f55b1	0.20247532
12	0x3e076b36	0.13224491
13	0x3c1dafd2	0.009624438
14	0x3d08336a	0.033252157
15	0x3dffded6	0.124936745
16	0xbdc898b8	-0.09794754
17	0xbe8d7018	-0.27624583
18	0xbe40a8a5	-0.18814333
19	0xbe49a25d	-0.19690843
20	0x3ec4c99f	0.38435075
21	0x3e25acc9	0.16179194
22	0xbe3c6985	-0.18399628
23	0xbe90aa7a	-0.28255063
24	0xbdad0f3c	-0.08450171
25	0x3e0f9755	0.14022572
26	0x3ea9629e	0.3308305
27	0xbe652017	-0.22375523
28	0xbe38a303	-0.18030934
29	0x3e33f0ae	0.17572281
30	0xbe81086a	-0.25201732
31	0xbbaace2a	-0.005212565
32	0xbdb30355	-0.0874087
33	0xbe43d0c5	-0.19122608
34	0xbe89ed15	-0.26938692
35	0xbe9942fa	-0.29933912
36	0xbdfb8700	-0.122816086
37	0xbeb4eb37	-0.35335705
38	0xbe304109	-0.17212309
39	0x3d3e3d41	0.046445135
40	0xbec111f4	-0.3770901
41	0xbf05fffb	-0.5234372
42	0xbd38615e	-0.04501473
43	0x3e239d0c	0.15977877
44	0x3e7a0321	0.24415256
45	0xbe84d43e	-0.25943178
46	0x3d343c06	0.044002555
47	0x3e09e578	0.13466442
48	0xbec392ce	-0.3819794
49	0x3d2a7377	0.041614022
50	0xbe62fda7	-0.22167073
51	0xbe119aa9	-0.14219154
52	0xbdbe4584	-0.09290603
53	0xbed969cb	-0.42463526
54	0xbe37cc31	-0.17948987
55	0xbe504012	-0.20336941
56	0xbde78bbf	-0.11305951
57	0x3e068550	0.13136792
58	0x3b777035	0.003775609
59	0xbe422b5f	-0.18961857
60	0xbe755ad8	-0.23960435
61	0xbec0a752	-0.37627655
62	0xbeda7475	-0.42666975
63	0x3e0655a0	0.13118601
64	0x3e1dd61b	0.15413706
65	0xbe1937fe	-0.14962766
66	0xbe9d7a52	-0.30757385
67	0x3e39db80	0.18150139
68	0x3e2e67eb	0.17031829
69	0xbec72b58	-0.38900256
70	0x3e16f13b	0.1474046
71	0xbe7bfb82	-0.24607661
72	0xbd3c9ab1	-0.046045963
73	0x3e8036a4	0.25041687
74	0xbd4fdc90	-0.050747454
75	0x3eb45f4e	0.35228962
76	0x3e4ae138	0.19812477
77	0xbdded3c4	-0.10880235
78	0xbe6ced96	-0.23137507
79	0xbe828d16	-0.25498265
80	0xbe45c330	-0.1931274
81	0xbd06d3fa	-0.032917
82	0x3e0dd6a0	0.13851404
83	0x3e8a8780	0.27056503
84	0xbd64ce45	-0.055860776
85	0xbea51de9	-0.32249382
86	0x3dfe5746	0.1241899
87	0x3e90f9a4	0.2831546
88	0xbe46bb85	-0.1940747
89	0xbdd1af4f	-0.102385156
90	0xbe890ba5	-0.26766697
91	0x3cdb1027	0.0267411
92	0xbccf193d	-0.02528059
93	0x3e5a4201	0.21314241
94	0x3e03d53f	0.12874316
95	0xbec76a95	-0.38948503
96	0xbdacf005	-0.084442176
97	0xbda0f08e	-0.07858382
98	0xbe998c31	-0.2998977
99	0xbe692799	-0.22769012
100	0xbeeeaf82	-0.46618277
101	0x3d5af647	0.053457525
102	0xbe368b2b	-0.17826526
103	0x3e47a1bc	0.1949529
104	0xbbb853d8	-0.0056252293
105	0xbe9f6498	-0.31131434
106	0x3e180b3f	0.1484804
107	0xbda3a2e5	-0.07990054
108	0x3e4d65f7	0.20058428
109	0x3e3ddf61	0.18542244
110	0x3e1addd4	0.15123683
111	0xbdc70526	-0.09717779
112	0xbe0da22b	-0.13831393
113	0xbe8ce9e7	-0.27522203
114	0x3e0fac3d	0.14030547
115	0xbeacc160	-0.33741283
116	0xbdef176a	-0.11674388
117	0xbe33ae72	-0.17547014
118	0xbebd53ba	-0.3697794
119	0xbc4c1b0c	-0.01245762
120	0x3e34113e	0.17584702
121	0xbe87ed0b	-0.26548037
122	0x3e50ace0	0.20378447
123	0xbee44651	-0.44584897
124	0xbe866b5e	-0.2625379
125	0x3bf7c621	0.0075614606
126	0xbd969cf9	-0.07354159
127	0xbee70cda	-0.45126992

layer2.weight f4 [256, 128]
0	0xbc6bb116	-0.014385482
1	0x3d74b729	0.059744988
2	0x3dd967f2	0.10615529
3	0x3d8f7e66	0.070065305
4	0xbcdae5c4	-0.026720889
5	0xbdcfeceb	-0.101526104
6	0x3d8b7b03	0.06810572
7	0xbde1b7ec	-0.110214084
8	0xbd5da1ac	-0.05410926
9	0x3dfbfe70	0.123043895
10	0x3d6a037f	0.05713224
11	0x3d214669	0.03937379
12	0x3d22065b	0.039556842
13	0xbd90fe3d	-0.07079742
14	0x3cb45962	0.022015277
15	0xbbb3896f	-0.00547903
16	0xbe2faef7	-0.17156588
17	0x3d5abae1	0.053400878
18	0xbda800af	-0.082032554
19	0xbe2e4dcf	-0.17021869
20	0x3e84abd8	0.25912356
21	0xbd72aaa0	-0.059244752
22	0x3d41914d	0.04725771
23	0x3d08643f	0.033298727
24	0xbe18f51b	-0.1493725
25	0xbe85699d	-0.2605714
26	0xbdf0584a	-0.1173559
27	0xbb8dfcbc	-0.004333107
28	0xbc1302a5	-0.0089727985
29	0x3b1b6af5	0.0023714874
30	0xbdf49cb2	-0.1194395
31	0xbe1606f5	-0.14651091
32	0x3ce5cc55	0.028051535
33	0xbcf0e8ab	-0.02940782
34	0x3c4bbdc2	0.0124353785
35	0xbe3d2914	-0.18472701
36	0xbcf2d344	-0.029641755
37	0x3c1d0110	0.009582773
38	0xbc16b9a1	-0.009199531
39	0xbced575d	-0.028972322
40	0x3cbb2d27	0.022848679
41	0xbdc44f4f	-0.095854394
42	0x3d5b40a3	0.05352844
43	0xbd8ee3ec	-0.069770664
44	0xbdf4fe0c	-0.11962518
45	0xbd5c5da6	-0.053800248
46	0x3c966c8f	0.018362312
47	0x3dc2096d	0.09474454
48	0xbdaaecbc	-0.08345935
49	0x3e2261e2	0.15857652
50	0x3d363a64	0.04448928
51	0xbd5894b0	-0.052876174
52	0x3daa498b	0.083148085
53	0x3db2deb4	0.087338835
54	0xbb74bc7c	-0.003734379
55	0xbe164aae	-0.14676926
56	0xbe500230	-0.20313334
57	0xbbb7bc89	-0.005607192
58	0xbd25f0f6	-0.040513
59	0xbcb47dfe	-0.022032734
60	0xbce0b664	-0.02743072
61	0x3c1414e3	0.009038183
62	0xbdcdbd02	-0.10045816
63	0x3b2b8931	0.0026174302
64	0x3d812d47	0.06307464
65	0x3e075ade	0.13218257
66	0x3e18d573	0.14925174
67	0xbda5465e	-0.08070062
68	0x3d09de16	0.033659063
69	0x3d48ec0e	0.049053244
70	0x3dd58fef	0.10427844
71	0x3c9aeada	0.018910814
72	0xbdcb2b41	-0.099203594
73	0xbd992c94	-0.07479206
74	0xbc14819b	-0.0090641035
75	0xbeaba8e6	-0.33527297
76	0xbe279f27	-0.16369306
77	0x3da1751c	0.07883665
78	0xbe7b062c	-0.24514073
79	0xbdd09f9b	-0.10186692
80	0x3d81974a	0.06327684
81	0x3e1e7a2b	0.15476291
82	0x3d021f49	0.031768117
83	0x3decafbf	0.115569584
84	0xbcea6763	-0.028613752
85	0x3d48c57e	0.04901647
86	0x3ce312e9	0.027718978
87	0x3ad1a95b	0.0015995906
88	0xbd850c2a	-0.06496461
89	0x3e7d6ea6	0.2474924
90	0xbdb79739	-0.0896439
91	0x3dd6eed1	0.10494769
92	0xbde697e0	-0.112594366
93	0xbe164c02	-0.14677432
94	0x3cb71cb2	0.02235255
95	0xbdec19bd	-0.11528347
96	0xbe402cfe	-0.18767163
97	0x3ca91ef7	0.020644648
98	0x3dd6d16d	0.104891635
99	0x3c6f7dbe	0.014617382
100	0xbe829b54	-0.2550913
101	0x3dc32b68	0.095297635
102	0x3db3dac0	0.087819576
103	0xbd220a08	-0.039560348
104	0xbe1bc7f7	-0.15213
105	0x3d02edf9	0.03196523
106	0x3c7f06d4	0.015565593
107	0x3e46e25a	0.19422284
108	0x3dcd34df	0.1001985
109	0xbeac7ca9	-0.33688858
110	0xbe87e104	-0.2653886
111	0xbd0ec127	-0.034852173
112	0x3d60b6ee	0.054861955
113	0x3dccbbed	0.099967815
114	0xbc7ed03f	-0.015552579
115	0xbe99042b	-0.29885992
116	0xbe21e509	-0.15810026
117	0xbc8bf63a	-0.017085183
118	0xbdc0a7fe	-0.09407042
119	0xbcebd89a	-0.028789807
120	0x3d7fd57a	0.062459446
121	0xbd7a9b86	-0.061183475
122	0xbdc0abb8	-0.09407753
123	0xbcead7eb	-0.02866741
124	0x3d0bce7f	0.034132477
125	0xbc58df05	-0.013236766
126	0xbdadc9d4	-0.08485761
127	0xbbb3ac65	-0.0054831975
128	0x3de0a14c	0.10968265
129	0xbd5971ac	-0.05308692
130	0x3ba69704	0.0050839204
131	0xbe0c4867	-0.13699494
132	0x3b9dd00f	0.0048160623
133	0xbe211dcc	-0.15734023
134	0x3e3fac58	0.18718088
135	0xbb81fb43	-0.0039667203
136	0xbdf3f215	-0.11911408
137	0x3c940cdd	0.01807254
138	0x3c930a34	0.017949201
139	0xbdd8b715	-0.10581795
140	0xba578d62	-0.0008222667
141	0xbd71be53	-0.059019398
142	0x3daef29f	0.0854237
143	0x3d4329fe	0.04764747
144	0xbd0569cf	-0.03257161
145	0xbd643ea3	-0.055723798
146	0x3c3bf9a7	0.011473096
147	0xbcf97baa	-0.030454475
148	0xbe92e5e5	-0.2869102
149	0xbcb1f30b	-0.021722337
150	0xbe85d1b7	-0.26136562
151	0x3d8a4da8	0.06753093
152	0x3c9bd237	0.019021137
153	0xbc1d1fbe	-0.009590087
154	0x3d745509	0.05965141
155	0xbd036994	-0.03208311
156	0xbd903c72	-0.07042779
157	0x3daccf1c	0.084379405
158	0xbcb80e85	-0.022467861
159	0x3dfc237f	0.12311458
160	0x3cfb5233	0.030678844
161	0x3db0ec5a	0.086388305
162	0xbb8ee922	-0.0043612877
163	0xbd25acca	-0.040447988
164	0xbe077bf2	-0.13230875
165	0xbc2e861b	-0.01065209
166	0x3d8559b8	0.06511253
167	0x3cda32e0	0.026635587
168	0x3d939ead	0.072079994
169	0xbe239e41	-0.15978338
170	0xbc61b822	-0.013776811
171	0x3d435150	0.047684968
172	0x3dd44bc4	0.10366014
173	0x3cd125a2	0.02553064
174	0xbe703bd1	-0.23460318
175	0x3dba2a53	0.09090104
176	0xbda1d538	-0.079019964
177	0x3d1efeea	0.038817324
178	0x3d2515c5	0.040303964
179	0x3d9fc845	0.0780187
180	0x3d24b2b1	0.040209476
181	0xbd7a6f62	-0.06114138
182	0xbe3f4c7b	-0.18681519
183	0xbd6d5965	-0.05794658
184	0xbbb641d8	-0.0055620484
185	0xbced1a80	-0.0289433
186	0xbac6abb2	-0.001515737
187	0xbe56804f	-0.20947383
188	0xbe9b4ea5	-0.3033344
189	0xbe488bcc	-0.19584578
190	0xbb877dab	-0.004134854
191	0x3ddbe1d4	0.10736433
192	0xbdba21de	-0.09088491
193	0xbe4a8e3f	-0.19780825
194	0x3bd854ee	0.0066019213
195	0x3d8bad36	0.06820147
196	0x3d6d456e	0.05792754
197	0x3ce5b65b	0.028041055
198	0xbd68e176	-0.05685564
199	0x3b9a95d0	0.004717566
200	0x3d23874e	0.03992396
201	0xbd9a0367	-0.0752018
202	0xbc6c5746	-0.0144251045
203	0x3e1e149a	0.15437546
204	0x3b1a82b9	0.0023576452
205	0xbd040729	-0.03223339
206	0xbc9e360c	-0.019312881
207	0x3d951be3	0.072807096
208	0xbe223bfe	-0.15843198
209	0xbe5c2150	-0.21497083
210	0xbd77d7dd	-0.060508598
211	0xbe02663d	-0.12734313
212	0xbaa7d707	-0.0012805172
213	0x3c85b89a	0.016323376
214	0x3ca29ded	0.019850696
215	0x3dbb1650	0.09135115
216	0x3d2a4b6e	0.04157584
217	0xbcfb9363	-0.030709928
218	0xbc13c75b	-0.009019698
219	0xbe760646	-0.2402583
220	0xbe9152a1	-0.28383353
221	0x3d19ffc7	0.037597444
222	0xbdb82bb9	-0.089927144
223	0xbcc7f843	-0.024410373
224	0xbc850ef1	-0.016242476
225	0xbd53f92b	-0.051751297
226	0x3d9bd944	0.076097995
227	0xbe95cb0d	-0.29256478
228	0xbe0b8a6d	-0.13627024
229	0x3daae332	0.08344115
230	0xbe713cb0	-0.23558307
231	0x3dfa6e62	0.12228085
232	0xbe47b167	-0.19501267
233	0x3d947cb3	0.07250347
234	0xbd8272e9	-0.063695736
235	0xbe48c270	-0.19605422
236	0xbe453bd2	-0.19261101
237	0x3b5b5d18	0.0033472236
238	0x3db76ae2	0.08955933
239	0xbdef0193	-0.11670222
240	0xbe6cc957	-0.2312368
241	0xbd5d8665	-0.054083247
242	0x3d41aaba	0.04728196
243	0x3d7bb962	0.06145609
244	0xbe2dcc49	-0.1697246
245	0xbdf4aee4	-0.1194742
246	0x3c394042	0.011306824
247	0x3d5e5d5f	0.054288264
248	0xbdae392b	-0.08506998
249	0xbb62408a	-0.0034523332
250	0xbe53bc96	-0.20677409
251	0x3a03f46e	0.0005033676
252	0xbcd5706d	-0.026054585
253	0xbd98633c	-0.074408025
254	0xbd27c657	-0.040960636
255	0xbdbf5fde	-0.09344457

layer2.bias f4 [256]
0	0xbdd6b193	-0.10483088
1	0xbc8a5edb	-0.016890934
2	0xbe2d0704	-0.16897207
3	0xbe6a761a	-0.22896615
4	0x3e17d2cf	0.14826511
5	0x3d717c37	0.05895635
6	0xbedca418	-0.43093944
7	0x3e407e1c	0.18798107
8	0x3dca9eb3	0.09893551
9	0xbe16653a	-0.14687052
10	0x3e0f3ac2	0.13987258
11	0x3e7460a9	0.23864998
12	0xbdeeb207	-0.1165505
13	0x3dde6a6e	0.108601436
14	0x3cd1e38c	0.025621198
15	0xbec6e24c	-0.38844526
16	0xbd867522	-0.0656531
17	0xbe968085	-0.29394928
18	0x3e2d8bfe	0.16947934
19	0x3e851c15	0.25997987
20	0x3d03e340	0.032199144
21	0x3d66b532	0.056325145
22	0x3e58a88c	0.21158046
23	0x3e44c8aa	0.19217172
24	0x3e48cc40	0.19609165
25	0x3df3b43d	0.11899612
26	0xbf04c3af	-0.5186109
27	0xbe2d691d	-0.16934629
28	0xbca9cfe6	-0.020729017
29	0x3dbd1bfd	0.09233854
30	0x3ca3df76	0.020004015
31	0x3e209457	0.15681587
32	0x3d6e4d88	0.05817941
33	0xbd0dfc00	-0.034664154
34	0xbdb56c3d	-0.088585354
35	0xbef02825	-0.46905628
36	0x3e3b049a	0.18263474
37	0xbf10ee9f	-0.56614107
38	0xbe37ddb0	-0.17955661
39	0xbeab0b3b	-0.33407006
40	0xbee5eac4	-0.44905674
41	0x3e29ade4	0.1657024
42	0x3e02633b	0.12733166
43	0xbe5496ef	-0.20760702
44	0x3e3b94cc	0.1831848
45	0x3e20d71a	0.15707055
46	0xbdf002fa	-0.11719318
47	0x3d9336df	0.071882
48	0x39c38cab	0.00037298104
49	0x3e3b0365	0.18263014
50	0xbdc6468c	-0.096814245
51	0x3e143a93	0.1447547
52	0x3e83581a	0.25653154
53	0x3e088807	0.1333314
54	0xbda4ae10	-0.08041012
55	0xbdba8d8b	-0.091090284
56	0xbecfed78	-0.40610862
57	0x3ddbf97c	0.10740945
58	0xbe4db181	-0.20087244
59	0x3d2f70b8	0.042832106
60	0x3e28319c	0.16425174
61	0x3d255a69	0.040369425
62	0x3de585bc	0.112071484
63	0xbe5c245f	-0.2149825
64	0xba2ae363	-0.00065188686
65	0x3dfdca1b	0.12392064
66	0x3de4630c	0.11151704
67	0x3e65ba7e	0.22434422
68	0xbda9609d	-0.08270381
69	0x3e3b6bcc	0.1830284
70	0x3e4fcb87	0.20292483
71	0xbda3f797	-0.080062084
72	0x3d0640dc	0.0327767
73	0x3d960c39	0.0732655
74	0x3daae03a	0.08343549
75	0xbe8659da	-0.26240426
76	0x3cfd7cc7	0.030943288
77	0x3d6a5228	0.057207257
78	0x3dd06ccf	0.101770036
79	0xbe1835e1	-0.14864303
80	0x3c3424b0	0.010995075
81	0xbdecb4ec	-0.115579456
82	0x3dc35acf	0.09538805
83	0x3d470908	0.048592597
84	0x3dc9aac3	0.09847023
85	0x3d025c80	0.031826496
86	0x3e42bec4	0.19018084
87	0xbdbdef73	-0.09274187
88	0xbef801dc	-0.4843892
89	0xbe18441c	-0.14869732
90	0x3e3e4426	0.18580684
91	0x3ca01dfc	0.019545548
92	0x3e4cf937	0.20016943
93	0x3e811258	0.25209308
94	0x3dbe54fe	0.09293555
95	0xbe2ea65a	-0.17055646
96	0x3dadee67	0.08492737
97	0x3d83dbab	0.06438383
98	0xba4d000e	-0.00078201375
99	0xbe84437b	-0.25832734
100	0xbe8cf34b	-0.27529368
101	0xbe1494e9	-0.1450993
102	0xbe76057c	-0.2402553
103	0xba859466	-0.0010191321
104	0x3e00ca5b	0.12577192
105	0xbdf30c0f	-0.11867534
106	0x3e5cc612	0.21559933
107	0xbf07bba5	-0.530207
108	0xbe9018af	-0.28143832
109	0xbd1591cc	-0.036515996
110	0x3d614116	0.05499371
111	0x3d49d1e4	0.049272433
112	0x3e355225	0.17707117
113	0x3e507ec4	0.20360857
114	0x3d3f1e94	0.04666002
115	0xbc390c0b	-0.011294375
116	0xbc4f08e3	-0.012636396
117	0xbe71f1e9	-0.23627438
118	0xbceb8032	-0.028747652
119	0x3e37512d	0.1790206
120	0x3d464e76	0.04841467
121	0xbe147ad6	-0.14499983
122	0xbb38fb56	-0.002822598
123	0x3e24a77d	0.16079517
124	0xbd093acb	-0.033503335
125	0xbdce2700	-0.100660324
126	0x3cdca73f	0.026935218
127	0xbd38673a	-0.04502032
128	0x3e0d5591	0.13802172
129	0x3c2ba4d4	0.01047631
130	0xbb3ac03c	-0.0028495928
131	0x3ddbee8e	0.1073886
132	0x3dffbb4a	0.124868944
133	0xbe7bdf87	-0.24596988
134	0xbd4e8303	-0.05041791
135	0xbdc7d5a7	-0.09757548
136	0x3e24ab1d	0.160809
137	0x3ea3eea3	0.32018003
138	0xbdc84e2c	-0.09780535
139	0x3db5e493	0.08881488
140	0x3d30d1e4	0.043168917
141	0x3e4c9ee4	0.19982487
142	0x3d93cdcb	0.07216986
143	0xbe23a85d	-0.15982194
144	0x3e2aa05c	0.16662735
145	0x3d610bd1	0.05494291
146	0x3df76f32	0.12081756
147	0x3d402523	0.046910416
148	0xbd02056a	-0.031743445
149	0xbec26edd	-0.37975207
150	0xbece1f1a	-0.40258104
151	0x3e195959	0.1497549
152	0xbe564c74	-0.20927602
153	0x3dfd5e13	0.12371459
154	0x3df02b19	0.1172697
155	0x3a4d3ae4	0.0007828905
156	0x3d1af619	0.037832353
157	0x3c912480	0.0177176
158	0x3ce3f1ca	0.027825255
159	0xbdd1057a	-0.10206123
160	0x3e262cb4	0.1622799
161	0xbe99b858	-0.30023456
162	0xbe244abb	-0.16044132
163	0x3e25d3db	0.16194098
164	0x3d4672f5	0.048449475
165	0xbe0557f2	-0.1302183
166	0x3e45b96a	0.19309011
167	0x3e2759fd	0.16342922
168	0x3e4441ec	0.19165772
169	0x3e05370c	0.1300928
170	0xbe698821	-0.22805835
171	0x3de81a40	0.11333132
172	0xbde6dc89	-0.112725325
173	0x3e7d630a	0.24744812
174	0x3e8f633f	0.28005406
175	0x3e7451d9	0.23859347
176	0x3e608eb3	0.21929435
177	0x3e254624	0.16140038
178	0x3e85842b	0.260774
179	0x3e695dfc	0.22789758
180	0xbe71e659	-0.23623027
181	0x3da31397	0.07962721
182	0xbe7ce5d6	-0.2469705
183	0x3d06f4e7	0.0329484
184	0x3e8e609b	0.2780808
185	0x3dcaf5fc	0.09910199
186	0x3e308f29	0.17242111
187	0x3dc87a98	0.09789008
188	0xbe3c7413	-0.18403654
189	0x3dbff1d8	0.093723
190	0x3e64a3ad	0.22328062
191	0xbe335e0a	-0.17516342
192	0x3dea9c4b	0.11455592
193	0x3dd2a0de	0.10284589
194	0xbe134380	-0.14381218
195	0x3e390026	0.18066463
196	0xbd340519	-0.043950174
197	0xbd7dd250	-0.061968148
198	0x3df964e2	0.12177445
199	0x3cb2187b	0.021740189
200	0x3d445c5f	0.047939654
201	0x3e15e615	0.1463855
202	0x3e3684cb	0.17824094
203	0x3e634eee	0.22198078
204	0xbeaebf3b	-0.34130272
205	0x3e23ed02	0.1600838
206	0xbeb0009b	-0.34375462
207	0xbd8582e6	-0.065191075
208	0x3e16711b	0.14691584
209	0xbebad8c5	-0.36493507
210	0xbe62beb5	-0.22143061
211	0x3db81d4d	0.08989964
212	0xbe8338ed	-0.25629368
213	0x3deb3479	0.11484618
214	0xbda552db	-0.08072444
215	0x3d9468a1	0.07246519
216	0x3e2368dc	0.1595797
217	0xbedfe3bb	-0.43728432
218	0x3d8fffc9	0.07031209
219	0x3d56c9de	0.05243861
220	0x3df4733c	0.11936042
221	0x3e653235	0.22382434
222	0x3df6e575	0.12055484
223	0x3b6ff9f2	0.0036617485
224	0xbcf304bc	-0.029665343
225	0xbcc3b839	-0.023891555
226	0x3e2f45ec	0.17116517
227	0xbe5c4291	-0.21509768
228	0xbe5a99e0	-0.21347761
229	0xbdf6a4ff	-0.12043189
230	0x3e985378	0.29751182
231	0x3e0e9ddd	0.13927408
232	0x3df05bf0	0.11736286
233	0xbc5c11bf	-0.013431965
234	0x3e75f71c	0.24020046
235	0x3cc045b7	0.023470743
236	0x3e55c39f	0.20875405
237	0x3e4f8f07	0.20269404
238	0x3d1f6f1c	0.03892432
239	0xbd93a034	-0.07208291
240	0x3d3907ec	0.04517357
241	0xbdca3782	-0.098738685
242	0xbe431f95	-0.19055016
243	0xbebe67c7	-0.3718855
244	0x3e8d4f7f	0.27599713
245	0x3d87c405	0.06629185
246	0x3e63e98b	0.22257058
247	0xbebb75f7	-0.36613438
248	0x3e6e8659	0.23293437
249	0xbc289978	-0.010290496
250	0x3d9d929d	0.0769398
251	0x3de2e50b	0.11078843
252	0xbea8c8c7	-0.3296568
253	0xbe4d7fe5	-0.20068319
254	0x3e011919	0.1260723
255	0x3e935a67	0.2877991

layer3.weight f4 [128, 256]
0	0xbda655cb	-0.081218325
1	0xbd14b4c3	-0.0363052
2	0x39d4ebcd	0.00040611476
3	0xbd8dabc9	-0.06917531
4	0xbd1dbc09	-0.038509402
5	0x3d4baeae	0.049727134
6	0xbd8efb25	-0.06981496
7	0xbdb5e3e3	-0.088813566
8	0xbdab48ed	-0.08363519
9	0xbcdbf790	-0.026851445
10	0x3dbc9eab	0.09209951
11	0xbd99685d	-0.07490609
12	0xbc02c247	-0.00798089
13	0x3d44c20d	0.048036624
14	0x3cfde560	0.030993164
15	0xbca2be8f	-0.019866256
16	0x3e451d94	0.19249564
17	0x3d7f685f	0.062355395
18	0x3d2810c8	0.04103163
19	0x3dd883e7	0.105720334
20	0x3c918ab3	0.017766332
21	0xbcfd2d20	-0.030905306
22	0x3e2680fc	0.16260141
23	0x3df0b459	0.117531486
24	0xbd382b83	-0.04496337
25	0x3cfca0b1	0.030838342
26	0xbd82424b	-0.06360301
27	0x3d5c4ea5	0.05378594
28	0x3cff1e23	0.0311423
29	0xbc676a77	-0.014124504
30	0x3dde34f2	0.10849942
31	0x3dbab4c0	0.091165066
32	0xbdb0454d	-0.08606968
33	0x3c46e1b4	0.012138773
34	0x3c961923	0.018322533
35	0xbe14bd12	-0.1452525
36	0x3e025eac	0.12731427
37	0xbdd1ab43	-0.10237744
38	0xbd817bf0	-0.06322467
39	0xbced75ef	-0.0289869
40	0xbdcad051	-0.099030145
41	0xbcb2ebd3	-0.021840965
42	0xbca20764	-0.019778915
43	0xbe894e0d	-0.2681736
44	0x3dd60bd9	0.104514785
45	0xbdee52ec	-0.1163691
46	0x3c902216	0.017594378
47	0x3d888cfa	0.06667514
48	0x3a9c96c3	0.0011946786
49	0xbd255473	-0.04036374
50	0x3c7a7c46	0.015288418
51	0x3d20beba	0.03924439
52	0x3a9eea85	0.0012124336
53	0x3dcb1462	0.09915997
54	0x3cc40fee	0.023933377
55	0x3ca27cdc	0.019834928
56	0x3d27ff1c	0.041014776
57	0xbd3a8e88	-0.045546085
58	0xbd4beb7f	-0.049785133
59	0xbdb03398	-0.08603591
60	0x3dc1b794	0.09458843
61	0x3da15a5b	0.07878562
62	0x3daa7548	0.08323151
63	0xbd05a7db	-0.032630783
64	0x3c833d97	0.01602058
65	0xbced2253	-0.028947031
66	0xb9da22de	-0.00041606178
67	0x3b8396c6	0.0040157763
68	0xbe6a9cad	-0.2291133
69	0x3d829973	0.06376924
70	0x3ce040a5	0.027374575
71	0xbbd258a6	-0.006419259
72	0x3d387057	0.04502901
73	0xbcf24ed8	-0.029578611
74	0x3de1e95a	0.110308364
75	0xbe5fe407	-0.2186433
76	0xbc3d139e	-0.011540322
77	0x3bab2ee1	0.0052240943
78	0x3d6536ab	0.05596034
79	0xbdd061a4	-0.101748735
80	0x3c919256	0.017769974
81	0x3cd86f12	0.02642015
82	0x3d41133e	0.04713749
83	0x3df61970	0.120165706
84	0xbd6ed362	-0.05830706
85	0x3e0fdfc1	0.14050199
86	0x3d6c8372	0.057742544
87	0x3cb90457	0.022585077
88	0xbe41c0ae	-0.18921158
89	0xbe1ca158	-0.15295923
90	0x3dc21797	0.09477156
91	0xbd2c3ed9	-0.042052124
92	0x3de26550	0.1105448
93	0x3da5c4a6	0.08094148
94	0xbc49fc14	-0.0123281665
95	0xbcbcd61c	-0.023051314
96	0xbdb06008	-0.086120665
97	0x3d4faf8e	0.05070453
98	0xbd6099c1	-0.05483413
99	0xbcf05efb	-0.029342165
100	0xbd6cbecd	-0.05779915
101	0xbcdf06e8	-0.027224973
102	0xbd744e22	-0.059644826
103	0x3d8b0311	0.06787694
104	0x3c901eae	0.017592754
105	0xbe1c4dd9	-0.15264072
106	0x3e21efb8	0.15814102
107	0xbe3cf3ea	-0.18452421
108	0xbde135ea	-0.109966114
109	0xbda85ebb	-0.082211934
110	0xbe2df4bb	-0.16987889
111	0xbe34ea91	-0.17667605
112	0xbd2ed8a4	-0.042687073
113	0x3dd63271	0.1045884
114	0x3d23408e	0.039856486
115	0xbe237df4	-0.15966016
116	0x3e1626b8	0.14663208
117	0xbddf7c9f	-0.109124415
118	0xbd48476d	-0.048896242
119	0x3e886d9d	0.26646128
120	0x3c0c63fc	0.00856876
121	0x3d3362c0	0.043795347
122	0x3e18f38d	0.14936657
123	0xbd43e10d	-0.047822047
124	0xbc74409b	-0.014907981
125	0xbe3f02c0	-0.18653393
126	0xbc24d59e	-0.010060696
127	0x3d91348c	0.07090101
128	0x3d42b0a4	0.04753174
129	0x3e642f5e	0.22283694
130	0x3d02de62	0.031950362
131	0xbb9ac3ce	-0.004723049
132	0xbe1a6d29	-0.15080704
133	0xbcf54b49	-0.029943125
134	0x3e167934	0.14694673
135	0x3d2cf6b6	0.04222747
136	0xbdf0028c	-0.11719236
137	0x3dcaf4cb	0.09909972
138	0xbe39f818	-0.18161047
139	0x3cd09ca7	0.025465323
140	0xbd0e15c7	-0.034688737
141	0x3cefd597	0.029276652
142	0xbdd3133d	-0.10306404
143	0xbe200b82	-0.1562939
144	0xbdf677c0	-0.12034559
145	0x3c8a5736	0.016887289
146	0x3cb9778a	0.022640008
147	0xbbe5812b	-0.0070039234
148	0xbe59ceef	-0.21270345
149	0xbcfb6823	-0.030689305
150	0xbe09b2dc	-0.13447136
151	0xbd58f58a	-0.05296854
152	0xbe23ed80	-0.16008568
153	0x3e212984	0.15738493
154	0x3c55da2d	0.013052505
155	0x3d3d01fe	0.046144478
156	0x3d092206	0.033479713
157	0xbd817520	-0.06321168
158	0xbdde82ab	-0.10864767
159	0xbc4e3683	-0.012586239
160	0xbd9c064e	-0.0761839
161	0xbe0e1536	-0.13875279
162	0xbe17bc02	-0.14817813
163	0xbd37243f	-0.0447123
164	0x3e0fe69f	0.14052819
165	0xbc2aeeff	-0.010432958
166	0x3dd6d1e0	0.10489249
167	0xbc49553f	-0.012288391
168	0x3cc22253	0.023698008
169	0xbd73472f	-0.059394058
170	0xbdfebcd4	-0.1243836
171	0xbd1b6e9b	-0.03794728
172	0xbc018b71	-0.007906781
173	0x3e42080e	0.18948385
174	0x3de6003b	0.11230513
175	0x3e1455fc	0.14485925
176	0x3ddecef5	0.10879318
177	0x3e0ac8e4	0.13553196
178	0x3d3e3581	0.046437744
179	0xbdb4e859	-0.08833379
180	0xbdf261dd	-0.11835072
181	0x3cc1262e	0.023577776
182	0xbd2c0a3d	-0.04200195
183	0x3d7d3c7d	0.061825264
184	0x3dd881d9	0.105716415
185	0x3d847ea2	0.06469466
186	0x3d38b407	0.045093562
187	0x3d83cfa2	0.06436087
188	0x3d28d80f	0.041221675
189	0xbcd53ba6	-0.02602942
190	0xbe380ec1	-0.17974378
191	0x38846a41	6.314042e-05
192	0x3ccb4dee	0.024817433
193	0x3ce25b6b	0.027631482
194	0x3c65c2a4	0.014023457
195	0x3dc73cc6	0.097283885
196	0xbe09e372	-0.1346567
197	0x3dd2d4f9	0.102945276
198	0xbe0604fe	-0.13087842
199	0x3d32c7a3	0.04364742
200	0xbc43d8d1	-0.0119535485
201	0x3e58bbc8	0.21165383
202	0x3df278cc	0.118394464
203	0x3dffb006	0.12484746
204	0x3da1711c	0.07882902
205	0xbbf93c9a	-0.007606101
206	0xbe112644	-0.14174753
207	0xbd049fa1	-0.032378796
208	0x3cf63ca8	0.03005822
209	0xbb5c47e4	-0.0033612186
210	0xbc2b7619	-0.010465168
211	0xbdba23d0	-0.09088862
212	0xbdc17ec7	-0.09448009
213	0x3db14393	0.08655467
214	0xbdd1b0f8	-0.10238832
215	0x3e049cd9	0.12950458
216	0xbd11272e	-0.035437755
217	0x3ce5f116	0.02806906
218	0x3e0cb43b	0.13740627
219	0x3d7dbf7c	0.06195019
220	0x3d768d35	0.06019326
221	0xbd20d09f	-0.039261457
222	0x3e5805af	0.21095918
223	0x3d637153	0.055527996
224	0xbdcafb90	-0.09911263
225	0xbd1e9bea	-0.03872291
226	0xbdc613c5	-0.096717395
227	0x3d9e3fba	0.077269986
228	0xbd042fa2	-0.03227199
229	0x3c63321c	0.0138669275
230	0x3c6abd84	0.014327411
231	0x3e27c7c1	0.16384794
232	0x3d7e7643	0.062124502
233	0xbbc36485	-0.0059629106
234	0x3c87907b	0.016548386
235	0x3c1c9eee	0.009559376
236	0x3d99781d	0.07493613
237	0x3d888bbb	0.066672765
238	0x3d809de4	0.06280115
239	0x3b2728cb	0.0025506492
240	0xbd392810	-0.045204222
241	0xbe047be3	-0.12937884
242	0xb92b9ef9	-0.00016367053
243	0xbdb04147	-0.08606201
244	0x3e02fb14	0.12791091
245	0x3c59d038	0.013294272
246	0xbd61e11e	-0.05514633
247	0x3bcfef1f	0.006345644
248	0x3d404904	0.046944633
249	0xbcaaff6f	-0.020873753
250	0x3d3f6e51	0.046736065
251	0xbdf6355f	-0.120218985
252	0xbdab8562	-0.0837505
253	0xbcd14cf0	-0.025549382
254	0xbaa57ed4	-0.0012626299
255	0xbe767d99	-0.24071349

layer3.bias f4 [128]
0	0x3e012aee	0.12614033
1	0x3e7797a6	0.24178943
2	0x3deb35b6	0.11484854
3	0x3e815030	0.2525649
4	0x3dc3a37f	0.09552669
5	0xbe36a9f3	-0.17838268
6	0x3d126886	0.035744213
7	0x3e3c587a	0.18393126
8	0x3e0a3871	0.13498093
9	0x3b9027ad	0.004399261
10	0xbd1619d8	-0.03664574
11	0xbdd8d128	-0.105867684
12	0x3e21c14e	0.15796396
13	0xbd9377ea	-0.07200606
14	0x3e770cfc	0.24126047
15	0x3dac16d1	0.084027894
16	0xbd5268bd	-0.051369417
17	0x3d2d4038	0.042297572
18	0xbdb58465	-0.08863143
19	0xbc8378fa	-0.016048897
20	0x3dafaecb	0.08578261
21	0x3d9e31ca	0.0772434
22	0x3d5355e4	0.051595584
23	0x3cb9e9cd	0.022694493
24	0x3d29ebf9	0.041484807
25	0x3e75aea4	0.23992401
26	0xbafa3a63	-0.0019090887
27	0xbc705b71	-0.014670239
28	0x3e30549f	0.1721978
29	0x3e4c9e1c	0.19982189
30	0x3d3f02ba	0.04663346
31	0x3d572c7e	0.052532665
32	0x3c9a9659	0.01887052
33	0x3df82b7e	0.121176705
34	0x3cb8a958	0.022541687
35	0xbe845fcc	-0.25854337
36	0x3e088a7f	0.13334082
37	0x3d9fcd5a	0.078028396
38	0x3e015682	0.12630656
39	0x3e27b20b	0.16376512
40	0xbccae9fd	-0.024769777
41	0x3e297848	0.1654979
42	0xbc2ed7f9	-0.010671609
43	0xbd04ab6d	-0.032390047
44	0x3da98c49	0.082787104
45	0x3e1ae5eb	0.15126769
46	0x3e45b1f5	0.19306166
47	0x3e6bd3d9	0.23030032
48	0x3e401117	0.1875652
49	0x3ea0eb7d	0.31429663
50	0x3d9bed41	0.07613612
51	0x3d13cc7a	0.036083676
52	0x3df332be	0.11874913
53	0xbde5a122	-0.11212374
54	0xbd9843ab	-0.07434782
55	0x3d48da52	0.04903633
56	0x3dbbaf14	0.09164253
57	0x3d9630e7	0.07333546
58	0x3c99625e	0.018723663
59	0x3d9d3d51	0.07677711
60	0x3d8be220	0.06830239
61	0xbcdee04c	-0.027206562
62	0x3df0fff9	0.11767573
63	0x3dc6912c	0.09695658
64	0x3e7e3cc8	0.24827874
65	0x3e2536dc	0.16134208
66	0xbd3ab378	-0.04558131
67	0x3db5e9fc	0.088825196
68	0x3c8ab04b	0.016929766
69	0x3e4afa5b	0.19822066
70	0x3e3c49d6	0.18387541
71	0xbccc026f	-0.024903504
72	0xbebedf51	-0.37279752
73	0xbcea7d51	-0.028624209
74	0x3e3370a3	0.17523436
75	0xbd4aa123	-0.04947008
76	0x3dbf5a4b	0.09343394
77	0xbc6d2777	-0.014474741
78	0x3d843ca1	0.064568765
79	0x3d957ace	0.07298814
80	0x3e0885a2	0.13332227
81	0x3e26bad7	0.16282211
82	0x3e0fed23	0.14055304
83	0x3e23f1c4	0.16010195
84	0xbe07529e	-0.1321511
85	0x3dda888d	0.10670576
86	0x3cca47b6	0.024692398
87	0xbc9722dc	-0.01844924
88	0x3de34b2c	0.11098322
89	0xbe82db6a	-0.25558025
90	0x3dfe52c3	0.12418129
91	0x3d97d28f	0.07413208
92	0xbd518ff6	-0.051162682
93	0x3e1c5284	0.15265852
94	0x3dc32b9e	0.09529804
95	0x3e2f6e8b	0.17132013
96	0x3ddfdfaa	0.109313324
97	0x3e6850aa	0.22687021
98	0x3dd7c3e9	0.10535414
99	0x3d0e0cdd	0.034680236
100	0x3d974166	0.07385521
101	0x3da506d7	0.08057945
102	0x3da3e83c	0.080032796
103	0x3e5bf3b5	0.21479686
104	0xbd140f38	-0.036147326
105	0x3e843665	0.2582275
106	0x3c49e6d4	0.0123231
107	0x3b81a03c	0.003955869
108	0x3a74e172	0.00093414553
109	0x3c879ed4	0.016555227
110	0x3dda435f	0.10657381
111	0x3dc74cc8	0.09731442
112	0x3d0bc5a5	0.034124035
113	0x3dfb93c7	0.12284046
114	0x3deea67c	0.11652848
115	0x3dda1085	0.10647682
116	0x3ca12b89	0.01967408
117	0x3dfb134c	0.1225954
118	0xbbcff628	-0.006346483
119	0x3e1265dd	0.1429667
120	0x3da8497d	0.08217142
121	0xbc6d6e30	-0.014491603
122	0x3e14abec	0.14518708
123	0x3e1e8d0b	0.15483491
124	0xbcc2709a	-0.023735333
125	0xbe01457a	-0.1262416
126	0xbcb719b5	-0.022351125
127	0x3b66f0c3	0.003523872

layer4.weight f4 [64, 128]
0	0x3d69624d	0.056978513
1	0xbc186d2b	-0.009303371
2	0x3d69bfab	0.057067554
3	0x3c211130	0.009830758
4	0xbdcfed21	-0.101526506
5	0x3deaf5c5	0.11472658
6	0xbd508ce3	-0.05091561
7	0x3d2628af	0.040566143
8	0xbc4d4ca6	-0.012530481
9	0x3d18b739	0.03728411
10	0x3d3b1046	0.045669816
11	0xbb6a783f	-0.0035777239
12	0xbe2ddc58	-0.16978586
13	0x3c6dd6e9	0.014516571
14	0x3ccba45d	0.024858648
15	0x3ce8cc54	0.028417744
16	0xbd2770c0	-0.04087901
17	0x3d29131f	0.041278
18	0x3b02cdd2	0.0019959104
19	0x3db14fdb	0.08657809
20	0x3b919c49	0.0044436795
21	0x3c812adb	0.015767505
22	0xbd42190b	-0.047387164
23	0xbd603035	-0.054733474
24	0x3dbea884	0.093094856
25	0xbd01f659	-0.031729076
26	0xbdf07093	-0.11740222
27	0xbd13c79e	-0.03607904
28	0xbd94f6ab	-0.07273611
29	0xbd7c8e0d	-0.061658908
30	0xbd14cd91	-0.036328856
31	0x3d5d7184	0.054063335
32	0xbd4a3816	-0.049369894
33	0xbd61049e	-0.054936044
34	0x3dbf1e29	0.093319245
35	0xbe17c35a	-0.14820614
36	0xbc8062cc	-0.01567211
37	0xbdb7a2ca	-0.089665964
38	0x3ad6cfc1	0.001638882
39	0xbd56bd2f	-0.052426513
40	0xbcf3181d	-0.029674584
41	0xbcfd254e	-0.030901577
42	0xbca21b45	-0.019788394
43	0xbdefadc3	-0.11703064
44	0x3da17d9a	0.07885285
45	0xbdace548	-0.084421694
46	0x3dc003cc	0.09375724
47	0x3c38d53e	0.01128131
48	0xbe0e2989	-0.13883032
49	0x3d453bc8	0.048152715
50	0xb999e5a2	-0.00029353524
51	0x3d6ea882	0.05826617
52	0xbdeac8f1	-0.11464108
53	0xbe43734a	-0.19086948
54	0xbd80ec47	-0.06295066
55	0xbe100748	-0.14065278
56	0xbd9ad645	-0.075604
57	0xbdf1f5f2	-0.118144885
58	0x3d693995	0.05693968
59	0x3e03ca94	0.12870246
60	0x3e04b4bc	0.1295957
61	0xbdc5aff4	-0.09652701
62	0x3ddaaf1a	0.10677929
63	0xbd7bd8ea	-0.061486162
64	0xbd003c31	-0.031307403
65	0x3e1a8eac	0.15093488
66	0xbe0a505c	-0.13507217
67	0x3bc7471f	0.0060814763
68	0xbd0db6cf	-0.034598168
69	0x3d14422e	0.036195926
70	0xbcd75afd	-0.026288504
71	0xbde72513	-0.11286368
72	0xbdbbf52a	-0.09177621
73	0x3c0f0998	0.008730315
74	0xbe34a6ed	-0.17641802
75	0x3cc87a41	0.024472358
76	0x3d5dfdd0	0.054197133
77	0xbcb718cb	-0.02235069
78	0xbd89bca2	-0.06725432
79	0xbd75df2d	-0.06002729
80	0xbc870ffc	-0.016487114
81	0xbd10a1ec	-0.03531067
82	0x3dfc0699	0.12305946
83	0x3cdd5f61	0.02702302
84	0x3d5a7d05	0.053341884
85	0xbe37d3aa	-0.17951837
86	0xbd8aeda8	-0.067836106
87	0xbd25365f	-0.040335055
88	0xbc8191d5	-0.015816608
89	0x3da6ba94	0.08141056
90	0x3d152ae2	0.03641785
91	0x3ddf90f1	0.10916317
92	0x3d338d07	0.043835666
93	0x3d3642ee	0.044497423
94	0x3e61dc36	0.2205666
95	0x3af2d639	0.0018526978
96	0xbda93538	-0.08262104
97	0xbdb53387	-0.08847719
98	0xbd6f8559	-0.05847678
99	0x3d1923ed	0.037387777
100	0x3cde6442	0.027147416
101	0xbcec6496	-0.028856557
102	0xbc17cd52	-0.009265261
103	0x3d80c109	0.062868185
104	0xbd989005	-0.074493445
105	0xbc1fde76	-0.009757629
106	0xbc8e059c	-0.01733666
107	0xbe03d8a8	-0.12875617
108	0x3c1598b8	0.009130649
109	0x3d19f3da	0.03758607
110	0xbd89f306	-0.06735806
111	0x3e0e98c0	0.13925457
112	0xbcac6691	-0.021045001
113	0x3db71363	0.089392446
114	0xbd6bcd15	-0.05756863
115	0x3cbb8eb9	0.022895204
116	0xbe2d6e0c	-0.16936511
117	0x3cc33e4c	0.023833416
118	0x3c8fca44	0.017552502
119	0xbd6c6671	-0.057714883
120	0xbd9625e5	-0.073314466
121	0xbe19fa30	-0.15036845
122	0x3ca46792	0.020068917
123	0xbd289865	-0.04116096
124	0x3c967e85	0.018370876
125	0xbd1b580a	-0.037925757
126	0x3cb1c11f	0.021698533
127	0x3c99d9cd	0.018780613
128	0x3dab8669	0.08375246
129	0xbbb7cd47	-0.0056091878
130	0x3d74214d	0.05960207
131	0xbdcd839f	-0.1003487
132	0x3da562f5	0.08075515
133	0x3e150c84	0.14555556
134	0xbd61ca19	-0.055124376
135	0xbdbe7fb0	-0.09301698
136	0xbe6f6bd2	-0.23380974
137	0x3e1f3cdc	0.1555056
138	0x3d7aabc8	0.06119898
139	0x3dccf752	0.1000811
140	0x3e59e93b	0.21280377
141	0x3e66720b	0.22504441
142	0xbdd978f5	-0.10618774
143	0xbe0894a8	-0.13337958
144	0x3e3e6294	0.18592292
145	0x3ba5b375	0.0050567933
146	0xbd69b541	-0.057057623
147	0x3db12433	0.086494826
148	0xbdb395bc	-0.08768794
149	0xbc65533b	-0.0139968945
150	0xbe17450f	-0.14772438
151	0x3d723294	0.059130266
152	0x3e195fdd	0.14977975
153	0xbe038a10	-0.12845635
154	0x3e0e4178	0.13892162
155	0x3d0b5e58	0.03402552
156	0x3cd88fb9	0.02643572
157	0x3c32b52f	0.010907455
158	0x3dae219f	0.085025065
159	0xbd8eabad	-0.06966338
160	0x3cd0cee7	0.025489284
161	0x3dde8501	0.10865212
162	0x3c800cd4	0.015631117
163	0x3d96ab10	0.07356846
164	0x3d9098cd	0.070603944
165	0xbe798e6d	-0.24370737
166	0x3d7a9e9c	0.061186418
167	0x3e289da1	0.1646638
168	0x3e6ef81d	0.23336835
169	0xbc355d3b	-0.011069591
170	0xbad78228	-0.0016441988
171	0x3e1101ae	0.14160797
172	0x3e2bf17f	0.16791342
173	0xbd49e531	-0.04929084
174	0xbda031b7	-0.07821982
175	0xbc869592	-0.016428743
176	0xbe0c4949	-0.13699831
177	0xbd6c610e	-0.057709746
178	0x3da47779	0.080306
179	0xbdbb3442	-0.09140827
180	0xbe0e9983	-0.13925748
181	0x3e7020ee	0.23450062
182	0x3d49437d	0.049136627
183	0xbd713d4d	-0.05889635
184	0x3d9af4fa	0.07566257
185	0x3dd8517c	0.10562417
186	0x3cf9a777	0.030475361
187	0xbe2fe9e3	-0.17179064
188	0x3e06e612	0.13173702
189	0x3e4ac877	0.19803034
190	0xbdf77f53	-0.12084832
191	0x3d043e86	0.03228619
192	0xbe408833	-0.18801956
193	0xbd41f479	-0.047352288
194	0x3d3f6674	0.046728566
195	0xbcdcb82c	-0.026943289
196	0xbe06db65	-0.1316963
197	0xbe0e1beb	-0.13877837
198	0xbe0bad1f	-0.13640259
199	0x3e737d3d	0.23778243
200	0x3d647e72	0.05578465
201	0xbdfd2851	-0.12361205
202	0x3e0541fa	0.1301345
203	0x3d610e1e	0.054945104
204	0xbdd2d174	-0.10293856
205	0x3c8f7bff	0.01751518
206	0x3e53c8dc	0.2068209
207	0x3ed59fc0	0.41723442
208	0x3e94ff5d	0.29101077
209	0xbc35dc3f	-0.011099874
210	0xbbecfe79	-0.007232484
211	0xbd49a1c7	-0.04922655
212	0xbda06145	-0.07831053
213	0xbe6d1282	-0.23151591
214	0x3deda4c5	0.11603693
215	0x3e469703	0.19393544
216	0xbe3ab83e	-0.18234345
217	0x3e071e9b	0.13195269
218	0xbe192f30	-0.14959407
219	0xbea2b37e	-0.31777567
220	0x3da42c52	0.08016266
221	0xbe36293b	-0.17789166
222	0xbd69f28f	-0.057116088
223	0xbe4cc91e	-0.19998595
224	0xbb212fb9	-0.0024595095
225	0xbe3e080e	-0.1855776
226	0x3d47adac	0.04874961
227	0x3de78356	0.11304347
228	0x3d9da5c2	0.076976314
229	0xbbc8db65	-0.0061296695
230	0x3d973b1c	0.07384321
231	0xbdf04bf0	-0.11733234
232	0x3e490f7c	0.19634813
233	0x3d12bfc2	0.035827406
234	0xbe2a7ef6	-0.16649994
235	0x3da99c33	0.08281746
236	0xbe002a78	-0.125162
237	0xbdf7670d	-0.12080202
238	0x3d320b37	0.043467727
239	0xbdd1ab3a	-0.10237737
240	0x3d9f7d2f	0.07787549
241	0x3e25a0ed	0.1617467
242	0xbd954508	-0.07288557
243	0x3e1415ed	0.14461489
244	0x3e2250ab	0.15851085
245	0xbd7d3c76	-0.06182524
246	0x3e0306e8	0.12795603
247	0xbe4dd621	-0.20101215
248	0x3e494b2d	0.19657584
249	0x3e2500b3	0.16113548
250	0x3eddd5cc	0.43327177
251	0xbbe87407	-0.0070939097
252	0xbdb699c3	-0.089160465
253	0x3ec2f86d	0.3808016
254	0x3df3c4b4	0.119027525
255	0x3cfa8dde	0.030585226

layer4.bias f4 [64]
0	0x3d67cd74	0.05659242
1	0xbb2811a6	-0.0025645285
2	0x3d95e0d9	0.07318277
3	0x3e2c2950	0.16812634
4	0xbc8c76bb	-0.017146459
5	0xbc9e0684	-0.019290216
6	0xbd0f9b4c	-0.035060212
7	0x3d3c1a35	0.04592343
8	0x3d83606b	0.06414875
9	0xbd379256	-0.04481729
10	0x3e43902f	0.1909797
11	0xbe46ebbf	-0.19425867
12	0xbcc32864	-0.02382297
13	0xbc672cfa	-0.014109844
14	0x3cd63984	0.026150472
15	0x3e731bb5	0.23741038
16	0x3dc6feae	0.09716545
17	0x3e218b12	0.15775707
18	0x3d3c27b5	0.045936305
19	0x3e93ece6	0.28891677
20	0x3edf1304	0.43569195
21	0x3dbbf1b8	0.091769636
22	0x3e0cdf1d	0.13756986
23	0x3e646337	0.22303472
24	0x3d42de79	0.047575448
25	0x3d729e75	0.059233148
26	0x3dc5b3f2	0.096534625
27	0x3e4e79eb	0.20163696
28	0x3eaa9e64	0.33323967
29	0x3df46fcc	0.11935386
30	0x3e05c08a	0.13061729
31	0x3d93484d	0.07191525
32	0x3de84b0e	0.113424405
33	0x3ce8be18	0.028410956
34	0x3dea1bc6	0.114310786
35	0x3e5ab336	0.21357426
36	0xbb379012	-0.0028009457
37	0x3e53eb1c	0.20695156
38	0x3e5fec4e	0.21867487
39	0x3d94d345	0.07266859
40	0x3e0892ba	0.13337222
41	0x3d6bd530	0.05757636
42	0x3de9ed7c	0.1142225
43	0xbdd0e426	-0.10199766
44	0x3d7b14a3	0.061298978
45	0x3e2191cf	0.15778278
46	0xbced4914	-0.02896551
47	0xbc5048a7	-0.012712634
48	0x3c3c2a70	0.011484727
49	0x3e630168	0.22168505
50	0x3e8703bc	0.26370037
51	0x3e52adf0	0.20574164
52	0x3da0ca3d	0.07851074
53	0xbe2d202e	-0.16906807
54	0xbdd7e910	-0.105425
55	0xbe086679	-0.1332034
56	0xbd42ab28	-0.04752651
57	0xbe1bab96	-0.15202174
58	0x3e0ddfc6	0.13854894
59	0x3de0b493	0.10971942
60	0x3e50015f	0.20313023
61	0x3e17c05c	0.14819473
62	0x3da9669b	0.082715236
63	0x3ba4a579	0.0050246087

slot_head.weight f4 [13, 64]
0	0x3dbf334a	0.093359545
1	0xbe91d653	-0.2848383
2	0xbe0d57f8	-0.13803089
3	0xbe491e16	-0.19640383
4	0x3eb3ca0b	0.35115084
5	0x3dbfa7a5	0.093581475
6	0x3e5aff39	0.21386422
7	0x3d5646c4	0.05231358
8	0x3e3921ac	0.18079251
9	0xbd23a117	-0.03994855
10	0xbec848d6	-0.3911807
11	0xbefe2d41	-0.496439
12	0x3d88546f	0.066567294
13	0x3d80489e	0.06263851
14	0x3ea4088a	0.32037765
15	0xbef91000	-0.4864502
16	0x3df15a94	0.117848545
17	0xbea72f40	-0.32653236
18	0x3e4a6637	0.19765554
19	0xbd81f64f	-0.06345808
20	0xbea71ed7	-0.32640716
21	0x3e846789	0.2586024
22	0xbe1ba676	-0.15200219
23	0xbefd0d2b	-0.4942411
24	0x3ab8af9c	0.0014090422
25	0x3e09810e	0.13428137
26	0xbd25a758	-0.040442795
27	0xbf10a0e5	-0.56495506
28	0x3e8701ae	0.2636847
29	0x3df1f985	0.1181517
30	0xbea26e37	-0.31724712
31	0x3e17e030	0.14831614
32	0xbd82b747	-0.06382614
33	0xbba24210	-0.004951723
34	0xbe41603e	-0.1888437
35	0x3c9e5658	0.019328281
36	0xbe803a96	-0.25044698
37	0x3cb5dce2	0.022200052
38	0xbef0e23d	-0.47047606
39	0x3d3ca11c	0.046052083
40	0x3dbfdc22	0.09368159
41	0x3e833b1d	0.25631037
42	0x3d8540c6	0.06506495
43	0x3e4fe26d	0.20301218
44	0x3df3ad48	0.11898285
45	0x3dbe08b0	0.09279001
46	0xbe2ce8af	-0.16885637
47	0xbf12bf41	-0.5732308
48	0xbd6d5404	-0.05794145
49	0xbe98afa5	-0.29821506
50	0xbe8cc689	-0.2749522
51	0xbef55f23	-0.47924146
52	0xbe837a18	-0.25679088
53	0xbe07bdb4	-0.1325596
54	0xbf033adf	-0.51261705
55	0xbde14224	-0.109989434
56	0x3dac58fe	0.084154114
57	0xbe97abd3	-0.2962328
58	0xbe666a2e	-0.22501442
59	0xbee1ba83	-0.4408761
60	0xbf2a9b60	-0.66643333
61	0x3e03f3c6	0.12885961
62	0x3da0dff0	0.07855213
63	0x3e1bf988	0.15231907
64	0xbdb3acb1	-0.08773173
65	0x3e0f3a27	0.13987027
66	0xbe61c780	-0.2204876
67	0x3e161a0f	0.14658378
68	0xbf110bc4	-0.5665858
69	0xbd3c6406	-0.045993827
70	0x3e282dc5	0.1642371
71	0xbecdf2fa	-0.4022444
72	0xbf3a13e6	-0.7268661
73	0xbeba4e72	-0.36387974
74	0x3dd28592	0.10279383
75	0x3e280f14	0.16412002
76	0xbd59e65d	-0.053198207
77	0xbe95e0ed	-0.29273167
78	0xbe880a8c	-0.26570547
79	0x3e3276c3	0.17428117
80	0x3da8017f	0.0820341
81	0x3e19e5a7	0.15029012
82	0x3d00b2cb	0.03142051
83	0xbee796e5	-0.4523231
84	0x3e2a706c	0.16644448
85	0xbf14de40	-0.58151627
86	0x3de9e808	0.114212096
87	0x3e0f012f	0.13965295
88	0xbe91486d	-0.2837557
89	0x3d1775dd	0.036977638
90	0x3da8c6f9	0.08241076
91	0x3e4f58d5	0.2024873
92	0x3d8fd168	0.07022363
93	0xbc546bfe	-0.0129652005
94	0x3e271d56	0.16319785
95	0x3d9064ce	0.07050477
96	0x3d42e0f5	0.047577817
97	0x3d9ae32f	0.07562863
98	0x3d9dc62e	0.077038154
99	0x3e011c19	0.12608375
100	0xbe0ccd68	-0.13750231
101	0x3da77775	0.081770815
102	0xbb8f1cd2	-0.0043674493
103	0xbe6d5229	-0.23175873
104	0x3d1929a3	0.037393223
105	0xbe750bab	-0.23930232
106	0xbd90b1bd	-0.07065151
107	0xbdab42e8	-0.08362371
108	0x3d1d86ec	0.03845875
109	0xbe08b727	-0.13351117
110	0x3e267c07	0.1625825
111	0x3defe4b0	0.117135406
112	0xbec36082	-0.38159567
113	0x3da62f14	0.08114448
114	0x3e0172cf	0.12641452
115	0x3e2406dd	0.16018243
116	0x3d667563	0.056264292
117	0x3da71d95	0.08159939
118	0x3e0e6157	0.1390432
119	0xbe7a0793	-0.24416952
120	0x3dfdb165	0.12387351
121	0x3e522d63	0.20525126
122	0xbe9e0c05	-0.30868545
123	0x3d0f6a17	0.035013285
124	0x3e210e36	0.15728077
125	0x3e0904ed	0.13380785
126	0x3e2847ea	0.16433683
127	0xbf3796b5	-0.71714336
128	0x3e72ed02	0.23723224
129	0xbef38bbc	-0.47567546
130	0xbe6cc7a8	-0.23123038
131	0x3e01b59c	0.12666935
132	0x3e4caa3d	0.19986816
133	0x3e4dadba	0.20085803
134	0xbdb169e9	-0.08662779
135	0x3e409478	0.18806636
136	0x3dbfa755	0.09358088
137	0x3c800339	0.015626537
138	0xbda90425	-0.08252744
139	0xbed2be02	-0.4116059
140	0x3e00a423	0.12562613
141	0x3cdfae86	0.027304899
142	0x3dc82b88	0.09773928
143	0xbdcc4aaa	-0.099751785
144	0x3ddc7a92	0.10765566
145	0xbe5ac457	-0.2136396
146	0x3df86db3	0.121302985
147	0xbdcec69d	-0.10096476
148	0xbebd1783	-0.36932
149	0x3e0c2146	0.13684568
150	0xbdddb033	-0.10824623
151	0x3de805e8	0.113292515
152	0xbe2772c4	-0.16352373
153	0x3db93f38	0.09045261
154	0xbe078346	-0.1323367
155	0xbdcef408	-0.10105139
156	0x3e2672e0	0.16254759
157	0x3dbb2c7e	0.091393456
158	0xbe99e752	-0.30059296
159	0xbe056a03	-0.13028722
160	0x3dbca05f	0.09210276
161	0xbe2466df	-0.16054867
162	0xbede971b	-0.4347466
163	0xbe23437d	-0.15943713
164	0xbd75c055	-0.059997875
165	0xbe6a6c37	-0.22892843
166	0xbe99a573	-0.3000904
167	0x3e462761	0.1935096
168	0x3d369ea5	0.04458489
169	0x3d3fa3d4	0.046787098
170	0xbda5ee8e	-0.08102141
171	0x3e43571f	0.19076203
172	0x3e009876	0.12558159
173	0x3e151291	0.14557864
174	0xbea88e69	-0.3292115
175	0xbeb1a31d	-0.34694758
176	0xbd89ee8b	-0.067349516
177	0xbd3998b6	-0.045311652
178	0x3d8f6c69	0.070030995
179	0x3dc34b4a	0.095358446
180	0xbeb54c5a	-0.35409814
181	0x3eb292f3	0.34877738
182	0xbe98871d	-0.29790583
183	0x3d309ffe	0.04312133
184	0x3d71751a	0.058949567
185	0x3c9c6c2b	0.019094547
186	0x3e09461d	0.13405652
187	0xbee685b8	-0.45023894
188	0xbe6fd229	-0.23420013
189	0xbe3844a0	-0.17994928
190	0xbe3d117d	-0.18463702
191	0x3df18cfa	0.11794467
192	0xbd10f6e7	-0.035391714
193	0x3d524a7f	0.051340576
194	0x3d19d936	0.037560664
195	0x3e3a9281	0.1821995
196	0xbc28811d	-0.010284689
197	0x3d02c669	0.0319275
198	0xbe015912	-0.12631634
199	0xbc7a45ca	-0.015275428
200	0x3dbdd71b	0.09269544
201	0x3e80797a	0.2509268
202	0xbf1f0963	-0.621237
203	0xbee668a7	-0.45001718
204	0x3e591c0b	0.21202104
205	0x3ce57631	0.02801046
206	0x3d1e5202	0.038652427
207	0xbe95727c	-0.29188907
208	0xbe64d6ac	-0.22347516
209	0xbe02df01	-0.12780382
210	0xbd97dc37	-0.074150495
211	0x3c3d6d51	0.011561708
212	0xbe161e7a	-0.14660063
213	0xbda6d1a6	-0.08145456
214	0x3dd0be7b	0.10192581
215	0xbeb122c9	-0.3459685
216	0x3d630fe3	0.055435073
217	0x3df58954	0.11989084
218	0x3daae50c	0.083444685
219	0xbdddc2f2	-0.108281985
220	0x3dae2e74	0.08504954
221	0x3e1c9f05	0.15295036
222	0xbd23aa60	-0.039957404
223	0xbe259bf6	-0.16172776
224	0x3daaa4ba	0.083322
225	0x3d716cca	0.05894164
226	0x3da0b0aa	0.07846196
227	0x3e12b6ee	0.14327595
228	0x3d6ffe1c	0.058591947
229	0xbbe952c7	-0.0071204635
230	0x3f2889c1	0.65835196
231	0xbe297990	-0.16550279
232	0x3dfceb76	0.12349598
233	0x3d516171	0.051118318
234	0xbe3cb307	-0.18427669
235	0x3e5df04a	0.21673694
236	0xbea864bc	-0.32889354
237	0xbee1d722	-0.44109446
238	0x3e47f249	0.19526018
239	0x3df807a7	0.121108346
240	0x3df5bb41	0.119986065
241	0xbeb4154c	-0.35172498
242	0xbeddc331	-0.43312982
243	0x3c0e765e	0.008695213
244	0x3d6bb48e	0.057545237
245	0x3cae8090	0.021301538
246	0x3c02dc09	0.007987031
247	0xbd357c13	-0.04430778
248	0xbde208da	-0.110368446
249	0xbe31f64c	-0.17379111
250	0x3da30e3a	0.07961698
251	0x3eaae710	0.33379412
252	0xbe915e56	-0.28392285
253	0x3e7b01ca	0.24512401
254	0x3d37cb20	0.04487145
255	0xbbe205e6	-0.006897676

slot_head.bias f4 [13]
0	0xbc8f9e39	-0.017531501
1	0xbbfa271e	-0.0076340577
2	0xbeb1811c	-0.34668815
3	0x3e25f33f	0.16206072
4	0x3ba462ca	0.0050166594
5	0x3c711cb4	0.014716316
6	0xbe2b9d8d	-0.1675932
7	0x3d8f57ac	0.06999144
8	0xbe8c0630	-0.2734847
9	0x3ea3453f	0.31888768
10	0x3d836c61	0.06417156
11	0xbe9fc8e0	-0.31207943
12	0xbf22be9e	-0.6357211
