outputs/trained_models/placement_model_mountain.pth (torch, 584899 bytes, 16 tensors)

layer1.weight f4 [128, 15]
00000000: edba c53e e206 1cbf bdeb aebd 20ff dabd
00000010: 082c c5bd f389 06be 4311 fabd f1cd 823d
00000020: dc92 913d 20dc 08be e948 cbbd 14e9 09bf
00000030: e901 1fbd a81d d5bd 668b fb3c 5d0a e83c
00000040: 9171 82be e640 89bd da34 033e 1cb2 1b3c
00000050: 1f0c 89bc 5769 a6bd 1fcf cc3d f720 073e
00000060: e357 febd 7f9b e03d 9517 97bc 75b6 0bbf
00000070: 9ced 323d 6e95 cebe d973 15bd f0e4 983e
00000080: 064d 523e 4049 c8bd 4a1d 833e 48be 49bc
00000090: e1b5 f5bd 77f4 19be 856b 333e 6806 a03b
000000a0: 7cc3 eb3c 7cff 67be 960e 943e b142 91bf
000000b0: fa2b bf3d 72eb 593d 9dc2 9f3e adbc 873d
000000c0: 427c c5bd 4a41 47be e7cd b33d 0dd7 a2bd
000000d0: 72a1 66bd 5c15 52be 6052 91be dcd5 dcbc
000000e0: f8b5 23bf 1d50 0a3e 84c8 373c cd37 993e
000000f0: 72eb 6fbd 3919 b43e bc18 3a3e 0ea6 ff3d
00000100: a73f 2fbe 4e72 2a3e 7db7 c1bd 3985 8abd
00000110: 641e 52be 0f4a 4bbe 348e 8fbc 02a9 33be
00000120: cfd8 273e af6e 3abe 99aa 3ebe c914 babd
00000130: 0dc0 8fbe d57b 693e d24e 32bd 5ca5 e73d
00000140: 7632 ff38 33a9 76bc 5a78 9dbe 8898 743d
00000150: ac36 0d3e cb66 dabc e927 9ebd ac0b e63e
00000160: 91cd cbbe d192 45bd 9aeb c93e 2f7c 553c
00000170: f7a8 f0bd 26b9 c7be 50e7 a7be ccf7 a1be
00000180: f97e 64bc e2d4 f43d 69d8 f3bd 40b0 3f3e
00000190: 8424 453d c6d1 e83d 23e9 f4be 64b1 273e
000001a0: 7c43 fe3d a2ae d13e c503 ad3e 6cef 4ebe
000001b0: 6da9 9d3e 23d6 753e 4b33 c9bd 84d4 37be
000001c0: 2dfe cdbd b42d a53d 0108 51be a655 afbe
000001d0: 07f3 953e 36df 3abd ee14 a7be 9b68 a9be
000001e0: a571 bc3d 6a23 00bf 75f1 cf3d 1200 e43c
000001f0: 7c14 07be 3534 7fbe 9afe 60be 9303 e63c
00000200: e319 fc3d 6e70 863d c3c7 1cbe 956d 04bc
00000210: e8c0 053c e1a2 423e 8e41 f3bd 1bd1 a83d
00000220: ed7c 8b3d cb43 e73d 41fa d5be b87d b6be
00000230: e593 ddbe 3c79 3e3e 117f cebd 5d2d 47be
00000240: f8ed 2bbe 1a43 a0bd 082c 403d b826 8fbd
00000250: dae8 58be a864 f8bd 5e17 ce3d 55ef afbe
00000260: 9333 1f3e 3537 283e 2276 413e a898 c7bd
00000270: 7f1e b4bd e165 2f3d b01f 8d3d 3d5d 64bd
00000280: e464 453d 6265 d8be a639 ad3e e9d0 3cbf
00000290: 6968 7b3e 12f6 193f 2bd3 3c3e 347d 90be
000002a0: d2b9 4bbd 3332 babe 1cb1 2a3d 3e74 433e
000002b0: 424d 66be df92 c93b c4ed a63d c6f8 bdbc
000002c0: 1943 0abf d295 803d c90a acbd b8cf ac3d
000002d0: 2658 4d3d 3f00 63bd 79e1 41be 5056 613e
000002e0: 9bb4 353e f8d3 4abe 3553 173e b438 db3d
000002f0: 8d93 06bd 8db3 6e3c c0f4 1d3d ddbb 1dbf
00000300: 4cfd e1be c249 573e 964c 6e3e ff9e ad3e
00000310: 650a 823e 6798 8a3e de2c 593d f717 40be
00000320: f9e4 64be 8a1d 17bd 324e 19be 945c b4bb
00000330: 161a 1bbd 31db a3be 96d1 a0bc 2d2e 9bbe
00000340: 246d 623e 8ecb 8e3e 5737 bb3e 5e13 c93e
00000350: 246c 983d 506b 06be 61e2 a5be 02e5 c33d
00000360: 36ce 39be e05c cd3d 5ab4 243e 3aeb 41be
00000370: c25c 0d3e ec36 3c3d 0d95 6c3e f51a 7dbe
00000380: bb36 8abe 17bb 30be 340b 633e b421 183e
00000390: de67 553e 5a4a 43be bd11 76be 3792 f6bc
000003a0: 97e2 3abe 6491 d2bd 9f94 6ebd 10f6 a7bd
000003b0: 3a3a 583e 44e5 5c3e f237 5cbe 1ab4 9abe
000003c0: bef7 ba3d 8e34 7abe fa31 d8bd c4a7 4fbd
000003d0: 8a36 123e 6c60 933d d1be 8f3c 5d57 9abe
000003e0: a3b9 d63a 6387 e03c c2ea 1ebe e61e d9bd
000003f0: 8e7f bdbe 6e2e fabe 0c3a c83d af6e 553e
0.38619176 -0.60948 -0.08541057 -0.106931925 -0.09627539 -0.13138561 -0.12210324 0.063869365
0.07108089 -0.13365221 -0.09926016 -0.53871274 -0.03882018 -0.10406047 0.030706119 0.028325254
-0.2547727 -0.067018315 0.1281313 0.009502914 -0.016729413 -0.08125561 0.10000443 0.13196169
-0.12419107 0.109671585 -0.018443862 -0.5457528 0.043683633 -0.4034838 -0.036487434 0.29862165
0.20537195 -0.09779596 0.25608283 -0.012313433 -0.11997581 -0.15034662 0.17521484 0.004883576
0.028779738 -0.22656053 0.28917378 -1.1348478 0.0933456 0.053203054 0.31203166 0.06627784
-0.09642841 -0.194585 0.08779507 -0.07951174 -0.05630631 -0.2051596 -0.2838316 -0.026957445
-0.6394954 0.13507123 0.01121724 0.29925385 -0.058574148 0.35175493 0.18173498 0.12482844
-0.17114125 0.16645166 -0.09458826 -0.067636915 -0.20519406 -0.1985247 -0.017523862 -0.1754494
0.163913 -0.18206285 -0.18619765 -0.09085996 -0.2807621 0.22801144 -0.0435322 0.11310837
0.000121687466 -0.015054989 -0.30755883 0.059715778 0.13790387 -0.026660344 -0.07722456 0.4493078
-0.39805272 -0.04823572 0.39437562 0.013030096 -0.117509775 -0.39008445 -0.32793665 -0.31634367
-0.013946288 0.11954667 -0.11906511 0.18719578 0.048130527 0.11368136 -0.4783412 0.16376263
0.124152154 0.40953547 0.33791938 -0.2020852 0.30793324 0.24007468 -0.098242365 -0.17952162
-0.10058246 0.08065358 -0.2041321 -0.34245032 0.29286978 -0.045623027 -0.32633156 -0.3308762
0.092013635 -0.5005404 0.10153476 0.027832065 -0.13191408 -0.24922259 -0.21972123 0.028077876
0.12309625 0.06564413 -0.15310578 -0.008082767 0.008163668 0.19007446 -0.11877738 0.08243009
0.06810937 0.11292227 -0.4179249 -0.3564279 -0.43276897 0.18600935 -0.1008283 -0.19450898
-0.16789997 -0.078252986 0.04691699 -0.06989807 -0.21182576 -0.12128574 0.10063051 -0.34362283
0.15547018 0.1642731 0.1889272 -0.09745914 -0.08794879 0.04282177 0.068908095 -0.05575298
0.04819192 -0.4226485 0.33833045 -0.7375627 0.24551548 0.601411 0.18439929 -0.28220522
-0.04973776 -0.36366424 0.04167281 0.19087312 -0.22490409 0.0061515416 0.08150819 -0.023189913
-0.5400863 0.06278576 -0.084004946 0.08438057 0.050132893 -0.055420157 -0.18933667 0.22005582
0.17744677 -0.19807422 0.14777835 0.10704175 -0.03285556 0.014569175 0.03856349 -0.6161478
-0.44138563 0.2102423 0.23271403 0.33910367 0.25398555 0.270694 0.053021304 -0.18759142
-0.22352971 -0.036893405 -0.14971235 -0.0055042002 -0.037866674 -0.32003167 -0.019631188 -0.30308667
0.22111946 0.27889675 0.36565658 0.39272588 0.07442501 -0.13126874 -0.32399276 0.09565164
-0.1814507 0.1002748 0.16084424 -0.18937388 0.13804916 0.045950815 0.23103733 -0.24717315
-0.2699488 -0.17258869 0.22172242 0.14856607 0.20840403 -0.19071332 -0.24030204 -0.030099018
-0.182505 -0.10281637 -0.058247205 -0.082012296 0.21115962 0.21571833 -0.21505716 -0.30215532
0.09129284 -0.2443411 -0.10556407 -0.050697103 0.14278618 0.071961254 0.017547043 -0.30144778
0.0016382228 0.027408307 -0.1551924 -0.106015965 -0.3701138 -0.48863548 0.097766966 0.20843004

layer1.bias f4 [128]
00000000: 9f6b 11bd 7557 86be a211 aabe c0fe eebc
00000010: b836 233d f5f3 d8be 9f47 9ebe 6acf 85be
00000020: 5090 87be f819 98be 2057 4dbe b210 18be
00000030: 3f60 23bf a180 b23e 66fd 5a3c 4b98 1e3e
00000040: 0f5b ea39 3f96 203e 2b4a 59be f11d 5e3e
00000050: 5f43 14be 766d 5abd 9a45 aabe 79cd 66be
00000060: be63 6c3c c8c4 90bd d16b 98bd 567e eabd
00000070: 6f29 cdbc ad9b 403c 88cf d8be 24cb bcbd
00000080: 2803 45be 70c5 1ebe 4c0f 503d b32d 7a3a
00000090: 0f39 99be 5f65 bbbe b7a9 6cbe 5c26 0fbf
000000a0: 4ceb 2bbe a204 25be 86b7 6cbd edad 17bf
000000b0: 13f0 69be fc4e 1f3d e032 223c b322 e3be
000000c0: a485 8fbe b32e fabd 05dd 03bf 0082 b9be
000000d0: 7acb c5be 174f 79be fb6e a5be 9362 f5bd
000000e0: eba1 27bf ae7b 8bbd c10f 33be 9a5f 9bbe
000000f0: dc0d efbe a91a 5cbc e01d 43be 935b 2cbe
00000100: 60be 82be 0e54 aebe 60e3 19be e41b e8bd
00000110: 751b 80be 68d1 24be 5e91 c3be b0bf c03e
00000120: 8fb0 a03e a462 fb3d 23a9 b9be f7b8 793d
00000130: f51e c2be 6e74 4bbe 0075 1dbc c342 ebbd
00000140: b7c6 5dbe 7c4f f3be 663c dfbe 332e c5be
00000150: 8bda 1ebf 6a28 81be ed65 843d ecfc e3be
00000160: 8289 06bf d7c7 d1be 5446 8abe a9b5 15bf
00000170: 679b edbe bb37 1bbe 80e2 f3be 96e4 71be
00000180: f2e0 78be 0b45 f4bd 4e2b d7bd 9de9 96be
00000190: d88a bcbe 72d0 e2be cf45 a8be 85e2 ecbe
000001a0: 7bee cabd f795 23bf 96e4 e23b a3d0 5ebe
000001b0: 7a02 eaba fb89 43be 5c75 babd b9bc b5bd
000001c0: 0eb6 35be cbfc 98be 55e2 73be a8b6 07bf
000001d0: 4f63 b23d 1e1d 90be 2136 76bc 22cc 15be
000001e0: 2956 f4bd 9fa1 23be 5d98 3ebe be7b 2dbe
000001f0: cfb6 a8be e88d c8be e30f dcbd d4da 7bbe
-0.035503026 -0.262386 -0.33216578 -0.029174209 0.039847106 -0.42373624 -0.30914018 -0.26134807
-0.2647729 -0.29707313 -0.20052767 -0.14850119 -0.63818735 0.3486376 0.013366079 0.15487783
0.00044699802 0.15682314 -0.21219699 0.21691109 -0.14478825 -0.053327046 -0.33256227 -0.22539319
0.014428077 -0.07068783 -0.07442439 -0.11449878 -0.025044171 0.011755866 -0.42345834 -0.092184335
-0.19239485 -0.15505004 0.05079584 0.0009543553 -0.29926345 -0.36600778 -0.23111616 -0.55917907
-0.16788977 -0.16115049 -0.05779221 -0.59249765 -0.22845487 0.038893685 0.009899825 -0.4436241
-0.28031647 -0.122159384 -0.51509124 -0.36231995 -0.38631803 -0.24346577 -0.32311234 -0.11981692
-0.6548144 -0.068106994 -0.17486478 -0.30346376 -0.4669026 -0.013434091 -0.19054365 -0.16831808
-0.2553587 -0.34048504 -0.15028143 -0.11333445 -0.25020948 -0.16095507 -0.38196844 0.37646246
0.31384704 0.122746736 -0.36261854 0.06096741 -0.37914243 -0.19868633 -0.0096104145 -0.11487343
-0.21657835 -0.4752158 -0.43600768 -0.3851181 -0.6205222 -0.25226146 0.06464753 -0.44528902
-0.5255357 -0.40972778 -0.2700678 -0.58480316 -0.46407625 -0.15157978 -0.47633743 -0.23622355
-0.2430456 -0.119272314 -0.105063066 -0.29475108 -0.3682468 -0.44299656 -0.3286576 -0.4626657
-0.09908768 -0.63900703 0.006924222 -0.21759276 -0.0017853521 -0.19095604 -0.09104416 -0.088738866
-0.1774523 -0.29880366 -0.23816808 -0.53013086 0.08710348 -0.28147215 -0.015027554 -0.14628652
-0.11930496 -0.15979622 -0.1861281 -0.16941735 -0.32951972 -0.39170766 -0.10745218 -0.24595195

layer2.weight f4 [256, 128]
00000000: b616 95bb 366b 68be ca7e 52be 8d8f c7bc
00000010: faa4 76be 3b68 2dbd d3b3 f83d 66fe 13be
00000020: b548 2ebd f4ea f63d b701 44bd 85c5 c43d
00000030: 9f51 bdbe 0181 ee3d dcfd 583d 8d63 20be
00000040: 24d0 2ebd cb33 55bc 0e7a 84bb 73c1 593d
00000050: 972c e03c 9928 8abd 291f 4b3e 9f52 7cbd
00000060: d012 2abd 6b0b a73d d20f 0f3e 80ab 68be
00000070: b0d0 5e3c 4bca 69be b93c 03be a178 17be
00000080: a110 23be bf05 b9bd a6dd 113d b6c8 fdbd
00000090: ed0d f2bd f6d1 b9bd b4c2 e43d 2a3f afbe
000000a0: 1e91 013c fce2 4abe ddca 063e c58a 52bd
000000b0: 8da8 463c 6fe3 bdbe 13da 0b3e 4c49 ce3d
000000c0: b5b2 75bd 3f41 5fbd 5c87 e2ba a7a0 ce3d
000000d0: c4c4 0cbd 4946 8cbe def3 853d 767a b13d
000000e0: 2c4b c2be fd2a ccbd fe10 98be 9202 e1be
000000f0: a32a 4f3d 7c41 f93a 6fbc f4bd c7d5 a9be
00000100: 088b ae3d 8af5 24bd 5079 e93d f2f9 aa3d
00000110: f32c 0dbd 4cb8 bfbd e3bb f2bd f0ba 813e
00000120: f9e4 6b3c b373 343d 0cce 58be eefa 30be
00000130: 8716 d9bb 8d5b eebd 9a31 cdbc 1d45 dd3d
00000140: 2621 bcbe 37e2 b4bd 1163 4fbc bdea 10be
00000150: fb5d b7bd fc26 d1be 1675 fc3d ce63 31be
00000160: b9f7 77be 4e12 77be eba0 283b 43ae 01bf
00000170: a290 61be 84d3 42bc 6092 bbbe 8aa1 353d
00000180: 1a66 a3bd 0e9d 52bc 517b f33d f208 9abd
00000190: 1b10 c6be 6ba3 78bd daf9 d13c 2e22 513d
000001a0: 7ce4 953b 361a 1bbd 0ab7 7e3d 282b d23d
000001b0: 5107 823c 0ca7 cf3d fc7c 543c dd62 fa3d
000001c0: 31fa 283c db11 ff3c befb 19be 93cb 993c
000001d0: 3de4 c4be de3d 9fbb e0ba 38bd 101a ad3d
000001e0: 14e5 4abe 95d1 373d 68ba 67be 5a0f 1d3c
000001f0: db7b b3bb 04f3 f9bc ca63 c8bd b762 293c
00000200: e708 0f3e b2f2 70bd 8cbe 993d 7ab5 75be
00000210: c820 9e3d ad00 a13d 5e1d 27be 3282 2cbd
00000220: cf87 1b3c bee8 b7bd dbf6 0a3d 7256 da3d
00000230: ee1c 41be 884c 9bbe cead 52bb 4790 3e3c
00000240: 8c08 be3d cfc7 fb3d 5919 a9be 38a9 13be
00000250: 17fb 61be 5e16 8bbc 94e4 da3d 2dea d9bc
00000260: 44cf ddbd 0c3a a33d 6a2b 323d 2df7 45bd
00000270: 73c7 a33d 5174 353d f11d e3bd dc90 02be
00000280: a0ee 4e3c b350 b1be 9fbd a13d 9847 003e
00000290: a8f9 d33c aea1 293d 0776 693e 56c7 b33d
000002a0: 4fd3 353e 0433 2f3e b44d a9bd 2cfe 1a3d
000002b0: 4ab6 fb3d 4f37 9fbd 9dea 193c 8c2b 1dbe
000002c0: ab8c c43c 49c6 58be 6e60 b7ba 6e0b c2be
000002d0: 31d8 223d 06cf 12bc 85e2 883d 811c 61be
000002e0: 864c c3bc 8e03 0f3e 036d 8d3d f7bd 133e
000002f0: d51d 6bbe ae8a a2be f0ed febb 6c83 873d
00000300: badd aebe e374 423d d21f cc3c e043 08be
00000310: 6189 f53c 2a30 e43c 187c c13d 3af3 6ebe
00000320: 9f16 bbbd a71a 75bd 6b6e 40bc c44e 82bd
00000330: 4780 86be d58e 1f3e a0e4 89bd 1e0b 13bc
00000340: 3c95 d3bd 8215 b53d 1ba0 fabd b194 0dbd
00000350: 83b5 bbbc bac2 9fbb f254 d2bd 6029 7cba
00000360: 92f1 393d 6f29 e53d 684a e9bd 0681 463d
00000370: 5220 ccbd 9129 d0bd bd6a 533d 2792 01bf
00000380: 81fe ea3d cf89 5bbd ad90 c7bd 4f98 40be
00000390: 392b 0c3e cf19 47be 5267 d6bd fe14 35bd
000003a0: 7429 aabe 467d e33b 181d 45be 8143 c2bd
000003b0: e113 603e f1d9 cbbd 22d3 0c3e 552e b6be
000003c0: 9558 c0be 2a54 25bd 4e95 813d 3a63 bbbd
000003d0: e790 e8bb 57a2 e1bd b923 bebd d3ab 6e3d
000003e0: eaa0 29be b70a f3bc 2810 fc3d ba70 06be
000003f0: a1bf 063e 51ec ca3c 3050 893c 4f27 debd
-0.0045498265 -0.22697148 -0.20556179 -0.024360443 -0.24086371 -0.04233573 0.12143674 -0.14452514
-0.042549808 0.120565325 -0.047853198 0.09607986 -0.36976334 0.11645699 0.052976474 -0.15662976
-0.042678967 -0.013012837 -0.0040428704 0.053163003 0.027365012 -0.06746025 0.19836105 -0.06160223
-0.041521847 0.08156475 0.13970879 -0.22721672 0.01359956 -0.22831075 -0.12816133 -0.1479211
-0.15924312 -0.09034299 0.03561177 -0.12391798 -0.118190624 -0.0907325 0.11169949 -0.34227878
0.007908134 -0.1981315 0.13163324 -0.051401872 0.012125147 -0.3708758 0.13657407 0.10072574
-0.05998488 -0.054505583 -0.0017282772 0.10089236 -0.034367338 -0.27397373 0.065406546 0.08665936
-0.37947977 -0.09969137 -0.29700464 -0.43947273 0.05057777 0.0019016708 -0.11950003 -0.33170912
0.08522612 -0.040273227 0.11400092 0.083484545 -0.034466695 -0.09361324 -0.11852243 0.25337934
0.014397853 0.044055652 -0.2117235 -0.17283222 -0.006625 -0.11638556 -0.025048066 0.10804198
-0.3674404 -0.088322096 -0.012657897 -0.14152046 -0.08953472 -0.40850055 0.1232702 -0.17323229
-0.24215592 -0.24128076 0.002573068 -0.5065653 -0.2202783 -0.01189125 -0.36635113 0.04434351
-0.07978459 -0.012854828 0.11888755 -0.075212374 -0.38684162 -0.060702723 0.025631834 0.051057987
0.0045743566 -0.037866794 0.06218628 0.10262138 0.01587263 0.101392835 0.012969252 0.12225888
0.0103135565 0.031136444 -0.15037438 0.01877383 -0.38455382 -0.00485967 -0.045100093 0.08452237
-0.19813949 0.044877607 -0.22629702 0.00958618 -0.005477411 -0.030511387 -0.09784658 0.010338477
0.1396824 -0.058825202 0.07507047 -0.23995009 0.07721096 0.07861457 -0.16319796 -0.04211635
0.0094928285 -0.08979939 0.033926826 0.106610194 -0.18858692 -0.30331826 -0.0032147053 0.011631078
0.09278974 0.1229397 -0.3302715 -0.1442002 -0.2206844 -0.016978439 0.10688129 -0.026600922
-0.108305484 0.07970056 0.043498434 -0.04833143 0.07997026 0.04430038 -0.11089695 -0.12750572
0.012630135 -0.3463188 0.078974955 0.12527311 0.025875881 0.041413955 0.2279893 0.08778255
0.17756389 0.17109305 -0.08266774 0.037840053 0.12290628 -0.07774221 0.009394315 -0.15348643
0.023992857 -0.2116939 -0.001399053 -0.37899345 0.039756957 -0.008960491 0.0668383 -0.2198353
-0.0238402 0.139662 0.06905558 0.14427935 -0.22960599 -0.3174643 -0.007779829 0.066168636
-0.3415354 0.047474753 0.024917517 -0.13307142 0.029972734 0.027854998 0.09447497 -0.23334971
-0.09135174 -0.05983987 -0.011745076 -0.063626796 -0.26269743 0.1558183 -0.0673306 -0.0089748185
-0.103311986 0.08841993 -0.12237569 -0.03456563 -0.0229137 -0.004875508 -0.10270108 -0.00096192025
0.045396395 0.111895435 -0.11391145 0.04846289 -0.09967102 -0.10164178 0.051615465 -0.50613636
0.11474324 -0.05359822 -0.097443916 -0.18808101 0.13688363 -0.19443439 -0.104689255 -0.044209473
-0.3323475 0.006942424 -0.1924938 -0.094855316 0.21882583 -0.099536784 0.13752416 -0.35582224
-0.37567583 -0.04036347 0.06327306 -0.09149785 -0.007097352 -0.11017292 -0.09284157 0.058269333
-0.1656529 -0.029668195 0.12307769 -0.1312894 0.13159038 0.024770888 0.01676187 -0.10847341

layer2.bias f4 [256]
00000000: 1601 6a3e f824 0dbe b12b d33d 5ee0 da3d
00000010: 8325 8dbe 48e3 f13d cac8 97be 4c65 9dbe
00000020: d886 12bd 40e1 173e 015f 08bf c86e e23d
00000030: 0575 5a3d a536 92bd b027 063e 20e2 91bb
00000040: e184 e03d 36d6 833e 3a4b 93bc 5bc5 13bf
00000050: 0e75 54b9 9b9b 98bd b55d 3c3e 15c1 783e
00000060: 770d 003e 3492 1ebd 4552 95be fc3b 0fbe
00000070: cacb 41be 1b64 613e 8ba5 9b3d 202d a33d
00000080: 5e9c 993a 18c5 dfbe 4843 8d3d b182 dc3d
00000090: 7e4b 023e 1323 263e b32e 403e 74db ddbd
000000a0: 2ddd 53bd a4ca 7f3e 9b2a 4b3e dcea 45be
000000b0: 3fd6 39be 19b2 11bf ddaa 253e cdb0 e23c
000000c0: ed7f 513e 6cf9 8bbe 9bfb 6d3e f2a6 033e
000000d0: d4ce 8e3c b5ed c73c 9b7a af3c 5f72 a3be
000000e0: 675a afbe a0fc 84be 1a6a acbd 785b 273d
000000f0: 2f17 9f3d 6060 453d 2474 0e3e 0110 23bc
00000100: 6b15 83be db50 1d3e 78c9 ee3c a041 2b3e
00000110: df6d 0ebe 1e9a 25be 3fb8 98be 4259 063e
00000120: b532 84be 2ec5 e2be 30d5 253e 226b 533e
00000130: dbf6 29be 6771 a23d 056e b2be ce83 ea3d
00000140: 7e8f 51bc ac4d 7a3e 4666 12be f7fe 48be
00000150: 87b9 aebe 7508 24bf bb67 453e 4f9e b4be
00000160: 39f8 21be 6537 5abd 3257 5dbd 2448 ef3d
00000170: 78c4 9a3e 36ea 89be 01bd 313e 84f3 9c3e
00000180: def9 82bc 5aa2 6abd cb85 1a3d 70d6 f3be
00000190: fa8c f93c 75de 213e bcce 363e ee1f 7d3d
000001a0: a14f 2a3e ef46 ddbd 4a88 5dbe 753d 14be
000001b0: 4af4 ab3d f603 843e 6118 113e 6d97 7b3e
000001c0: baf6 253e f5b6 a43d c15c 753d 56db 60be
000001d0: 3c18 9a3d 72b3 30bd 19c6 903d 08cf 073e
000001e0: 6acc 49be 4d56 963d 2675 343d a894 ac3d
000001f0: 2343 37be 1d05 7fbe 0071 813e c2c2 a53d
00000200: 5f03 073c 4c73 823d 4c0a 403e e872 833d
00000210: 6760 6a3e 4b7d 8dbe 6abb 18be acd4 66be
00000220: 169f 213d b8c9 863d fc67 debd 49bc 383e
00000230: bf77 82bd 743b debd 0997 603e 3aa3 3e3e
00000240: 2424 1e3e 83b4 b23c 4ebd 333c 9992 1c3e
00000250: 3632 93be 132a ba3d 9326 4e3e d418 053d
00000260: 0f3d 203e 5347 a43d 3622 d4be 7898 313e
00000270: 4f5c 5fbd c5a4 b13e 37c3 2fbd 1449 72bd
00000280: da74 01be c30e bdbe 896d f13d f63f c2bc
00000290: 1160 efbd de71 453e 33d4 04bd 74fd 113e
000002a0: abad e93d 9f0f 683d 5939 cf3e 6dbf d4bd
000002b0: 84ec c1bd b1ec e5bd 40ae 153d 1332 973c
000002c0: 4aac 053c a8c3 eb3d 32ae 2c3e 372b 973d
000002d0: effb 453c b57e 0fbe 87d7 a13c 9cff 513e
000002e0: 3660 ef3d 9533 223d 4e75 1c3d c1e0 153e
000002f0: 9afa 24be bc10 c13d dce0 59bc 4893 9d3e
00000300: 9f4d 80be 7bf2 1b3e e5a5 48be 2cc9 c9bd
00000310: 651d 5b3e 6208 8f3e be16 08be 2bac 1f3e
00000320: e650 88be d9dd 033e c233 323d 424e 5fbb
00000330: 0250 02be b675 cb3d 6e69 82be 8e46 f43c
00000340: 7759 36bd 2853 473e 4aaf 8ebe 7c4a 20be
00000350: ffb8 febd 3dca 563e 36e7 d03d 902d 063e
00000360: 3bf7 573d 05c4 303e e0b4 733d 0008 6f3e
00000370: 4380 9bbd e32a 383e 3f42 0d3e b483 bebd
00000380: 6a4a cebd 3629 713e 9d87 4abe 782c 2f3e
00000390: 39d8 b53e 7e7b b13d 375d 073e 319b 0f3e
000003a0: 990f cb3e ce81 5b3d 4e89 213d d514 723e
000003b0: 571d 9c3e 1f20 6d3c ef6b 323e 11ce 653e
000003c0: 3279 063e 8548 56be 0be6 2abe 52c7 bebe
000003d0: d633 963e 8c41 f33d 8539 0e3d 74fa ecbe
000003e0: a1f5 fdbe 53b1 e7be ebc9 5fbe b3d0 44bb
000003f0: ee23 fb3d 8f19 013e b47d b33d 39b3 983e
0.22851977 -0.13783634 0.10311068 0.10687326 -0.27567682 0.118109286 -0.29645377 -0.30741346
-0.03577313 0.1483202 -0.53269964 0.11056286 0.053334255 -0.07139329 0.13101077 -0.004452005
0.10962845 0.25749367 -0.017980207 -0.57723016 -0.00020261502 -0.074515544 0.18395121 0.24292405
0.12505136 -0.03871365 -0.2916433 -0.13987726 -0.18925396 0.22010843 0.07599934 0.07967591
0.0011719575 -0.43705058 0.068975985 0.10767115 0.1272411 0.16224317 0.18767814 -0.10832873
-0.0517246 0.24979645 0.19840471 -0.19327873 -0.18148135 -0.5691238 0.1617846 0.027672196
0.20458956 -0.2733873 0.23240511 0.12856653 0.017432608 0.02440534 0.021420768 -0.31923196
-0.3424866 -0.25973988 -0.08418675 0.040858716 0.07768094 0.048187613 0.13911492 -0.009952546
-0.25602278 0.15362875 0.029148802 0.16724253 -0.139091 -0.16172072 -0.2982807 0.13119987
-0.25819936 -0.4429106 0.16194606 0.20646337 -0.16598074 0.07931786 -0.34849563 0.11450921
-0.012790559 0.24443692 -0.14296827 -0.19628511 -0.3412592 -0.64075404 0.19277851 -0.3527703
-0.15817346 -0.053275485 -0.054038234 0.116836816 0.3022802 -0.269365 0.17357256 0.30654538
-0.015988287 -0.057283737 0.03772525 -0.4762454 0.03046273 0.15807517 0.178523 0.06179803
0.16631939 -0.10804545 -0.21634021 -0.14476569 0.08396204 0.25784272 0.14169456 0.24569483
0.162074 0.08042709 0.05990291 -0.2195867 0.075241536 -0.043139882 0.07069034 0.1326257
-0.19706884 0.07340679 0.044057034 0.084267914 -0.17896704 -0.24904294 0.25281525 0.08093788
0.00824055 0.063696474 0.18753928 0.06418401 0.22888337 -0.27634653 -0.14915243 -0.22542065
0.039458357 0.065814435 -0.10859677 0.18040575 -0.06370496 -0.108511835 0.21932615 0.18616953
0.15443474 0.02181459 0.010970427 0.15290298 -0.28749245 0.09090056 0.20131902 0.03249438
0.15648292 0.080214165 -0.4143235 0.17343318 -0.05453139 0.34696022 -0.04291078 -0.059151724
-0.12642232 -0.36925325 0.1178847 -0.02371214 -0.11688245 0.19281718 -0.03242893 0.14256841
0.11410078 0.056655522 0.4047344 -0.10388074 -0.0946894 -0.11226786 0.03654313 0.018456494
0.008158753 0.11511928 0.16863325 0.073812895 0.012083991 -0.14013179 0.019756092 0.20507663
0.11688273 0.039599974 0.038197808 0.14636518 -0.16111222 0.0942702 -0.01329824 0.3077643
-0.2505922 0.15229218 -0.19594534 -0.098528236 0.21397932 0.27936083 -0.13289925 0.1559302
-0.2662422 0.12877597 0.04350639 -0.0034073745 -0.12725833 0.09934561 -0.2547106 0.0298188
-0.044518914 0.19465315 -0.2786811 -0.15653414 -0.12437629 0.20975585 0.1020035 0.13103318
0.05272601 0.17262276 0.059498668 0.23342896 -0.07592823 0.1798511 0.13794802 -0.09302464
-0.10072787 0.23550877 -0.19778295 0.17106807 0.35516527 0.086661324 0.13219152 0.14024045
0.39660338 0.05359059 0.039437585 0.2364076 0.30491135 0.01447299 0.17423986 0.2244189
0.1313217 -0.20926102 -0.16689317 -0.37261444 0.29336423 0.118777364 0.034722824 -0.4628483
-0.49601462 -0.45252475 -0.2185437 -0.003003162 0.122627124 0.12607406 0.0876421 0.29824236

layer3.weight f4 [256, 256]
00000000: e4ce 453d c9d1 1e3d f012 70bd eb0f 1e3e
00000010: 67d5 92be 86a4 133e e907 2c3e 89a5 4ebe
00000020: cea8 c6bd 428e 9a3b c881 a63d c1fb 99be
00000030: 12fa f83d cf82 b6bd bc6a 3c3e a6dc c53d
00000040: 6ccc 0cbd 3c66 0bbd b671 07bd 57ec 6ebd
00000050: 0769 3bbd 1f8f e9bd c42c 86be a559 ac3d
00000060: b8f2 00be a1cd 51be e87d 813d 39d5 66be
00000070: 811a 9ebe 3c18 d33d abbe 56bd 6947 a0bd
00000080: 8517 633e ed74 28be 47de 7c3e 548a ce3d
00000090: dc6a bf3d 2ebb af3a 40a4 013d 562d bf3c
000000a0: 2d2a b6be 06b8 5d3d ab72 e4bc b813 043d
000000b0: d59f 23be c044 483d eb18 013d f3d8 963d
000000c0: 12d0 dcbd 23e7 4dbd 5d87 c03c ba52 983d
000000d0: 3b94 673d e403 6ebe f38f 183e d436 5ebe
000000e0: 2499 6abb 3904 d13d 458c 0dbe 7cad f9bd
000000f0: aada ab3c fec3 e6bb bffc e3bd 6f8c 3e3d
00000100: 9a69 cc3d b2a6 15bd 937c b0ba da69 b23d
00000110: aa06 ccbd 8b7a 8ebe 29dc 9e3d ab8a bdbd
00000120: d6ff 97bd 74d4 ed3d eecd 363e f1ce 183e
00000130: 5086 7dbe 2fce 833d 25da ef3d 0ece 81bd
00000140: eec8 0cbc 5986 543e d373 703e f153 983d
00000150: 23da b6bc 656a 7b3b d749 43be c82e 5fbc
00000160: f6a5 4e3e 38cf f33d cd23 3e3e 3199 84bd
00000170: b4de 23bc c380 17be 1380 683d 2ab8 8a3c
00000180: 2f82 78be 9e33 1ebe 2de2 34be 97f4 1dbd
00000190: c272 4f3d 4daf 253c 2375 80bb ac3e 76bd
000001a0: 9492 ddbd fa21 d7bb 4df4 f03d 4dd1 bfbd
000001b0: 4cc1 6cbe 2912 593c 5887 f53c cdd1 1b3d
000001c0: 501b 4dbe ba48 313e 97e5 2abd c641 76be
000001d0: a858 c4bd a867 08bc 5d29 53bb c431 413e
000001e0: 6f70 17be d0e0 cbbd 2b68 dcbd ee5a 40bd
000001f0: c538 5b3d 8bc2 a53d b618 babc 03a2 71bb
00000200: d09b 98bd 99c4 413d d6fa a7bc 35b3 83bd
00000210: 37ea fa3d 9572 55be 0828 fabd a936 86bd
00000220: e02d 1bbe 3c6a 273e baaa 3a3e f740 303e
00000230: 2cf2 09be 4674 cdbd 9319 72bc 2a9c 5fbd
00000240: a1ff 2f3d d60e 38be 37a7 f9bd 7777 04bd
00000250: 7a4b d0bc 23e0 92bd 2b01 323d 7457 f13d
00000260: 1786 0f3e 8f6e 1abe 4f7b 713d d8b4 eb3d
00000270: ce81 63bd 2b6f a23e 9ac8 853e 0e40 92bc
00000280: 9366 2e3e af0f 82bd 2ca2 09be 4879 9d3d
00000290: a755 1ebe 37e4 0f3d 316a 473d a103 f23d
000002a0: b227 babe 72e4 15be 9f7f 0c3e b93f 42be
000002b0: 6dff f8bd 1714 b23c c900 debd b05d 2a3e
000002c0: b24b 27bc 7fa8 f6bd c3dd 72bd 5c92 1cbd
000002d0: 1349 503e 7f06 e93d 2029 73be 7512 5e3d
000002e0: 0080 e5bc c01d 8b3c d304 a23d 1c70 dc3c
000002f0: b79d 9a3d 9fa6 15be d47e 71bc 58fb f23d
00000300: 6182 8dbd 0c03 d93b ee23 32be c536 adbd
00000310: 894a a6bd 2f99 6abd 2e47 9fbd 9515 d7bd
00000320: 1a76 08bc 4228 0c3e 30bf 8abc 4da2 253e
00000330: adbc 423e 6262 133d 8524 223d a4ef a8bc
00000340: 0516 25be e20c 67bd 2f90 5dbe 18f1 5bbd
00000350: b309 82be 9adc 65bd 522d 97bd f0b6 a23e
00000360: d226 033e 67f3 983e e50f a33b 4676 2fbe
00000370: b0ac c83d e689 8cbd 2eec 013e 65c1 fdbc
00000380: 1195 debd b36b 3c3d a513 d53d f4e8 e23d
00000390: 1cad fc3d 493b cbbd f674 c23d 6985 523d
000003a0: 160d 6e3e f153 d9bc 7cf7 3fbd 64b5 1c3e
000003b0: 3f86 8f3d fab3 c5bc 90f9 8cbe 6047 86bd
000003c0: 63a2 fd3d 1c6f 503d 6f16 96be 4c23 3f3e
000003d0: 5498 c8bc 0141 eebd cfdb debd 03c3 3fbe
000003e0: 8e9e 3bbc 7722 88bd 358a b9bd 225f c2bd
000003f0: 6250 193e 0d35 593e fe91 31be 851e a5bc
0.04829301 0.038774285 -0.05861181 0.1543576 -0.28678438 0.1441823 0.16799892 -0.20180334
-0.09700166 0.0047166655 0.081302226 -0.30074885 0.12157072 -0.089116685 0.18400091 0.09661226
-0.03437464 -0.034033045 -0.033067428 -0.05833086 -0.04575446 -0.11404251 -0.26206028 0.08415536
-0.1259259 -0.20488597 0.06322843 -0.22542275 -0.30879596 0.10307357 -0.05242793 -0.078261204
0.2217694 -0.16450854 0.24694167 0.10084978 0.09346554 0.0013407224 0.03165078 0.023337048
-0.35579053 0.054130577 -0.02788671 0.032245368 -0.1597894 0.04889369 0.031517904 0.073655985
-0.10781874 -0.050269257 0.023502046 0.07437654 0.056537848 -0.23243672 0.14898662 -0.21700603
-0.0035796845 0.102058835 -0.1382304 -0.12191293 0.02097829 -0.007042407 -0.11132192 0.046520647
0.099810794 -0.036535926 -0.001346486 0.08711596 -0.099622086 -0.27827868 0.07756836 -0.092549644
-0.07421844 0.11612788 0.17851993 0.14922692 -0.24758267 0.06435811 0.1171153 -0.0633813
-0.008592827 0.20754375 0.23481683 0.074378856 -0.022320813 0.0038362977 -0.19071136 -0.013621993
0.20180497 0.11904758 0.18568344 -0.064745314 -0.010001827 -0.14795212 0.056762766 0.01693352
-0.24268411 -0.15449378 -0.17664404 -0.038563337 0.05064655 0.010112596 -0.003920214 -0.060118362
-0.10818973 -0.0065653296 0.11765347 -0.09366093 -0.23120612 0.013248959 0.029971763 0.03804188
-0.2002995 0.17312899 -0.04172286 -0.24048528 -0.09587222 -0.008325495 -0.00322207 0.1886664
-0.14788984 -0.09954989 -0.10762056 -0.046961717 0.053520937 0.08093747 -0.022716861 -0.0036870248
-0.07451594 0.04730663 -0.02050535 -0.064306654 0.12251704 -0.20844491 -0.122146666 -0.06553394
-0.15154219 0.16349119 0.1822919 0.17212282 -0.13471287 -0.10031943 -0.014776605 -0.05459229
0.042968396 -0.1797441 -0.12190097 -0.032340493 -0.025426615 -0.07171657 0.043458145 0.117842585
0.14015995 -0.15081237 0.058955487 0.115091026 -0.055543713 0.3172544 0.2612961 -0.01785281
0.17031316 -0.06350648 -0.1344077 0.07689148 -0.15462361 0.035129752 0.048685256 0.118170984
-0.3635841 -0.14637926 0.13720559 -0.18969621 -0.121580936 0.021738095 -0.108399935 0.16637301
-0.010210918 -0.12043857 -0.05929352 -0.038225517 0.20340376 0.11378192 -0.23746157 0.05421682
-0.028015137 0.01698196 0.079110764 0.026908927 0.07549613 -0.14614342 -0.014739711 0.11864346
-0.069096334 0.0066226777 -0.17396519 -0.08457712 -0.08119685 -0.057274994 -0.07777248 -0.10502163
-0.008328939 0.13687232 -0.016936868 0.16175194 0.19017287 0.035982497 0.03958561 -0.020622082
-0.16121681 -0.05640877 -0.21637033 -0.05369672 -0.25398025 -0.056118585 -0.07381691 0.31780195
0.12807778 0.298732 0.00497626 -0.17134961 0.097985625 -0.068622395 0.12687752 -0.030976007
-0.10868276 0.046001147 0.104041375 0.110795885 0.123377055 -0.09923417 0.09494965 0.05139676
0.2324718 -0.026529284 -0.04686688 0.1530357 0.07008027 -0.024133671 -0.2753415 -0.065565825
0.123844884 0.050887212 -0.2931399 0.18665808 -0.024486698 -0.11633492 -0.10881769 -0.18726735
-0.011451377 -0.06647199 -0.09059564 -0.094908014 0.1497207 0.21211644 -0.17340848 -0.020156154

layer3.bias f4 [256]
00000000: 06c7 61be 1868 9c3d 4d13 d33b 4ba4 debd
00000010: b159 243e aa7d 58be b4a1 0cbe dc85 d63d
00000020: 5750 74bd 2dc1 333d bd1d 233c e1e6 e63d
00000030: 1f34 463e f5b3 bb3d 47ad 38bd bbd9 f83d
00000040: a038 323e a232 623c 8882 0fbe 3ece d33d
00000050: cf52 1a3e 1458 a03d 1327 58be b8da 57be
00000060: d965 04be 2d0f 593e 9ce8 bf3d d36e 763d
00000070: 5050 21be b169 b53c e1c2 9e3d 1159 9e3d
00000080: fd09 3bbd 3481 c53d 9468 383d a6b8 d63d
00000090: d7a8 1f3e c72a 24be 16e1 203d a59c 52bd
000000a0: 8ff6 ce3c 1f53 70bc abf3 893d f154 86bd
000000b0: 8107 a03d aa3d 78be 322c 2ebe b108 48bd
000000c0: 1340 93bd a0b3 43bd 3f8e 6fbd bf31 383d
000000d0: b67d 1dbd 906e 913c 3ee9 7dbe 3dde f0bd
000000e0: 8794 c6bd 27db 123e 31ee 47be 9131 7abe
000000f0: 7aaa d8bd 7804 55be 019f 9abe b10d b23d
00000100: 5cb1 c63d 6283 ab3d 19a5 b5bc fa55 81bd
00000110: 84d5 4ebd 22f7 43be 05ab b03d 2334 42be
00000120: 4ccf 7c3d e30d 14be 7f95 443e 93fe 12be
00000130: b163 55be f582 6dbe 643f 2cbc 660f cf3d
00000140: 65d9 06be e80f abbc cd0f 023e 29c4 cbbd
00000150: e9dc 04be 7e42 7cbc 4fad ff3d bb32 b33b
00000160: ad10 1d3e b350 d43d bf24 f9bd 941c 7a3d
00000170: ec10 26bd 604a 9abe 66c2 d9bd 7fd0 3ebe
00000180: 95d4 463d c57c 343d edfe eb3c 97dd 79ba
00000190: 9d53 36be 33d4 e5bc 1337 9f3d 9857 fd3c
000001a0: f350 133e 3a93 61bd c247 30be adb9 93bd
000001b0: 8c4e 52be 0ce5 2c3e f9b6 18be 7c6c 8a3d
000001c0: d445 b23d 233e 6e3a 69f7 313d a396 f8bd
000001d0: 5de4 3cbe 666b a33b d202 6dbd 554d 9f3d
000001e0: 66d2 e0be 7447 0cbd e7d2 5dbd 9233 d6bd
000001f0: 5c9f ec3c 4651 edbc 4b1c c03c 6116 1fbe
00000200: a309 12bd ec46 383e 4b65 4b3e dde3 13be
00000210: bc8c 81bd d8bc ed3d f0d9 14be 95a4 f63d
00000220: 0b66 d43c ed24 8abd c6d6 64bb 9a3f f23d
00000230: 82de 423c 1578 5bbc 7b49 1cbe 86f3 a43d
00000240: 49ef 0cbe 9961 ae3d a859 79bd f68d 083d
00000250: 96e0 e4bd 649c e5bd 4c03 d53d 12b1 5e3e
00000260: 1b39 38be 8375 1d3e 4870 2f3e b8d5 863d
00000270: 6d49 3c3d 8a3a e83d 671c 1a3e cf1c c63d
00000280: a3b2 823d 65c3 d33c 97b7 f53d 6b13 463d
00000290: cd3e f43d 7cdd e6bc 19c6 993d f1d2 3c3e
000002a0: 0b6c 8b3d 6d94 8d3e 8c0f 0d3e 8cab b6bb
000002b0: 333c 4e3e 1285 103e 90e6 2c3d f23f af3d
000002c0: 7740 4c3d 01b1 e4bd 6f47 b63d 1e64 34be
000002d0: 7afc 503c 5364 993c 6fe7 9f3d f798 2c3e
000002e0: 9d3a 9dbc e1ab e8bd 3cf0 12be b8df 593e
000002f0: da59 903d 7ec5 82bd 622d 043e cf3a 923d
00000300: 858f f0bd 48c6 c9bd b138 09be 1c50 c73d
00000310: 5a64 0cbe 9e8b 313e 0abf d2bc fb7e 67bd
00000320: 2951 c7bc 1229 08bd 512c 1fbe a890 1bbe
00000330: a9df 1d3a 8782 733e e60b 36bc 4385 64be
00000340: 63a6 8f3c ab5c 78be d4ca f2bb 8cf8 8ebd
00000350: f37f 4dbc 92c6 223e 7917 e03c 4489 4aba
00000360: 749d 313e 782e 083d 8ae9 39be b245 123d
00000370: 4d7b 91bd 3d3c 123e 0ce5 603e 07bf a1bc
00000380: 04a0 b2bc 907e 813d 3a13 dabd 4c56 833d
00000390: 2891 aebd 0129 f5bd 0f6c 9fbc 1682 b0bd
000003a0: 327e 7c3d 768e 473d fdf8 bbbd bff6 7abd
000003b0: f5dd dd3d 290b 323d 9cad 403e f77f 3b3e
000003c0: b116 2dbe 9285 5ebd 91ba 1f3d 74ac df3d
000003d0: eb02 b93d 8406 823d b25d 45bd d334 303e
000003e0: b507 853d 84d8 bdbd 8dae 50bd 26ad 4dbd
000003f0: 8ea3 d0bd 7443 15be 0913 3c3d d34b 0cbe
-0.22048578 0.07637042 0.00644151 -0.1087118 0.1604984 -0.21141687 -0.1373356 0.104747504
-0.05964693 0.0438854 0.009955821 0.112745054 0.1935582 0.091651835 -0.045087125 0.12150904
0.17404413 0.013806017 -0.14014637 0.10342072 0.15070651 0.078292996 -0.21108656 -0.21079528
-0.12929477 0.21197195 0.093705386 0.060164284 -0.15753293 0.022145124 0.07752014 0.07731832
-0.045663822 0.09643784 0.04502161 0.10484438 0.15591751 -0.16031943 0.03927716 -0.05141892
0.025264053 -0.014668255 0.06735929 -0.0655917 0.07813931 -0.24242273 -0.17009047 -0.048836414
-0.071899556 -0.047778726 -0.058485266 0.044969317 -0.038449965 0.017752916 -0.24796006 -0.117611386
-0.09696298 0.14341412 -0.19524457 -0.2443297 -0.10579391 -0.20802486 -0.30199435 0.08694018
0.09701797 0.08374669 -0.022173451 -0.06315227 -0.050496593 -0.19137242 0.086263694 -0.18965201
0.06172113 -0.14458422 0.19197653 -0.14354925 -0.2083881 -0.23194487 -0.01051316 0.10110359
-0.13168867 -0.020881608 0.1270134 -0.09949524 -0.12974896 -0.015396712 0.12484228 0.005468694
0.15338393 0.10366955 -0.12165212 0.06106241 -0.04054348 -0.3013487 -0.10632782 -0.18634222
0.048542578 0.044064302 0.028808082 -0.00095316157 -0.17805333 -0.028055286 0.077741764 0.030925557
0.14386348 -0.055072047 -0.17214873 -0.07213149 -0.20537776 0.1688425 -0.14913549 0.06758973
0.08704725 0.00090882386 0.04344884 -0.12138107 -0.18446489 0.004987168 -0.057864018 0.07778422
-0.4391052 -0.03424783 -0.05415621 -0.10459055 0.028884582 -0.028969418 0.023450991 -0.1553588
-0.03565372 0.17995805 0.19862859 -0.14442392 -0.06325671 0.11608285 -0.14536262 0.1204311
0.025927564 -0.06745324 -0.0034918054 0.11828537 0.01189387 -0.013395329 -0.15262406 0.08054261
-0.13763155 0.08514709 -0.06087652 0.03333851 -0.11175649 -0.1121147 0.104010195 0.21747234
-0.17990534 0.15376858 0.17132676 0.06583732 0.04596846 0.113392904 0.15049897 0.096734636
0.063817285 0.025850007 0.119979076 0.048358362 0.11926041 -0.028181784 0.07508487 0.18439843
0.06807717 0.27652302 0.13775462 -0.005574649 0.20140152 0.14113262 0.04221207 0.085571185
0.049866166 -0.11166573 0.089003436 -0.17616317 0.012755508 0.018724596 0.07807814 0.16855226
-0.019192988 -0.11360908 -0.14349455 0.21276748 0.07048388 -0.06385325 0.12907937 0.07140123
-0.11746124 -0.09852272 -0.13400532 0.097320765 -0.13710156 0.17338416 -0.02572586 -0.056517582
-0.024330692 -0.033242293 -0.15544249 -0.151919 0.00060224027 0.23780261 -0.011111235 -0.2231646
0.017535394 -0.242541 -0.007409433 -0.06981 -0.0125427125 0.15896061 0.027354943 -0.00077261426
0.1734522 0.03324744 -0.18155494 0.035710998 -0.07103596 0.14280792 0.21962374 -0.01974441
-0.021804817 0.06322968 -0.106481984 0.06412944 -0.0852378 -0.119707115 -0.019460706 -0.08618562
0.061643787 0.048719846 -0.0917835 -0.06127047 0.108333506 0.043467674 0.18816227 0.18310533
-0.16903187 -0.0543266 0.038996283 0.10921565 0.0903376 0.06348899 -0.048185058 0.17207651
0.064956106 -0.09269813 -0.050947715 -0.050213955 -0.101874456 -0.14576513 0.04591659 -0.137008

layer4.weight f4 [128, 256]
00000000: c619 f5bd 3682 553e 5013 c2bd 0ec8 a73d
00000010: 91ee b13d 4015 6b3d 5750 183b 5461 183e
00000020: 04cf cf3a ff3b 4e3e fbd5 013e bd8c 30bd
00000030: 9b33 0dbd b98d 5d3d 5089 9f3d 1da1 83bd
00000040: 9f65 9d3c cf16 24be e2f0 5c3d 4754 1c3d
00000050: 111e fe3d ef55 483c e970 803e f4d2 94be
00000060: 4b65 d3bd f7a8 c1bc 5dbf 96bd 2899 5d3c
00000070: be2f 85be 7acd 70bd e11f ea3a 49a6 f9bd
00000080: 99be 20be 74a0 de3d 5f44 213d cf18 983b
00000090: 4857 06be e1e7 8abb 60ea dd3c 7313 393d
000000a0: 8a47 e337 2a4b 15be 59c0 a2bd 1c2e 0ebe
000000b0: 2d16 a93d a6a3 1dbe 2179 f7bd bedf 2cbe
000000c0: 5842 013e 26de 563a 3b85 1ebc be3c 5bbe
000000d0: 8d66 a5bd e6ac 6a3c 0590 c03b 81e8 93bd
000000e0: f2f5 6ebe 0133 c93c 15f1 3abe 1271 a7be
000000f0: e71b 1ebe 9f17 81bc 6da0 2a3d 5731 13be
00000100: b746 30bd bcbb bebd 3303 d1bb c60c 093e
00000110: 2572 70be 1e4e c43d 1d78 a53e bd79 3dbd
00000120: 01ca b9bc c78e 0abd c4c8 953d 132f 4fbd
00000130: f9eb c03d 18f1 0f3e 4655 04be 7c48 17bd
00000140: 578d 543c 2a60 88bd f0c2 f13c 7493 c3bc
00000150: bde4 1d3d 0bd7 5abd d0b8 3e3d cbe1 3c3e
00000160: 6e50 3a3d aeba d33d f7f7 05be 856d b73d
00000170: 55c2 293d 6d6a 3e3d 3595 cdbd 8c76 a93d
00000180: 3623 fc3d ccdc 8c3e 1b2b 42bc 6a46 923c
00000190: 0f6f e6bd 7e7f babc dfa4 ec3c a5cf 7cbe
000001a0: f859 113d 4d6f 66be ce72 8ebe ee96 05be
000001b0: 5d5d 093d ba29 933d 9ce6 2cbe 3e7f 293e
000001c0: 5100 bfba c2b3 903c b1b4 423e e087 6abe
000001d0: 9ec4 b2bc 9ace f43d f58e 603e 060e b1bd
000001e0: 72eb 62bb 4c7a bf3d adfc 013e c83c 18be
000001f0: 4afe fabd 3667 44be d02f 4dbe c165 713d
00000200: 2c7c d1bd 3d95 183e a055 8bbc 0c3d 8d3d
00000210: faea 50be cfbb 56be 7bcf 0dbe f953 a23d
00000220: cea3 d5bd f408 c63d 3f23 183d b96f edba
00000230: 37e7 d73d 2685 073e 217d 03be 5e61 003c
00000240: cb8d a83c e8b1 9a3d f5b2 ba3d 9129 d9ba
00000250: c4f9 ea3d b45f 1c3d dd69 0c3e 52ac 5d3e
00000260: d08c 6bbe 6872 77be cebb 803e a3df 9c3d
00000270: 6e8f 4fbd 8307 0bbd a2ac 073e bedc 3cbe
00000280: c331 033a 7c73 95bd e02d f83d 71d5 463d
00000290: 3bc1 4a3d 1d3c f13d 5a18 ee3d 3e2c 2fbe
000002a0: 1b68 f0bc 19dd 593d 13c7 0b3e 8a24 b0bc
000002b0: ff12 b337 0c0e 083e 832d b23c 63de 54be
000002c0: 31e0 fbbc 188a 773d b419 6c3c fa56 8abc
000002d0: 3fa3 ee3d d987 2a3e 2564 293d 18a6 773e
000002e0: e0c1 d63d 93fa 25be 8cbd 2bbd 4023 533d
000002f0: 2dea 073e 7262 003b 446e 21be f6ba 433d
00000300: 3b3e e93d 7a71 333e 6571 233c 4a72 49bd
00000310: 31b6 b0bd f99a 6ebe 3274 84be 94f6 bf3d
00000320: 8f65 443e 5d19 773d c1d7 5d3e f847 4dbe
00000330: 6f9f e23d a2a8 18be 6942 a43d 3914 803d
00000340: 336a d83c 0be5 38be 45bb 47bd dbd4 6cbd
00000350: 1382 083e e049 673e df4b d73d 3dfd 03be
00000360: 3552 0ebe d3bc fdbd 4819 69bd 8867 9c38
00000370: 753d 78bd 3994 5d3c bc2e 483e c8c3 983d
00000380: ddc8 da3b a9e7 d5bd eb86 0a3e bc2d bb3d
00000390: 2a27 babd 914f 1c3c 6f57 4b3d 4f60 013e
000003a0: e019 ebbd d242 ffbd fc80 583d c641 8dbe
000003b0: 6bc0 723e 01f9 133e bb04 ee3d 7850 773d
000003c0: dfe8 a4bd c01d 74bd 9a2d cd3b ad02 7ebe
000003d0: 6744 ab3e 93f4 6fbd 9623 453e 122b 493e
000003e0: 5a64 85be 428e 2f3d 283c 2a3c 8e01 513c
000003f0: 5d58 243a 202d 1a3e 5fc5 28bd da16 373d
-0.119678065 0.20850453 -0.0947634 0.08192454 0.08688081 0.057393312 0.0023241246 0.14880878
0.0015854542 0.20140074 0.12679283 -0.04310297 -0.034473043 0.054090235 0.07789862 -0.06427214
0.019213496 -0.16024326 0.05394066 0.03816631 0.124080785 0.012227519 0.25086144 -0.29067194
-0.103220545 -0.023640139 -0.073607184 0.013525285 -0.26012987 -0.058789708 0.0017862284 -0.121899195
-0.15697707 0.10870448 0.039371844 0.0046416293 -0.13119233 -0.004239068 0.027089298 0.045184564
2.7093822e-05 -0.14579454 -0.07946844 -0.13884777 0.08256183 -0.15394458 -0.120836504 -0.16882226
0.12622964 0.0008196555 -0.009675319 -0.2140989 -0.08076201 0.014323449 0.0058765435 -0.07222081
-0.23336008 0.024560453 -0.18256028 -0.32703453 -0.15440331 -0.015758334 0.0416569 -0.1437429
-0.04303619 -0.09313151 -0.006378555 0.13383779 -0.23481043 0.09585212 0.32318202 -0.046258677
-0.02267933 -0.03382757 0.07313684 -0.050582003 0.09420008 0.14056814 -0.12923154 -0.03693436
0.012973151 -0.06658967 0.029511899 -0.023874022 0.03854822 -0.053427737 0.04656297 0.18445508
0.04548686 0.10338341 -0.13082872 0.08956436 0.041445095 0.046488214 -0.100382246 0.08274564
0.123114035 0.27512205 -0.011851097 0.017855842 -0.112516515 -0.022765871 0.02888721 -0.24688585
0.03548619 -0.22503395 -0.27821964 -0.13045856 0.033536304 0.07185693 -0.16884845 0.16552445
-0.0014572238 0.01766384 0.19014241 -0.22903395 -0.02182227 0.119534686 0.21929534 -0.08645253
-0.00346252 0.09349498 0.12694044 -0.14866936 -0.12255533 -0.19179997 -0.2003777 0.05893493
-0.10228762 0.1490068 -0.017008603 0.068964094 -0.20402136 -0.20970081 -0.13848679 0.07926173
-0.10431634 0.096696764 0.03714299 -0.0018114961 0.105421476 0.13234386 -0.12840702 0.007835714
0.020575425 0.07553464 0.091161646 -0.0016568174 0.1147342 0.038177207 0.13712259 0.21647766
-0.23002934 -0.24164736 0.25143284 0.07659843 -0.050673895 -0.03394271 0.13249448 -0.18443581
0.00050046685 -0.072974175 0.12118125 0.048543397 0.049500685 0.11779044 0.116257384 -0.17106721
-0.029346516 0.05318937 0.1365016 -0.021501798 2.1347309e-05 0.13286608 0.021750217 -0.20787959
-0.030746551 0.06043443 0.014410425 -0.016887177 0.116522305 0.16653384 0.04135527 0.24184453
0.104861975 -0.16208868 -0.041928813 0.05154729 0.13272925 0.0019589928 -0.15764719 0.04778572
0.11388823 0.17523757 0.009975766 -0.04918126 -0.086285 -0.23301305 -0.258699 0.09373203
0.19179367 0.060326923 0.21664335 -0.20046985 0.11065566 -0.14908078 0.08020479 0.06253857
0.026417827 -0.18056123 -0.04876258 -0.057820182 0.1333087 0.22586775 0.10512518 -0.12889571
-0.13898547 -0.12389531 -0.056908876 7.457944e-05 -0.060605485 0.013524109 0.19549078 0.07459217
0.006676777 -0.10444576 0.1352803 0.091395825 -0.09089501 0.0095404545 0.04964393 0.12634395
-0.11479545 -0.12463917 0.052857384 -0.27589244 0.23706214 0.14450456 0.11621996 0.060379475
-0.08052229 -0.059598684 0.0062615396 -0.24805708 0.33450624 -0.058582854 0.19251856 0.19645336
-0.26053125 0.042860277 0.010390319 0.012756718 0.00062692707 0.15056276 -0.041203853 0.044699527

layer4.bias f4 [128]
00000000: 4837 803c 89f1 bb3c 9314 a9be 8452 133e
00000010: f675 15be d1ef f8bd a880 9c3e ec1e 353e
00000020: f03b 8c3d 0681 f43d fe80 3d3e 25b5 d7bc
00000030: b594 91bd 72a8 cbbb 7058 2a3d 1d78 8ebd
00000040: 2e67 9c3d e1fd 913d 1634 033d ebf4 6f3d
00000050: 29fe 993a 6880 3fbd 54b3 293e 1217 b13d
00000060: 0957 0f3e 8dbf 72bd def4 143e d634 3e3b
00000070: 6ab4 eb3c c843 c2bc 5a24 cf3d 5ea5 9f3c
00000080: a375 223e d0e8 8abd 1fb3 83bd 4c98 c8bd
00000090: 1ccd 1f3e c7ee a63d 0843 59be 9a87 313d
000000a0: 43ff df3d bca8 86bd 1713 d43d f3ef ac3d
000000b0: 2226 25bd b30c 6abd 4ef4 69bd 40bc 2c3e
000000c0: 4df2 213e a0b3 a9bd 945c 26be 302b a93e
000000d0: cd3a a73d 9b2c 393c 1c92 9cbc 0496 e53d
000000e0: 0247 7d3d 0f1c b03c fd31 20bd 39de b43d
000000f0: 9b00 9c3d 8039 413d e94e 063d b201 183e
00000100: 2a79 583e ab18 bd3c ec40 b0bc 6b92 ed3b
00000110: 5fc3 2dbd 3642 f0bd 6ee7 7dba 16ba febc
00000120: e3c2 20bd 1a25 71be 17bc c63b 2bcf 6cbe
00000130: eac2 afbd 0298 9d3c de4a 003e a7be cf3d
00000140: a7a4 9b3d a1a3 163c 46a7 fd3d 41dd 003c
00000150: 1033 cf3d 7c4c e53b d88a b13c 9e9b 883d
00000160: 36c3 2c3e 9e76 313e b2ca 4fbc 50eb 44be
00000170: 5692 db3c 6c04 65bd 142d 4abe 970f c83d
00000180: 4b80 2c3c 2f92 bd3d c3a4 353d 66d6 df3d
00000190: c038 97bd 0b6e 253e 17d0 0d3c 2736 1a3e
000001a0: 8347 893d c3ef 00bd f53d 13bd b6bc 663c
000001b0: 16bd c5bd ba17 1cbe 671f e4bd 934f c23d
000001c0: c470 2a3e 46e1 213e a097 49bc bea1 f6bb
000001d0: 1f67 8bbd ebd4 0abe b1c2 a4bd f006 c4bc
000001e0: 5cc4 c53a 767e 193e d163 e13c a502 3e3e
000001f0: adac 273e 9fa3 5abd 9bf2 f13d 094c a9bd
0.01565136 0.022942321 -0.3302351 0.14386946 -0.1459578 -0.12155116 0.30566907 0.17687577
0.0684737 0.11938672 0.18506238 -0.026331494 -0.07108442 -0.0062151486 0.041588247 -0.069565035
0.076368675 0.07128502 0.032032095 0.05858318 0.0011748719 -0.046753317 0.16572315 0.086469784
0.13998045 -0.05926471 0.14546534 0.0029023192 0.028772552 -0.023713961 0.101143554 0.019488033
0.15865187 -0.06782687 -0.06430649 -0.09794673 0.15605587 0.08151012 -0.21216977 0.04334221
0.10937359 -0.06575152 0.103552036 0.08444204 -0.04031957 -0.057141017 -0.057117753 0.16868687
0.15815087 -0.08286214 -0.16246253 0.33040762 0.08165512 0.011302139 -0.01911264 0.11210254
0.061835296 0.021497754 -0.039110173 0.08831448 0.07617303 0.047173977 0.0327901 0.14844397
0.2113997 0.023083052 -0.021515332 0.0072501204 -0.04242265 -0.11731379 -0.000968567 -0.031094592
-0.03924836 -0.2354931 0.0060649025 -0.23125903 -0.08582099 0.019237522 0.1252856 0.10143786
0.07599764 0.009194286 0.123854205 0.007865251 0.10117161 0.006997643 0.021672651 0.066703066
0.16871342 0.17330405 -0.012682604 -0.1923039 0.026803177 -0.05591242 -0.19743758 0.097685985
0.010528634 0.09256398 0.044346582 0.10929565 -0.07383871 0.1615526 0.0086555695 0.1505972
0.06703093 -0.031478655 -0.03594776 0.014083078 -0.09655206 -0.15243426 -0.11138802 0.09487834
0.16644579 0.15808591 -0.012304217 -0.0075266054 -0.06806778 -0.13557784 -0.08044947 -0.02392909
0.0015088427 0.14989647 0.027513416 0.18555696 0.16374464 -0.053378697 0.118138514 -0.08266456

layer5.weight f4 [64, 128]
00000000: 1fb3 9bbd 3034 99be 85be 25bc 3765 9b3d
00000010: 8b70 933e 7906 68be 47b9 39bc b7f3 9f3d
00000020: e71c 84bd 2a5d 593d 64f3 803c fbbc 18bd
00000030: 324d 9abe 18b6 54bc 9721 063d 3de6 eebd
00000040: 802d 623c 3631 a53d 3818 52be f5ef 5abd
00000050: d4da f43c e595 463e 94d5 273d fdd1 233e
00000060: 6d0b 16bc a2c4 4cbe ea1b 383e a6f2 e1bd
00000070: 12a8 3dbe 295f 8dbb 9f19 013e 0fcf 523e
00000080: 3f8b d33d 16a4 79bc ec83 253c 2354 d7bb
00000090: d58e 0c3d 2f7c bcbc ba9f 17be f198 dfbd
000000a0: 4ea3 323d 744a adbe 28dd 29be e9a3 873e
000000b0: 1d3e b03b 2e2c a6be ab83 ccbb 6517 9f3d
000000c0: 2794 28bb 579f 4ebd 40c7 34be 005c 943c
000000d0: 4b16 84be 693d 3ebe f382 8d3d ae11 463d
000000e0: 8dbc 57be 8f2d 95be 96ee 403c 005b 15bd
000000f0: 7915 a0be 9363 043e eb20 61be c941 143d
00000100: 0684 5a3d 8d77 a03d d284 a43d be41 debd
00000110: 35f6 993e c77f d8bd 6aa1 a4bd 66c6 7cbe
00000120: f1a9 31be 3779 95be dfe5 eb3d 02d3 47bb
00000130: 3dfa a8be b833 9dbd dfbc 8bbd 14b9 9e3e
00000140: f1cd 31be 3a3c 24be 2cec 353e d64f 31be
00000150: ce0f 08bd e5ea 81bd feea 3fbe cfdf 01bd
00000160: 8961 373d ab8a d5bc 31f1 cd3d 7f25 073e
00000170: 1293 63be 4f92 24be 911e 1f3d 8c33 d3bc
00000180: 4e17 853d 3d61 c6bd f127 cb3d c7b0 c5bd
00000190: 829b f5bd 67da 9abe 4213 99bd 7460 ffbd
000001a0: 9d68 963d 6617 b4bd 4070 89be 7c46 ad3d
000001b0: 7be3 f0bd d57e 7fbe bbf9 63be 999a 853d
000001c0: 56a4 6dbd 0ff9 acbd f562 c8bd 151d acbd
000001d0: 7fa8 8c3d b47f 1a3e 41d7 87be c155 683e
000001e0: ac5d d7bd 5ecc 1fbd 9168 efbc 7a1e e93c
000001f0: a1ea 553b e285 04be ad7a 8ebd f98e 683e
00000200: d2a4 0f3c eb72 b13d b6da 3dbe 4614 d3bd
00000210: 4c1f a7bd 33f6 36be 66d3 b73e 295f 6fbe
00000220: bd95 24bd 4f19 2b3e cae0 513e 34c7 5fbe
00000230: 2b55 f4bc 54e6 8fbd 526a aabd 9b86 17be
00000240: 4613 0ebe aa7a 04be fe60 7ebc 74f3 a63e
00000250: 5bdf 513e 3e17 c53d 158c ea3d 860a 56bd
00000260: ea18 023e 4082 17be a856 a23d ceeb 85bd
00000270: 4f3c 903e a8a9 f83b 2836 47bd 3846 e3bd
00000280: 9725 90be 3609 663d 40ae 2ebd a082 1abe
00000290: 6bcc b5bc 8fc1 75be 2c9a ffbb a6a0 a2bd
000002a0: b75b 81be 56ca 16be 1bc7 9cbd 7cb9 48be
000002b0: 99f0 69be 8462 4cbe 78c7 233e e395 f8bd
000002c0: 080e 21be 55bf 30be 024e d2bc 5a72 4fbe
000002d0: 37fe 33be 359f 3d3c b845 fdbd 0900 45be
000002e0: 056e a5bd 1cb2 1bbe 97b4 e73d d043 673c
000002f0: f0c1 a3bd 87af 383e 784b 01bc ad2c 693d
00000300: 61a2 82bc bdbc 09be 8051 2e3b 6783 edbc
00000310: d183 21bd 8477 d4bc ca4a 45be e766 94bd
00000320: d07c 73be 01c8 cdbd 985c a3bd d5b6 8ebd
00000330: 5d7e 87bc e7a0 6bbd 49b8 6abd 5fe4 6bbd
00000340: 7b99 603e e0fa e53d e227 b63c ab0e 4fbd
00000350: e565 7c3c 4f01 6d3c b6d3 53bd 860f a33b
00000360: 08df 51be cb9c 223e d8b3 dabd 0085 3f3a
00000370: 8dbc 9abc 345a 973d 0f29 0dbe 784e 743d
00000380: 6028 b4bd 9f83 d93d 9aa4 c7bd 32c4 9d3e
00000390: 6788 d73d c058 93bd b35b 93bd af68 4ebd
000003a0: e26e 11bd 589c 2f3d c54c 31bd 9e41 cebd
000003b0: 2354 aebd fc1e 45bd 9f8e 1abd 2d25 31be
000003c0: a2de e93e cdf7 9d3e e0b2 b53d 3278 dcbd
000003d0: e6a7 a9bd 5225 423e 2487 dbbd 944a 80be
000003e0: 39ab dabc 7dcc d6bc 1a31 f23b 90a1 8e3e
000003f0: f5f0 783e 2d41 f2bd c2d1 a2bd c4b0 5abb
-0.07602524 -0.29922628 -0.010116224 0.075876646 0.287968 -0.22658719 -0.0113356775 0.07810157
-0.06450825 0.053067364 0.015741058 -0.0372896 -0.3013702 -0.012982868 0.032746878 -0.11665008
0.013804793 0.08066027 -0.20517051 -0.053451497 0.029889502 0.19393118 0.04097517 0.15998073
-0.009157998 -0.19996884 0.17979398 -0.1103261 -0.18521145 -0.0043143225 0.1260743 0.20586799
0.103292935 -0.015236875 0.010102253 -0.006571309 0.034315903 -0.023008434 -0.14807025 -0.10917843
0.04361277 -0.33845866 -0.1658827 0.2649224 0.005378498 -0.3245558 -0.006241282 0.07768134
-0.0025723071 -0.050444927 -0.17654133 0.018110275 -0.25798258 -0.18578114 0.06909742 0.048356704
-0.2106802 -0.2913632 0.011775633 -0.036463737 -0.31266382 0.1292861 -0.21985213 0.03619555
0.053348564 0.078353025 0.08033146 -0.10852383 0.30070654 -0.105712466 -0.080386 -0.24685058
-0.17349984 -0.29194042 0.11518454 -0.003049076 -0.33003417 -0.0767588 -0.06823134 0.31000578
-0.17363717 -0.160386 0.17765874 -0.17315611 -0.033218198 -0.06343631 -0.18741986 -0.03170758
0.04477075 -0.026067099 0.10055769 0.13197897 -0.22224072 -0.16071437 0.03884751 -0.025781415
0.06498586 -0.096865155 0.099197276 -0.09652858 -0.119925514 -0.30244753 -0.07474376 -0.12469569
0.07344172 -0.087935254 -0.26843452 0.084607095 -0.117621385 -0.24950726 -0.22263233 0.06523628
-0.05801805 -0.08445942 -0.097844996 -0.084039845 0.068680756 0.15087777 -0.26531413 0.22688963
-0.10515913 -0.03901326 -0.029224666 0.028456915 0.003264107 -0.12941697 -0.06956992 0.2271079
0.008767324 0.08664497 -0.18540463 -0.10306601 -0.08160266 -0.17867355 0.35903472 -0.23376144
-0.040181864 0.16708873 0.20495906 -0.21853334 -0.029825768 -0.070263535 -0.0832106 -0.14797442
-0.1387454 -0.12937418 -0.015526054 0.32607615 0.2049536 0.09623574 0.114525 -0.05225613
0.12704816 -0.1479578 0.079266846 -0.06539117 0.28171012 0.007588584 -0.04863563 -0.110973775
-0.2815368 0.056161128 -0.042646646 -0.15088892 -0.0221922 -0.23999618 -0.007800361 -0.079407975
-0.25265285 -0.14725623 -0.07655164 -0.19602007 -0.22845687 -0.19959456 0.1599406 -0.121379636
-0.15728009 -0.17260487 -0.025671963 -0.20258465 -0.17577444 0.011573602 -0.123668134 -0.19238295
-0.08077625 -0.15204662 0.11313742 0.014115289 -0.07995975 0.18035708 -0.007891528 0.05692737
-0.015946569 -0.13450904 0.002659887 -0.028993322 -0.03943235 -0.025935896 -0.19266811 -0.072461896
-0.23778081 -0.10047913 -0.07976645 -0.06968466 -0.016539747 -0.057526495 -0.057304654 -0.05759084
0.21933548 0.11229491 0.022235814 -0.050551098 0.015405153 0.014465644 -0.051715575 0.004976216
-0.20495236 0.15880124 -0.10678834 0.00073058903 -0.018888736 0.07390252 -0.13785194 0.059645146
-0.087967634 0.10620808 -0.09748192 0.30813748 0.105240636 -0.07194662 -0.071952246 -0.050392803
-0.035506137 0.04287371 -0.043286104 -0.10071109 -0.085121416 -0.048125252 -0.03773367 -0.17299338
0.45677668 0.3085312 0.08872008 -0.10765113 -0.08283977 0.18959549 -0.107191354 -0.250569
-0.026692973 -0.026220554 0.0073911073 0.27857637 0.24310668 -0.118288375 -0.079501644 -0.003336952
