outputs/trained_models/placement_model_best.pth (torch, 584899 bytes, 16 tensors)

layer1.weight f4 [128, 15]
0	0x3ec83e50	0.3911004
1	0x3e8a97aa	0.27068835
2	0x3dad2bbb	0.084556065
3	0x3ea1f388	0.31631112
4	0xbe231d9d	-0.15929265
5	0xbe2147ff	-0.1575012
6	0x3ea7ce45	0.3277456
7	0x3e6db53a	0.23213664
8	0x3d2a179b	0.04152642
9	0xbd5153ee	-0.051105432
10	0xbec76bad	-0.38949338
11	0xbea0fc0b	-0.31442294
12	0x3dc0cc22	0.09413935
13	0xbf24c68a	-0.64365447
14	0x3f18fa41	0.5975686
15	0xbd8debee	-0.06929766
16	0x3ebda954	0.3704325
17	0x3d0eae3a	0.034834124
18	0x3e06efdf	0.13177441
19	0xbdcd1509	-0.10013778
20	0xbd9aed79	-0.075648256
21	0x3e2c87da	0.16848698
22	0x3d301bc2	0.042995222
23	0x3e2d724f	0.16938137
24	0xbde2a3b4	-0.1106638
25	0xbd15abd8	-0.036540836
26	0xbeed86eb	-0.46391997
27	0xbecbfc85	-0.39841095
28	0xbe2918c1	-0.16513349
29	0x3ede1381	0.43374255
30	0x3edb3746	0.42815608
31	0xbeb00437	-0.34378216
32	0xbd3237fe	-0.04351043
33	0x3d9f1c65	0.07769088
34	0x3e093621	0.13399555
35	0xbe87a23d	-0.26490965
36	0xbe2e784d	-0.17038079
37	0xbe8e1458	-0.27749896
38	0x3d8740aa	0.066041306
39	0xbe82ea9c	-0.25569618
40	0xbd8f5285	-0.06998161
41	0xbf29dc64	-0.66351914
42	0x3e07cca1	0.13261653
43	0x3d7724ec	0.060337946
44	0x3e0e9a2d	0.13926001
45	0x3ee846f4	0.45366633
46	0xbe87c9fc	-0.2652129
47	0x3e21597c	0.15756792
48	0xbcc77c71	-0.02435133
49	0xbe308fef	-0.17242406
50	0xbe39c296	-0.18140635
51	0xbe65bacd	-0.2243454
52	0xbd6e27c3	-0.05814339
53	0xbb8573ce	-0.004072643
54	0xbe48bc0c	-0.19602984
55	0xbd9b5dd5	-0.075862564
56	0xbeb8410c	-0.35987127
57	0xbe8fc171	-0.28077272
58	0x3dcddf00	0.100522995
59	0x3eef4209	0.46730068
60	0x3d9639a8	0.07335216
61	0x3e2cfb08	0.16892636
62	0xbddb8bda	-0.10720034
63	0x3ca12d38	0.019674882
64	0xbe53f346	-0.2069827
65	0x3db12037	0.086487226
66	0x3d6532b7	0.05595657
67	0xbd4d6aa9	-0.050150547
68	0x3dbc2ebd	0.09188602
69	0xbd416c1b	-0.047222238
70	0xbe104a9a	-0.14090958
71	0xbf8ba00f	-1.0908221
72	0x3dc5f59c	0.09665987
73	0xbd87847c	-0.06617066
74	0x3ed0eb26	0.40804404
75	0xbcfaf353	-0.030633604
76	0xbe78bf6c	-0.24291772
77	0xbe7fbc0e	-0.24974081
78	0xbe24b036	-0.16082844
79	0xbe6fd431	-0.23420788
80	0x3de4d877	0.111741
81	0x3e56e387	0.20985232
82	0x3ddcbcde	0.10778211
83	0xbd85a0f9	-0.06524844
84	0xbd04b40b	-0.032398265
85	0xbdf63824	-0.12022427
86	0x3c20706c	0.009792428
87	0xbc5ac9c1	-0.013353766
88	0xbe746f96	-0.23870692
89	0xbd85f5fd	-0.06541059
90	0x3e1d09db	0.15335791
91	0x3da15751	0.078779824
92	0x3e039892	0.1285117
93	0x3e0dd456	0.13850531
94	0x3c3d3261	0.011547656
95	0x3e038f88	0.12847722
96	0xbe35f0ad	-0.17767592
97	0xbee0e85b	-0.43927273
98	0x3df2d7fe	0.118576035
99	0x3e5548aa	0.208285
100	0xbe127285	-0.14301498
101	0xbd9cee1b	-0.076626025
102	0x3c1183b4	0.008881498
103	0xbe5e70e1	-0.21722747
104	0xbea00605	-0.31254593
105	0xbd784e47	-0.060621526
106	0x3dd6bd0e	0.10485278
107	0xbdbb54ca	-0.091470316
108	0xbeb58179	-0.35450342
109	0xbe4bc1c7	-0.19898139
110	0xbbd9e904	-0.006650092
111	0x3dbdceeb	0.09267982
112	0x3e7021a1	0.23450328
113	0x3e00ce37	0.12578665
114	0x3cd16c15	0.025564233
115	0xbe4843da	-0.19557133
116	0xbee626ea	-0.44951564
117	0xbebaed67	-0.3650925
118	0x3d930f2f	0.071806304
119	0x3e2cf3fe	0.1688995
120	0x3e14fe84	0.14550215
121	0x3ddd358a	0.108012274
122	0x3d5c30eb	0.05375759
123	0x3ef531c4	0.4788953
124	0x3e70fa2a	0.2353293
125	0x3e12e8bd	0.14346595
126	0x3e8fa350	0.28054285
127	0x3db364c9	0.087594576
128	0xbecbdc0b	-0.39816317
129	0xbe1ddd71	-0.15416504
130	0x3c409dd0	0.011756375
131	0x3e9b8f72	0.30382878
132	0xbe9de70d	-0.3084034
133	0xbea67491	-0.32510808
134	0xbf7f0cb4	-0.9962876
135	0xbdf1e2ea	-0.118108585
136	0x3ebf5def	0.37376353
137	0xbd1e247b	-0.03860901
138	0x3e5736e7	0.21017037
139	0xbea0221c	-0.31276023
140	0x3d32bc17	0.043636408
141	0x3e9a375e	0.30120367
142	0x3e2276b4	0.15865594
143	0xbe3c999d	-0.18417974
144	0xbd57aa4f	-0.052652653
145	0xbe999025	-0.29992786
146	0xbe281764	-0.16415173
147	0x3c8ba1bf	0.0170449
148	0xbeab56a4	-0.3346454
149	0x3e076910	0.13223672
150	0x3e8c8cf9	0.27451304
151	0x3e96e6ee	0.2947306
152	0x3e00ca15	0.12577088
153	0x3e39c350	0.18140912
154	0x3deb00f2	0.1147479
155	0x3d32d167	0.043656733
156	0x3e12ee42	0.143487
157	0xbe1eee27	-0.15520535
158	0xbdeaeb84	-0.11470702
159	0xbd282467	-0.04105034
160	0x3e460001	0.19335939
161	0x3ebe1960	0.37128735
162	0xbd962f3d	-0.07333229
163	0xbf35cce6	-0.71015775
164	0xbedcecb5	-0.43149343
165	0x3ebc3887	0.36761877
166	0x3e797436	0.24360737
167	0x3ea1a446	0.31570643
168	0x3d9fbf4f	0.07800161
169	0x3ded885c	0.11598274
170	0x3e04a10b	0.12952058
171	0xbe462384	-0.19349486
172	0x3cf1b2ec	0.029504262
173	0xbe3c660d	-0.18398304
174	0xbe287d97	-0.16454159
175	0x3e0908a9	0.1338221
176	0xbd0d2922	-0.034463055
177	0x3f3290eb	0.6975238
178	0x3e0c3c13	0.13694791
179	0xbf29a158	-0.66261816
180	0x3e81e878	0.25372672
181	0x3eb0c078	0.34521842
182	0x3e23d7d3	0.16000299
183	0x3eb6082c	0.3555311
184	0x3ea029e4	0.3128196
185	0x3e2e45fd	0.17018886
186	0xbe2f6644	-0.17128855
187	0x3e4b8085	0.19873245
188	0xbc4bc0eb	-0.012436132
189	0x3e6b4abc	0.22977728
190	0x3e1310c6	0.14361867
191	0x3e4259dc	0.18979591
192	0xbe08c198	-0.133551
193	0xbf7e1855	-0.9925588
194	0xbecd792a	-0.40131503
195	0x3edd7e59	0.43260458
196	0x3e26c213	0.16284971
197	0xbc9c589e	-0.019085225
198	0x3ddacb3b	0.106832944
199	0x3e75f1cf	0.24018024
200	0x3dd21f72	0.10259904
201	0x3e2a3e60	0.16625357
202	0xbbdcfaee	-0.0067437803
203	0xbc82a401	-0.015947344
204	0xbe4b2439	-0.19838037
205	0x3d8b5e5d	0.06805108
206	0xbf0098f0	-0.50233364
207	0x3e22d879	0.1590289
208	0xbf3943ba	-0.7236897
209	0x3f151880	0.5824051
210	0xbd782ccd	-0.0605896
211	0x3d4c4a33	0.04987545
212	0x3d4dafe6	0.050216578
213	0x3e07b720	0.1325345
214	0x3ddb4085	0.107056655
215	0x3dac60fd	0.084169365
216	0x3dda433d	0.10657356
217	0xbddf322b	-0.10898241
218	0xbb07080c	-0.0020604162
219	0xbeb04bc8	-0.34432817
220	0xbe9241cf	-0.28565833
221	0x3d87efd3	0.0663754
222	0xbf5a7086	-0.8532795
223	0xbda4d307	-0.08048063
224	0x3ea05699	0.3131607
225	0x3dcc16f7	0.09965318
226	0x3e2d17d1	0.16903616
227	0xbdb798a7	-0.08964663
228	0x3c71696c	0.014734607
229	0x3d92da72	0.071705714
230	0x3e0b6b92	0.13615254
231	0xbc4312a8	-0.011906303
232	0xbe8ce01e	-0.27514738
233	0x3d6cd21d	0.057817567
234	0xbdebc3ea	-0.11511977
235	0xbd58d268	-0.052935034
236	0xbf68cbb7	-0.90935844
237	0x3df45638	0.119305074
238	0xbe672aac	-0.22574872
239	0x3f2fe6fe	0.6871184
240	0x3d92af98	0.07162398
241	0xbe061725	-0.13094766
242	0x3da1f13d	0.07907341
243	0xbdc0e07e	-0.094178185
244	0xbd8afd2f	-0.06786572
245	0xbe99ce84	-0.3004037
246	0xbdb60212	-0.08887114
247	0xbe2fd163	-0.17169718
248	0xbb96719f	-0.0045911814
249	0x3dd4d462	0.10392071
250	0x3c85ed4b	0.016348502
251	0x3d181022	0.03712476
252	0xbe2eb356	-0.17060599
253	0xbe5794b7	-0.21052824
254	0xbe03e889	-0.12881674
255	0x3e91ba1e	0.2846231

layer1.bias f4 [128]
0	0xbe984c84	-0.29745877
1	0xbca1a312	-0.019731078
2	0x3c139068	0.009006597
3	0x3dad1dc9	0.08452947
4	0xbd4b9e78	-0.049711674
5	0xbe196a3c	-0.14981931
6	0xbd35d333	-0.04439087
7	0xbec12219	-0.37721327
8	0xbe9f423c	-0.3110522
9	0xbe97bc29	-0.29635742
10	0xbe1a5e01	-0.15074922
11	0xbd7d3e7d	-0.06182717
12	0xbe468c4a	-0.19389454
13	0xbc8a4560	-0.016878784
14	0xbe9a4575	-0.30131117
15	0xbcfaefac	-0.030631863
16	0xbcee34ba	-0.029077876
17	0x3c736121	0.0148547
18	0x3db450e2	0.0880449
19	0xbefd0a04	-0.49421704
20	0xbde0f5db	-0.10984393
21	0xbd77a181	-0.060456757
22	0xbe4297c9	-0.19003214
23	0xbebe3203	-0.3714753
24	0xbe6daa0b	-0.23209397
25	0xbda57062	-0.08078076
26	0xbd0bc3a2	-0.034122117
27	0xbebeaf7a	-0.37243253
28	0xbe131ed7	-0.14367233
29	0xbdcbdb4a	-0.099539354
30	0xbbfa2962	-0.0076343277
31	0xbbef8fea	-0.007310857
32	0xbeecee19	-0.46275404
33	0xbe1f49b6	-0.15555462
34	0xbdd01355	-0.10159937
35	0xbdd06859	-0.10176153
36	0x3dec73e5	0.11545543
37	0xbe796d56	-0.24358115
38	0xbdd41190	-0.10354912
39	0xbef0ac70	-0.4700656
40	0x3dbe75aa	0.092997864
41	0xbdda8299	-0.10669441
42	0xbd8b0c5e	-0.06789468
43	0xbe8fbec1	-0.2807522
44	0xbddd608a	-0.10809429
45	0x3c9e11d6	0.019295614
46	0x3c474bde	0.012164084
47	0xbe8d229a	-0.2756546
48	0xbe2c4569	-0.16823353
49	0xbe45b8d2	-0.19308785
50	0xbeec9396	-0.4620635
51	0xbebdaa51	-0.37044004
52	0xbeda49b4	-0.42634356
53	0x3e0b4a9f	0.13602684
54	0xbe04af56	-0.1295751
55	0x3da315ab	0.07963117
56	0x3dcbfb8d	0.09960089
57	0xbe9f3d08	-0.3110125
58	0xbe963d2d	-0.29343548
59	0x3d17141e	0.03688442
60	0xbe985558	-0.29752612
61	0xbe5cef09	-0.2157556
62	0xbe938be4	-0.28817666
63	0xbd6898dc	-0.056786403
64	0xbd4c33f4	-0.049854234
65	0xbec01047	-0.3751242
66	0xbe4e0959	-0.20120753
67	0xbb0992cd	-0.002099204
68	0xbec6df24	-0.38842118
69	0xbe817562	-0.25284868
70	0x3d17e61c	0.037084684
71	0xbd16668a	-0.036718883
72	0xbebd9af7	-0.3703229
73	0xbca40fb0	-0.020027012
74	0xbeab1198	-0.3341186
75	0xbd78a08d	-0.06069999
76	0xbdfc2932	-0.12312545
77	0x3d9a89a3	0.07545783
78	0xbe4ebe03	-0.20189671
79	0xbc4dae69	-0.01255379
80	0x3ceac3f9	0.0286579
81	0xbe8dfa03	-0.27729806
82	0xbeaf3e8b	-0.34227404
83	0xbebfc885	-0.37457672
84	0x3cf7b311	0.030236753
85	0xbc341c0b	-0.010993014
86	0xbe11eb25	-0.14249857
87	0xbd6e7568	-0.058217436
88	0xbbf72ed4	-0.007543424
89	0xbe75f597	-0.24019466
90	0xbc68c152	-0.014206247
91	0xbdf0ecc6	-0.11763911
92	0xbdacf884	-0.08445838
93	0xbdab5eb0	-0.083676696
94	0xbe267571	-0.16255738
95	0xbdc53ea9	-0.09631092
96	0xbe56042e	-0.20900032
97	0xbe829bd5	-0.25509515
98	0x3d8d8d30	0.06911695
99	0xbe58cecc	-0.21172637
100	0xbe9bd282	-0.30434042
101	0xbe1b76df	-0.15182064
102	0xbe0eb145	-0.1393481
103	0x3e1f8092	0.1557639
104	0xbe6c3c70	-0.2306993
105	0xbec701df	-0.38868615
106	0xbebfe1d6	-0.37476987
107	0xbe409fb0	-0.18810916
108	0xbd953d7b	-0.07287117
109	0xbeaebfd6	-0.34130734
110	0xbed8fe7f	-0.42381665
111	0xbee52e96	-0.44762105
112	0xbebed465	-0.3727142
113	0xbe45dc1f	-0.19322251
114	0xbe415e76	-0.1888369
115	0xbea4fac4	-0.3222257
116	0xbe9331e9	-0.28749016
117	0xbe991447	-0.29898283
118	0xbe04a143	-0.12952141
119	0xbebdb99e	-0.37055677
120	0x3dbd6ffa	0.092498735
121	0xbcb61f16	-0.02223162
122	0xbe20eb82	-0.15714839
123	0xbdc15a8d	-0.09441099
124	0xbe91904c	-0.28430402
125	0xbe4f3250	-0.20234036
126	0xbf1bce94	-0.6086209
127	0xbe6a6e82	-0.22893718

layer2.weight f4 [256, 128]
0	0xbe211790	-0.15731645
1	0xbe0f0764	-0.13967663
2	0x3bda9910	0.0066710785
3	0x3ddd802d	0.10815463
4	0x3db4a26d	0.08820043
5	0xbcd65483	-0.026163345
6	0xbcca2d7b	-0.02467989
7	0xbea2b160	-0.3177595
8	0xbd2900da	-0.041260578
9	0xbc7fa0aa	-0.01560227
10	0x3dfa5c3b	0.12224623
11	0x3e68bd21	0.22728397
12	0xbed086f8	-0.40727973
13	0xbd7d0711	-0.061774317
14	0x3c82a8f3	0.015949702
15	0xbe0f0623	-0.13967185
16	0x3d80d812	0.06291212
17	0xbe05a5ed	-0.13051577
18	0xbe4afa03	-0.19821934
19	0xbe894a11	-0.2681432
20	0x3d822e5a	0.06356497
21	0x3dc18889	0.0944987
22	0xbcec3897	-0.028835578
23	0xbda66b79	-0.081259675
24	0x3d6133f3	0.054981183
25	0xb93d7fc6	-0.00018072044
26	0x3d03acf2	0.032147355
27	0x3d05dcbd	0.032681216
28	0x3dba55ad	0.090983726
29	0x3d2734c3	0.040821802
30	0x3d0e4600	0.034734726
31	0x3db4e005	0.08831791
32	0xbe6b6fdd	-0.22991891
33	0xbd8ffeae	-0.07030998
34	0x3db203d2	0.08692135
35	0xbd2c0232	-0.04199428
36	0xbdcb5a7d	-0.09929369
37	0x3afcdc8d	0.0019291803
38	0xbdaca009	-0.08428962
39	0x3cc95a83	0.024579292
40	0x3dc85f2e	0.09783779
41	0x3d51d947	0.051232602
42	0xbd007c05	-0.031368274
43	0x3d725b56	0.059169136
44	0xbd8c6eba	-0.06857057
45	0xbd2f0c8d	-0.04273658
46	0xbde4276a	-0.1114033
47	0xbe80a59f	-0.2512636
48	0x3d7e551c	0.062092885
49	0x3e27d9c7	0.16391669
50	0xbe70c97d	-0.23514362
51	0x3e78e57a	0.24306288
52	0xbbcf2ae6	-0.0063222526
53	0xbd2d43c3	-0.04230095
54	0x3ca9a9b8	0.020710811
55	0xbdcb89dd	-0.09938405
56	0x3ddd8049	0.10815484
57	0xbe13807f	-0.14404486
58	0x3dc2ec26	0.09517698
59	0xbce05a79	-0.02738689
60	0xbdee7856	-0.11644046
61	0x3dcd7bfa	0.10033412
62	0xbe805530	-0.25064993
63	0x3dd84ed8	0.10561913
64	0x3e2ad774	0.16683751
65	0xbdc025f2	-0.093822375
66	0x3e432bc0	0.19059658
67	0xbcaa3ea4	-0.020781823
68	0xbda2b153	-0.07943978
69	0x3de852c9	0.11343915
70	0x3ca5c775	0.02023671
71	0xbc60badb	-0.013716425
72	0xbe19b13b	-0.15009014
73	0xbdcc9024	-0.0998843
74	0xbe6427a5	-0.22280748
75	0x3dc71df6	0.097225115
76	0xbe0b5244	-0.136056
77	0x3dc7df52	0.09759392
78	0x3e0bc8a6	0.1365076
79	0x3e3c2f3c	0.18377393
80	0xbb6c42d2	-0.003605057
81	0xbe41cae3	-0.18925051
82	0xbd928e1f	-0.07156014
83	0xbe37e49d	-0.17958303
84	0x3dd81c64	0.1055229
85	0x3d0b105a	0.03395114
86	0x3d05ca83	0.032663833
87	0x3ca87e82	0.020568136
88	0xbe754c6d	-0.23954935
89	0xbe50a58c	-0.20375651
90	0x3c378dc5	0.011203234
91	0xbe6b0662	-0.22951654
92	0x3d4a17c2	0.049339063
93	0x3d90d29c	0.070714206
94	0xbdba948a	-0.09110363
95	0x3dd9bd32	0.10631789
96	0x3d7ac982	0.06122733
97	0xbd8c5e36	-0.06853907
98	0xbd28987e	-0.041161053
99	0xbe2bad8a	-0.16765419
100	0xbe7a4b9a	-0.24442902
101	0xbe506a39	-0.2035302
102	0x3d413b0e	0.04717546
103	0xbe395c0c	-0.1810152
104	0x3de246eb	0.11048683
105	0xbe5fb725	-0.21847208
106	0xbe07aa27	-0.13248502
107	0x3c90f95f	0.017697034
108	0x3e088ade	0.13334224
109	0xbe0c8780	-0.13723564
110	0xbda24f55	-0.07925288
111	0xbc4bb16c	-0.012432437
112	0xbe87f776	-0.26555985
113	0xbd88cf4d	-0.066801645
114	0x3d708181	0.058717255
115	0xbd37c289	-0.044863258
116	0x3e21a012	0.15783718
117	0xbd6646fe	-0.056220047
118	0x3d93fc9d	0.072259165
119	0x3b14812d	0.0022660003
120	0xbe6ad391	-0.22932269
121	0xbd6ae023	-0.05734266
122	0xbc2aa569	-0.010415413
123	0xbd17f6ec	-0.037100717
124	0x3ddf70ab	0.109101616
125	0xbdba8bfa	-0.0910873
126	0xbe9737da	-0.295348
127	0xbe5eb3bf	-0.21748255
128	0xbe072a78	-0.13199794
129	0x3dd77de8	0.105220616
130	0x3db17a16	0.08665864
131	0xbd805ed3	-0.06268086
132	0xbdf490ef	-0.119417064
133	0xbd8d825a	-0.06909628
134	0xbe299f5b	-0.16564696
135	0x3cc88188	0.024475828
136	0xbe73b808	-0.23800671
137	0xbc90a237	-0.017655475
138	0x3e06abab	0.13151424
139	0x3d54d62e	0.05196207
140	0xbe02786d	-0.12741251
141	0xbd837cac	-0.06420264
142	0xbda6fb15	-0.08153359
143	0x3e470e6a	0.19439092
144	0xbe062da1	-0.13103344
145	0x3cc95551	0.024576815
146	0xbde4f291	-0.11179078
147	0xbcab773a	-0.020930875
148	0xbc8f6cad	-0.017507875
149	0xbdfcb1db	-0.12338611
150	0x3d739765	0.059470553
151	0x3c94d4f2	0.018167946
152	0xbd9e3068	-0.077240765
153	0xbcacb580	-0.02108264
154	0xbdb54a39	-0.088520475
155	0xbe13a62b	-0.14418857
156	0x3e11cf4c	0.14239234
157	0xbe4583bf	-0.19288538
158	0x3d9fc335	0.07800905
159	0x3da21686	0.07914452
160	0xbd4bbbaa	-0.049739517
161	0x3de788a2	0.113053575
162	0x3cc44d13	0.023962533
163	0x3d5feef4	0.054671243
164	0xbcbb4240	-0.022858739
165	0xbe3fa40a	-0.1871492
166	0x3e116408	0.14198315
167	0xbd70389f	-0.058647748
168	0xbe082f8c	-0.13299388
169	0xbe14f5ba	-0.14546862
170	0xbd84570a	-0.06461914
171	0xbe184cb7	-0.14873014
172	0x3de31dcb	0.11089667
173	0xbce1acd6	-0.027548235
174	0xbd84bf41	-0.06481791
175	0xbe90f341	-0.28310588
176	0x3d7bd234	0.061479762
177	0x3d7cc78e	0.061713748
178	0xbddab21d	-0.10678504
179	0xbd80df2f	-0.06292569
180	0xbdfe8646	-0.124279544
181	0x3d009f44	0.031401888
182	0xbda12020	-0.078674555
183	0xbc6360d1	-0.013878063
184	0xbd173157	-0.03691229
185	0x3bc16a6f	0.0059025805
186	0xbaafaac0	-0.0013402328
187	0x3dae0c5d	0.08498452
188	0xbe359b2a	-0.17734972
189	0xbda36c64	-0.07979658
190	0x3e8c8c9e	0.27451032
191	0x3d9dd5a0	0.07706761
192	0x3b81e596	0.0039641364
193	0xbd7f78da	-0.062371112
194	0xbd2faed0	-0.042891324
195	0x3d08a4f8	0.03336045
196	0xbe75d5b9	-0.2400731
197	0x3db3f36e	0.08786665
198	0xbcac039a	-0.020997811
199	0x3c9d30a3	0.01918823
200	0xbf3d9b94	-0.7406552
201	0xbbd150a2	-0.006387786
202	0x3c99451f	0.018709717
203	0x3d90092a	0.07032998
204	0x3b35c8d3	0.0027738109
205	0x3dd05883	0.10173132
206	0x3ea3b836	0.3197648
207	0xbd82c2d9	-0.063848205
208	0x3d6b12bf	0.057390925
209	0x3a504cbf	0.00079460064
210	0xbe299c11	-0.16563441
211	0x3dc9d1ec	0.098544925
212	0x3e080199	0.1328186
213	0x3d30d22f	0.043169197
214	0xbd68ff8c	-0.056884333
215	0x3cebe35d	0.028794939
216	0xbd688bbe	-0.056773894
217	0xbb4198cd	-0.002954054
218	0xbbfb9197	-0.007677268
219	0xbdf17b20	-0.11791062
220	0xbd4f2724	-0.050574437
221	0xbe16757f	-0.14693259
222	0xbe27b889	-0.16378988
223	0xbe4b42e2	-0.19849733
224	0xbd71e1fb	-0.059053402
225	0xbd94b44a	-0.0726095
226	0x3dbac73c	0.09120032
227	0x3d9b1bfc	0.07573697
228	0xbe51dfbe	-0.20495507
229	0x3d494cf4	0.049145654
230	0x3dd54dd5	0.10415236
231	0x3d7d57a8	0.061851174
232	0x3c7de64c	0.015496802
233	0x3b5de807	0.0033860223
234	0xbea674b5	-0.32510915
235	0xbe9eb8d6	-0.31000394
236	0xbb599085	-0.0033197713
237	0xbe90bb8a	-0.2826808
238	0xbd958c90	-0.07302201
239	0xbe0066b8	-0.12539184
240	0x3da8dc7a	0.082451776
241	0x3db55f37	0.088560514
242	0xbcc05db4	-0.023482181
243	0x3db395d9	0.087688155
244	0xbdd8524e	-0.105625734
245	0xbd468d66	-0.04847469
246	0xbda56cc0	-0.08077383
247	0xbd8f468f	-0.0699588
248	0x3cbc46cf	0.022982983
249	0x3e7c9283	0.24665265
250	0x3a171e30	0.0005764691
251	0x3dbb2ab1	0.09139002
252	0xbefa8342	-0.48928267
253	0xbeeaef36	-0.45885628
254	0xbe321352	-0.17390183
255	0xbc886248	-0.016648427

layer2.bias f4 [256]
0	0x3d825ed0	0.0636574
1	0x3d81e509	0.06342513
2	0xbe9be25b	-0.30446133
3	0xbd07beb5	-0.033140857
4	0xbe1297ac	-0.1431567
5	0x3df016be	0.11723088
6	0xbe78ab1b	-0.24284022
7	0xbe4c5e6c	-0.19957894
8	0xbcfd44ab	-0.030916533
9	0xbbf467dc	-0.00745867
10	0x3d655d9b	0.055997472
11	0x3e12cbd5	0.14335568
12	0xbd8beb1f	-0.06831955
13	0xbdfd3b8b	-0.123648725
14	0xbe07950f	-0.13240455
15	0x3c9c0ab0	0.019048065
16	0x3e00c00f	0.12573265
17	0xbd5949d0	-0.05304891
18	0x3d2b172c	0.041770145
19	0xbe9e282b	-0.3089002
20	0xbe0cf727	-0.13766156
21	0xbd8545db	-0.065074645
22	0x3cdf4b93	0.027257716
23	0x3e6a8b04	0.22904593
24	0x3d4ec39c	0.050479516
25	0xbdf9d837	-0.12199443
26	0x3dc1ed75	0.094691195
27	0xbd90b3e5	-0.07065562
28	0x3d8ae8cc	0.06782684
29	0xbe81e782	-0.2537194
30	0xbcf864ea	-0.030321557
31	0xba1acba2	-0.00059049774
32	0xbd91ddaf	-0.07122361
33	0x3d1c22ca	0.038119115
34	0x3c992d2a	0.018698294
35	0x3b6696d4	0.0035185115
36	0x3e0fd233	0.14045028
37	0xbda55d0f	-0.0807439
38	0x3dee5c40	0.11638689
39	0xbeb6f431	-0.35733178
40	0x3d979a97	0.074025325
41	0x3e0d0548	0.13771546
42	0x3e869f46	0.2629339
43	0x3d40e6c1	0.047095064
44	0x3e3fec84	0.18742567
45	0xbeef0084	-0.4668008
46	0xbc99d422	-0.01877791
47	0x3e67dd91	0.22643115
48	0xbe6a421d	-0.22876783
49	0xbd5b0ee3	-0.053480994
50	0x3e0131b6	0.1261662
51	0x3d873f59	0.066038795
52	0xbe83bf33	-0.2573181
53	0xbcd763eb	-0.026292762
54	0xbe2cb4e7	-0.16865884
55	0xbd2934f5	-0.04131027
56	0x3d1cbe96	0.038267694
57	0x3d4077c3	0.046989214
58	0x3d2494ac	0.040180847
59	0x3db84522	0.08997561
60	0x3b284e5a	0.0025681467
61	0x3dbd7ff1	0.092529185
62	0x3d23d779	0.040000413
63	0x3df54254	0.11975542
64	0x3e339531	0.17537381
65	0x3e0dc17b	0.13843338
66	0x3e46c8cf	0.1941254
67	0xbc7e76db	-0.015531267
68	0xbed4780b	-0.41497836
69	0xbc22f96c	-0.009947162
70	0xbe9ee6f4	-0.31035578
71	0x3de968a9	0.113969155
72	0x3dbf7705	0.09348873
73	0xbca20817	-0.019779248
74	0x3da2effc	0.0795593
75	0x3d265f79	0.040618394
76	0x3e0db2d0	0.13837743
77	0x3cc04efa	0.023475159
78	0xbe7789a6	-0.24173602
79	0xbdce7e06	-0.10082631
80	0xbdf40c9d	-0.11916468
81	0xbde51a4a	-0.11186655
82	0xbd9d6bcb	-0.076865755
83	0x3d2735dc	0.04082285
84	0xbebd890e	-0.37018627
85	0xbe8bf7a8	-0.27337384
86	0x3da732bb	0.08163973
87	0xbd198e1d	-0.037489045
88	0x3d926c51	0.07149566
89	0xbdaf1fa4	-0.08550957
90	0xbe628e84	-0.22124678
91	0x3e28b968	0.16476977
92	0xbc2a07c8	-0.010377832
93	0xbe12666b	-0.14296882
94	0x3d142cb3	0.03617544
95	0x3e1060ab	0.14099376
96	0x3d32a477	0.043613877
97	0x3e74e957	0.23917137
98	0xbd84c741	-0.06483317
99	0x3e04eb65	0.12980421
100	0x3c67b900	0.0141432285
101	0xbd13311b	-0.035935502
102	0xbda94cec	-0.08266625
103	0xbed6eed9	-0.419791
104	0x3e02f7b8	0.1278981
105	0xbe82d138	-0.25550246
106	0x3dc5ecb3	0.096642874
107	0xbde3f3b6	-0.111304685
108	0xbd93c94b	-0.07216128
109	0xbdb727e6	-0.08943157
110	0xbe1a5a7f	-0.15073584
111	0x3e0cc4ef	0.13746999
112	0xbe37352a	-0.17891374
113	0x3dd4c40b	0.10388955
114	0x3e335974	0.17514592
115	0xbe4fa69d	-0.20278402
116	0xbe26f56d	-0.1630456
117	0x3e473959	0.1945547
118	0x3e022df6	0.12712845
119	0x3d6e5b77	0.058192696
120	0x3ddbe094	0.10736194
121	0x3d8a10e0	0.067415
122	0x3cfc7cf3	0.0308213
123	0xbde49724	-0.1116164
124	0x3c40a6c5	0.011758511
125	0xbb32da7a	-0.0027290867
126	0x3d98ed2f	0.07467114
127	0xbb9dce95	-0.0048158863
128	0x3e01920f	0.12653373
129	0xbeadc829	-0.33941773
130	0x3e579d31	0.21056058
131	0xbeeae549	-0.45878056
132	0x3d357c06	0.04430773
133	0x3d7b389d	0.061333288
134	0xbde889a5	-0.113543786
135	0xbe0390e5	-0.12848242
136	0x3ca25025	0.019813607
137	0x3dd81c7e	0.105523095
138	0xbead91b2	-0.3390022
139	0xbe0987d5	-0.13430722
140	0xbde34540	-0.11097193
141	0x3c6b2371	0.014351712
142	0xbec627d9	-0.38702276
143	0x3da8eb59	0.08248014
144	0xbda4e1b3	-0.08050861
145	0x3db1f72d	0.08689723
146	0x3e5ac6cd	0.21364899
147	0xba31abcc	-0.0006777614
148	0x3df8c112	0.121462
149	0xbe94d71b	-0.29070362
150	0x3d9d419a	0.07678528
151	0xbdb19f8e	-0.08673011
152	0x3c5ef3e2	0.013607951
153	0x3be17112	0.006879934
154	0x3ce2eb71	0.027700158
155	0x3da411c6	0.080112025
156	0xbe29a616	-0.16567263
157	0xbdc2d9f8	-0.095142305
158	0xbda2e744	-0.07954267
159	0xbcf2a2a9	-0.029618578
160	0xbe18ceed	-0.14922686
161	0xbd39012c	-0.045167133
162	0xbe15ef08	-0.14641964
163	0x3d93d0b0	0.07217538
164	0xbdc77d76	-0.09740727
165	0xbc872970	-0.016499251
166	0xbd9305dc	-0.07178852
167	0xbd99fac0	-0.0751853
168	0xbe58618c	-0.21130961
169	0xbe886dbe	-0.26646227
170	0xbe30f0d8	-0.17279375
171	0x3d70da6b	0.05880205
172	0xbddc0ca0	-0.107445955
173	0x3e31368a	0.17305961
174	0xbe651736	-0.22372136
175	0xbded4869	-0.11586077
176	0xbd85cdb9	-0.06533379
177	0x3d84632d	0.06464229
178	0xbc862113	-0.016373193
179	0x3e03872d	0.12844534
180	0xbe1a9ad8	-0.1509813
181	0xbeb62b8e	-0.35580105
182	0xbe74d7ad	-0.23910399
183	0xbdba58f8	-0.09099001
184	0x3e3ef11e	0.18646666
185	0xbe2a5ccd	-0.16636963
186	0x3daccb06	0.08437161
187	0x3e1f9abc	0.1558637
188	0xbc8b22a9	-0.0169843
189	0xbd8722d8	-0.06598443
190	0xbf02d91d	-0.5111254
191	0xbe828747	-0.25493833
192	0xbe87d585	-0.2653009
193	0x3db16075	0.08660976
194	0x3ad13737	0.001596189
195	0x3d531fa0	0.05154383
196	0xbcb73f18	-0.022368953
197	0x3dd4059f	0.10352635
198	0xbe767bf0	-0.24070716
199	0x399f2414	0.00030353724
200	0x3d92b178	0.07162756
201	0xbc599835	-0.013280918
202	0x3e62af1b	0.2213711
203	0xbc2d08fc	-0.010561224
204	0x3e216c6a	0.15764013
205	0xbe446c8d	-0.19182034
206	0x3deaeffd	0.114715554
207	0xbdc49897	-0.09599417
208	0xbdb1d43e	-0.0868306
209	0xbdf345bc	-0.11878535
210	0x3c77ed42	0.01513225
211	0xbd4d8662	-0.050176986
212	0x3e1859a1	0.1487794
213	0xbc0d4551	-0.008622483
214	0xbe74c83c	-0.23904508
215	0xbd97a8c3	-0.074052356
216	0x3d36523d	0.044512022
217	0x3dc2bd43	0.09508755
218	0x3d1298ef	0.03579038
219	0xbee20c06	-0.44149798
220	0x3e137991	0.14401843
221	0xbdbb5166	-0.09146385
222	0xbdefdd71	-0.117121585
223	0x3e16746c	0.14692849
224	0xbe1246e6	-0.14284858
225	0x3dc56b47	0.09639602
226	0xbe265b42	-0.1624575
227	0xbebc578b	-0.3678554
228	0x3d83395a	0.06407423
229	0xbee75f35	-0.45189825
230	0xbec35d63	-0.38157186
231	0xbba5dcee	-0.0050617373
232	0xbd661622	-0.05617345
233	0xbb1101a3	-0.002212622
234	0x3e047c07	0.12937938
235	0x3da6c3f4	0.08142844
236	0xbe862364	-0.26198876
237	0xbed13c90	-0.40866518
238	0x3dee59ef	0.11638247
239	0x3d6fa5dd	0.05850779
240	0xbde18553	-0.11011758
241	0xbead1daf	-0.3381171
242	0xbe42810a	-0.18994537
243	0xbe86cc3c	-0.26327693
244	0x3d75a20d	0.059968997
245	0x3e3e4bbe	0.18583581
246	0x3d863aa3	0.06554153
247	0xbd8440ff	-0.064577095
248	0x3d2a352d	0.04155462
249	0xbc6f0913	-0.014589566
250	0xbc91ac09	-0.017782228
251	0x3dad9a9e	0.084767565
252	0x3dba0f50	0.09084952
253	0x3bdc5eab	0.0067251525
254	0x3b9b5e1a	0.0047414424
255	0x3de6571d	0.11247084

layer3.weight f4 [256, 256]
0	0x3e4d74f7	0.2006415
1	0x3caeb21a	0.02132516
2	0xbd136fb0	-0.035995185
3	0xbcd8f441	-0.026483657
4	0x3e20c276	0.15699181
5	0xbda6fbbf	-0.081534855
6	0xbc7a8563	-0.015290591
7	0x3d04dcce	0.03243714
8	0xbca0a4ca	-0.019609828
9	0xbd6a425f	-0.057192203
10	0xbd326fa3	-0.043563496
11	0x3cdf11bb	0.027230134
12	0xbe7f31bf	-0.2492132
13	0xbc0ae4f1	-0.008477435
14	0x3d790fc2	0.060806043
15	0xbdf0cba9	-0.11757595
16	0x3d6626e6	0.05618944
17	0xbdb67417	-0.08908861
18	0x3e31cede	0.1736407
19	0xbd94f8d1	-0.072740205
20	0xbc7b68cd	-0.015344811
21	0x3e074156	0.13208517
22	0x3d403033	0.046920966
23	0xbcde17f5	-0.027111033
24	0xbcf9036a	-0.030397136
25	0x3b47b96d	0.0030475513
26	0x3ee44a42	0.44587904
27	0xbc8022b9	-0.015641557
28	0xbd940be5	-0.07228831
29	0xbde7868c	-0.1130496
30	0xbe6138b1	-0.21994282
31	0xbe70421c	-0.23462719
32	0x3d233b44	0.039851442
33	0xbe65e0c2	-0.2244902
34	0xbd2c492c	-0.04206197
35	0xbd94814a	-0.072512224
36	0xbdc5e9e7	-0.09663754
37	0x3dad2c1d	0.084556796
38	0xbe1ed2f4	-0.1551016
39	0x3d299593	0.04140241
40	0xbdc36aa5	-0.09541825
41	0xbd95275e	-0.07282899
42	0x3da79c59	0.08184118
43	0x3d9ce00e	0.076599225
44	0xbe24bee1	-0.1608844
45	0xbd40cd59	-0.047070835
46	0xbe69ff72	-0.22851351
47	0x3d8478f9	0.06468386
48	0xbc00f894	-0.007871766
49	0x3e13a703	0.14419179
50	0x3dfff368	0.12497598
51	0xba772d74	-0.0009429075
52	0x3df5a360	0.11994052
53	0x3ca3df2a	0.020003874
54	0x3e80951a	0.25113755
55	0xbdc5cfb8	-0.0965876
56	0xbe17e361	-0.14832832
57	0xbd2dc3d7	-0.042423096
58	0x3d9cfceb	0.07665428
59	0x3b961620	0.004580274
60	0x3d881604	0.06644824
61	0x3d336b51	0.043803517
62	0x3cc1b437	0.023645503
63	0xbe521866	-0.2051712
64	0xbd8b4887	-0.06800943
65	0xbe09854f	-0.1342976
66	0xbd25e651	-0.04050285
67	0x3dfee295	0.12445561
68	0xbd9880f9	-0.074464746
69	0x3cab834a	0.020936627
70	0xbccf9d45	-0.025343547
71	0x3ca1f5bc	0.019770496
72	0xbc8b7863	-0.017025178
73	0xbd821582	-0.063517585
74	0x3cf68701	0.030093672
75	0xbe234bc4	-0.15946871
76	0xbe5c729f	-0.215281
77	0x3dce9cd3	0.100885056
78	0xbe29c4e4	-0.16579014
79	0x3cfd1c38	0.030897245
80	0x3e6a6337	0.2288941
81	0xbd097ddf	-0.033567306
82	0xbdba6cf0	-0.091028094
83	0xbd3a111b	-0.04542647
84	0x3d44fb82	0.04809142
85	0xbe8c9fb3	-0.2746559
86	0x3d3d77e2	0.046256907
87	0xbca11f38	-0.019668207
88	0xbe27da22	-0.16391805
89	0xbe0399cd	-0.12851639
90	0xbe2ce054	-0.1688245
91	0xbd64275b	-0.055701595
92	0xbd6644c4	-0.056217924
93	0x3d8c15e3	0.06840112
94	0x3d5a6958	0.05332312
95	0xbd9a8033	-0.07543983
96	0x3d012c9e	0.03153669
97	0xbe7105a2	-0.23537305
98	0xbd717bcc	-0.058955953
99	0x3e98ece7	0.29868242
100	0xbdf9df87	-0.122008376
101	0x3db32fda	0.08749361
102	0xbe3f54cc	-0.18684691
103	0x3cdf5b87	0.027265323
104	0x3db7a184	0.089663535
105	0x3d394cd3	0.04523928
106	0xbe0b8e58	-0.13628519
107	0x3e93c693	0.28862438
108	0xbd0aa1f6	-0.033845864
109	0xbe0b3cba	-0.13597384
110	0xbe34a7af	-0.17642091
111	0xbd6fdfe6	-0.058563136
112	0xbdef0ad6	-0.11671989
113	0x3db3faa8	0.08788043
114	0x3e0e2c66	0.13884124
115	0xbdb27a4a	-0.08714731
116	0xbdc13acd	-0.094350435
117	0x3dbe5f81	0.0929556
118	0x3c52234e	0.0128258
119	0x3de80ae5	0.11330203
120	0xbe951799	-0.29119566
121	0xbda6e14e	-0.08148442
122	0x3cba777b	0.02276205
123	0xbe291c3d	-0.16514678
124	0xbe8bca36	-0.27302712
125	0xbdd97bbf	-0.10619306
126	0xbe305297	-0.17219006
127	0x3ce7fbea	0.028318364
128	0xbd5b5ba7	-0.053554203
129	0x3e0cbb68	0.13743365
130	0xbc02123c	-0.007938918
131	0xbdca2a41	-0.098713405
132	0xbda1f44d	-0.07907925
133	0xbc892bb8	-0.01674448
134	0xbe092cbf	-0.13395976
135	0xbd889195	-0.066683926
136	0x3e1ccc24	0.15312248
137	0x3b7b9a38	0.0038391482
138	0xbdae47c0	-0.08509779
139	0x3d89ed98	0.067347705
140	0xbdc8858f	-0.09791099
141	0x3d94301f	0.07235741
142	0xbdfc5012	-0.1231996
143	0x3dd57931	0.10423506
144	0xbe840a67	-0.25789186
145	0x3da1978b	0.07890233
146	0xbd6b4653	-0.057440113
147	0xbc846984	-0.016163595
148	0x3c7ba0a1	0.015358121
149	0x3d94b08f	0.072602384
150	0x3d68e871	0.0568623
151	0x3e27cd1a	0.16386834
152	0xbe5049ed	-0.203407
153	0x3d449ea2	0.048002847
154	0x3e8e84f2	0.27835804
155	0x3e872a99	0.26399687
156	0xbd1a4957	-0.0376676
157	0x3d0dc3ac	0.034610435
158	0x3dce6c1f	0.10079216
159	0x3e8ffb58	0.28121448
160	0x3b75e9d8	0.0037523415
161	0x3dbe0682	0.09278585
162	0xbb9af4be	-0.0047288826
163	0x3ebf7211	0.37391713
164	0x3d18fe5d	0.037351955
165	0x3e035695	0.12825997
166	0xbd37cc8f	-0.044872817
167	0xbd099b30	-0.033595264
168	0x3cca6221	0.024704995
169	0xbde861d9	-0.11346788
170	0xbd96de25	-0.073665895
171	0x3e67bb5e	0.22630069
172	0x3d9507f8	0.072769105
173	0x3e11db45	0.14243801
174	0xbdd4dfb5	-0.10394231
175	0x3eb9afc5	0.36266914
176	0x3cf32e6e	0.029685225
177	0xbdb83cd1	-0.08995975
178	0xbd38f08a	-0.04515127
179	0x3c48636a	0.012230733
180	0xbdcc216b	-0.099673115
181	0x3e1f7e79	0.15575589
182	0x3e1f5842	0.15561011
183	0xbdd38fc5	-0.10330156
184	0x3de757d1	0.112960465
185	0xbe04738e	-0.12934706
186	0x3d846f05	0.06466488
187	0xbe57f706	-0.21090326
188	0xbe0e1261	-0.13874198
189	0xbd198c40	-0.03748727
190	0xbcf8d33e	-0.030374166
191	0x3d237681	0.039907936
192	0xbd0665f8	-0.03281209
193	0xbcfe1785	-0.031017074
194	0x3d015848	0.031578332
195	0x3e83575e	0.25652593
196	0xbdccd9eb	-0.10002502
197	0x3dbec877	0.093155794
198	0xbdf37f5e	-0.11889528
199	0x3d29dc02	0.04146958
200	0x3e1692fc	0.14704508
201	0x3d5dfd87	0.05419686
202	0x3e6ed8d8	0.23324907
203	0xbd956337	-0.07294314
204	0x3df33089	0.11874492
205	0x3e017feb	0.12646453
206	0xbaac95a5	-0.0013167156
207	0xbe885bd9	-0.26632574
208	0xb9e87fff	-0.00044345853
209	0xbdb8486b	-0.08998188
210	0xbd4ce21e	-0.05002033
211	0x3d921657	0.07133167
212	0x3d9abf68	0.07556039
213	0x3deeb80d	0.11656199
214	0xbd6570dd	-0.056015838
215	0xbc5a8c2e	-0.0133390855
216	0x36cd53e8	6.119244e-06
217	0xbdaa6c33	-0.083214186
218	0xbdb1fd00	-0.08690834
219	0xbdade5ec	-0.0849112
220	0x3ddca3c4	0.10773423
221	0xbd4b5fbc	-0.049651846
222	0xbe8ffd84	-0.28123105
223	0xbd0cda9f	-0.03438818
224	0x3c97404b	0.018463274
225	0xbd97bb2f	-0.07408749
226	0xbde068c3	-0.10957482
227	0xbc8cfcd9	-0.01721041
228	0xbc3164df	-0.010827272
229	0xbbd39624	-0.006457107
230	0xbd8090e4	-0.06277636
231	0xbe1394ec	-0.14412278
232	0x3debb2b4	0.11508694
233	0xbdeff0ee	-0.117158756
234	0x3d7f7ada	0.06237302
235	0x3ebd8e09	0.37022427
236	0x3dbf5cb2	0.09343852
237	0x3e2058a8	0.1565882
238	0xbd415139	-0.0471966
239	0xbca57df5	-0.020201663
240	0x3e38e408	0.18055737
241	0xbd79d89f	-0.0609976
242	0x3dc58dee	0.096462116
243	0xbc37e50b	-0.011224042
244	0x3ddd0eb5	0.10793821
245	0x3e1c58d0	0.15268254
246	0x3cb1f0e7	0.021721317
247	0xbd665dba	-0.05624173
248	0xbc2d8e1a	-0.010592962
249	0xbd66cbff	-0.05634689
250	0x3e86647a	0.26248533
251	0x3dca5e12	0.09881224
252	0x3d974c1d	0.07387564
253	0x3e13f4dd	0.14448877
254	0x3e5f848b	0.21827905
255	0x3dcfc9b9	0.101458974

layer3.bias f4 [256]
0	0xbd688123	-0.05676378
1	0x3d9f315e	0.07773088
2	0x3dcbc6d6	0.09950034
3	0xbe6ca94a	-0.23111454
4	0xbd367944	-0.04454924
5	0xbe5bcd7f	-0.2146511
6	0x3d1b22f6	0.03787514
7	0xbe2d6a46	-0.16935071
8	0x3df20ec1	0.1181922
9	0x3b561544	0.0032666484
10	0xbe13f641	-0.14449407
11	0xbe31d8dd	-0.17367883
12	0xbdd956e3	-0.106122755
13	0xbd50af9c	-0.050948724
14	0xbe865378	-0.26235557
15	0xbd9881ab	-0.07446607
16	0xbe292bc5	-0.16520603
17	0x3dc956f2	0.098310366
18	0xbdb3e232	-0.08783378
19	0xbe8206de	-0.25395864
20	0x3d3cbe9a	0.04608021
21	0x3d7b627c	0.06137322
22	0xbc94c840	-0.018161893
23	0x3ba6a814	0.0050859544
24	0x3d1dbb04	0.03850843
25	0xbe4f6d78	-0.20256603
26	0x3dbff616	0.09373109
27	0x3d228bbd	0.039684046
28	0xbb342528	-0.0027487967
29	0x3d7c0268	0.061525732
30	0xbccf9684	-0.025340326
31	0x3df0284d	0.11726437
32	0xbe2010c2	-0.15631393
33	0xbe1ad3b5	-0.15119822
34	0xbd4370bd	-0.047714937
35	0x3daa746a	0.083229855
36	0xbd2c1de0	-0.04202068
37	0xbe753354	-0.23945361
38	0xbe89ca79	-0.26912287
39	0x3d90152c	0.07035288
40	0xbe0326b1	-0.12807728
41	0x3e0f9d92	0.14024952
42	0xbd077041	-0.033066038
43	0x3d74aaaa	0.05973307
44	0x3cea8edb	0.028632572
45	0xbe9dbdfa	-0.30809003
46	0x3d63c470	0.05560726
47	0xbd296682	-0.041357525
48	0xbd047fa8	-0.032348305
49	0x3c82ad98	0.015951917
50	0x3cc74ac0	0.024327636
51	0xbe317b9a	-0.17332307
52	0x3d5440bb	0.051819544
53	0x3ddc89bd	0.10768459
54	0xbe22e7de	-0.15908763
55	0xbd86657a	-0.06562324
56	0xbd5887ea	-0.052863993
57	0xbdfc20b8	-0.12310928
58	0xbd6cb679	-0.057791207
59	0xbe0d727e	-0.13813207
60	0x39cba296	0.00038840313
61	0x3baab18c	0.0052091535
62	0xbc7c8eb8	-0.015414886
63	0x3da5b635	0.08091394
64	0x3dfaea07	0.122516684
65	0x3defcae8	0.11708623
66	0x3e280cce	0.16411135
67	0xbe9f891e	-0.311593
68	0x3d2fc927	0.042916443
69	0xbd953a27	-0.07286482
70	0xbd5ea88b	-0.054359954
71	0x3d2d5907	0.04232123
72	0xbe8f1a14	-0.27949584
73	0x3db17e36	0.08666651
74	0xbe29453d	-0.16530319
75	0xbe169dcb	-0.1470863
76	0x3dad6e4f	0.08468305
77	0x3e425644	0.1897822
78	0x3dc8efd8	0.098113716
79	0x3b516338	0.0031950008
80	0xbd99a008	-0.07501227
81	0x3e003ab4	0.12522393
82	0x3d87a7da	0.06623812
83	0xbe20c950	-0.15701795
84	0xbc6ae0b1	-0.014335797
85	0xbdc5b279	-0.096531816
86	0xbd475985	-0.048669357
87	0x3c76d070	0.015064344
88	0xbe0468cb	-0.129306
89	0xbdef3b4a	-0.1168123
90	0x3df95916	0.12175195
91	0xbdd5a304	-0.104314834
92	0xbd65360c	-0.055959746
93	0x3d8a263a	0.067455724
94	0xbd8047fd	-0.06263731
95	0xbdd645f2	-0.1046256
96	0xbd7472ae	-0.05967968
97	0x3d26f8f0	0.04076475
98	0xbd77dcc7	-0.060513284
99	0xbe071f98	-0.13195646
100	0x3ddc9b05	0.10771755
101	0x3d928786	0.07154755
102	0xbb19b633	-0.0023454546
103	0x3cdc3612	0.026881251
104	0xbcb0d55c	-0.021586113
105	0xbd09bd2c	-0.033627674
106	0x3d4346d2	0.04767496
107	0x3d8e9352	0.06961693
108	0x3dec016e	0.1152371
109	0xbd0aa040	-0.033844233
110	0xbcf97879	-0.030452954
111	0x3d8eec7e	0.06978701
112	0x3dfa3946	0.12217955
113	0xbcc51d97	-0.024061961
114	0xbe4f92e9	-0.20270886
115	0xbd1d4ce7	-0.038403418
116	0xbe468db1	-0.19389988
117	0xbba3b1d2	-0.004995563
118	0xbe34c35d	-0.1765265
119	0xbcf43577	-0.02981065
120	0xbebc567d	-0.36784735
121	0xbe99bf61	-0.30028823
122	0x3d0dac0f	0.034587916
123	0x3d80d699	0.06290931
124	0xbd65c3e7	-0.05609503
125	0x3d34d369	0.04414693
126	0x3d3b980f	0.04579931
127	0x3d64c1fb	0.055849057
128	0xbe5b75d3	-0.21431665
129	0xbdd74749	-0.105116434
130	0xbdc41a21	-0.09575296
131	0xbdac87a1	-0.08424307
132	0xbe041f6f	-0.12902616
133	0xbd3f52da	-0.046709873
134	0x3e24064d	0.16018029
135	0xbd6cc039	-0.057800505
136	0xbcfe24b1	-0.031023355
137	0xbe6b98f1	-0.23007561
138	0xbd10ac6d	-0.035320688
139	0xbe8713f2	-0.26382405
140	0xbb8c6c0b	-0.0042853407
141	0xbd34c4ec	-0.04413311
142	0xbd24151a	-0.040059187
143	0x3d39eaf3	0.04539008
144	0xbe0ab463	-0.13545375
145	0xbe1dc4dd	-0.15407129
146	0x3d3f9844	0.04677607
147	0x3c1c48f9	0.009538882
148	0xbe573ba3	-0.21018843
149	0xbde531d3	-0.11191144
150	0x3c4eb2bf	0.012615859
151	0xbbfa2470	-0.007633738
152	0x3d70262b	0.05863015
153	0xbd9c0866	-0.076187894
154	0xbda6aba0	-0.081382036
155	0xbdeac2e5	-0.114629544
156	0xbd044a23	-0.032297265
157	0xbd67aa64	-0.05655898
158	0x3c73b0e5	0.014873718
159	0xbd45619c	-0.04818879
160	0xbe8727d1	-0.26397565
161	0xbdf92e3b	-0.12167021
162	0x3cdfad6d	0.027304376
163	0xbd1f510b	-0.038895648
164	0x3d9ad1ab	0.07559522
165	0x3d92e298	0.071721256
166	0xbdc5d100	-0.09659004
167	0xbc7a5e7d	-0.015281317
168	0x3da86309	0.082220145
169	0xbe191725	-0.14950235
170	0xbdbdedd2	-0.09273876
171	0x3b9ba6b3	0.0047500967
172	0xba746b2f	-0.0009323833
173	0xbe603702	-0.21895984
174	0xbe6ef7d2	-0.23336723
175	0xbd76bcdf	-0.060238715
176	0xbd858acf	-0.06520616
177	0x3d872749	0.0659929
178	0xbe1248e1	-0.14285614
179	0xbe4e4ee0	-0.20147276
180	0xbe0338bf	-0.12814616
181	0xbe43610d	-0.1907999
182	0x3c51db5b	0.012808646
183	0xbe1e9132	-0.15485075
184	0xbe48790e	-0.19577429
185	0x3e116480	0.14198494
186	0xbe98f74d	-0.29876176
187	0xbe20ae49	-0.15691485
188	0xbdd99573	-0.10624208
189	0x3d50863f	0.050909277
190	0x3e0d541f	0.13801621
191	0xbd75dbd1	-0.060024086
192	0xbd978b12	-0.073995724
193	0xbcaa9d82	-0.020827059
194	0x3d954a2e	0.07289539
195	0xbb112106	-0.0022144928
196	0x3dbcbf7c	0.0921621
197	0x3df5393b	0.119738065
198	0x3d83b02f	0.06430089
199	0xbde28e05	-0.11062244
200	0xbd86ae1d	-0.06576178
201	0x3d4c74dc	0.049916133
202	0xbcce95d6	-0.025217932
203	0xbe4014a9	-0.18757881
204	0xbe41af5d	-0.18914552
205	0xbe5ad26d	-0.21369334
206	0x3d49bccc	0.049252316
207	0xbd1f0c9d	-0.03883039
208	0xbe1f938d	-0.1558363
209	0x3d9a2f6d	0.07528577
210	0x3cd89efb	0.026442995
211	0xbdf5e1ac	-0.12005934
212	0xbdbc30df	-0.09189009
213	0xbd83b4d3	-0.06430974
214	0x3d4465d8	0.04794869
215	0xbe47d10b	-0.19513337
216	0xbe1c792e	-0.15280601
217	0x3dd203fa	0.10254665
218	0x3d8897fc	0.06669614
219	0x3dfdc670	0.123913646
220	0xbde2b386	-0.11069398
221	0xbe1869ac	-0.1488406
222	0x3d4cfa43	0.050043356
223	0xbd6f73dd	-0.058460105
224	0x3ddebff5	0.10876457
225	0xbe028868	-0.12747347
226	0xbd242f31	-0.040084068
227	0xbd80f55a	-0.06296797
228	0xbe08e998	-0.13370359
229	0x3c997337	0.018731697
230	0xbd0c55b1	-0.03426141
231	0x3cd5c358	0.026094124
232	0xbc6464e2	-0.013940068
233	0x3cb158e9	0.021648841
234	0xbd870456	-0.06592624
235	0xbb11ab85	-0.0022227478
236	0xbcd7779d	-0.026302153
237	0xbe14097c	-0.14456743
238	0xbdb287ff	-0.087173454
239	0xbe3472a1	-0.17621852
240	0xbdb529e9	-0.08845884
241	0x3d9dd9fb	0.07707592
242	0x3c909f7a	0.01765417
243	0x3db5c932	0.088762656
244	0xbe48e560	-0.1961875
245	0x3c9a2170	0.018814772
246	0xbe40e7c3	-0.1883841
247	0xbab384e3	-0.001369622
248	0x3d3cdfcf	0.046111878
249	0xbddf14ca	-0.10892637
250	0xbe029573	-0.12752323
251	0xbdf5de01	-0.120052345
252	0xbe6b0905	-0.2295266
253	0xbd177390	-0.036975443
254	0xbdace1d4	-0.08441511
255	0xbde8091b	-0.11329862

layer4.weight f4 [128, 256]
0	0x3c7435f4	0.014905442
1	0x3c44df15	0.0120160775
2	0xbd951c1e	-0.072807536
3	0xbd4d99c8	-0.050195485
4	0xbca947fe	-0.020664211
5	0xbd62e9ad	-0.05539863
6	0xbd31c053	-0.043396305
7	0xbb36c38a	-0.0027887546
8	0xbb9e80d8	-0.0048371367
9	0xbd2a5ae2	-0.04159058
10	0xbd8e823b	-0.06958433
11	0x3b9883c8	0.0046543814
12	0x3bf22daa	0.0073906975
13	0xbd1b1ddd	-0.037870277
14	0x3b9a00b6	0.004699792
15	0xbd4b3652	-0.04961235
16	0xbd69cffc	-0.057083115
17	0x3d2af8f9	0.041741345
18	0x3c3ead72	0.011638032
19	0xbc197210	-0.0093655735
20	0xbd666cb1	-0.056256
21	0xbd9db56b	-0.07700618
22	0x3c34ffae	0.011047287
23	0xbd67e6db	-0.056616645
24	0x3d1d67bf	0.038429018
25	0x3d13b9db	0.036065917
26	0xbc8675f8	-0.016413674
27	0xbd1ac756	-0.037787758
28	0x3be4f122	0.006986753
29	0xbd3577b5	-0.044303615
30	0x3c0937e5	0.008375143
31	0xbd5629b2	-0.052285857
32	0xbd70b2d4	-0.058764294
33	0xbc001d8f	-0.007819547
34	0xbcc44a6d	-0.02396127
35	0x3c1c78ee	0.009550316
36	0xbcbfc310	-0.023408443
37	0xbd188b1b	-0.037242036
38	0xbce60139	-0.028076755
39	0xbd649e2e	-0.055814914
40	0xbb8053d0	-0.003916241
41	0xbd2d1fb6	-0.04226657
42	0x3cd9a8e9	0.0265698
43	0x3ca13268	0.019677356
44	0xbd67ae16	-0.056562506
45	0xbb5268d9	-0.003210595
46	0xbd2426b0	-0.040075958
47	0xbc657678	-0.014005296
48	0xbcf67d81	-0.030089142
49	0xbc85da46	-0.016339432
50	0xbd594985	-0.05304863
51	0xbc01fe4f	-0.007934167
52	0x3c6bde5e	0.014396278
53	0xbd8c95e9	-0.068645306
54	0x3d2dd457	0.04243883
55	0xbd671591	-0.05641705
56	0xbd82e1d7	-0.06390732
57	0xbd14a4ce	-0.036289982
58	0x3ce839a4	0.028347798
59	0x3d4613ff	0.048358914
60	0xbd64d9e1	-0.055871848
61	0xbd3cbbae	-0.046077423
62	0x3d446c80	0.047955036
63	0x3c54c62e	0.012986703
64	0xbd08e995	-0.033425886
65	0xbd70273d	-0.05863117
66	0xb97d0080	-0.00024128146
67	0x3d5343fa	0.0515785
68	0x3cdafd10	0.026731998
69	0xbb271547	-0.002549486
70	0xbbf4c132	-0.0074693197
71	0x3d03ff01	0.032225613
72	0xbc9f4f14	-0.019446887
73	0xbc8a1fa6	-0.016860794
74	0x3bb3653a	0.0054747136
75	0xbd8f1249	-0.069859095
76	0xbd19c3f0	-0.037540376
77	0x3d151b78	0.03640315
78	0x3d009f5e	0.031401984
79	0xbcf3713d	-0.029717082
80	0xbd91f43c	-0.07126662
81	0xbcdb846f	-0.026796548
82	0xbc78063e	-0.015138207
83	0xbca0ed5b	-0.01964443
84	0x3c0c7548	0.008572884
85	0xbd1840a4	-0.03717102
86	0x3d118099	0.03552303
87	0xbd31f9d2	-0.043451138
88	0x3ca416e3	0.020030444
89	0x3d245aa5	0.040125508
90	0xbd59eceb	-0.05320446
91	0x3c11d9c8	0.008902021
92	0x3d0aede5	0.03391828
93	0xbd74024c	-0.059572503
94	0xbd8dcdeb	-0.06924041
95	0xbd872690	-0.06599152
96	0xbd241efc	-0.04006861
97	0xbcf9fd8a	-0.030516405
98	0xbc95ad48	-0.018271104
99	0x3b903f6a	0.004402091
100	0xbcc183c7	-0.023622407
101	0xbd1de45f	-0.03854787
102	0xbcb9035f	-0.022584615
103	0xbc45369f	-0.012036948
104	0x3d1ab5fc	0.03777121
105	0xbd8a069c	-0.06739542
106	0xbc0de0b2	-0.008659529
107	0xbbae9129	-0.005327363
108	0xbdc3cc42	-0.095604435
109	0xbd17d24a	-0.03706578
110	0x3cdd7f57	0.02703826
111	0xbcb60d35	-0.022223094
112	0xbc9cb657	-0.019129915
113	0xbd6918b1	-0.056908313
114	0x3ce59d6b	0.028029164
115	0x3c748142	0.014923396
116	0x3cf59bfa	0.029981602
117	0x3c7017a9	0.0146540785
118	0x3d0d36f9	0.034476254
119	0x3c6dfab2	0.014525102
120	0xbd913748	-0.07090622
121	0xbcead3f8	-0.028665528
122	0xbd874156	-0.06604259
123	0xbd254935	-0.04035302
124	0xbca264bd	-0.019823426
125	0xbc28fadb	-0.010313715
126	0x3d136f95	0.035995085
127	0xbd6082e3	-0.054812323
128	0x3d2ffd0b	0.04296593
129	0xbd6298d4	-0.05532153
130	0x3cf85faf	0.030319063
131	0xbcd3ab02	-0.025838379
132	0xbd03732a	-0.03209225
133	0xbd72c1b0	-0.059266746
134	0xbd6bb9b9	-0.057550166
135	0x3c1d53df	0.009602516
136	0x3cac3d0b	0.021025201
137	0xbd8d320f	-0.068943135
138	0xbdb49a17	-0.08818453
139	0xb9901e42	-0.00027488364
140	0x3c0f9c54	0.008765299
141	0xbbfe3ffb	-0.007759092
142	0xbd7309e1	-0.059335593
143	0xbb257d10	-0.0025251545
144	0xbd6b5c84	-0.057461277
145	0xbd3b9771	-0.045798723
146	0xbc4e3198	-0.012585066
147	0x3ce400fa	0.027832497
148	0x3cfddda1	0.03098947
149	0x3c24d21e	0.0100598615
150	0xbc1a4d91	-0.009417907
151	0xbd0b436b	-0.03399984
152	0x3d16589f	0.03670561
153	0xbd08ede5	-0.03343
154	0xbc8d314a	-0.017235417
155	0x3c14b181	0.009075523
156	0xbd0ff88b	-0.03514914
157	0xbc58d219	-0.013233685
158	0x3ca6d579	0.020365464
159	0xb9f02fd6	-0.00045812008
160	0xbd08c7ac	-0.033393547
161	0xbdbdb2b7	-0.09262603
162	0x3d21e1b3	0.039521884
163	0xbc5e1059	-0.013553702
164	0x3c8a2d4d	0.016867304
165	0x3c8cdb22	0.017194334
166	0x3ba70efb	0.0050982214
167	0xbd4cefb9	-0.050033305
168	0xbd3d67d6	-0.046241604
169	0xbc964b12	-0.018346343
170	0xbdaddd3a	-0.08489461
171	0xbd241839	-0.040062163
172	0x3ca6e5ba	0.020373214
173	0xbbf532cc	-0.007482862
174	0xbd6436e5	-0.055716414
175	0xbc65c3db	-0.014023746
176	0xbd36aadc	-0.044596538
177	0x3cc7a323	0.024369782
178	0xbd550849	-0.052009854
179	0xbd8fb4b9	-0.07016892
180	0xbd265ac6	-0.040613912
181	0xbd9a4e76	-0.075344965
182	0xbd86359a	-0.065531924
183	0x3c83ac28	0.016073301
184	0xbd02e4a6	-0.031956337
185	0x3c54c098	0.012985371
186	0xbd7658b4	-0.060143188
187	0x3d06aa36	0.03287717
188	0xbcae653e	-0.02128851
189	0x3af464ed	0.0018645801
190	0x395805ca	0.00020601522
191	0xbaf82a73	-0.0018933549
192	0xbd4369bb	-0.047708254
193	0xbbe845c8	-0.0070883967
194	0xbc6d7a5e	-0.014494507
195	0x3cd71f55	0.026260057
196	0xbce83a15	-0.028348008
197	0xbbc5e3ab	-0.006039103
198	0x3d15e3a7	0.03659406
199	0xbd8ec5cc	-0.069713205
200	0xbd832a2c	-0.06404528
201	0xbd919ce9	-0.07110006
202	0x3b193759	0.0023378937
203	0xbd0d95eb	-0.0345668
204	0xbcc34d40	-0.023840547
205	0xbd24a35d	-0.040194858
206	0xbd8fe1f5	-0.0702552
207	0xbab7db5c	-0.0014027166
208	0xbc31a0cc	-0.01084156
209	0x3b9d8b74	0.004807884
210	0xbd0efbf9	-0.03490827
211	0x3d1995a7	0.037496235
212	0xbd8b5a52	-0.068043366
213	0xbcba1cdf	-0.022718845
214	0x3d263508	0.04057792
215	0x3b9717cf	0.0046109925
216	0xbd277761	-0.040885333
217	0xbd7519ae	-0.059838943
218	0xbd59c01b	-0.05316172
219	0x3d2aa5bb	0.04166196
220	0xbd22b003	-0.03971864
221	0xbd48873e	-0.048957102
222	0xbcd571a8	-0.026055172
223	0xbd642db1	-0.055707637
224	0xbd6d781c	-0.057975873
225	0xbca5eb80	-0.020253897
226	0xbcb78600	-0.022402763
227	0x3cc131f0	0.023583382
228	0xbd610c16	-0.054943167
229	0xbd44acd9	-0.048016403
230	0xbce537ed	-0.027980769
231	0x3c9d19fd	0.019177431
232	0xbd55eaf7	-0.052226033
233	0xbd7c0305	-0.061526317
234	0x3c88a865	0.01668186
235	0xbd2e0a97	-0.042490568
236	0xbc3c02f7	-0.011475316
237	0xbd5a812b	-0.05334584
238	0xbd9aad68	-0.07552606
239	0xbdb12199	-0.08648986
240	0xbc636d21	-0.013880999
241	0x3d39970c	0.045310065
242	0xbce72d85	-0.028219948
243	0xbd7da058	-0.061920494
244	0x3bba3038	0.0056820177
245	0x3c3d28d1	0.011545376
246	0x3c54ee29	0.012996235
247	0xbd940353	-0.072271965
248	0xbca197e8	-0.019725755
249	0x3c0d8047	0.008636541
250	0xbd698387	-0.0570102
251	0xbd4fc065	-0.05072059
252	0xbd656be6	-0.056011103
253	0x3c0a80bf	0.008453547
254	0xbd28fb87	-0.0412555
255	0xbd811b7f	-0.063040726

layer4.bias f4 [128]
0	0xbdebad8e	-0.11507712
1	0x3c87ed8c	0.016592763
2	0x3d93f782	0.07224943
3	0xbdcf4831	-0.10121191
4	0xbe0d3c4f	-0.13792537
5	0x3d964644	0.07337621
6	0x3db51b35	0.0884308
7	0xbd8a5a85	-0.067555465
8	0x3e166a18	0.14688909
9	0xbddccdd0	-0.10781443
10	0xbe948ee4	-0.29015267
11	0xbedfd2e6	-0.4371559
12	0x3d50d01c	0.05097972
13	0x3d09a831	0.033607665
14	0x3bca3853	0.006171265
15	0xbd978813	-0.07399001
16	0xbe25867b	-0.16164581
17	0xbe2500ca	-0.16113582
18	0x3dd4d1d5	0.10391585
19	0xbe26a723	-0.16274695
20	0x3e008381	0.12550165
21	0xbc7aae0b	-0.015300284
22	0x3d73b468	0.05949822
23	0x3e104da5	0.14092119
24	0xbe895c26	-0.26828116
25	0x3cc2b403	0.023767477
26	0xbdaecaea	-0.085347965
27	0xbeafe2d3	-0.3435274
28	0x3db42c2b	0.08797487
29	0x3c2356ee	0.009969456
30	0xbe1a25f3	-0.15053539
31	0xbe80cc85	-0.25156036
32	0xbd0626ac	-0.032751724
33	0x3d336f89	0.04380754
34	0xbe145877	-0.14486872
35	0xbe2281c5	-0.15869816
36	0x3d4cc220	0.04998982
37	0x3c6bc573	0.014390337
38	0xbe817ba1	-0.25289634
39	0x3d5f314d	0.054490376
40	0x3dd45845	0.103683986
41	0xbe1d3a9e	-0.15354392
42	0xbe260ec2	-0.16216567
43	0x3dcd306a	0.10019
44	0x3d31635e	0.043307655
45	0xbe6b8641	-0.23000433
46	0xbe708eba	-0.23491946
47	0xbe13fb73	-0.14451389
48	0x3d34faee	0.044184618
49	0x3e04b536	0.12959751
50	0x3d326301	0.04355145
51	0xbd31f0f0	-0.043442667
52	0x3dd961a2	0.10614325
53	0xbd22fd03	-0.039792072
54	0xbd1cafec	-0.03825371
55	0xbe47cf7a	-0.1951274
56	0x3e4a7ecb	0.1977493
57	0x3d8711ca	0.0659519
58	0x3d02282c	0.031776592
59	0xbd26ed0e	-0.040753417
60	0xbd80a574	-0.06281558
61	0xbe5a12a9	-0.21296181
62	0x3c9a723c	0.0188533
63	0x3e2de20a	0.16980758
64	0xbdb00470	-0.085945964
65	0xbd42c502	-0.047551163
66	0x3daf8a88	0.085713446
67	0x3ad1bc94	0.0016001635
68	0xbd9c05e2	-0.076183096
69	0x3d59f243	0.053209554
70	0x3e0170eb	0.12640731
71	0x3e5ba4ba	0.21449557
72	0x3d274388	0.040835887
73	0x3cef3172	0.029198382
74	0xbd97de1b	-0.0741541
75	0xbafe9342	-0.0019422548
76	0x3e1ded66	0.15422592
77	0xbcff085f	-0.031131921
78	0xbda5183f	-0.08061265
79	0xbde6da1b	-0.11272069
80	0xbe031787	-0.12801944
81	0xbbbda53f	-0.005787521
82	0xbe1c7936	-0.15280613
83	0xbd1e1975	-0.038598496
84	0xbddecd9f	-0.10879063
85	0xbe0d5a5f	-0.13804005
86	0xbe4376d1	-0.19088294
87	0xbdd84a72	-0.10561074
88	0x3d501ea1	0.05081046
89	0xbdd89d3a	-0.105768636
90	0x3df65bc6	0.12029223
91	0x3dbac810	0.0912019
92	0xbd89fac6	-0.06737284
93	0x3e045a16	0.1292499
94	0x3d222a46	0.039591096
95	0xbea7ae80	-0.3275032
96	0x3e31afe3	0.17352252
97	0xbe408416	-0.18800387
98	0x3db00b2d	0.085958816
99	0x3d9a72b8	0.07541412
100	0x3ce77a1b	0.028256467
101	0x3db54894	0.08851734
102	0x3da8f86b	0.08250507
103	0xbdbd8547	-0.09253936
104	0xbe0be2eb	-0.13660781
105	0x3db00adb	0.085958205
106	0xbe25967f	-0.16170691
107	0xbe6f3b07	-0.23362361
108	0x3e3f20f5	0.18664916
109	0xbdbf02aa	-0.0932668
110	0xbd32c2da	-0.043642856
111	0xbd74e2bd	-0.059786547
112	0x3d386d09	0.04502586
113	0xbdd3b05e	-0.10336374
114	0x3c73e890	0.01488699
115	0x3dd6df29	0.10491783
116	0xbceffd50	-0.029295594
117	0x3c05f0ad	0.008175057
118	0x3d69d532	0.057088085
119	0xbd0cb9a9	-0.034356747
120	0x3b5c58f7	0.0033622363
121	0x3c844fef	0.016151397
122	0xbe807831	-0.250917
123	0xbc8a876e	-0.016910281
124	0x3e156b55	0.14591725
125	0x3ce36967	0.02776022
126	0x3c4defaa	0.012569347
127	0x3e625554	0.22102863
