outputs/trained_models/placement_model_20250802_063723.pth (torch, 79173 bytes, 10 tensors)

layer1.weight f4 [64, 15]
000000 53 e0 5b be b0 ba 0b be aa 9a a2 3c 00 3c 96 bb
       -0.21472292 -0.13645434 0.01984914 -0.0045847893
000010 83 71 af bc f3 ca 89 3d ec 81 04 bd c2 d0 56 bd
       -0.021416431 0.067281626 -0.032350466 -0.05244518
000020 50 3f 2f be ae 77 43 bc 3a 4b ad 3d 9b 8a e0 3d
       -0.17113996 -0.011930389 0.08461614 0.10963937
000030 b1 37 08 3e 2d 9f 04 3e 22 bd 8b 3c 6f 7b 12 3c
       0.13302495 0.12951346 0.017057959 0.008940562
000040 73 b6 6a 3d c9 59 78 bd c9 47 c7 3e 87 ab 7a bd
       0.057302903 -0.0606325 0.38921955 -0.061198737
000050 ac 20 7c bf 71 db 47 bf 4f 2a 14 be ad 04 1b 3f
       -0.98487353 -0.78069216 -0.14469264 0.6055401
000060 cc eb 88 bf 4f 3f 65 bf e7 37 30 3e 3d a3 25 3e
       -1.069696 -0.89549726 0.17208825 0.16175552
000070 dd 7a 75 bd c2 53 32 3e 88 4b 72 bf 83 a8 cc be
       -0.059931625 0.17414764 -0.946465 -0.39972314
000080 69 75 c6 be 6d d3 ef 3d 80 58 d5 3e 47 1c 9e be
       -0.38761452 0.11710248 0.41669083 -0.3088095
000090 5d 68 96 be da 6c 0a 3f dd 86 f2 be 9d f0 25 3f
       -0.29376498 0.54072344 -0.47368518 0.6482027
0000a0 bb 21 14 3f 63 1e c3 3e 55 5d ef 3d 48 5f 86 3e
       0.5786397 0.3810912 0.116877235 0.2624457
0000b0 1e 30 d6 be 81 69 76 be 05 f9 37 3e f0 f3 69 bf
       -0.41833586 -0.24063684 0.17966087 -0.91387844
0000c0 d1 eb b2 3e 6d af 2d be 5c b9 28 bf f8 f1 d9 3d
       0.3494554 -0.16961451 -0.65907836 0.10641855
0000d0 64 a3 38 bf 1c 32 e0 bc 90 12 cf 3e 6c 3b e2 be
       -0.72124314 -0.027367644 0.4044385 -0.4418596
0000e0 6b 44 91 bc 35 49 4d 3d e1 5f e3 3d e9 e8 1d bd
       -0.01773282 0.050118644 0.11102272 -0.0385522
0000f0 88 a8 28 3e 7a a8 f3 3e 13 3d 26 be 36 4e 2e 3e
       0.1647054 0.47589475 -0.16234235 0.17022023
000100 f1 c8 1b 3e 9b 73 31 bf cf b1 d9 3d 62 af 57 bc
       0.15213372 -0.69317025 0.106296174 -0.013164373
000110 73 83 ba be 81 d1 ed bc d2 e3 b2 be c9 61 1f 3e
       -0.36428413 -0.029030563 -0.34939438 0.15564646
000120 b6 ac f5 be 8f f3 b9 3d f0 d2 04 3e 76 7b cc be
       -0.4798333 0.09079658 0.12971091 -0.39937943
000130 72 de 44 bf 87 1e c4 be 28 ee c0 3d 40 02 cb be
       -0.76901925 -0.3830454 0.09420425 -0.39650154
000140 a2 03 a6 3e a2 32 70 bd a4 8e 98 3d 9c b3 71 be
       0.32424647 -0.058642037 0.074490815 -0.23603672
000150 21 91 75 3e fa fb 6e 3f 4c 3d d9 3d 60 83 d7 3d
       0.23981144 0.93353236 0.106073946 0.10523105
000160 e7 56 76 bd 71 12 30 3e 1e 3c 48 bf f9 70 1e bf
       -0.06014147 0.17194535 -0.7821673 -0.6189113
000170 53 09 e9 be db e8 b2 3e 42 a8 91 bd 82 8c 75 bf
       -0.45514926 0.3494328 -0.07112171 -0.9591752
000180 46 c0 14 3f d4 92 87 bd 53 1b 8b 3e 8c 90 8c 3f
       0.58105886 -0.06619802 0.27169284 1.0981612
000190 37 c7 43 3d 12 89 54 3e b0 c8 84 3d 26 77 04 be
       0.047797408 0.20755413 0.064835906 -0.12936077
0001a0 c3 69 59 3e 22 be ea 3d 46 60 c0 3d 13 a4 24 bf
       0.21231751 0.11462046 0.09393363 -0.6431286
0001b0 29 5b a2 3e 9e 24 00 3f ae 47 2b 3f f1 53 06 bf
       0.31710175 0.50055873 0.6690625 -0.52471834
0001c0 74 94 d4 3d 38 87 78 be a2 00 00 3f 13 84 d4 3d
       0.10379878 -0.24270332 0.50000966 0.10376754
0001d0 ea 29 28 be 8d 9c 76 bb db 94 5a 3e ce cb de bd
       -0.16422239 -0.0037629933 0.21345846 -0.108787164
0001e0 f2 18 22 bf 35 19 55 bf 02 5d 3b 3e 25 fd 7c bf
       -0.63319314 -0.8324159 0.18297198 -0.9882377
0001f0 3a 1a 11 be 52 8c 81 bd d0 92 d6 be 37 f5 2c 3f
       -0.14170161 -0.06325592 -0.41908884 0.6756167
000200 22 3a 06 3e 8a b6 a3 3e cc f8 70 3f c2 8a ae bd
       0.13108113 0.31975204 0.94129634 -0.0852256
000210 29 60 69 3e c0 48 77 3e d5 17 75 3e 40 aa b8 3d
       0.22790588 0.24148846 0.23934872 0.090168476
000220 db 45 ac bf 17 d4 8b bf 79 0a ab bf b1 a5 bb 3e
       -1.3458818 -1.09241 -1.3362571 0.3664985
000230 3f 19 89 3f 21 dd fc 3e bf 34 37 bc 1a 43 d8 3d
       1.071083 0.49387458 -0.011182009 0.105596736
000240 c9 d7 12 3f 97 c2 6a bf a8 2f 7d be 81 c3 b0 3e
       0.5736051 -0.9170317 -0.2472521 0.34524158
000250 7e 14 4d 3b 0b 42 fb 3d 80 a6 06 3d 3d 10 66 3f
       0.0031292732 0.12268456 0.03287363 0.8986853
000260 d0 55 1e bf b4 3b a7 bd 5c 52 ae bf 7b 4a a6 be
       -0.6184969 -0.08165684 -1.3618884 -0.324787
000270 e5 54 0e 3f 34 35 ab 3e 08 c2 b5 be 1d 33 45 3d
       0.5559829 0.33439028 -0.35499597 0.04814445
000280 d0 e2 09 3e 9b cd 47 3c 1b 96 9a bd ba 6b 1e be
       0.13465428 0.012195016 -0.075481616 -0.15470782
000290 02 09 c5 3d a2 04 b9 bf db f3 d3 bd 2e 39 22 3f
       0.09620859 -1.4454539 -0.10349246 0.633685
0002a0 c1 ac d9 be f8 17 1f 3f 6d 5e 82 be 7b 1f 82 3e
       -0.42514613 0.6214595 -0.25462666 0.25414643
0002b0 09 32 61 3e c3 8e da 3d c2 e2 e2 3e 9f 69 b9 bd
       0.21991743 0.10671761 0.44313627 -0.09053349
0002c0 0e 06 3d be ae e4 fd bd e3 9b 71 be a0 d3 b3 bd
       -0.18459341 -0.12397133 -0.23594622 -0.08780599
0002d0 1b 4f 4c be 8b 4f 8f be b2 d3 24 be 2d 36 b3 be
       -0.19952051 -0.27990374 -0.1609638 -0.3500227
0002e0 4e fb 2d be 76 fb c9 3d 3e 06 7d bc 36 57 98 bd
       -0.16990396 0.098624155 -0.015443383 -0.07438509
0002f0 d2 09 ef 3c 8c 46 9c bd 04 90 fe bd 76 dd e2 3e
       0.029179487 -0.07630643 -0.124298126 0.44309586
000300 fe ea a2 bd c0 d2 10 be 03 1c 37 3d 01 f2 76 bd
       -0.079549775 -0.14142895 0.04470445 -0.060289387
000310 14 62 44 be 76 cd be 3e 32 36 3e 3f 0c 95 d8 bd
       -0.19178039 0.3726613 0.74301445 -0.105753034
000320 4e c5 b9 3e bf 3b 71 3e 0e 33 8a 3e 5e 29 87 bf
       0.36283344 0.23557948 0.26992077 -1.0559499
000330 25 53 d9 3d c8 86 66 3f cd 94 84 3d 67 3a 0f bf
       0.10611562 0.9004941 0.06473694 -0.5594849
000340 ad 5c ba 3d b9 cf 6e bd f5 2d 5d 3e 53 23 95 3e
       0.09099708 -0.05830357 0.21599562 0.29128513
000350 c7 d3 60 3f 4e b8 22 be 45 55 da 3d 86 68 3d 3e
       0.87823147 -0.15890619 0.10660795 0.18496904
000360 57 2a 2f be f1 e4 70 3e 55 63 57 bd 74 7f 87 3f
       -0.17105995 0.23524834 -0.052584965 1.0585771
000370 da ac 9e be 21 88 d5 3d 79 ed 53 be 63 b8 bc bd
       -0.3099125 0.10426355 -0.20696057 -0.092148565
000380 00 78 0c 3e bb 5d 0a bf 72 fa 4a 3f 29 43 12 3e
       0.13717651 -0.5404927 0.792884 0.14283432
000390 39 9e 63 3e 66 c6 c2 3e 75 cb d7 3e 03 36 7f 3e
       0.22228326 0.3804199 0.42147413 0.24922948
0003a0 28 e3 29 3f 51 a0 62 bd 1b 3d 39 be fb b6 aa be
       0.6636224 -0.05532867 -0.18089716 -0.33342728
0003b0 7f 10 93 bd c9 ed 93 bd 27 31 1c 3e 20 3f 40 be
       -0.07180881 -0.07223088 0.15253125 -0.1877408
0003c0 02 1d 71 bd 64 89 2c be 6f 7c 48 bf fa 3c ba 3d
       -0.058865555 -0.16849285 -0.7831487 0.090936616
0003d0 89 e6 25 bf c4 59 bd 3d f0 df 28 3e be d2 ed 3e
       -0.64804894 0.09245637 0.16491675 0.46449846
0003e0 86 29 83 3f c0 23 92 be c2 d0 d6 3c b9 bb af 3e
       1.0247047 -0.285429 0.02622259 0.3432291
0003f0 72 53 a0 3e c1 da 61 bc ed 8a 43 3c 6a 98 d3 3d
       0.31313664 -0.013785065 0.011934978 0.10331805

layer1.bias f4 [64]
000000 01 5b 60 be 8d 86 9c bd c4 f9 16 be fa ea 99 3e
       -0.21909715 -0.07642851 -0.14743716 0.30062085
000010 6a f5 62 3e 7b 71 04 3e 77 34 90 3e 55 54 9f bd
       0.2216393 0.12933914 0.28165027 -0.07779757
000020 8d 05 b1 3d 05 da ec bd 7f b8 d9 bd 58 d3 08 3c
       0.08643637 -0.115650214 -0.10630893 0.0083511695
000030 0e 38 3a 3e 77 54 3f be a7 50 0a be e9 67 34 3e
       0.18185446 -0.18684565 -0.13507329 0.17617764
000040 6d 15 37 3e 52 cc 9c bd 31 51 f8 3d c2 de 79 bd
       0.17879267 -0.076561585 0.12124861 -0.061003454
000050 5c 9a 9e bd 4f c5 e1 3d f8 90 39 3e 85 e0 97 be
       -0.077442855 0.11023962 0.18121707 -0.29663482
000060 28 d4 3d be 54 45 74 bc c2 fd 9c bc 5a 98 62 3e
       -0.18537962 -0.014909107 -0.01916397 0.2212843
000070 5c 93 09 bc 33 18 5b 3d 4b b6 22 3e 9f f8 d4 bd
       -0.00839695 0.053489875 0.15889852 -0.10398983
000080 15 67 97 3d 3c db ac 3d be 1b 80 3e fb df 9d 3c
       0.07392708 0.08440253 0.25021166 0.019271841
000090 5f 5a 24 3e 06 62 59 3e 73 5f e7 3d 72 15 d0 3d
       0.16050099 0.21228799 0.11297502 0.1016034
0000a0 6a e2 1e be 76 1b 01 be 29 8f 50 3e de 09 58 3e
       -0.15516058 -0.12608132 0.20367111 0.21097514
0000b0 42 5f 03 be 7b f8 73 3e 7b cc 80 3e 8b cf 11 3e
       -0.12829307 0.23825257 0.25156006 0.14239328
0000c0 7c a8 7f 3e c7 39 58 3e c2 eb ea bd 00 67 81 3e
       0.24966615 0.2111579 -0.114707485 0.25273895
0000d0 1f 23 88 3e 0b df e8 bc e1 4c d4 3d 59 68 61 3d
       0.26589295 -0.028426668 0.10366226 0.055031154
0000e0 d4 8d 04 be c8 9c ac bd 41 67 28 bd c4 ed 0e 3e
       -0.12944728 -0.08428341 -0.041114096 0.13957888
0000f0 3e 21 b6 ba f3 3f c1 bd 1f 2e 3c bd 4f db b4 bc
       -0.0013895405 -0.094360255 -0.045942422 -0.02207723

layer2.weight f4 [128, 64]
000000 88 12 84 bc 20 ef 49 bf 93 75 a8 be aa 06 58 3d
       -0.016122118 -0.788805 -0.32902202 0.05274073
000010 80 1a c8 bc 19 5d 50 bd 79 73 ee 3d 64 9f bd be
       -0.024426699 -0.050870035 0.116431184 -0.37035668
000020 90 36 ef 3d 56 92 c3 bc 72 f0 17 bf 79 27 79 bf
       0.11680329 -0.02387349 -0.59351265 -0.97325855
000030 6d 4f 60 bd 4e 00 44 bd 6f 0e 98 bc ea 07 0d 3d
       -0.054763246 -0.047851853 -0.01856157 0.034431376
000040 f8 e4 bf bd a0 2c a2 3d bc 6a 39 be 5c 08 31 3e
       -0.09369844 0.07918668 -0.18107122 0.17288345
000050 03 f7 ed 3d 00 20 7a 3e 16 3d 4f 3e 46 d2 dc bd
       0.11619379 0.2442627 0.20238146 -0.10782294
000060 b9 65 ee 3e 06 52 49 bc 13 fa 95 be ab 9c 82 3d
       0.46561983 -0.012287622 -0.29292354 0.06377538
000070 6a 71 80 3d 9c b3 2b 3d 9a 39 20 3e 0e 54 c8 3e
       0.06271632 0.041919336 0.15646973 0.3912663
000080 5c af 7e 3c 87 a7 96 bd 2e 0b 2e bd 4b 77 a4 3d
       0.015544739 -0.07356172 -0.04249113 0.08030566
000090 f5 eb 63 3e 32 85 3f 3e bc 37 e6 3c a1 7d 0d 3e
       0.22257979 0.18703154 0.028102748 0.13817455
0000a0 83 88 67 be a8 af 8f be 5c b1 72 be 68 e5 9c 3d
       -0.22610669 -0.28063703 -0.2370047 0.07660943
0000b0 25 dd 39 3e 60 79 3e 3d a3 a3 2e 3e 8c 77 10 3d
       0.18150766 0.04650247 0.1705461 0.03527026
0000c0 93 85 21 3d 24 e1 43 be b2 07 37 3e ce 87 ce bd
       0.039434027 -0.19128853 0.1787403 -0.100844964
0000d0 39 0e 20 be 11 31 fb 3e f2 6a 09 bd b3 a9 e2 be
       -0.15630426 0.49060872 -0.033549257 -0.44270095
0000e0 50 a3 61 3c 0b 4d eb 3d fe a6 bb 3e a8 f4 a6 be
       0.013771847 0.11489304 0.36650842 -0.32608533
0000f0 eb d0 b4 bd a8 66 31 3f 0e b9 2a be 68 5a 0a 3e
       -0.088289104 0.69297266 -0.16672155 0.1351105
000100 58 5f b6 3c 97 39 f1 3e ce 4c 45 3f a7 b4 9e be
       0.02226226 0.4711425 0.7707032 -0.30997202
000110 97 c2 59 3b a1 43 5f 3d 53 f7 dd 3e 5e 18 33 bf
       0.0033227557 0.054507855 0.43352756 -0.69959056
000120 22 9d 92 3e cc de ba 3e 56 b5 6e 3f 88 0c 0d 3e
       0.28635508 0.36498106 0.93245447 0.13774312
000130 7a a0 c5 bd 06 37 2c 3e 89 ee 37 3e b9 fa 8d 3d
       -0.09649749 0.16817865 0.17962088 0.06932587
000140 64 9e 65 3e 05 15 f9 3f de bb 79 bf 08 b9 0a be
       0.22423702 1.945954 -0.9755229 -0.13547146
000150 09 dc 1f 3e bf 1a 83 bf 35 4d d6 3e 64 b7 1e 3d
       0.1561128 -1.0242537 0.4185578 0.038749114
000160 85 39 b8 bd b7 f9 7c 3e 59 f4 c1 3e 84 ca ab 3e
       -0.08995346 0.24704634 0.37881735 0.33552945
000170 df 71 fd be a5 e5 8b bf 44 3c 18 bf 10 7c eb be
       -0.4950094 -1.0929457 -0.5946696 -0.4599309
000180 76 07 a2 3e c2 20 f8 bd 79 ea 36 3d 1b 44 f4 3e
       0.31646317 -0.12115623 0.044657204 0.4770821
000190 58 be 6a 3d f5 89 48 bd c9 a2 6d bd a2 bf ae 3e
       0.057310432 -0.04895969 -0.058016572 0.3413058
0001a0 3b 3b 91 3e 44 b0 72 3f 76 96 8b be f0 f4 4e 3e
       0.28365502 0.9480021 -0.2726323 0.20210624
0001b0 e1 69 15 3f 25 41 9b be 5a 53 55 3e 38 84 09 be
       0.58364683 -0.3032314 0.20832577 -0.13429344
0001c0 3e 89 e5 3e 8e 56 07 be 5d a7 b7 be 71 07 57 3e
       0.4483127 -0.13216612 -0.35869876 0.20998932
0001d0 8b 19 66 be 5c d1 8e be ad 0c 5c bf d0 63 6d be
       -0.22470681 -0.27894104 -0.8595684 -0.23182607
0001e0 cc b7 23 3d 8d ec 1c 3f f9 13 89 be 1e c7 10 bf
       0.039970204 0.6129845 -0.2677305 -0.5655383
0001f0 63 d8 49 3f ab 2d 72 3f 78 90 28 be 51 40 a5 3e
       0.78845805 0.94600934 -0.1646136 0.32275632
000200 d7 3c 02 3b b4 bc b7 bd 85 d5 86 bd e3 0e a4 3d
       0.001987269 -0.08971539 -0.06583694 0.08010652
000210 f8 67 d4 bd 92 15 bb bd 30 36 f4 bd f9 61 dc bd
       -0.10371393 -0.091349736 -0.11924398 -0.10760874
000220 9c 56 e0 bd 0a 4f ea bd 84 d6 c3 bd 50 76 e0 bd
       -0.109540194 -0.11440857 -0.095624 -0.10960066
000230 95 9b 95 3d 2a 88 e0 bd a3 9a 0e bc 42 b4 93 bc
       0.073050655 -0.10963471 -0.00870386 -0.01803029
000240 07 ab ee 3c 6e 0e 84 bd 57 eb fc bd 9d c4 c0 bd
       0.029134287 -0.06448065 -0.12349575 -0.09412501
000250 28 ad ca 3d 19 cc 72 3d 9d 54 b4 3d c8 97 12 bd
       0.09896308 0.059276674 0.08805201 -0.03578928
000260 37 3e 28 bd 88 30 8c bd b6 fa ec bc 21 e6 07 be
       -0.041074958 -0.06845194 -0.028928142 -0.13271381
000270 a8 d0 8c bd 44 5e f7 bb 86 5f ab bc 1b 9a 98 bd
       -0.068757355 -0.007549079 -0.020919573 -0.07451268
000280 9e 85 bf bd fa 09 74 3d ca b8 32 bd 34 d2 18 3d
       -0.09351657 0.059579827 -0.04363326 0.03730984
000290 d3 f4 0c be c8 01 c5 3d 54 49 e5 bd 8d f2 94 bd
       -0.13765268 0.0961948 -0.11195627 -0.072728254
0002a0 d0 a8 04 bd 3e 1a 8c bd ff 02 e7 bb f0 7d 0c be
       -0.032387555 -0.06840943 -0.0070499177 -0.13719916
0002b0 72 0d e2 3d 24 c6 e7 bd 8a cd a5 3d 80 04 77 3d
       0.11037721 -0.11317089 0.08095844 0.060307026
0002c0 03 48 5a 3d 58 ea 9c 3c f7 fe 93 3d f9 84 ad 3b
       0.053291332 0.019154713 0.07226365 0.0052953926
0002d0 ac e6 a9 bd 8e 9a aa 3d 11 7f cb bc f8 f3 9a bc
       -0.0829595 0.0833026 -0.024840863 -0.018915161
0002e0 20 f4 8b bd f3 ef 0f bd 51 38 8a bd e0 f4 85 3d
       -0.068336725 -0.035140943 -0.06749023 0.06540847
0002f0 0c 99 5d bd e3 30 af 3d dc 67 32 3d 45 a2 b6 bd
       -0.054101035 0.08554246 0.04355608 -0.08917669
000300 a0 75 c7 bd 90 01 8c 3d 49 cd d9 3d af bf de 3e
       -0.09739232 0.068362355 0.10634858 0.43505618
000310 6a ae de 3d e8 af 47 3d ad b4 12 3e 6b a5 3e bf
       0.108731106 0.04875174 0.14326735 -0.7447116
000320 d2 6c eb bd 34 45 b6 bf 0e 5d 84 be 2a 4b 92 bf
       -0.11495365 -1.4239869 -0.25852245 -1.1429188
000330 55 40 4c 3d 7c 5e a6 3e 73 b8 ae be 5e 27 6a be
       0.04986604 0.3249396 -0.341251 -0.2286658
000340 7e d5 99 3e 60 5a aa 3c 50 43 42 bd 01 71 ed bd
       0.30045694 0.020795047 -0.047427475 -0.115938194
000350 5a cc 39 3d d7 81 8e 3d 6c c4 3e 3e 20 b6 a7 bd
       0.0453609 0.06958359 0.18629616 -0.081890345
000360 a6 5f 3e bf fe fc 43 3e 0e d8 28 bf 56 bb 0d 3e
       -0.743647 0.19139478 -0.65954673 0.13840994
000370 e4 3a 81 3e 76 86 84 be 14 d9 c1 3c 85 40 42 be
       0.25240242 -0.25883836 0.023663081 -0.18969925
000380 1b 0e d1 bd d1 bc 21 bf a3 ac 26 bc 96 32 34 bc
       -0.102077685 -0.63178736 -0.010172996 -0.010998389
000390 9b af e1 3b 08 7d 8c 3e ec 00 19 3e 38 90 80 3e
       0.006887389 0.2743914 0.14941758 0.2511003
0003a0 20 29 ea be 8e 22 85 be 48 93 9f 3e 45 c6 62 be
       -0.457345 -0.26002926 0.31167054 -0.22145946
0003b0 ab 15 0c bf 6a 95 c1 3e 47 6d 94 3e ce 38 99 3e
       -0.5472056 0.37809306 0.28989622 0.2992615
0003c0 31 e0 b2 3e 9a ec 43 3d e3 b8 aa be 78 20 e1 bd
       0.3493667 0.047833063 -0.33344182 -0.10992521
0003d0 46 5a 5b bd 2e 4b d3 be ff 81 7d 3e bd f7 52 be
       -0.05355289 -0.41268295 0.24756621 -0.20602317
0003e0 26 77 e0 bd 70 49 fc 3d b3 69 30 3d cc 54 1e bf
       -0.10960226 0.123186946 0.043069553 -0.6184814
0003f0 ca 60 36 3e b5 cc 02 3f 80 59 9c bf 24 75 aa 3e
       0.1781036 0.5109361 -1.2214813 0.33292496

layer2.bias f4 [128]
000000 75 14 f9 bc af 37 98 3c 3a e4 37 3d 61 3a 8c 3d
       -0.030405262 0.01858124 0.04489539 0.068470724
000010 c8 a4 56 3e c9 07 1e 3e 2f 08 77 3e 06 36 97 3d
       0.20961297 0.15432657 0.24124216 0.07383351
000020 d9 b4 2e 3d bc dc 9f 3e 92 cd 82 3d b1 33 2c 3e
       0.04265294 0.31223094 0.06386866 0.16816594
000030 6a e6 b8 3d 3b 11 b9 3d d9 ef 56 3e be 79 11 3c
       0.09028323 0.090364896 0.20989932 0.008879123
000040 44 cf 28 be 91 b7 c7 bd 2c 0d 3b 3e b5 24 08 be
       -0.16485316 -0.097518094 0.18266743 -0.13295253
000050 4a f3 f1 3d b8 86 40 be 51 2e 22 3d 8b 2a 79 3d
       0.11813982 -0.18801391 0.039594952 0.060831588
000060 2e c4 74 b9 21 ca 5e bd 86 83 e3 bd 08 3b a2 be
       -0.00023342736 -0.054391984 -0.111090705 -0.31685662
000070 92 f1 02 3e 32 73 7e 3d d2 ea ca 3d 13 90 54 3e
       0.12787464 0.062121578 0.0990807 0.20758085
000080 56 4e 58 3e ac 17 19 be e5 bf da 3d 46 13 d6 3d
       0.21123633 -0.14950436 0.10681132 0.10452895
000090 76 94 15 3e 10 35 d9 bd a9 8d ba 3c 32 64 00 be
       0.14607415 -0.10605824 0.022772627 -0.12538221
0000a0 32 7b 51 3e 8f ab 17 3d e8 8c e7 bb a2 d5 03 be
       0.20457152 0.037028845 -0.007066358 -0.12874463
0000b0 c3 85 04 be b1 70 1c 3d 8c 44 88 3d 44 88 52 3d
       -0.12941651 0.03819341 0.06653699 0.051399484
0000c0 04 5d 47 3d 0b 3c f8 bd e2 0a a5 3c 5a a4 44 3e
       0.04867269 -0.12120827 0.02014679 0.1920332
0000d0 92 e5 d9 bd 97 4e 33 3d 51 c4 0a 3e 2b 8f 39 3e
       -0.1063949 0.04377612 0.13551451 0.1812102
0000e0 90 b4 a8 3d f1 98 d5 3d 11 28 21 3e 80 17 27 3e
       0.082375646 0.10429562 0.1573794 0.16317558
0000f0 ed 60 52 3e ed a2 70 3e 99 22 19 3e a2 3b 73 3c
       0.20544787 0.23499651 0.14954604 0.014845761
000100 d4 07 af bd 2a af 26 3e 4d 72 32 3e 22 39 83 3e
       -0.08546415 0.16277757 0.17426415 0.25629526
000110 00 3d 32 3d 8f a7 26 3d eb 95 4f be a1 59 80 bd
       0.043515205 0.04068714 -0.20272033 -0.06267095
000120 8c ea 92 3d 45 33 6b 3e 8c be 1f 3d 8c 9d 39 3e
       0.071736425 0.22968777 0.03900008 0.18126506
000130 47 d9 27 bd 27 7e 94 3e 1d d2 73 3e 26 07 1d 3e
       -0.040978696 0.29002497 0.2381062 0.15334758
000140 15 aa 3f 3b ec 08 8f 3d 7c 95 02 3e 43 36 b8 bc
       0.0029245664 0.069841236 0.12752336 -0.022486812
000150 5a 58 81 bd 73 a4 99 3d b6 4c 4c 3d 9a 64 85 bd
       -0.0631568 0.07502069 0.049877845 -0.06513329
000160 73 b4 f3 bd 27 e2 8f 3d db 8d 9d 3d c3 bd b9 3d
       -0.11899652 0.07025557 0.076930724 0.09069397
000170 db e6 98 bb f5 bc 11 bd 54 95 10 3e 2a ee 01 bd
       -0.004666192 -0.035580594 0.14119464 -0.03172127
000180 00 9c f7 3d b0 7d 80 3c e8 12 ce 3d d2 c8 a3 3d
       0.120903015 0.015684932 0.100622 0.07997288
000190 00 9f c5 bd c1 d4 f4 3d d0 9e f6 bb 30 85 ff 3d
       -0.096494675 0.11954642 -0.007526256 0.124765754
0001a0 65 6b 06 3e 64 f1 f4 bd c3 d6 ab 3d 36 f0 dc 3a
       0.13126905 -0.11960104 0.08390572 0.0016856256
0001b0 5a e1 9d 3c 90 0c 4a 3e eb f7 32 3e cd 54 d1 bd
       0.019272495 0.19731355 0.17477386 -0.102212526
0001c0 ed 85 28 3e 02 12 28 3d c6 6c f3 3d 45 e7 33 3e
       0.16457339 0.0410328 0.11885981 0.17568691
0001d0 f5 d4 aa bd f4 33 bc 3d 5a d1 d7 3c 73 bf 1b 3e
       -0.083413996 0.09189597 0.026344944 0.15209751
0001e0 a0 7d bf 3c 08 57 46 3e 77 b7 43 3e e5 ec db 3d
       0.023375332 0.19369137 0.19112955 0.107385434
0001f0 ec d0 9c 3d 06 76 85 3d d7 09 00 3d a0 7a 1b bc
       0.07657036 0.06516652 0.031259384 -0.009489685

layer3.weight f4 [64, 128]
000000 6c c9 38 bd d6 1c f8 bc 33 25 b3 bc 91 67 20 bd
       -0.045113966 -0.030287188 -0.021868324 -0.03916127
000010 34 a1 8f bd 2c a4 79 bd 31 b8 69 3b 61 c9 12 bd
       -0.07013169 -0.060947582 0.0035662765 -0.03583658
000020 45 d5 57 bd 26 29 d3 bd 04 5e 74 bd 51 3c 81 bd
       -0.052693624 -0.10310583 -0.059659973 -0.063103326
000030 4c 75 d7 3a d0 5f ea 3c 88 d3 8a bd 73 4a 6a 3c
       0.0016438155 0.02861014 -0.06778628 0.014299977
000040 2b 67 3a 3d e6 ae 22 bd 56 6f 05 bd e7 df 57 bd
       0.045508545 -0.039717577 -0.03257688 -0.052703764
000050 93 2b ec 3b 5f 86 ca bc 55 20 75 bd 52 47 af 3c
       0.007207343 -0.024722276 -0.059845287 0.021396313
000060 6f e4 f9 bc 95 5a 91 bd 4a df a2 3d 63 4d b0 bc
       -0.030504433 -0.07097355 0.07952745 -0.021521276
000070 47 74 3e 3d 63 d7 c9 3b a7 a4 2f bd 7b b9 42 3d
       0.04649761 0.0061597093 -0.042881634 0.04754017
000080 b1 c0 b0 bc dd e7 ac 3d b1 7f 6b bd a1 5d 4b bc
       -0.021576257 0.08442662 -0.057494823 -0.01241246
000090 7a 8f 3b 3b 16 65 58 3d 13 aa 2b 3c 7b 28 5d bd
       0.0028619454 0.052830778 0.010477561 -0.053993683
0000a0 db cd 9f 3d 70 c3 7f bd 59 e8 68 bd ec e2 aa bd
       0.07802936 -0.062442243 -0.05686221 -0.08344063
0000b0 e8 43 91 3d b6 70 0b 3d aa ce e9 bc c3 01 9f bd
       0.0709303 0.034043036 -0.028540928 -0.07764008
0000c0 ed 09 d0 ba e6 c6 ca bc a1 9e b2 3d 62 20 56 bc
       -0.0015872099 -0.024753045 0.08721662 -0.013069244
0000d0 c6 a1 b8 bd 55 69 ba bc fa bf ca bd eb e5 30 3d
       -0.09015231 -0.022755304 -0.09899898 0.043188017
0000e0 84 ac 6d bd b6 81 ac bd fd bd 79 bd 1c 35 0b 3d
       -0.05802585 -0.08423178 -0.060972203 0.033986196
0000f0 6f 8b d0 bd 6a 32 4a bd 2d 09 a6 bd ef 29 94 bd
       -0.10182845 -0.049364485 -0.08107219 -0.07234561
000100 25 06 9f bd 85 d9 99 bc d1 75 c1 bd 4e a0 a9 bc
       -0.07764844 -0.01878048 -0.094463 -0.020706322
000110 47 72 7d bd ba 16 db bd 62 a1 25 3d 96 d3 28 bb
       -0.06187656 -0.10697694 0.04043711 -0.002576088
000120 ed 47 1d bc e8 bd a0 bd 95 b3 58 bd ec 82 79 3c
       -0.009599668 -0.07848722 -0.052905638 0.015228968
000130 c5 7f 6f bd b7 82 a5 bd eb a5 cd 3c 77 95 1e bd
       -0.05847146 -0.080815725 0.02510353 -0.03871676
000140 7f b3 f3 bd 33 ce f0 3c c2 dd 4e bd 9f b2 0d 3d
       -0.118994705 0.029395198 -0.050504453 0.034594174
000150 35 81 4d bd 89 32 e3 3b 9d 52 d0 bd c4 c7 44 bd
       -0.05017205 0.0069335145 -0.10172007 -0.048042074
000160 ac c5 00 3b d7 3d 0d 3b 04 82 5e bd 77 ce 67 3d
       0.0019649072 0.0021551752 -0.05432321 0.056593385
000170 d8 da 9b 3b e0 7a c3 b9 32 05 5e 3c e0 e7 08 bd
       0.004756313 -0.00037284847 0.013551043 -0.03342426
000180 bd 93 a6 bd e3 51 5b 3d 55 e1 8e bd eb 7f ae bc
       -0.081336476 0.05354489 -0.069765724 -0.02130123
000190 18 11 ac bd 1d 77 4a bd 83 41 a4 bd a6 2d ec bd
       -0.08401698 -0.04943 -0.08020308 -0.11532144
0001a0 29 dc 95 3d 27 46 bf 3b a9 03 d3 bc d8 a0 8b bd
       0.07317383 0.0058372202 -0.025758581 -0.06817788
0001b0 01 fd ed bd 32 5e 22 bd 80 1f f0 3c 8d 89 90 bc
       -0.11620522 -0.039640613 0.029311895 -0.017643714
0001c0 50 50 d4 3c 3a 76 a2 3d 17 bc 02 bd 0d c3 b5 bc
       0.025917202 0.07932706 -0.031917658 -0.022187734
0001d0 8f f2 72 3d d8 58 1f bd 8a 82 0b 3d 87 05 13 3b
       0.059313353 -0.038903087 0.03406004 0.0022433714
0001e0 62 15 2a 3d a7 10 d9 bd c0 d3 34 bd 99 4f b4 bd
       0.0415243 -0.10598879 -0.044147253 -0.088042445
0001f0 fb 92 2f 3d d6 ba 5c 3d b4 31 96 3d c7 86 2f bc
       0.04286478 0.053889118 0.07333699 -0.010713286
000200 90 4d 92 3d ff 53 64 3d 07 c2 ac 3d 1f a8 21 bc
       0.071437 0.055744167 0.08435445 -0.009866743
000210 1d ef 05 3c cd d1 34 bd 19 cf cd bd 1f 55 40 bd
       0.008174685 -0.044145394 -0.10049266 -0.046956178
000220 ec 5f 36 bd 97 04 1b ba 38 bb 44 bc ac 44 89 bd
       -0.044525072 -0.00059134647 -0.012007527 -0.06702551
000230 7e e9 38 ba 46 48 7b 3d 19 df 0b bd bd a6 0e bd
       -0.0007053836 0.061348222 -0.03414831 -0.034826983
000240 f7 e1 a1 3d 3e e7 a6 3d 5f a3 58 3d 0b 2d 6f 3d
       0.079044275 0.08149575 0.052890178 0.058392566
000250 32 1a 26 3d a7 2d 74 3d 9f 5e 84 3d 4b 4f df bd
       0.040552326 0.05961385 0.0646336 -0.10903796
000260 52 e5 88 bd e2 14 76 3d 81 6b 0f bd 07 e7 76 bd
       -0.066843644 0.06007851 -0.035014633 -0.06027892
000270 07 6f b4 3c b1 68 5e bd 8c 72 bb 3c d2 9b 15 bd
       0.022025598 -0.05429906 0.022881769 -0.036525555
000280 28 e8 0a be 50 22 84 3d 5b d3 b4 bd 88 1f 83 bd
       -0.13565123 0.06451857 -0.08829375 -0.064024985
000290 4a 37 4f bb 80 64 68 3d 0d 91 d5 bb 50 e2 f1 bc
       -0.0031618648 0.05673647 -0.0065175355 -0.02952686
0002a0 40 0a 67 bd 1c a7 3d bd 39 1a be bc 63 0f ac bd
       -0.05640626 -0.046301946 -0.023205863 -0.08401372
0002b0 bc 73 f2 3c 56 44 28 3d b0 0b a5 bd 0e 82 5b bd
       0.029596202 0.041080795 -0.0805887 -0.053590827
0002c0 d8 07 49 3d d8 de 9b bc 29 7d e2 bb 29 bb bb bc
       0.049079746 -0.019027159 -0.006911893 -0.022916393
0002d0 cd 60 96 bc be dc 2a 3d f8 c6 08 3d 43 97 c2 bd
       -0.018356705 0.041714422 0.033392876 -0.09501507
0002e0 f0 b8 30 3d f9 fb 3a 37 ab b7 38 3d 40 e6 9c bd
       0.04314512 1.1145131e-05 0.045097034 -0.07661104
0002f0 fb dc 4d 3d 6a 1e 12 bc a1 3d 5c bc e7 37 8c 3d
       0.05025957 -0.008918384 -0.013442428 0.068466
000300 62 94 61 3d 82 8b 9f bd f5 fd 54 3d a2 49 38 bd
       0.05507315 -0.07790281 0.052000005 -0.044992097
000310 a3 95 88 3c 66 35 24 bd 16 28 55 3d fe 9b 5f bd
       0.016672915 -0.040089987 0.052040182 -0.054592125
000320 a8 4f c4 3b 88 b1 6d bd 82 89 bb bc cb 62 09 be
       0.005990941 -0.058030635 -0.022892717 -0.13416593
000330 c8 60 3c bd ec a1 6b 3d 70 53 a9 bd 04 a6 1e 3d
       -0.045990735 0.057527468 -0.082678676 0.038732544
000340 ff 1c 37 3d 07 21 6b 3b 36 5c 84 bc a6 21 32 bd
       0.044705387 0.003587784 -0.01615725 -0.04348912
000350 2c c3 9d bd 59 ce 6f 3c c4 aa 25 b9 95 37 44 bd
       -0.07703242 0.014636599 -0.00015799241 -0.04790457
000360 cb 47 ce bb eb ec 1f bd 38 0e 3e b9 83 e1 9c bb
       -0.0062951795 -0.039044302 -0.00018125109 -0.0047876253
000370 f9 80 86 bd f2 13 cf bd 35 05 da bc 92 ad 8e 3d
       -0.06567568 -0.10111226 -0.026613811 0.069667
000380 9b f8 6a bd 23 cb 57 39 ee 8b 07 bd 84 ed f4 3c
       -0.057365995 0.00020579672 -0.03309243 0.029898413
000390 1a 49 a2 3d 00 be 61 3d ca 7b ba bd 39 7a 23 bd
       0.07924099 0.05511284 -0.09105642 -0.039911482
0003a0 c3 30 9f bd cf 31 4c bd b0 d7 bd bc 55 09 ae 3b
       -0.077729724 -0.04985219 -0.023174137 0.005311171
0003b0 4b 14 4e 3d 94 ce ae 3c 7e 7f dd bd 8a c8 27 bd
       0.05031232 0.021338739 -0.10815333 -0.040962733
0003c0 57 62 5b bd 89 0c 0a bc 54 1b a9 ba f3 1c c6 bc
       -0.05356058 -0.00842584 -0.0012901821 -0.024183726
0003d0 2e 85 92 3d 5b b7 c1 3d b5 1a 54 bd e0 1f 3e bd
       0.07154308 0.094588004 -0.051783282 -0.046417117
0003e0 9d 2d de bd 66 da 98 bd 5a 91 6c 3c a7 4d 09 bc
       -0.10848544 -0.07463531 0.014438951 -0.00838033
0003f0 05 60 f3 3c 89 75 59 bd e1 5d 7a bd 33 86 02 3d
       0.029708872 -0.053090606 -0.061124686 0.031866264

layer3.bias f4 [64]
000000 e6 5c d9 bd 9c 0e d4 bd 4e 8b 1c 3d 09 f3 3e bd
       -0.10613422 -0.10354349 0.03821879 -0.046618495
000010 ee 9a eb bd 96 a0 fd 3d 46 91 11 3e c6 b7 59 3e
       -0.1150416 0.12384145 0.14215574 0.2126151
000020 a7 01 d9 bc a6 68 be bd ff 38 94 3d 8a 6a 8e 3d
       -0.026490046 -0.09297304 0.07237434 0.069539145
000030 84 4b bd bd 92 36 c1 bd a9 b1 18 bd 03 40 eb 3d
       -0.09242919 -0.094342366 -0.037278805 0.11486819
000040 d7 e3 bb bc dc b0 22 bd 88 9d 7b bd a5 23 26 3c
       -0.022935791 -0.039719447 -0.06142953 0.010140334
000050 8c dd 1b 3e 00 b5 2a 3b 24 c1 60 bd 97 67 f8 bc
       0.15221232 0.0026047826 -0.054871693 -0.030322833
000060 b5 b0 ec 3c 5d aa 41 bd 30 c0 eb 3c 08 62 a7 bd
       0.028892854 -0.04728161 0.028778166 -0.08172995
000070 69 52 e7 3d ec 52 7e be fb b5 ca bd f3 04 75 3c
       0.11295015 -0.2483632 -0.09897991 0.014954793
000080 8d af b3 3b fa b5 25 3e 22 ab d7 bd 99 1e 17 bd
       0.005483574 0.161827 -0.10530688 -0.036894415
000090 28 d1 29 3c c7 ec 53 bb d4 e8 27 3d ac ff 8a 3c
       0.010364808 -0.0032337175 0.040993527 0.016967617
0000a0 dc a4 a7 bd 2f 74 a3 3e 9e bf 86 3d 7e d7 41 bc
       -0.08185741 0.3192458 0.06579517 -0.0118311625
0000b0 0c f6 5f 3e d5 7a 13 be dd c5 5a 3d b9 75 4b bc
       0.21871203 -0.14402325 0.053411353 -0.012418204
0000c0 07 fa 0c 3d 34 7f 83 bd 03 f1 d9 3c 47 15 f8 3b
       0.034418132 -0.064207464 0.026604181 0.007570896
0000d0 a2 6c 19 bd 04 dc c6 3d a2 1e 6d 3c d8 9d 5b bd
       -0.037457116 0.097099334 0.014472635 -0.05361733
0000e0 42 44 b5 3c 6c 0d ce bd 0d 0a 9d bd f0 b2 4d bd
       0.022127274 -0.10061154 -0.07667933 -0.050219476
0000f0 e5 7d bd bd f0 79 a8 bc 17 cd 78 3d 0d 82 79 bd
       -0.09252528 -0.020565957 0.060742464 -0.06091504

slot_head.weight f4 [13, 64]
000000 f9 fe 83 bd 77 4b 27 be 9f 22 2c 3e c0 a0 c0 bc
       -0.064451165 -0.16337381 0.16810082 -0.023514152
000010 25 7f a5 3d f2 eb df bd f3 60 14 3d a5 cd 86 3c
       0.080808915 -0.10933675 0.03622527 0.01645548
000020 e1 05 5a bc 43 7c 4f 3d 19 63 d4 3d fe 3e a9 3e
       -0.013307066 0.050655615 0.10370464 0.33055872
000030 38 83 7d 3d a8 66 f8 bb 57 44 8b 3d 84 b4 97 3e
       0.061892718 -0.007580597 0.06800144 0.2962991
000040 12 8f b9 3d 02 5d 90 3d 65 5a 39 3e 3f 41 28 be
       0.090604916 0.0704899 0.18100889 -0.1643114
000050 94 25 27 be f6 25 93 bc 31 9c c6 3d ba 71 27 3f
       -0.16322929 -0.017962437 0.0969776 0.6540791
000060 84 9b 4d 3f 37 b0 8a bd c0 40 09 be 90 b6 0c be
       0.80315423 -0.067718916 -0.13403606 -0.13741517
000070 29 27 8f bf 86 dc 26 bf 1b ff b1 3d 8b a5 e8 3d
       -1.1183826 -0.6518024 0.08691236 0.113597
000080 d6 4b 71 3e b5 b2 0e 3f 51 d0 5c 3d 4d bd 0f be
       0.23564085 0.55741435 0.053909604 -0.14037056
000090 d6 fd 68 be 04 51 9b be 2a dd 0f bf 83 46 72 3e
       -0.2275308 -0.30335248 -0.56196845 0.2365971
0000a0 03 6f d1 bd b1 a0 f4 3d f2 e6 1e be 63 44 4c 3d
       -0.10226252 0.11944712 -0.15517786 0.049869906
0000b0 ea 9a 60 bf 96 87 26 c0 9a bf 4e 3d a1 a5 6a bd
       -0.8773638 -2.6020255 0.050475694 -0.057286862
0000c0 72 02 89 3e a4 25 65 bd 9a d5 d3 bf 79 f1 bb bd
       0.26759678 -0.0559441 -1.6549561 -0.09176917
0000d0 ce 31 9f 3d bb 25 19 3e 3b f0 4b 3c f4 64 03 3d
       0.07773171 0.149558 0.012447412 0.0320787
0000e0 aa ed d4 be ce 7a 29 bd ca 18 a0 3c d9 f5 63 3d
       -0.41587573 -0.04137688 0.01954307 0.05565438
0000f0 c1 f5 67 3d aa a3 06 bf 50 e8 b7 3e 6f 93 98 bf
       0.056630854 -0.5259348 0.35919428 -1.1919993
000100 37 1a 71 bb c6 aa 8e bd 4c b1 fc 3e af 26 8a bc
       -0.0036789307 -0.06966166 0.49354017 -0.016864149
000110 95 85 ce 3d 6d 5c a9 be cf 92 e6 3d 03 27 ca 3d
       0.100840725 -0.33078328 0.1125847 0.09870722
000120 94 d0 be 3d a9 63 ab bd 57 a2 4a 3e bd be 03 bf
       0.09317127 -0.08368618 0.1978849 -0.5146292
000130 eb 23 bf 3d 43 1d 27 3c d4 f8 e8 bd 99 b6 74 bf
       0.09333023 0.010199848 -0.11375585 -0.9559112
000140 8f c0 18 bd 5d 16 d9 3c 97 36 e9 be 84 6a b9 3d
       -0.037293013 0.026499921 -0.4554946 0.09053519
000150 78 c3 d7 be a6 db ce bc 19 f4 08 be 49 70 e8 3e
       -0.42141318 -0.02525122 -0.13374366 0.45398167
000160 67 67 dd be a3 ff 98 bd a3 0b f8 3c d3 ec 91 3d
       -0.43242952 -0.07470634 0.030278986 0.07125249
000170 38 1f 73 3c 10 43 c0 3e 26 aa 35 3d 3a 32 72 bc
       0.014838986 0.37551165 0.04435172 -0.014782483
000180 74 9c 33 3d 12 0c 9d bd f8 94 ce bd 5f 60 01 3e
       0.043850377 -0.07668318 -0.10087007 0.12634419
000190 a6 34 e3 3d 44 8f 85 bd 8c c8 1a 3e 56 a2 c0 3d
       0.11094026 -0.065214664 0.15115565 0.09405963
0001a0 02 46 26 bd 0b bc b8 3e b7 9e b9 3e dc 1b 90 3d
       -0.04059411 0.36080965 0.36253902 0.07036564
0001b0 9c 9a 2a bd 49 35 cb bf 57 6f d3 bd 7d c8 d6 bd
       -0.041651353 -1.5875636 -0.10323971 -0.10487459
0001c0 50 92 1d bd de 3a 94 bd 4c 0d 8f bf bc 44 33 bd
       -0.038469613 -0.072377905 -1.1175933 -0.043766722
0001d0 60 f8 2c 3c ea 0e 65 3e f9 c6 c5 bd d9 36 c3 3d
       0.010557264 0.2236897 -0.09657092 0.09531946
0001e0 db 60 9c 3e e4 36 dd 3d 80 9c a2 3d 9d 59 7d 3d
       0.30542645 0.10801485 0.07940006 0.06185304
0001f0 d1 e9 53 3b 96 60 e4 3d f4 75 9a 3d 12 47 d8 be
       0.003233541 0.11151235 0.07542029 -0.42241722
000200 88 b6 9d bd d7 91 f5 3c 34 41 ad 3c 1a b8 89 bd
       -0.07700831 0.029976768 0.021149255 -0.06724568
000210 2c 9e ac 3d 8c 00 76 bd b9 c7 e8 bc 1f 42 46 be
       0.084286064 -0.060059115 -0.028415548 -0.1936116
000220 ea d5 f1 bd b3 07 b8 bd 0a 01 07 bf d5 67 03 bd
       -0.11808379 -0.089858435 -0.5273596 -0.032081444
000230 33 75 98 39 6a e1 13 bb 3d 4f 3c bd 01 3b 2c 3f
       0.0002907902 -0.0022564777 -0.045974005 0.6727753
000240 e2 81 7f 3d d0 84 8a 3d 76 28 d6 3d d4 c3 c7 be
       0.062379725 0.06763613 0.10456936 -0.39016593
000250 f2 e0 3b bf be 92 f1 39 d7 fd 8b 3c 1b 15 1d 3f
       -0.73390114 0.00046076434 0.017088814 0.6136033
000260 84 b4 ed bf 73 47 33 3d 3c 9d bd 3d e6 d5 ad bd
       -1.8570714 0.04376931 0.09258506 -0.084880635
000270 5e b6 d1 bf 9f 82 49 bf 31 62 48 be 10 b1 c6 be
       -1.6383779 -0.78714937 -0.19568707 -0.38806963
000280 24 ed 99 be 69 93 ac 3e 68 8c 78 3d 3c 03 f4 b8
       -0.30063736 0.33706215 0.060680777 -0.00011635429
000290 b6 b5 e5 be ab 65 a2 3e 86 f0 30 3e 00 d5 cd be
       -0.44865197 0.31718192 0.17279252 -0.4020157
0002a0 7c bf ed 3b 00 49 cf bb 11 6e 90 3f 21 0d f8 be
       0.0072554927 -0.006325841 1.128359 -0.48447517
0002b0 24 df 89 3e 8c b0 35 bf 7e 5e dc 3d 8f 0f d6 bc
       0.26928055 -0.70972514 0.107602105 -0.026130466
0002c0 30 5f a7 3e ce e0 f6 bd b2 35 50 bf c4 25 cb bd
       0.3268981 -0.12054597 -0.8133193 -0.099193126
0002d0 c4 7f 7b 3d 86 fb 0b bf f8 67 82 3d ad 30 a9 bd
       0.061401144 -0.5468067 0.06367487 -0.08261237
0002e0 9f f7 25 3e 97 c1 1b 3d 70 6c 97 bc 02 92 8a 3d
       0.16207741 0.03802642 -0.018484324 0.0676613
0002f0 d2 0c ad 3d 14 10 04 3e 17 c4 d5 bd 09 b3 f1 be
       0.08449711 0.12896758 -0.10437792 -0.47206905
000300 c3 3e d7 bd 24 40 64 bd c4 2a ce 3e d2 88 27 3d
       -0.10510018 -0.05572523 0.40267003 0.040901966
000310 38 2a 11 be 1b d8 a3 3e 81 92 e4 3e 99 ca 64 3e
       -0.14176261 0.32000813 0.44643024 0.2234291
000320 eb 4c 6b 3d 74 5a 8d 3d 43 7e aa 3e 30 0f d7 3d
       0.0574464 0.06902018 0.33299455 0.10500944
000330 d6 9d af bd 64 ab c8 bc 31 e0 dd bd c6 4a 38 be
       -0.08575027 -0.024495788 -0.10833777 -0.17997274
000340 e2 fa 0a bd ca 96 95 3d 03 b1 14 3e 1a 4a a5 3e
       -0.033930667 0.07304151 0.1452065 0.32283098
000350 f6 22 3e bd 71 c3 cf 3d 75 cd 75 3c b4 d2 ac 3e
       -0.04642006 0.10144699 0.015002598 0.33754504
000360 a8 32 d9 bf 55 d8 5c bc 16 ce 66 bc 9a ae bc 3a
       -1.6968584 -0.013479312 -0.014087221 0.0014395297
000370 1f 13 ac bf 37 69 1c 3e 15 c3 80 bc 03 9e a6 3e
       -1.3443335 0.15274511 -0.015718022 0.32542428
000380 29 b5 6a be 29 2c cc 3d 6b 3f b9 3d e5 7b 9c bd
       -0.2292067 0.099693604 0.09045299 -0.076408185
000390 a5 b8 83 bf 00 f8 68 3e 1e 41 5d bf 25 17 04 3c
       -1.0290724 0.22750854 -0.86427486 0.008062159
0003a0 fb 99 c0 bd b0 de af be 0c 32 18 bf 6f 2e 0b bf
       -0.094043694 -0.34349585 -0.59451365 -0.5436773
0003b0 fd 17 10 3e 96 51 ab 3e b4 d1 18 3d 38 28 e0 bd
       0.14071651 0.33460683 0.037309363 -0.10945171
0003c0 15 c9 47 3e 7a c3 d4 3d d4 2f 06 3f 41 ac 68 bc
       0.195103 0.10388847 0.5241673 -0.014201225
0003d0 46 3b c9 bd 10 25 b2 be 56 b1 cc bd 45 f9 10 be
       -0.09825759 -0.347939 -0.09994762 -0.14157589
0003e0 d8 37 28 be d5 c3 cb 3d 03 3d 9c bd 2d 76 22 3d
       -0.16427553 0.09949461 -0.076288246 0.039663482
0003f0 cc 0f 63 bd c9 be 70 bd 6e 12 8c 3e af 1a 28 3e
       -0.055434987 -0.058775697 0.2735781 0.16416429

slot_head.bias f4 [13]
000000 42 3b 42 3d 05 9e 91 3d b3 ee 8a 3c f5 e1 08 3e
       0.047419794 0.07110218 0.016959524 0.13367446
000010 a8 2f 82 3e 9f 74 31 bc 6a b0 37 3e 3e 2c 92 bd
       0.25426984 -0.010831027 0.1793839 -0.07137345
000020 3c 76 dd bd 14 28 e5 3d 07 b8 34 3e 04 e0 0d be
       -0.10813567 0.11189285 0.17648326 -0.13854986
000030 39 7d 1f be
       -0.15575112

rotation_head.weight f4 [3, 64]
000000 9a fe 89 3d db 4c 19 bd cb 81 12 3f d5 58 39 3d
       0.067380145 -0.03742681 0.572293 0.045250732
000010 7f e6 a2 3c 04 85 a5 be 79 8e 20 3e 31 6b aa 3d
       0.0198853 -0.32328045 0.15679349 0.083212264
000020 ba 21 86 bd 4e e2 c8 bc c8 e9 1a bd ea 3f aa 3d
       -0.065494016 -0.024521973 -0.037820607 0.08312972
000030 2c 7d 6a bd 19 15 20 3d 8f 37 82 3c 20 72 19 3d
       -0.05724828 0.03908262 0.015895633 0.037462354
000040 a8 3b 3b 3c 06 3c 6f bd 40 63 36 3e a7 fd 0c 3f
       0.011427797 -0.058406852 0.17811298 0.5507454
000050 8b 38 57 be 30 61 0a be 4c 23 c6 bd 53 d6 b2 be
       -0.21017663 -0.13513637 -0.09674701 -0.3492914
000060 69 28 42 3e 10 3d 9c bd 01 e0 8b bd f8 3f 62 3d
       0.18960728 -0.07628834 -0.06829835 0.055236787
000070 b3 6d 65 be 93 db 9c be 91 73 96 3d 71 24 40 3e
       -0.22405128 -0.30636272 0.07346261 0.18763901
000080 16 ad ce 3c ef 98 09 3d 6c 03 1f be a0 c2 08 3d
       0.025229018 0.033593114 -0.15528649 0.033388734
000090 e9 d2 bf 3e 9e aa ad 3c a9 8e c3 3e 8e a7 8b 3d
       0.374656 0.02119952 0.3819478 0.06819068
0000a0 13 fb 7c bd 3f f3 49 be 12 a7 0d 3f d9 61 d0 bd
       -0.06176288 -0.19721697 0.55333054 -0.10174913
0000b0 40 02 31 be 21 2d 92 3e ff 5b a4 bc d2 bf c8 3c
       -0.17286015 0.28550056 -0.020063398 0.02450553
0000c0 c4 08 bc 3d ac a2 df bd db a7 2b 3e b6 d5 7a 3c
       0.091813594 -0.10919699 0.1676325 0.015309742
0000d0 08 07 db 3c ff 46 b8 3d 79 7e 12 3d 23 b4 c7 bc
       0.026736751 0.089979164 0.035765145 -0.024377888
0000e0 52 d9 9c 3e 6f d9 58 bd 38 aa 25 bd cf bc 11 be
       0.30634552 -0.052941736 -0.040445536 -0.14232181
0000f0 18 0c c0 bd 66 03 8a bd 9f 47 b4 3e 02 45 6b 3d
       -0.09377307 -0.067389295 0.35210893 0.057438858
000100 d4 a8 07 bd cf 69 09 be 3a 72 03 bf f0 51 2f bb
       -0.03311999 -0.13419269 -0.5134617 -0.002675172
000110 44 24 8d 3d 5d 53 b5 3e 9b 57 dc bd a9 72 57 3c
       0.06891683 0.35415164 -0.10758897 0.013149896
000120 f3 a1 41 bd 24 89 6d 3c d0 e5 73 3d 56 a7 37 3e
       -0.047273587 0.014498029 0.05954534 0.17934927
000130 92 f3 3b 3d 9e 97 e1 3d 1f db a1 3c ed 67 19 3d
       0.045886584 0.11015247 0.019757805 0.037452627
000140 7c 73 21 bd 60 63 c7 bd 57 57 4e bd c0 fc ec be
       -0.039416775 -0.09735751 -0.050376263 -0.46286583
000150 2d db 2e 3e 3d 10 53 3d 85 f6 62 bc 5d 42 5f 3e
       0.17075796 0.051529158 -0.01385272 0.2180266
000160 b7 20 bf be 9d d6 fa 3d d4 d6 81 bd 65 f3 6e bd
       -0.37329647 0.122479655 -0.06339803 -0.058337588
000170 67 4b 1f 3e f9 94 4e 3e 5f 4a 8a 3b d6 1e 31 bd
       0.15556107 0.20174016 0.0042202915 -0.043242298
000180 72 e0 01 3e 73 e4 8a 3d bd 8e 7b bc 34 95 73 bd
       0.12683275 0.067818545 -0.015353856 -0.059468463
000190 1d 93 bb be 35 75 1f bd 39 d0 5f be 84 8d 10 3e
       -0.36635676 -0.038930137 -0.21856774 0.14116484
0001a0 5c 3b b0 bd 32 30 9f 3d 7d 7e 0b bf 6a ee 11 3d
       -0.08605072 0.077728644 -0.5448988 0.03562776
0001b0 9d 24 4d 3e fd 9a 99 bd 73 0d 1c bd ae b0 05 bc
       0.20033498 -0.07500265 -0.038098764 -0.0081597995
0001c0 67 40 83 bd 20 c6 a3 3b dd 87 27 be 5e 91 06 be
       -0.06408768 0.0049979836 -0.16360421 -0.1314139
0001d0 38 1c f3 bc ce 24 80 bc cc 27 ce bd 5a 6d 8d 3d
       -0.029676542 -0.01564255 -0.100661844 0.06905623
0001e0 eb 11 4e be 73 e5 89 bd 84 c7 0e 3e ee 61 b1 bd
       -0.20124023 -0.06733217 0.13943297 -0.08661257
0001f0 ed a0 88 3d e6 3c 3d 3e ec 28 9d be 0a ad 4a bd
       0.06671319 0.18480262 -0.30695283 -0.04948143
000200 e5 f6 cc bd 9b 8d 54 bd e9 72 c6 bc 60 87 e7 3c
       -0.10008029 -0.051892858 -0.024224715 0.028262794
000210 77 47 b8 bd d5 bc 02 bf 5b d0 ce bd 64 34 02 be
       -0.08998006 -0.51069385 -0.100983344 -0.12715298
000220 7d 7c 0c 3d 6f de 94 3d 4a a3 2f be 28 17 22 3d
       0.03429841 0.07268988 -0.17152134 0.039572865
000230 21 32 94 3d 67 8f 5c bd 6f 29 3c be c7 9c 35 bd
       0.07236124 -0.053847697 -0.1837518 -0.044338968
000240 f2 57 97 3d 01 20 a0 3d 06 f7 41 be 73 85 1a be
       0.07389821 0.07818604 -0.18941888 -0.1508997
000250 24 98 b6 be 3a c0 10 3c 05 68 d1 bd 05 03 9c bd
       -0.3566295 0.008834893 -0.10224918 -0.076177634
000260 73 36 31 bc db e8 24 3c b5 33 63 3d 50 14 2b bb
       -0.010816204 0.010065283 0.055469234 -0.0026104636
000270 e1 69 2b bf ee fb 3a be c8 bf f8 bc 80 9b 36 be
       -0.66958433 -0.18260166 -0.030364886 -0.17832756
000280 73 ff 85 be f6 54 1b be ae 28 a8 3d 23 02 c9 3d
       -0.26171455 -0.15169129 0.08210884 0.09814861
000290 91 af 95 be f6 ef 8c be 90 cc 82 bd 44 8f 41 be
       -0.2923551 -0.27526826 -0.063866735 -0.18902308
0002a0 e4 69 08 be ec 64 49 bf 2b 9d ef 3c c0 b8 25 be
       -0.13321644 -0.7866962 0.029249748 -0.16183758
0002b0 7b be 59 be 69 51 26 bf 98 d0 e0 3a 83 8d 4a 3c
       -0.21264069 -0.6496797 0.001715201 0.012362841
0002c0 da 75 41 be c6 e9 b0 3d 9b 84 62 3d 74 53 b0 3d
       -0.18892613 0.08638339 0.055302244 0.086096674
0002d0 36 8f ee bd 09 73 ce bd 7a f1 82 3d 71 29 9a 3d
       -0.11648409 -0.10080535 0.06393714 0.075274356
0002e0 51 01 e8 bd 19 e8 0a 3c 31 28 a0 3d ec 5d c1 3d
       -0.11328376 0.008478188 0.07820166 0.09441742
0002f0 f1 85 f0 bd 79 ec 66 be 5c 31 80 bd 0c 20 7b be
       -0.11744297 -0.22551145 -0.062594146 -0.24523944

rotation_head.bias f4 [3]
000000 9b 7c cc bd 47 19 5b 3e 03 04 35 bd
       -0.09984704 0.21396361 -0.04419328
