outputs/trained_models/placement_model_20250802_070249.pth (torch, 314287 bytes, 12 tensors)

layer1.weight f4 [128, 15]
00000000: 1af6 b43e ce43 c5be c028 b3be 6dfe bf3d
00000010: 633e 4b3e b468 de3d e5f2 2cbf 0caf 163e
00000020: 3115 683e c160 0f3e 155b 71be be26 23bd
00000030: 30c7 0d3c 508c cdbd 37cc 8fbd 8569 05bf
00000040: 3888 3fbe 339c b03c 3dfa 763e ca3e 87be
00000050: 8dd8 923e 277c c33d 94d7 81be db34 fbbe
00000060: 6775 39be 5cf3 123f 93a7 17be d774 4fbe
00000070: 89b4 8cbc e095 b33d b720 0dbe 286c 883d
00000080: 8cbc 4cbe 2a9e 25be 2a97 22bf 647d b23e
00000090: 44f6 973e e524 1dbd 7ab8 873d 3bd6 a9be
000000a0: 76dd 41bf 7f34 4fbd df0a 0abd ba0b 33bd
000000b0: a3a8 2cbe d67f a13e 1322 cbbd 0903 cabd
000000c0: 8bfc 903e 7d67 aabd 5252 853d ad73 7f3d
000000d0: 2902 633e f15a 57be c9f9 863e a69e 593e
000000e0: 02b8 32bd 34c5 3fbe 092c 18be fcf3 673e
000000f0: ee85 c53e dfbb 093e 81f3 b63e baa1 a63b
00000100: f838 1b3e 26b6 833d 5cb8 433e 31ed 373e
00000110: 0b4e ab3d bf4b 15be cae0 d9be 3291 bb3d
00000120: 0b8d 52be c347 1a3d a9ba 0f3e 5cac 3abe
00000130: 92ef 1c3d b7aa 123e 1193 f8be 493b 563e
00000140: 9da4 a53d e885 ae3d d6bf 8e3e bcf6 16bf
00000150: 4edc 15bf d3f3 7ebe d5b6 dabd 7a63 0dbe
00000160: c629 b6bd a51b 5ebe 5718 9e3e fcda e7be
00000170: b8b6 f6be daa6 20bf 3ecb cb3d 9801 ad3d
00000180: b865 303e 00f3 9b3e c8d4 b7bc 2fcb 163d
00000190: f6e7 153e 0fa4 0c3d da57 aa3b efbb c1be
000001a0: 3116 573d 8c32 2c3e 6043 5cbe e04d 8dbd
000001b0: 9fd0 183c 969a 983e ea30 7e3e 883e 1abf
000001c0: 48e4 f7be d3f1 81be bd62 a83d 54d0 803d
000001d0: cdc9 bcbe a7ea 13be 9b3b 193d 80de 34be
000001e0: 486e 46bf eaff db3e 39e9 6e3e 9b38 3e3d
000001f0: 4422 4bbe 360e e63d 9057 00bf 6542 9fbe
00000200: dbd8 b13e fc1d 8d3e 4f37 e4be 10e4 bbbe
00000210: 61ab 7abc 35f3 2fbd 2e13 373d fb8d 88be
00000220: 9f0a 41bf 8edc 523e 7f94 bcbe ba32 eebe
00000230: 997c a03e 182a bdbd 397d 97bd 943c a1be
00000240: b62a 583e d15a bc3d 54d2 7f3c 3bd3 313d
00000250: 8208 5b3d 555e 493c d574 073f 9f33 43be
00000260: 43dc d93c 6c82 10bd ca29 1bbe 2946 b2be
00000270: cabd c5bc bbde 3c3d a17a 93be 9be9 ccbd
00000280: fdc8 263f f2cc 4abe 0cd1 223c 988d 9dbe
00000290: ed48 3b3d 8678 b93e 1c26 0b3f fe7f b43d
000002a0: 9dd0 5c3e fcbb 67be 959f f3be 0d52 0f3c
000002b0: d644 bf3e ac08 98be 4d8a 903e 3c37 483e
000002c0: df9d f13d 46b7 173d 1a16 cf3d 91ac c23d
000002d0: a688 34bf fdd2 063f 6f80 33bf d255 c43c
000002e0: 0244 3a3d 892a dbbe 3645 b53d 56f6 b03e
000002f0: 8351 a53d 8fb3 223d 345b 2a3d e1ef bebc
00000300: 2db8 8fbd 7cf1 03bd 9098 3abe 1a1a d43d
00000310: 946e 80bd e5ab 8b3d dd59 dc3d c696 03bf
00000320: fafd d4be 28de aebe 7eda 1abe 2157 f8be
00000330: 6c4d 813e c4e9 c8be b15c 4c3d d7b8 cbbe
00000340: 5978 0a3d 2373 a83d a99f 54be 8d6e ec3e
00000350: f5fa b93e 5392 39bf 9e12 3cbe c502 1c3e
00000360: 1a8c 993e 0b97 af3c 3f34 15be 60d9 2e3e
00000370: 0db0 023e 143a 183e d842 983d 2a9f 33be
00000380: 90a1 e23d d2fc d23e 7179 d63e 069c e7be
00000390: ec7c c93e fd69 9c3e 6297 2bbd 4f64 88be
000003a0: 61e4 b53d 52f5 47be f3eb 04be a0a9 7a3e
000003b0: 95f2 62bb 9360 dcbd b618 1dbe 48df 5bbe
000003c0: 2112 523e d601 bebe f21e d33d bc19 03bf
000003d0: 1e28 56be ac7c f0bb a22f 46be d6f0 7fbe
000003e0: f6d5 353e 4e3a ed3e 0136 bfbe a14c 6bbc
000003f0: c225 ed3b a84a 53bb 4ca9 9c3d 3413 b6be
0.3534401 -0.38528293 -0.34992027 0.093747 0.19848017 0.10859814 -0.6755813 0.14715213
0.22664334 0.14001752 -0.23569901 -0.03983187 0.008653447 -0.10036528 -0.07021373 -0.52114135
-0.18704307 0.021558857 0.24118896 -0.26415092 0.2868084 0.095451646 -0.25359786 -0.49063763
-0.18111192 0.57402587 -0.14810018 -0.20259415 -0.01717593 0.08768821 -0.13782011 0.06661254
-0.199938 -0.16173616 -0.6351191 0.3486129 0.29680073 -0.038365263 0.06626983 -0.33171257
-0.7572855 -0.050587174 -0.033701774 -0.043712355 -0.16861205 0.31542844 -0.099186085 -0.0986386
0.28317675 -0.0832052 0.06509842 0.062366176 0.22168793 -0.21030785 0.26362446 0.21251926
-0.043632515 -0.18727571 -0.14860548 0.22651666 0.38578743 0.13450573 0.35732654 0.0050851973
0.1515845 0.064312264 0.19113296 0.17961575 0.08364495 -0.14579676 -0.42554313 0.09158553
-0.20561616 0.037666094 0.14036049 -0.18229812 0.03831441 0.14322935 -0.48549703 0.20921053
0.08088038 0.08521634 0.27880734 -0.58970237 -0.58539283 -0.24897699 -0.10679404 -0.13807479
-0.088946864 -0.21690233 0.30877945 -0.4528426 -0.48186278 -0.62754595 0.09950875 0.084475696
0.17226303 0.30458832 -0.02244033 0.036814865 0.14639267 0.034336146 0.005198461 -0.37838694
0.052511398 0.16816157 -0.21510077 -0.06899619 0.009327083 0.2980544 0.24823347 -0.60251665
-0.48416352 -0.2537981 0.08221958 0.062897354 -0.36872712 -0.14444982 0.03741036 -0.17663002
-0.77512026 0.42968684 0.23331155 0.046440702 -0.1983729 0.11233179 -0.5013361 -0.31105343
0.3473576 0.2756194 -0.44573447 -0.36697435 -0.015299649 -0.04295655 0.044696026 -0.26670823
-0.7540683 0.20591947 -0.36832044 -0.46523076 0.3134506 -0.09236544 -0.07396931 -0.3149153
0.21110043 0.09197009 0.015614111 0.043414336 0.05347491 0.012290557 0.52912647 -0.1906266
0.026594287 -0.03528063 -0.1515266 -0.34819153 -0.02413835 0.04611085 -0.28804496 -0.10005494
0.65150434 -0.19804743 0.009937536 -0.3077209 0.045723844 0.36224765 0.54355025 0.08813475
0.21563955 -0.22630304 -0.4758269 0.00874759 0.37357205 -0.29694116 0.28230515 0.1955232
0.1179769 0.037040018 0.101116374 0.09505571 -0.7052101 0.5266569 -0.7011785 0.023966704
0.045475014 -0.4280589 0.088510916 0.3456294 0.08072188 0.03972202 0.041590884 -0.023307743
-0.070175506 -0.03221272 -0.1822226 0.10356541 -0.06271091 0.06819896 0.107593276 -0.51401937
-0.4160002 -0.34153867 -0.1512241 -0.48503974 0.2525438 -0.3924085 0.049893085 -0.3978946
0.03380618 0.082250856 -0.2076403 0.46178094 0.36324278 -0.724889 -0.18366477 0.15235431
0.29989702 0.021434328 -0.14570712 0.1707511 0.1276247 0.14865905 0.074346244 -0.17541185
0.11065972 0.41208512 0.41889527 -0.45236224 0.3935312 0.30549613 -0.041892417 -0.2663903
0.088814504 -0.19527176 -0.12980632 0.2447877 -0.0034629453 -0.107606076 -0.15341458 -0.21471894
0.20514728 -0.37110776 0.10308637 -0.5121114 -0.20913741 -0.007339081 -0.19354108 -0.24994215
0.17757401 0.46333545 -0.3734589 -0.0143615315 0.007237167 -0.0032240544 0.07649478 -0.35561526

layer1.bias f4 [128]
00000000: 44cb 553a 9639 a3bb ceab 413d 0e21 51be
00000010: af1f 85be b83e 263e e7a8 30bd 628c c6bd
00000020: 0708 cdbd 3c49 c0bd 6adf bbbb c5e7 1ebe
00000030: 1bc3 f23c f391 073d 1459 77be 892b e03c
00000040: 6e31 d03b a44c 44be 4f52 dc3d 7156 2b3e
00000050: 1e26 dfbd 23e8 1e3d df0c 8b3d 7a0e 5b3d
00000060: e9c0 aa3d 5362 4cbe 0546 18be c7de 29be
00000070: 12f1 a7bc 3e40 a9bd 27b7 73be eb9d bbbc
00000080: d5e6 55bd 69ec 9a3d 941d 683c d454 4bbd
00000090: b5dc f0bd 46e0 7c3c d285 9c3c e25a 14be
000000a0: deec 0dbe ef7f 8c3d b034 9cbe c474 673d
000000b0: 4e7c 81be 404c 11be 116a 81be 647e 0ebd
000000c0: e8f3 69bc c2cc ec3b 37f9 1bbd 2bdc 483b
000000d0: af34 09bb 55b1 50ba 8db2 d7bc df45 39bd
000000e0: 594f 013d 5347 16be 82a0 53be 78a3 23be
000000f0: 9153 87b9 cff0 32be 0486 8dbd b52f 233d
00000100: bb92 bcbd 16b2 81be af15 aabd e0eb 0d3c
00000110: 06c8 2c39 3f78 b7bd f237 10bc 803d 06be
00000120: af75 b53d 4126 b4bd df50 0bbd a58d 07bc
00000130: b655 4fbc 7b06 62be 89fd 3cbe afb2 55bc
00000140: 548a 5ebe 2bc4 73bd 7684 21bb 2696 86be
00000150: 51f6 f23c 6cce 9ebb 6b1e 6ebe 289e e83d
00000160: 404e a03c cbdd 96bd 7b28 f0bd 4de9 cdbc
00000170: 3f35 4dbe 8f27 fbbd 0159 a9bd b2c6 2b3d
00000180: 0b87 123e e229 a63d 6abb b8bd 4cac 7abe
00000190: 191a 93bd 0e71 1ebe 03ae 3dbd ca8b 1a3d
000001a0: dd5d 28bd e5eb a6bd 5393 50be c28f 18be
000001b0: 319b b5bd 46f7 053d 370c 293d 808e c6bc
000001c0: 19fd 8c3d 16be 5cbe 5acd a13d f341 93bd
000001d0: 1e8a 4dbe ea22 71be b1f0 7cbe e5a8 cabd
000001e0: 74bb 11be dd92 13bc d2cc 2bbe 6d5d b6bb
000001f0: 7594 86be 45eb 53be 64df 18be 7af5 c43d
0.0008155594 -0.00498123 0.047282986 -0.20422766 -0.26000735 0.16234863 -0.043129828 -0.09694745
-0.10011297 -0.09388968 -0.00573342 -0.155181 0.02963405 0.033098172 -0.24155074 0.02736451
0.0063535487 -0.19169861 0.107578866 0.16732194 -0.10895942 0.0387956 0.06789564 0.053480603
0.08337576 -0.19959383 -0.1487046 -0.16588889 -0.020500693 -0.08264206 -0.23800336 -0.02290245
-0.05222209 0.07564623 0.014167208 -0.049641445 -0.117608465 0.01543433 0.01910678 -0.14487794
-0.13859889 0.06860339 -0.30508947 0.05650784 -0.2529015 -0.14189243 -0.25276235 -0.034788504
-0.014279343 0.0072265575 -0.038079467 0.0030648808 -0.0020935943 -0.0007960995 -0.026330257 -0.04523265
0.031569812 -0.14675646 -0.20666698 -0.15980327 -0.00025811468 -0.17474674 -0.06910327 0.03984042
-0.09207674 -0.2533118 -0.08304917 0.008662194 0.00016477713 -0.08958482 -0.008802401 -0.13109398
0.08860337 -0.08796359 -0.03401267 -0.008273517 -0.012654712 -0.22072785 -0.18456091 -0.01304309
-0.21732455 -0.059513252 -0.0024645603 -0.2628643 0.029658468 -0.0048463847 -0.23253791 0.11358291
0.019568563 -0.073665224 -0.11726471 -0.02513566 -0.20039843 -0.122634046 -0.08268929 0.041937537
0.14309327 0.08113457 -0.090201214 -0.24479789 -0.07182712 -0.15472814 -0.04630853 0.03773097
-0.04110514 -0.08150462 -0.203687 -0.14898589 -0.08867491 0.03270652 0.041271415 -0.024237871
0.06884212 -0.21556887 0.07900496 -0.07190313 -0.20072219 -0.23548475 -0.24701191 -0.09895495
-0.14231664 -0.009007183 -0.16777351 -0.0055653364 -0.2628514 -0.20695217 -0.14928967 0.096171334

layer2.weight f4 [256, 128]
00000000: add5 053e abb5 30be 8ed7 81bd 8a82 8dbb
00000010: 9d87 2f3e 469b 04bd c7f2 2abe 9006 dabd
00000020: 96c3 943e 3d28 64bc 50e8 8b3e 69d9 21bd
00000030: b2a3 1cbd 793a cb3d d913 d9bd 0a44 d53d
00000040: 4f8b 253e d677 b33d 91c3 83be bebc 623e
00000050: 846f abbd 69e4 c6bd 5655 ca3d 330e ea3d
00000060: 05aa 22bc c8f7 8a3e b525 ab3c 6ed6 623d
00000070: aa20 753d 810f c2bd 7ad0 93be fd2b e03d
00000080: 5b98 9bbe 73cc 71bd c57d 56be e757 933d
00000090: db83 debd e854 833c 4608 9abd 50d2 f53d
000000a0: a000 cebd f193 35be bf0c f6bd da51 27be
000000b0: 9d6b 89bd dfcd 9abd a801 bfbd 6672 32be
000000c0: fd16 58bc dc73 84bc 2ee9 48be 7c49 1dbe
000000d0: 680d d5bd 6405 9a3e d037 4d3d b785 b8be
000000e0: 52bc 223e cbf1 673d 4524 bc3c dbf9 1fbe
000000f0: 2c37 203e 8c59 053f c1c0 7b3d 6d16 1bbe
00000100: 4426 a43d 84f5 df3d 5181 fdbc 31d6 883d
00000110: 9be2 4b3e 5765 873d 5fcc 303e 9cd6 72be
00000120: 9152 183d 353c 753e a54b e33d b5f5 bc3d
00000130: 695e e6bd e776 91bc 15b6 04bd d936 c53d
00000140: 622e 73be c3e4 cfbc 3c1e 063d 8d93 b43e
00000150: b3b0 803d af52 a03e 3919 8e3d d211 f23c
00000160: 145f 883e 5efe a43d 1a70 36be 5a77 edbd
00000170: 43fd dabd 536f f8bd 4f3e c03d 7116 5a3d
00000180: ed7a 9cbe cc41 a83d 0b58 c83e b01d bc3d
00000190: a4fc 10bf ea7a f53d 92e8 f93d 0916 5c3c
000001a0: 5961 c4bc d022 6bbe bf3a acbd 8cf2 643e
000001b0: faab 6e3d a867 c83d cd96 043d 35b7 3dbd
000001c0: 1d09 b5bd a30b ce3d 1bca b0be bed1 82be
000001d0: eefa cfbc 1841 51be d2f0 983d 5683 583e
000001e0: 5992 753c eef3 eabb 681c 1b3e 48fc 94bc
000001f0: 6fce 9a3e ebb9 d63d cad1 4abd b2da e03d
00000200: 6204 05bd b8a5 68be 90ba 903d 70b1 1b3d
00000210: 5949 b83d 7e2e 963d 2375 ecbe 8e03 9ebd
00000220: 0b53 e03d 8cd7 d8be 2142 d6be 44d6 0dbc
00000230: fbc4 6dbc f069 d43c 97fd 67bd a851 d23d
00000240: d0f4 fe3d dd3e a4bd 887a 0c3e 4d7b 993d
00000250: 9bad dcbc 212d 0d3e 0c2a 723d b783 62bd
00000260: ad5c abbe 732e d7be eb9c 053d 01ec 48bd
00000270: 4eb1 963d cb09 1fbf b494 683b fc95 8bbd
00000280: b118 d2bd 7db9 7c3d 5e7e f3bd 0aa5 89bd
00000290: 1867 903d 6a48 873d 331c b2bd 1a98 87bd
000002a0: 0fb8 743d ce7d 26bc f2c3 cd3d d7b5 76bd
000002b0: 9112 de3c 9817 86be 4e12 293d 00fb 88bd
000002c0: 015a 63be a400 adbd 5da2 06be 9f15 29be
000002d0: 51f2 1c3e c69e 19be 893e 923b c17d 56be
000002e0: bba7 11bc 65e5 23bd 94c8 36be 94b9 5e3d
000002f0: b433 353d 42d2 923d d96d 0b3e a5c5 553e
00000300: c775 05bd 393f b93b 4580 63be 9602 93bd
00000310: d636 273e eba2 e63c 03ad e3be c28f c7be
00000320: b402 1abd f12b 9c3e e020 6abe 960e fb3d
00000330: ee48 87be 7721 15bb a7eb 3ebe bc74 323d
00000340: 6d17 b0be 2dbe 223b a2c7 d6be 3042 efbc
00000350: f0e5 e4be d21e c33c f0eb 333e e660 4d3d
00000360: 8ab0 c03d 7ed7 3dbe b687 8cbe e6ae db3d
00000370: 7f75 a0bc 6f9f 2b3d a352 2b3b 0612 543d
00000380: 3abe 1fbe a537 913d 7c65 1b3e 6e71 fcbd
00000390: 13e0 b9bd e1bb b5be 8fc4 a7bd 4c89 88bc
000003a0: 410a 25be 34f4 d03c a2fa e4bc ec60 42bc
000003b0: d25d 8d3d b84c 003d 56ca 0a3e 054c 6dbd
000003c0: 9986 2b3e 79c6 463e 31d0 b63d bed9 81bd
000003d0: c83e 9d3d 4473 97be 9d40 5f3c 4061 3f3e
000003e0: 5c12 1a3e 163e 79be 0a99 5a3d 4a68 7bbe
000003f0: ee4a 6fbe 477e 58be 067e 7c3d cf5b 81bc
0.13069792 -0.17256801 -0.06339942 -0.00431854 0.17141576 -0.032374643 -0.16694175 -0.10645783
0.2905547 -0.013925609 0.27325678 -0.03951398 -0.03824205 0.09923262 -0.10599489 0.10413368
0.16166423 0.08763091 -0.25735143 0.22142312 -0.08370879 -0.097115345 0.09879558 0.114284895
-0.009928231 0.27142167 0.020892004 0.055380277 0.059845604 -0.094756134 -0.28869992 0.1094589
-0.30389675 -0.05903287 -0.20946415 0.071945004 -0.10864993 0.016031697 -0.07521109 0.120030046
-0.10058713 -0.17732216 -0.1201415 -0.16339818 -0.06709979 -0.07558798 -0.09326488 -0.17426452
-0.013189075 -0.016168527 -0.19620201 -0.15360063 -0.10402948 0.30082238 0.050102055 -0.36039516
0.15892151 0.056627076 0.022966513 -0.15622656 0.15646046 0.5208976 0.06146312 -0.15145274
0.08015111 0.109355 -0.030945452 0.06681479 0.19910662 0.06611126 0.17265461 -0.2371468
0.037188116 0.23948748 0.110984124 0.092265524 -0.11248476 -0.017756892 -0.03240021 0.09629602
-0.23748162 -0.025377637 0.032743677 0.35268822 0.06283703 0.31313083 0.069384046 0.029549513
0.2663504 0.08056329 -0.17816201 -0.1159503 -0.10692837 -0.121306084 0.093868844 0.053244058
-0.30562535 0.08215675 0.3912967 0.0918535 -0.566355 0.119863346 0.122025624 0.013432988
-0.0239722 -0.22962499 -0.084096424 0.2235815 0.05826948 0.09785396 0.032370377 -0.046317298
-0.08839629 0.10060813 -0.34529194 -0.25550646 -0.025388207 -0.20434988 0.07467808 0.2114385
0.014988505 -0.007170192 0.15147555 -0.018186703 0.3023562 0.1048468 -0.049516477 0.10979213
-0.032474883 -0.22719467 0.07066834 0.038011014 0.08998365 0.073330864 -0.46183118 -0.07715522
0.10953339 -0.4235195 -0.41847327 -0.008657042 -0.014512296 0.025929421 -0.056638326 0.10269481
0.12449038 -0.08019803 0.13718617 0.07494221 -0.02693825 0.13786747 0.05912213 -0.055301394
-0.33469144 -0.42027625 0.03262035 -0.049053196 0.07358037 -0.6212432 0.0035489025 -0.068157166
-0.10258616 0.061700333 -0.11889337 -0.06720932 0.070509136 0.06605609 -0.08696785 -0.06620808
0.059745844 -0.01016183 0.10047139 -0.06023201 0.027108463 -0.26189876 0.041277222 -0.066884995
-0.22202303 -0.08447388 -0.13147874 -0.16512154 0.15326811 -0.15001974 0.004463021 -0.20946409
-0.008890088 -0.04001369 -0.17849952 0.0543762 0.04423876 0.0716901 0.13616122 0.20876177
-0.032583024 0.0056532887 -0.222169 -0.071782276 0.16329512 0.028153857 -0.44467935 -0.38976866
-0.037600234 0.30502275 -0.22864103 0.122586414 -0.26422828 -0.0022755542 -0.18644582 0.043568358
-0.34392872 0.0024832592 -0.41949183 -0.029206365 -0.44706678 0.023818407 0.17570472 0.050141238
0.09408672 -0.18539235 -0.2744729 0.107267186 -0.019587277 0.041900095 0.0026141785 0.051775
-0.1559991 0.070906915 0.15175432 -0.123263225 -0.09075942 -0.35494903 -0.081917875 -0.01666703
-0.16117193 0.02550707 -0.027951542 -0.011863928 0.069026604 0.031323165 0.13553748 -0.057933826
0.16750564 0.19411649 0.08926428 -0.06340359 0.0767799 -0.29580128 0.013626245 0.18689442
0.15046066 -0.2434009 0.053368606 -0.24551502 -0.23368427 -0.21141921 0.061643623 -0.015790848

layer2.bias f4 [256]
00000000: d20b 02bd 35d5 c1bc d4b1 723d 5106 75bd
00000010: a980 84bd 5131 8f3d ddd0 c43c 288a fc3c
00000020: 5a04 7b3c ea8a 923c 166c 093d d436 d0bc
00000030: 3f03 ccbc f53d 133d 935f 743d f321 0dbd
00000040: 8841 8abd 8e4c 983d 883f bc3c 8b55 95bd
00000050: f269 193d 320f 9c3d 428f 16bd 0420 2f3c
00000060: 6a27 32bd b904 7b3c eb7a 11be b4cb 9f3d
00000070: 5fdc cc3d 0987 fd3c 5871 843c fced 62bc
00000080: a4cf 27bd 9942 4a3b 0422 e6bd db76 2dbc
00000090: 938c c43d c1ca 5e3a 9101 813c 3830 62bd
000000a0: 92bb 073d ba0c a7bd bc3f 80bc 1193 eb39
000000b0: 0ba4 f2bc 21fa b13d 901a 883d 49ba b53d
000000c0: 76e6 363c 99c2 913d 9ba2 9e3d 3805 ab3d
000000d0: d7ac 873d f1bc b3bc 2818 1d3d c474 5b3d
000000e0: b2fc b7bc 76d1 9c3d c6d5 693d 3d9d 803d
000000f0: cfb9 42bd 119a d73c d292 613d 926d da3d
00000100: b45c ed3c eaa7 fbbd ebb7 a63d 555c 8e3d
00000110: ff63 4abd 3207 01be 4a61 133c 9fc3 383d
00000120: d993 9b3c 4549 b53d 008f c33c 9585 75bd
00000130: 5c3a d9b8 d908 8f3d 278e 043c c203 3bbe
00000140: 1375 80bd 2928 8d3c bf3b c43c 4bbb ebbd
00000150: 79ce 103d 5501 ad3c ae90 353d 9546 a93b
00000160: af5f 3b3d 1274 67bd 118d 83bc 0c4d 9a3d
00000170: 5029 463d 9c67 b7bb 1f4c 4f3d ab30 4e3d
00000180: b92f 2dbe 2576 45bd 4217 c0bd b724 d3bd
00000190: 0965 1bbd ff15 1fbd 5d35 28be ca80 c8bc
000001a0: 9928 833c a23a e5bc 7f9a ce3c 70bd af3d
000001b0: bd19 833d 2298 3e3d da3a a83c 2502 98bd
000001c0: 41e9 98bc 5829 b33d df02 053d 003a 373d
000001d0: 530e 143d 0e18 18be 5e52 68bb 9d9c e53b
000001e0: 549a 4cbe 918e b0bc e703 b83d b243 973d
000001f0: bebd ac3d e348 d8bb ba37 20be f342 34bc
00000200: 2c58 c23c 381c afbd 7ef1 0fbd 5d43 5d3d
00000210: 6c1d d33c 2498 073d f298 ae3c faf1 ffbc
00000220: 9c89 313d 4a5b aebd 51e0 4c3b 9c4e 8d3d
00000230: a627 363d 32e3 1bbe ee96 9c3d eff5 a8bc
00000240: 29a1 c03b e281 703d 7dff 92bc 5408 22be
00000250: e200 303d 53e9 b33b 5dcd f63c 4186 85bd
00000260: 609d 63bd 0195 9c3c bbfa a8bd c3c4 0ebe
00000270: bd06 333d ea03 763d 4629 2ebd 60a7 3b3d
00000280: ba4a b63c 7fe1 3e3d 6bef 4fbd d6bc 5cbd
00000290: 11d6 f2bc effe 843c 2ed7 5abd aa67 023d
000002a0: bc23 5ebd 8a9e 8dbc a6e9 1d3d 6a47 af3a
000002b0: ba42 40be 8d56 cb3d 1bbc a53d e7f8 1f3d
000002c0: 81d7 10bc 9922 04bd 71e9 2fbd e5ec b33d
000002d0: ae7e fdbc 8331 223d cf1b 6cbc 3cc0 2c3d
000002e0: 811c 6c3d 8660 3cbd 54c1 d83a 49cc b5bd
000002f0: efa0 e33b c1b9 b2bd 3cca cebd 0263 b93d
00000300: b9b5 7bbd e9c2 543c 8546 d73b d491 df3c
00000310: e8a7 bbbc 4f08 58bd 535d b9bd 5dc1 d93c
00000320: ed99 023c 428d 26be 488f 603d c06d 8a3d
00000330: 4703 3c3d 171a ae3c 0cf3 193d f12e 913d
00000340: 0825 823c e587 76bd 500f 3dbd 3957 963d
00000350: 5422 fe3b df73 d73b 2ac8 df3b fe30 9bbd
00000360: 8937 27bb 21fa 773d ce46 7a3d b999 abbd
00000370: 9b33 6ebe 95f8 21bc d13d 13be 60ff 343d
00000380: c41c 0b3d f286 94bd c7f5 47bb 9a96 89bd
00000390: 131f 2f3d 3d1c fcbc 41ed cdbd f86a d63c
000003a0: ff0b 923b 7735 fb3c 1ac5 7bbc f7b4 8c3c
000003b0: d1f6 303d f5c9 00be 9f39 6ebd b1f9 c23d
000003c0: c25a 25bc 2567 30bd 6a07 c5ba ad32 133d
000003d0: 32df 83bc 917f 73bc 61ec 33bd 5597 783d
000003e0: 5fb7 d63c cdba 853d e9d2 4ebd f36e f5bd
000003f0: be86 053d 522d 53bd 4e7f 0ebc bb42 d63c
-0.031749554 -0.023661235 0.05925162 -0.059820477 -0.064698525 0.06991828 0.024025375 0.030827597
0.015320862 0.017888505 0.033550344 -0.02541677 -0.024903892 0.03594776 0.05966146 -0.034456205
-0.0675078 0.07436477 0.022979513 -0.07291707 0.037454553 0.07620086 -0.036757715 0.010688785
-0.04349462 0.01532095 -0.14207046 0.07802525 0.1000297 0.030948179 0.016167328 -0.013850685
-0.040969506 0.003086245 -0.11236957 -0.010587419 0.09597125 0.00084988406 0.015747817 -0.055221766
0.033137865 -0.08156724 -0.01565539 0.00044932266 -0.029619237 0.086902864 0.066456914 0.08873422
0.011163345 0.07117195 0.07745858 0.08350605 0.066247635 -0.02194068 0.038353115 0.053578153
-0.022459362 0.07657139 0.057088636 0.06279991 -0.047540482 0.026318582 0.05507166 0.1066543
0.028974868 -0.122878864 0.08140548 0.06951205 -0.04941177 -0.12600401 0.0089953635 0.045108434
0.018991398 0.08851866 0.023871899 -0.059941847 -0.000103582366 0.069841094 0.008090532 -0.18263152
-0.0627233 0.017231064 0.02395427 -0.11510333 0.035353158 0.0211188 0.04432743 0.0051658847
0.045745548 -0.056507178 -0.016058477 0.07534227 0.048379242 -0.005597068 0.050609704 0.050339382
-0.16912736 -0.048208375 -0.09379436 -0.10309737 -0.03793815 -0.038839336 -0.16426606 -0.024475474
0.01601057 -0.02798206 0.025220154 0.08581054 0.064013936 0.046531804 0.020535875 -0.07422284
-0.018665912 0.0874812 0.03247344 0.044733047 0.036146473 -0.14852926 -0.0035449485 0.007007195
-0.19980747 -0.021552356 0.08985119 0.07385959 0.08434628 -0.0066004856 -0.15646258 -0.01100229
0.023723684 -0.08550304 -0.035142414 0.05401932 0.025770865 0.033104077 0.021313164 -0.031243313
0.043344125 -0.08513506 0.0031261633 0.06899759 0.044471405 -0.15223387 0.07645975 -0.020625083
0.005878587 0.058717616 -0.017944092 -0.1582349 0.042969592 0.005490461 0.030127222 -0.065197475
-0.055570006 0.01911402 -0.08250948 -0.13942246 0.043707598 0.060062326 -0.04251983 0.045813918
0.02225243 0.04660177 -0.050765436 -0.053891025 -0.02964309 0.016234843 -0.053427868 0.031837143
-0.054233298 -0.017287511 0.038552903 0.0013372723 -0.18775454 0.099286176 0.08092519 0.03905573
-0.008840443 -0.032259557 -0.042947236 0.087854184 -0.030944195 0.039598 -0.014410927 0.042175516
0.05764437 -0.04599049 0.0016537108 -0.08876855 0.006946675 -0.08726836 -0.10097167 0.09052087
-0.0614526 0.012985923 0.006569686 0.027291216 -0.022907212 -0.0527423 -0.09051003 0.02658146
0.007971269 -0.16264823 0.054824144 0.067592144 0.045901563 0.021252675 0.037585303 0.070890315
0.015886799 -0.060188193 -0.04615718 0.07340855 0.007755557 0.006575092 0.0068292813 -0.07577704
-0.002551528 0.060541276 0.06110268 -0.0837893 -0.23261873 -0.009885927 -0.1437905 0.044188857
0.03396298 -0.07252301 -0.0030511485 -0.06718178 0.042754244 -0.030775184 -0.10055018 0.026174054
0.0044569965 0.030665142 -0.015366817 0.017176135 0.043204132 -0.1257704 -0.05816042 0.09520281
-0.010092439 -0.043067116 -0.0015032117 0.035937 -0.016097639 -0.014861957 -0.0439266 0.060691196
0.026210485 0.0652977 -0.05049411 -0.119840525 0.032599203 -0.051556893 -0.008697344 0.026154866

layer3.weight f4 [128, 256]
00000000: 9a05 503d 08b7 113e fef1 bb3d ef6f b13d
00000010: 7479 003e b512 cabd 3295 26bd 5544 163d
00000020: 980f e6be f5f7 14bd 787a 01be 38cf 133e
00000030: d13d 9b3d 3bed 60be c66f a8bd 79aa 03be
00000040: 13b7 94bb b5b4 49bd dcce e3bc 2529 863d
00000050: 31b1 74be b520 2fbe c511 4e3e a5cf 1abe
00000060: a747 4a3e 4fda e3bc 9492 703e 66cf 04be
00000070: d902 7d3c a930 ac3c 48e8 29be 022f 9e3d
00000080: dc92 043b fde6 f8bd f3b3 7d3e 3714 f6bd
00000090: 855b fabd c462 43be 9638 91bd 18e0 693e
000000a0: 4416 b039 e453 b8bb d503 5e3d 678f 773e
000000b0: f8d6 5abb bb17 41bd fbc8 b2bc cf13 8e3d
000000c0: b286 513e 6502 23be 179e 123e 27b9 9bbe
000000d0: faf9 17be f749 033e a5c9 a23d 2c18 5b3e
000000e0: 35c1 1fbd 5339 41be 265e 63bd ce07 5fbe
000000f0: 7284 613e fbbd 5cbc 5223 893c ca81 683e
00000100: 22a4 3dbe bd57 fa3e f2d4 a93c 199c 5abe
00000110: c8ef e0be 1943 223d 56d3 cbbd c69d 503e
00000120: 4bfd 9f3b 2df5 063d 8fbe cabd b319 acbe
00000130: 554d 3fbe 07f9 96bd 1151 f8bc 0abb ecbc
00000140: 25bc 243d ab2f 7cbe a9a7 78bd f6ca c1be
00000150: adf9 94bd 5f0d 28be 67c7 c0bd 6854 e0bc
00000160: fa02 52be a5a7 31bd d4b2 2c3d 4f34 cb3d
00000170: 727a f8bc 95c8 07be 52bb 733e 9d50 73be
00000180: cc97 2abd 964b 5dbd b915 e43d 0613 72bd
00000190: 5861 773d cf54 673d 9d85 153d 2e7d bebc
000001a0: 9c6b 1f3e bc73 093e 41d2 48be 7026 b63b
000001b0: 046c 3dbe 8a2f b13d fbb3 f8bd 7c36 773d
000001c0: b126 06bd 0b7b 81be 88f6 8fbd 05df 803e
000001d0: 4b67 7c3d d5c7 2a3e cf23 bd3d 0fd2 a5be
000001e0: 4495 783d 7ea4 e0be 4d86 2f3e cbd2 98be
000001f0: 1a3a 8abc eb1a e23d a37e 8dbe 2a33 423e
00000200: fa21 7ebe 71d0 8bbd 6da7 d63c 5fc0 8e3d
00000210: 4bcf e2bd bb23 c7bd 920a 5ebe 9f93 283e
00000220: 2257 9d3a 4663 e93e df3f 823c 6c76 da3d
00000230: e6b9 cdbd 120d 7c3d 04bf f6bd cfd0 893a
00000240: f6ea a0be bc67 cbbd 670c 73be 5ace 653e
00000250: 0b36 a0be e5b3 ebbb 941b e6bd f0eb 3abd
00000260: 91f4 24be 87cc c23d 95b5 863e dfda 3abd
00000270: d852 113e 88b3 cdbd 2ec3 b1bd af74 02be
00000280: d939 b63d f447 afbd b33a 6cbe 247b d83c
00000290: 4cd9 303e e6a4 dabd ee10 d03c 86f2 ec3d
000002a0: 61e2 cfbc 3906 363e d107 523c df0d 033e
000002b0: c93d 6e3e 9f76 fc3b b61a 023d 5999 49be
000002c0: 48d9 5bbd 8bfa 223e 0671 823e c818 afbd
000002d0: ed6a 083e c30e a63c 7a86 d03d 1e62 61bc
000002e0: cd04 35bc 99e4 1e3e 3e0f cfbc 0e32 5dbd
000002f0: 4fcb 01be e25f be3e ccae b4bd a9aa b3be
00000300: 1ca5 69bc 220e 433c 28e2 7dbe 6a73 7f3d
00000310: 7056 263e 2bbc 973d 4e1d 103d 85cf e53d
00000320: 6627 4b3e 32cf 083e 248c 123e 9559 693d
00000330: 220e 333e 8b09 77be 1138 3c3d e34b 053e
00000340: 6dfd 39bd bfed 93be 6bff 273e f050 2fbc
00000350: f332 a1bc 6cf3 3abd f518 3abe e851 da3d
00000360: a72c dfbd 4597 3d3e 2407 763c b3d7 503d
00000370: a036 1e3d 7e12 233e e2cd 943e ed26 913d
00000380: 9147 023e 9997 a43d f34c d63d def8 533e
00000390: 2a47 da3d 004e 273d 45d4 623d 8da6 233e
000003a0: 7d5f 0c3c ce85 e83d 8936 66bd 76cd 8bbd
000003b0: 4f55 c13c 9aed bf3c 0198 423e d412 65be
000003c0: 4564 913d f8d8 d8bd 6001 62be 5551 503e
000003d0: 8d13 70be 984f 0bbe b65e bf3d 655c be3d
000003e0: f0db 58be e21c cdbd 1962 36be 9de0 69be
000003f0: 9405 943c 0b81 0a3e 5cf6 4fbe 1175 d53c
0.050786592 0.14229977 0.09177016 0.08663928 0.1254633 -0.09866849 -0.040669627 0.03668626
-0.44933772 -0.036369283 -0.12644374 0.14434516 0.0758015 -0.21965496 -0.08224444 -0.12857999
-0.0045384257 -0.0492446 -0.0278086 0.065508164 -0.23895718 -0.1710232 0.20123966 -0.15118273
0.19753896 -0.027814059 0.23493415 -0.12969741 0.015442573 0.021019297 -0.16592515 0.0772381
0.0020229137 -0.121534325 0.24775676 -0.120155744 -0.12224487 -0.19080645 -0.07090871 0.22839391
0.00033585925 -0.005625235 0.054202873 0.24175797 -0.0033392292 -0.04714177 -0.02182435 0.06937372
0.20461538 -0.15918882 0.14318119 -0.30414698 -0.14841452 0.12821184 0.07948617 0.2139594
-0.039002616 -0.18869524 -0.05550971 -0.21780321 0.2202318 -0.013473029 0.016740475 0.2270576
-0.18519643 0.48895064 0.020731423 -0.21348609 -0.4393294 0.03961477 -0.099524185 0.20372686
0.00488249 0.03294866 -0.098996274 -0.33613357 -0.18681844 -0.07371717 -0.030312093 -0.02889778
0.04021849 -0.24627559 -0.06070677 -0.3785016 -0.072741844 -0.1641135 -0.09413033 -0.027383998
-0.20508948 -0.04337277 0.04216273 0.099220864 -0.030331824 -0.1326011 0.23801926 -0.2376122
-0.04164867 -0.054027162 0.11136956 -0.059100173 0.06039557 0.056477364 0.036504377 -0.02325305
0.15568393 0.13423055 -0.19611456 0.0055587813 -0.18498236 0.086516455 -0.121437036 0.060354695
-0.032751743 -0.25289187 -0.07029444 0.2517015 0.061621945 0.16677792 0.092353456 -0.32386824
0.060689226 -0.43875498 0.17141075 -0.29848322 -0.016873408 0.110402904 -0.2763568 0.1896483
-0.24817649 -0.068268664 0.026202882 0.069702856 -0.11074694 -0.09723612 -0.2168372 0.16462563
0.0012004117 0.45583552 0.015899597 0.106671184 -0.10045223 0.061535902 -0.12048152 0.00105145
-0.3142926 -0.09931895 -0.237352 0.22441998 -0.31291232 -0.007193076 -0.11235729 -0.045635164
-0.1610892 0.09511667 0.2631041 -0.045618888 0.14191759 -0.100440085 -0.08679806 -0.12739824
0.08897752 -0.08558646 -0.23069267 0.026425906 0.17270392 -0.10675983 0.025398698 0.11569695
-0.0253765 0.17775811 0.012819246 0.1279826 0.23265757 0.0077045704 0.031763755 -0.19687404
-0.053674012 0.15915887 0.25476855 -0.085496485 0.13322039 0.02027071 0.10181899 -0.013756303
-0.011048508 0.1551689 -0.025275823 -0.054002814 -0.12675212 0.37182528 -0.08822402 -0.3509114
-0.014260557 0.011905225 -0.24793303 0.062365927 0.16243911 0.07408937 0.035184197 0.11221222
0.19839248 0.13360289 0.14311272 0.056970198 0.1748586 -0.24124734 0.045951907 0.1301723
-0.0454077 -0.28892323 0.16406028 -0.010700449 -0.019677615 -0.0456423 -0.18173583 0.106601536
-0.10897189 0.18514736 0.015016351 0.050986957 0.038626313 0.15925023 0.29063326 0.07087503
0.12722613 0.080367275 0.10463896 0.20700404 0.10658105 0.04084587 0.055378217 0.15981503
0.008567688 0.11353646 -0.056204353 -0.06826298 0.023600249 0.023428727 0.19003297 -0.22370464
0.07099203 -0.105882585 -0.22070837 0.20343526 -0.23444958 -0.13604581 0.093442366 0.092949666
-0.2117765 -0.100152746 -0.17810859 -0.2283959 0.018069066 0.13525788 -0.20308822 0.026056798

layer3.bias f4 [128]
00000000: e325 153d e72e 46bd 0ac5 a6bc 9b94 233c
00000010: 2608 103d 29a9 fbbb 5a14 e53c 5f65 d83c
00000020: fc45 dbbc 02b8 af3c 6741 483d 6839 d33d
00000030: 683b 0b3d f9f4 da3d b35e ec3c 1883 b83d
00000040: 5241 1abd f232 60bc 0625 39bd 3b66 db3c
00000050: 2b0e c13c 40e3 d73d 4b7e f4bd ac5c 7cbd
00000060: e730 ed3d 025b b53d 060b 0cbd cd85 e13d
00000070: b270 e3bb c1e5 103d da9b ecbc 43ca a6bd
00000080: 0a11 923d c8a9 63bb 984b 313c 29af abbc
00000090: edd9 013d cc80 6e3d 3d15 343c 7dcd 61bd
000000a0: ea34 88bb 22f4 51bc 0cca 96bc 571f 28bd
000000b0: a586 ed3a 755d 0f3e 04bf 863d 4843 aa3d
000000c0: 9885 ca3d f782 063e c767 54bd 0c5e 1fbd
000000d0: cd80 7f3d f13f e33c 6671 783c 8dc4 043e
000000e0: ddc6 5e3d a0e1 c23d b92e 923d fba6 e23a
000000f0: fb2d 0e3e b9e4 fe3d b93e da3d bb2e a2bd
00000100: 8d4b fd3d 4529 6abd 201e 8c3c 04f4 6f3d
00000110: 855b 2d3d 3bdd 203e cc48 c73d d800 a83d
00000120: 0645 433c 291d a33c f930 cfb8 560e d33c
00000130: 1218 ba3c 444a 083e 782d acbc 4e4c 9f3b
00000140: 3719 1f3e a7a6 d83d c46f 463c 37e2 99bc
00000150: f09f c43c 7970 abbd e18e 3b3d 7681 823d
00000160: 6ae5 2c3d 5267 3cbc 7e4c a93c 2095 ec3b
00000170: 1172 903d fffc ce3c 6d61 033e 724b fbbd
00000180: 277d e13d fbca 3d3d 8154 ab3d 5527 b43d
00000190: 2dcc f3bc d9b0 b93b 8d9e 0b3a ee0c bd3d
000001a0: fffe 0a3c 8ec6 eb3d 237a 8e3c 1bb8 e83d
000001b0: d39d bd3c feb0 8e3c 65a3 f43c 864e 2d3d
000001c0: 9a62 d13b deed 35bd 2546 2ebb fba8 51bd
000001d0: a6fb d93d 22a3 b73c ebef bbbc 09c9 3b3d
000001e0: c4a3 59bd f6dc cc3c 7c9e 983d c15b 323d
000001f0: 27c6 b33d 8026 513c f65b fd3d 206f 8a3d
0.036413085 -0.048384573 -0.020357627 0.009984161 0.03516402 -0.0076800776 0.027963806 0.026415525
-0.02676677 0.021450046 0.048890498 0.10313684 0.0339922 0.10691256 0.02885375 0.09009379
-0.03765995 -0.013684021 -0.045201324 0.026782146 0.023566326 0.105413914 -0.11938151 -0.061611816
0.11581593 0.08855249 -0.0341902 0.110118486 -0.0069409246 0.03537536 -0.02888291 -0.08144047
0.07132156 -0.0034738649 0.010821246 -0.020957546 0.03170197 0.0582283 0.010991392 -0.05512761
-0.0041566985 -0.012814553 -0.01840689 -0.041045513 0.0018121792 0.14000495 0.06579402 0.08313614
0.09888762 0.13135897 -0.051856782 -0.03890805 0.062378693 0.02774045 0.015163755 0.12965603
0.05438887 0.09515691 0.07137818 0.0017292196 0.13884728 0.12445969 0.10656495 -0.079190694
0.12367926 -0.057168264 0.017104208 0.05858232 0.042323608 0.15709393 0.09730682 0.08203286
0.011918312 0.019911366 -9.879651e-05 0.025763672 0.022716556 0.1330958 -0.021017775 0.004861391
0.15536962 0.105786614 0.012111608 -0.018784625 0.024002045 -0.08371062 0.045790557 0.06372349
0.042210974 -0.011499243 0.020666357 0.0072199255 0.070530064 0.025267122 0.12830134 -0.122702494
0.11010199 0.046336155 0.08365727 0.087965645 -0.029760445 0.005666834 0.0005326055 0.09230982
0.008483647 0.11512481 0.017392224 0.1136324 0.023146546 0.01741838 0.029863069 0.042311214
0.006389928 -0.0444163 -0.0026592102 -0.051186543 0.10643701 0.022416655 -0.02294155 0.04584602
-0.053134695 0.025007706 0.074521035 0.043544535 0.08778029 0.012765527 0.12371056 0.06759477

layer4.weight f4 [64, 128]
00000000: 84e1 a5bd 6247 24be 9aac efbb 566c 5ebd
00000010: 26c7 ee3d 0e60 02be 3a8c 1cbe 30a7 213e
00000020: 33b4 68bd bbc2 b13e 3a24 4f3e c62b d03c
00000030: 815c 6c3e 2748 843e c09e 293e b198 0f3d
00000040: b265 3d3b 4c63 36bd 82d0 9fbd 8ff6 6e3e
00000050: b437 43be 81ca 493e b3ec a7be a22b c43a
00000060: 24ae 1e3e 76a4 3ebd aeac d2bd e42a 4b3d
00000070: 97d3 0fbe a4e3 bdbd 8669 b8bd 0880 8b3d
00000080: 9ee5 303d 8c12 babd 893c ca3d 3a0f fabd
00000090: 3a23 ac3d 67ac 1abc 044e 67be d020 283d
000000a0: 3f21 a3bb 5fc3 783d 4033 35be 7a54 86bd
000000b0: d530 c8bd 3951 893e 8e48 223e 3dde 0abe
000000c0: a425 4cbd bcee 11be 64ec 963e 1436 cebd
000000d0: 32f5 8fbe 9a83 11be 75f1 5cbd 7d5e 37be
000000e0: 0f5e 8bbe eb47 bf3e f735 1cbd 47e9 0cbe
000000f0: 58ab c53d 5e80 9f3e c90e 91bd 3bc7 d8bd
00000100: 6f09 fc3e 0372 a3bd 5e9c 0cbe 37db f23c
00000110: 387d 10be e6ce 8e3d 57c9 35bd 2a36 123e
00000120: 54e6 9d3e 9202 00be 7db0 7d3e cb40 05be
00000130: bd1b e53c d658 81bd 9ba8 76be 6ad4 8d3c
00000140: 9d8d c73d 329d 753d bb48 aebe a392 773d
00000150: 0214 31bc dedb 5fbd 4cf4 55bd 35f3 aabd
00000160: 60b0 c6bd 4df5 58be 74f3 bf3c 0e31 44bd
00000170: d974 153e 8a2a 94bd d9d2 903e bcf8 cfbe
00000180: 6a1c 30bd 14f6 b63c 0925 783e 837f 07bd
00000190: 1675 c8be d301 643b e473 94bd c007 27bd
000001a0: bb9b 9abe 1698 56be 5f7e d8bd 1286 5bbe
000001b0: b380 053c eb68 e13d 6626 ba3e b2ef 773e
000001c0: 84a7 52bc eb81 f03d 7037 a43c ac3e fa3c
000001d0: f308 f73e 83c8 323d b0d6 6ebe 349c ca3c
000001e0: c690 11be 8561 013e 1f5d c53d c0a1 533e
000001f0: 0e90 193e 9149 223e 0f74 833d 988c 1d3e
00000200: a3e9 d3be 432f 673e b472 263e b820 a93e
00000210: bfe6 103e 428f 023e 0bec 893e 047f 003e
00000220: eb2c 1f3e 0e1e 333d 9c7e cf3d 65ad e83d
00000230: 80bd a83e e8da 4a3d 0a4e 6a3e 8e69 f53d
00000240: 9ad4 dd3d 771c 133d 08e1 013d 03f0 23bd
00000250: 4917 383e 9ccc f0bc 7be5 c1be d9fd 6ebc
00000260: f74f bbba d8bf 2d3d 21bd f13e f6cb f63c
00000270: ca78 603e b751 ca3d c8b1 6e3e 4def 9e3d
00000280: 0f45 ab3e f333 d63e 1489 173d 9b73 bd3d
00000290: 5252 5b3e e339 ea3e 9945 a23e dac6 25ba
000002a0: c1d6 933e a9db 28be f2ea fc3e beb5 62bd
000002b0: a895 5b3e 9c91 bd3d 685f e23e 6733 f23d
000002c0: 9cc4 f5bd fe04 ebbd f2fa 6f3e 918b 843d
000002d0: e561 ae3d d591 c0be 3786 a0bc cd80 11be
000002e0: eabb a4bd eef1 1c3e 5ebb 663e 631d b43e
000002f0: 03f3 1a3e 3a15 b13d bfc9 93be e55d d93e
00000300: 4258 d03d 8940 0a3e ee30 7f3b 2edb 713d
00000310: 439c d13d 7adc cebd f5ad e03e eb0b ccbc
00000320: 83ec 883e eae4 11bd 557c c43e 4f26 9d3e
00000330: c209 8a3a 6a80 f4bd 1923 f63d 11f5 863e
00000340: b227 2bbe a18a d13e 75b3 6abe 8196 7fbd
00000350: a057 52be 26a8 cc3c 3c66 c53e 15d0 d0bd
00000360: b63c ec3d 3519 5a3e bb72 dd3c 61e8 663d
00000370: 7e97 f53c 9b0f 143e ba5f 303e 9a76 83be
00000380: e422 bdbe 26de 7e3e 4e49 883e 6bfb 29be
00000390: 0b00 acbc 4cfa bb3e 855d 1abe 5ab6 be3c
000003a0: 7ed6 fa3e e2e4 00bf f0ac 9a3e 6d27 0fbf
000003b0: d6d7 a73e 6ddd ac3d 3a8c 2f3c a926 0d3e
000003c0: 9208 98bd b625 7e3e bf89 1cbd 7bb5 8ebd
000003d0: 00b0 333e 2a39 ad3e 553d 7fbe d8c3 9b3e
000003e0: 0416 fc3d 0afb 3c3e 05e8 a9bd 382f 513e
000003f0: 777b 2e3e 0a0c 933e 159a 8d3d 6f14 473d
-0.08099654 -0.16042855 -0.007314277 -0.054302536 0.11659078 -0.12731954 -0.15287867 0.15786433
-0.056812476 0.3471888 0.20228663 0.025411498 0.23082162 0.25836298 0.16564465 0.035057727
0.0028899726 -0.04452829 -0.078034416 0.23336242 -0.19064218 0.19706155 -0.32797775 0.0014966617
0.15496117 -0.04654356 -0.10286842 0.04960145 -0.14045559 -0.09271935 -0.09004502 0.068115294
0.04318773 -0.09085569 0.098748274 -0.122099355 0.084051564 -0.009440518 -0.22588354 0.041046917
-0.0049783285 0.060733195 -0.17695332 -0.065590814 -0.09774939 0.2681978 0.1584799 -0.1356134
-0.049840584 -0.14251226 0.29477227 -0.10068908 -0.28116757 -0.14210358 -0.05394121 -0.17907138
-0.272202 0.37359557 -0.038137402 -0.13760863 0.09651822 0.31152624 -0.07082898 -0.10584875
0.49225947 -0.079807304 -0.13731524 0.029645545 -0.14110267 0.069730565 -0.044381466 0.14278474
0.3083979 -0.1250098 0.24774356 -0.13012998 0.027967328 -0.06315772 -0.24087755 0.017313201
0.097438075 0.059964366 -0.34039864 0.060442578 -0.010807993 -0.05465304 -0.052234933 -0.08347169
-0.097016096 -0.21187325 0.023431517 -0.047898345 0.14595355 -0.07234676 0.28285864 -0.40619457
-0.042995848 0.022334136 0.24232878 -0.03308059 -0.3915183 0.0034791126 -0.07248667 -0.040778875
-0.30196938 -0.20956454 -0.105709784 -0.21437863 0.00814836 0.1100634 0.3635742 0.2421253
-0.012857322 0.1174353 0.020045966 0.030547462 0.48249015 0.043648254 -0.23324084 0.024732687
-0.14215383 0.12634857 0.09636902 0.20667171 0.14996359 0.15848376 0.06418621 0.15385664
-0.41389188 0.22576623 0.16254693 0.33032775 0.14150523 0.12749961 0.269379 0.12548453
0.15544479 0.043729834 0.10131571 0.113611974 0.32957077 0.04952517 0.22881332 0.119830236
0.10831566 0.035915818 0.031708747 -0.040023815 0.17977633 -0.02939444 -0.37870392 -0.014586889
-0.0014290799 0.042419285 0.47214606 0.030126553 0.21921077 0.09878867 0.23310006 0.07760487
0.33451125 0.4183651 0.036995962 0.092505656 0.21418121 0.4574729 0.31693724 -0.00063238817
0.28874782 -0.16490044 0.49398 -0.055349104 0.21443808 0.092562884 0.44213414 0.118262105
-0.12000391 -0.114755616 0.23435572 0.06471933 0.08514766 -0.3761126 -0.019595249 -0.1420929
-0.08043654 0.15326664 0.22532412 0.3517867 0.15131764 0.08646627 -0.28864858 0.42454448
0.10173084 0.1350118 0.0038939076 0.059046917 0.10234883 -0.10100646 0.4388272 -0.024908027
0.26742944 -0.0356187 0.38376108 0.3069329 0.0010531473 -0.119385555 0.12018413 0.26358846
-0.16714361 0.40926078 -0.2292002 -0.06239939 -0.20541239 0.024982523 0.3855456 -0.101959385
0.11535017 0.21298678 0.027032247 0.056373958 0.029979464 0.14459078 0.17224017 -0.25676423
-0.36940682 0.2488943 0.26618427 -0.16599815 -0.020996114 0.367144 -0.15074737 0.023280311
0.4899177 -0.5034925 0.30210066 -0.55919534 0.32781857 0.08440671 0.010714585 0.13784279
-0.0742351 0.24819073 -0.038217302 -0.069682084 0.17547607 0.33832675 -0.2492574 0.30422854
0.12308887 0.18455139 -0.08296207 0.20428169 0.17039286 0.28720123 0.069141544 0.04860347

layer4.bias f4 [64]
00000000: 3cf8 1e3e 7ff6 383e 0ab6 1cbc ca3e 37bd
00000010: c85e 0a3e 0e6f ac3c 5e64 0c3e 811c 963d
00000020: 2db2 2b3d 7ccf 653e 816e e03d 0184 f53d
00000030: b2c9 dcb9 c3bc 693b dfba fe3d a507 323e
00000040: 28ab 053e 7123 9b3d 30d4 55bd aace 263e
00000050: 1294 8c3d 337e 533e bd74 67bd 9ff2 ee3d
00000060: b90b e03d c75c e83d 87f7 5ebc a357 b83d
00000070: 7d37 433d 9c52 dd39 a4ae 6a3e 8816 bcbc
00000080: 422f 823e 33b7 0b3c 0441 8d3d d369 523d
00000090: 04e4 fa3c 75cb 173e 241d 3a3e 0eb5 153e
000000a0: 0cc3 fbbb ff20 fc3d 1648 2c3e 4c7e f73d
000000b0: a9d2 563e 25d1 5f3e 19ef 2c3d d946 9b3e
000000c0: 0e24 d73d c13a 833d ecb9 a13c 3bfe adbc
000000d0: 3f3d 2b3e c2b3 363e 8959 403e 7f80 983b
000000e0: c898 1ebd 9168 163e 945e 233e d27f 363e
000000f0: b266 f73d 5196 c53d 024a 843e 28d0 3f3e
0.15524381 0.18062781 -0.009564886 -0.044737615 0.13512719 0.021049049 0.13710162 0.073296554
0.04191797 0.2244243 0.10958577 0.11988068 -0.00042111945 0.003566549 0.124379866 0.17385729
0.13053572 0.07575119 -0.05220431 0.16289774 0.0686418 0.2065361 -0.056507815 0.1166737
0.10939736 0.11345821 -0.01360882 0.090010904 0.04766034 0.00042213954 0.22918183 -0.022959962
0.2542668 0.008527565 0.06897166 0.051370453 0.030626304 0.14823706 0.18175179 0.14619848
-0.0076831635 0.12310981 0.16824374 0.12084636 0.20978798 0.21857126 0.04222021 0.3032749
0.10504924 0.06407691 0.019741975 -0.02123939 0.16722582 0.1784201 0.18784155 0.00465399
-0.038719922 0.14688326 0.15954047 0.17822197 0.120801345 0.09647811 0.25837713 0.18731749

slot_head.weight f4 [13, 64]
00000000: 6720 bcbf a28e 25bf 36d0 80be 286c 58bf
00000010: faee 02bf 8ee9 7f3e a0fc a23d aa7b 74bd
00000020: 58a8 1cbd 3009 1c3e fa0b 863c 6a67 4f3e
00000030: 37d6 db3d 2e42 88bd e6ad 08bf d58e 763e
00000040: a7a7 cc3d 0f4f 413e 4bcb 5dbf 40ac 183e
00000050: f813 ba3e 4ccf d23c 7e92 38be 0bc0 5bbf
00000060: 6273 20bf 54f5 803e c257 be3e 47ad 8f3e
00000070: 4a9d 09bf c4ce 4c3d 8fac b13e 3513 b2be
00000080: 7e9f 9bbe 7cee 8f3e 32fa 23bf 2501 69be
00000090: 7073 9bbe c2fc 9e3e e42f 7d3e c53e 28bf
000000a0: 098e 123e 5aac 6cbc cf53 38bf a3e1 21be
000000b0: 6d69 e0be f373 223e d498 4dbf ae0e 573e
000000c0: e3f5 edbe 2f63 933e cee2 c4bc 9136 80be
000000d0: e3ef e53d 169e 71bf 27d5 7f3d 78ce 02be
000000e0: 5cb3 19bd 1760 403e 4878 0fbf e408 8e3e
000000f0: 8ed5 0dbf 989e 1cbf 470d 1dbf 14b3 14be
00000100: 2d82 e7be a521 213e 55aa 843a 3a8f cc3c
00000110: ed42 173e f01e 813d 79e7 3fbf acd4 adbe
00000120: a333 563e 882d 483e b4f3 4abf 2aa1 3b3e
00000130: 1879 613d 5cd4 77bd 5abb 37bf 6fcc 7a3e
00000140: 0e33 28bf acc0 993d bf96 07bf e6f8 213e
00000150: 3943 983d cd28 ccbe f237 f3be abee c83d
00000160: 0d58 203e 01d9 183e e93f 78be c27a 34bf
00000170: b030 d43c d424 d43d a2ee 79be be41 003e
00000180: cce7 463e 1874 183e fb72 9d3d f903 d93d
00000190: 9eb6 1fbf 30c8 1ebf e818 803e 9124 62bf
000001a0: b4fd 1bbd 9d95 063e 9588 763d 6873 463e
000001b0: 9c11 1d3e 9f42 b6bc 9a2c 4a3e 2083 31be
000001c0: e1c4 ec3d 403c 3f3e 461b 2c3d e3f9 293e
000001d0: a294 b73d 3959 e23d 4d46 ab3e 52ae 213e
000001e0: 0604 763a 8445 443e e7a2 0c3e e1a7 31be
000001f0: 3f35 f5bd a699 0e3e ae44 b43d 914c 083e
00000200: 4f2f 03bf 09ad 8cbe b691 b8bd bab7 98be
00000210: 230f be3d 2735 8d3e 2e60 a23e b32b d03d
00000220: 2db7 5abe 6152 9ebe abec 943e c04a 2abe
00000230: 6122 25be 4d91 803d 317b 5abe d6da e63b
00000240: c4e9 7d3e 3a08 873e f0de b7be 7684 03bf
00000250: 0079 3c3e 3517 813e 83cd 783e e76a 33be
00000260: 8956 e7bd 960e 1e3d b4a6 9c3e e39c 613e
00000270: 8da4 ec3d 8a85 6f3e a813 4a3e fd92 1fbf
00000280: fc28 35bf d37e bf3e ade0 41bd be0c 47bf
00000290: 1023 473e a117 ba3e 5390 2dbf e9bc 6a3c
000002a0: cdf3 303e ba40 ecbe f075 4c3d 34ba 01bf
000002b0: 4d5b 13bf 22c1 01bd f026 48be ae59 073d
000002c0: fd60 9ebe 7674 3dbe 5609 9e3d 59cd a0be
000002d0: 2921 0cbf 5c7a c2be e291 74bf 7d5c 19bf
000002e0: d5db f53d 1125 c93e 44f5 29be 07b4 ebbd
000002f0: 0cac 72bd 3cdd bbbe 8e4f 0bbf 45d9 38bf
00000300: 8be9 133e 7a8f a039 c537 99bd 0180 103e
00000310: c913 b7bd 8cea 703e 2f8b 1a3e 2ebb 2f3e
00000320: 5825 0c3d 4a04 b8be 1dd2 433e bab8 a43e
00000330: 827f bb3e 96a3 0cbd ee05 163e 3a08 683e
00000340: 79e6 5abf 62d9 12bd ceb5 283e 49a4 04bf
00000350: 5911 803e 7e27 2c3e 74af 2c3e f83b ec3d
00000360: 9a68 7e3d b3a9 93be 3640 d03d 43c6 04bf
00000370: eed1 79bd 002d cdbd 3e37 75be f8d3 e03d
00000380: 2906 11bf faf4 813e fa00 9ebd 9fea fa3c
00000390: 1873 3c3e 3d32 a43e 5a79 4abd cd8e 5f3e
000003a0: 2766 403c eae1 2c3e 58a2 c33d 9f81 e6be
000003b0: 83d6 b4be ef58 49bf 3ae1 203e a00e a5bf
000003c0: 1733 e7bd deb1 4ebf 78ac 343e 2b0d 30bf
000003d0: 1f5d ff3d cfdc 3d3e 473b 98be bfb1 3bbf
000003e0: e38b ca3c 2073 a63e c672 40be 104c a8be
000003f0: 4028 0dbf cef3 15bf c3d0 843d 604f ff3d
-1.4697388 -0.64670765 -0.25158852 -0.84540033 -0.511459 0.24991438 0.07958341 -0.059688248
-0.038246483 0.1523788 0.016363133 0.20254293 0.107342176 -0.06653248 -0.5339035 0.24077924
0.09992915 0.18877815 -0.86638325 0.14909458 0.3634336 0.025733612 -0.18024632 -0.8583991
-0.6267606 0.2518717 0.3717633 0.28061888 -0.5375563 0.050001875 0.34701964 -0.3478028
-0.3039512 0.28111637 -0.6405364 -0.22754343 -0.3036151 0.31052214 0.247253 -0.6572078
0.14311995 -0.014445389 -0.7200288 -0.1580873 -0.43830433 0.15864544 -0.8031132 0.21001694
-0.4647666 0.2878661 -0.02403393 -0.2504163 0.112273954 -0.94381845 0.062459137 -0.12774074
-0.037524566 0.18786655 -0.5604291 0.27741158 -0.55403984 -0.61179495 -0.61348385 -0.14521438
-0.45216504 0.1573549 0.0010121564 0.02497064 0.14771624 0.06304729 -0.74962574 -0.33951318
0.20918135 0.19548619 -0.7927811 0.18323198 0.055047125 -0.060505256 -0.7177025 0.24492048
-0.65702903 0.07507452 -0.52964395 0.15817603 0.07434697 -0.3987488 -0.4750362 0.09811147
0.15658589 0.1492653 -0.2424313 -0.70499814 0.025902122 0.10358587 -0.24407437 0.12525079
0.19424361 0.14888036 0.076879464 0.10596461 -0.62388027 -0.6202421 0.25019002 -0.88337046
-0.038083747 0.1314301 0.06018885 0.19379961 0.15338749 -0.022248564 0.19743577 -0.17335176
0.11560989 0.18675327 0.042018197 0.1659923 0.08963896 0.11052174 0.33452073 0.15789154
0.0009384755 0.19167143 0.13734017 -0.17349197 -0.119730465 0.139258 0.08802162 0.13310458
-0.5124406 -0.27475765 -0.09012167 -0.29827672 0.09280231 0.27579615 0.31714004 0.10164585
-0.21358939 -0.30922225 0.29086813 -0.16630077 -0.16126396 0.06277714 -0.21336056 0.0070451302
0.24796206 0.26373464 -0.35912275 -0.51373994 0.18405533 0.25213018 0.24297146 -0.17521249
-0.11295802 0.03858813 0.30595934 0.22032504 0.11554823 0.23390785 0.19734061 -0.6233366
-0.7076566 0.37401447 -0.04733341 -0.7775382 0.19446969 0.36346152 -0.67798346 0.014327266
0.17280503 -0.46143132 0.04991716 -0.5067475 -0.5756119 -0.031678326 -0.19546103 0.03304451
-0.3093337 -0.18501458 0.077166244 -0.31406668 -0.547381 -0.37983978 -0.955351 -0.5990675
0.1200482 0.39286092 -0.16597468 -0.11508947 -0.059246108 -0.36692226 -0.54418266 -0.72206527
0.14444558 0.00030624476 -0.0748134 0.1411133 -0.089393206 0.23526973 0.15092157 0.17161247
0.0342153 -0.35940772 0.1912312 0.32172185 0.36620718 -0.034335695 0.146507 0.22659388
-0.85507923 -0.035851844 0.16475603 -0.5181318 0.25013235 0.1681194 0.16863805 0.11534876
0.062111475 -0.28840408 0.10168497 -0.51865023 -0.06099122 -0.10018349 -0.23946854 0.1097793
-0.56650025 0.25382215 -0.0771503 0.030629454 0.1840328 0.3206958 -0.049432136 0.21831818
0.011743105 0.16883054 0.09552449 -0.45020768 -0.3531991 -0.78651327 0.15710917 -1.2895088
-0.112890415 -0.80740154 0.17643917 -0.6877009 0.12468933 0.18541263 -0.29732725 -0.73318094
0.024724906 0.32509708 -0.18793783 -0.3287053 -0.5513954 -0.5857514 0.06485131 0.124663115

slot_head.bias f4 [13]
00000000: f10d 333e fd71 bfbd 366e 743b 1d5e 89bd
00000010: ae3f 88bd d449 023d acc4 3d3e 79ef b1bd
00000020: 9873 36be c9e4 0b3e 4015 ba3e 9151 86be
00000030: bcc2 a3be
0.17485787 -0.093479134 0.0037297136 -0.06707404 -0.06652771 0.03180869 0.18532056 -0.08688254
-0.17817533 0.13661493 0.36344337 -0.26234105 -0.31984508

rotation_head.weight f4 [3, 64]
00000000: 629e 3abe 690a f43d 5735 3a3f 47ba d03c
00000010: ad83 f13d 6222 34bd f858 30bd febc 7d3d
00000020: 8352 e6bc 441b 883d e38c 0bbd 632a f53e
00000030: f813 c13e 7061 333f b92d 86bd 2018 a9bb
00000040: e8a4 5e3c 321e d93d c247 c23d c4a6 48bd
00000050: f146 08bd 492a 33bd 3f5a 1d3e 571d cb3d
00000060: 0f99 54bd 0abe bdbd 91ef d13e 2558 d83b
00000070: 82cc 113f 8a94 ac3d d70f bdbe ee5c 26bd
00000080: 3ef3 3cbd 68d4 ba3c eb6a 4cbf f2f2 9fbd
00000090: bba6 2e3e 8a60 c4bd 06cd 09bd 650a 58be
000000a0: 381f 2b3f 0c30 aa3d 5012 ab3c 0279 163d
000000b0: 1ff8 ac3d 8dd0 dd3d f7a2 d4bb 27cc fc3b
000000c0: 6b11 983b b15b 683d 4461 053e c7b2 163d
000000d0: a01d eb3d d6b5 293d 34c1 443d 1189 7a3d
000000e0: c77a 413f 2662 9c3d 66d1 56bf 5e9b 91be
000000f0: 7951 3f3e 63e5 eb3c 6c7d d73d 5c03 013e
00000100: 4226 373e ed26 b43d acab 44bf 3856 943d
00000110: 4822 843d 8505 9ebd 9052 b83d c4ee de3d
00000120: a639 1bba a49c 553d 3a38 1a3d 49b2 acbe
00000130: 7578 c8be 2b2f 2cbf 3735 f63d 1ba8 87bd
00000140: ff0d 0abe ee6f 64bd e694 40bd 5b85 063c
00000150: 6729 623d c08e 30bc a8d3 65bd a2f9 eb3d
00000160: 3008 d43c e875 fbbd 5e49 8bbe e84c ea3d
00000170: d852 01bf 854c d43c ebaa d43e e0ac e03b
00000180: 7dd9 1cbd 2b1f b1bd a558 473f 0635 c1bd
00000190: 9c5c e83d 201a d43c 7c04 b33c b189 933d
000001a0: 8710 28bf c680 233e a916 e43d 77ed cd3d
000001b0: abb9 ed3d 71ac 82bd 6eff a6ba 656c b33d
000001c0: 6b75 e3bc ade7 723d f44c 143d 49b9 a63d
000001d0: 1435 5abd 5026 0bbd 5aa0 49bd 0e7c 603d
000001e0: 3da2 31bf b8c7 6fbe 87ef 2a3f 7d33 aa3e
000001f0: 14ed e13c eef9 5abb 8036 a83d f56d d03d
00000200: 1fea 1dbf 26ae 96be 7a01 b5be b802 01bf
00000210: 10cc b2bd 09c3 03bf 2eda 68bf 1898 66be
00000220: 15b8 a23d 82ef 59be 58df 06bf e620 90bf
00000230: 4364 b6bd afaf afbe dc5d 83be 8b9a 37bf
00000240: d7a9 58bf a84f 4bbf 4777 29be cb31 0ebf
00000250: 8271 2cbf bb5c a0be 9e28 54be e2f2 6ebe
00000260: 2bd3 22bf 7b17 9bbf 7cc4 13bf d4af ffbe
00000270: 5c2b e8bd b758 78bf eedf d6be 027b 9dbe
00000280: 1568 1abf e645 dabe 14e4 8fbf 8ab1 83bf
00000290: 7994 37be 923c 05bf 63a6 0cbf b98a 25bf
000002a0: 9d5c 58be 4364 aabe 1e25 90be ae4a a8be
000002b0: 4724 55be 4926 0dbf b82b 82bf 5ed9 b6be
000002c0: 8f78 c2be f417 3abe 6a59 69be 274d e1be
000002d0: a2b9 5cbe 316a 4bbe fe5f 66be de8c 3dbf
000002e0: 9a5e bbbe db44 8cbe 517d 6dbe 9671 0bbf
000002f0: 9bd8 c2bd c54f b2be 79e1 b2be b069 ccbe
-0.18224481 0.11916048 0.7273764 0.025479449 0.11792693 -0.043978103 -0.043053597 0.061947815
-0.028115517 0.066458255 -0.034069907 0.478839 0.37710547 0.7007055 -0.0655169 -0.0051603466
0.013589121 0.106014624 0.09486343 -0.048987165 -0.03327078 -0.0437415 0.15366457 0.099177055
-0.05190378 -0.09264763 0.41003087 0.0066023045 0.5695268 0.08426769 -0.36926147 -0.04061597
-0.04613041 0.022806361 -0.79850644 -0.0781001 0.1705579 -0.09588726 -0.03364279 -0.21097715
0.6684451 0.083099455 0.020882756 0.036736496 0.08445763 0.108307935 -0.0064891535 0.0077147665
0.0046407483 0.05672807 0.13025385 0.03679159 0.1148026 0.041433178 0.048035815 0.061165873
0.7557797 0.07635908 -0.83913267 -0.28438848 0.18683423 0.028795904 0.10521969 0.12598938
0.17885688 0.08796487 -0.7682445 0.072430074 0.06451851 -0.077158965 0.090001225 0.10885385
-0.0005921371 0.052151337 0.037651278 -0.3372977 -0.391544 -0.6725947 0.12021869 -0.066238604
-0.13481902 -0.055770807 -0.047017 0.008210505 0.055215266 -0.010776222 -0.056110054 0.11522223
0.02588281 -0.12278348 -0.27204412 0.1144045 -0.50517035 0.025915394 0.4153665 0.006856546
-0.03829335 -0.08648523 0.77869636 -0.094339415 0.11345789 0.025891364 0.021852724 0.07203997
-0.6565022 0.15967092 0.111371346 0.100550584 0.11607679 -0.06380547 -0.0012740919 0.08760909
-0.02776595 0.059302974 0.0362062 0.08140809 -0.053273275 -0.033972085 -0.04922519 0.054805808
-0.6938818 -0.2341603 0.6677174 0.33242407 0.027578868 -0.003341313 0.0821352 0.10177223
-0.61685365 -0.2942974 -0.3535269 -0.50394773 -0.08730328 -0.51469475 -0.90957916 -0.22518957
0.07945267 -0.21282771 -0.52684546 -1.126004 -0.08905842 -0.34313723 -0.25657547 -0.7172019
-0.84634155 -0.7941842 -0.16549407 -0.5554473 -0.673607 -0.31320748 -0.20718619 -0.2333484
-0.63603467 -1.2116541 -0.57721686 -0.49938834 -0.11336395 -0.9701037 -0.4196772 -0.3075791
-0.60315067 -0.42631453 -1.1241479 -1.0288556 -0.17927732 -0.5204555 -0.54941386 -0.646648
-0.21129079 -0.3327962 -0.28153318 -0.32869476 -0.2081462 -0.55136544 -1.0169592 -0.35712713
-0.37982604 -0.181732 -0.22788015 -0.44004175 -0.21555188 -0.19864728 -0.22497556 -0.7404307
-0.36595613 -0.27396283 -0.23192336 -0.54470193 -0.095139705 -0.34826484 -0.34937647 -0.39924383

rotation_head.bias f4 [3]
00000000: 96f4 293c 279b 69bc 5981 d83b
0.010373255 -0.014258183 0.0066072163
