outputs/trained_models/placement_model_20250802_065511.pth (torch, 79173 bytes, 10 tensors)

layer1.weight f4 [64, 15]
000000 38 8f 23 3e cf 81 9a be 72 dc ed bc fe 77 53 3e
       0.15972602 -0.3017716 -0.02903578 0.20651242
000010 4c db 5a bf be 95 b2 3e 1f 75 94 be fa e6 22 bf
       -0.8549087 0.3487987 -0.28995606 -0.6363369
000020 14 6a f2 be 3d 0d 1d bf 29 9e 7d 3e 8e 1d 9e be
       -0.47346556 -0.61348325 0.24767365 -0.30881923
000030 80 52 a7 3d 3c 6c 81 3e d1 e1 a1 3e 21 9a be 3e
       0.081700325 0.2527789 0.31617597 0.37226966
000040 8e 68 eb 3d 38 86 89 3e 7f f9 ae be 0c 1a d9 3d
       0.114945516 0.26860213 -0.34174725 0.10600671
000050 26 60 1b 3f de c6 c3 3e c5 01 d3 bd 46 f4 e0 be
       0.60693586 0.3823766 -0.10303072 -0.43936366
000060 42 27 fc be 7f 8e 44 bf 9c e6 a0 3d 2a d1 12 3d
       -0.492487 -0.7677993 0.07856485 0.035844006
000070 13 3d 0c 3e 3f 84 eb 3d be 23 5b 3d f0 c9 55 3d
       0.13695173 0.11499833 0.053500883 0.052194536
000080 77 eb 0a be 96 f9 d9 3d d1 2d 24 3e 88 9d 64 be
       -0.13566385 0.10643308 0.16033103 -0.22325718
000090 7a e3 2a 3f 54 f9 83 bf 9d d0 4c 3f ef 47 d4 be
       0.6675335 -1.0310464 0.8000582 -0.4146113
0000a0 b0 7d c0 3d 35 d7 d9 be 2d e1 a3 3e 60 2b b1 3c
       0.09398973 -0.42547002 0.32007733 0.021627128
0000b0 24 00 30 bf ec d0 01 be da 59 98 3e 55 20 60 3d
       -0.68750215 -0.12677354 0.2975605 0.054718334
0000c0 24 b3 a1 be 35 54 88 be 8b e2 55 3f d9 45 22 3f
       -0.31581986 -0.26626745 0.835488 0.6338783
0000d0 de 02 e1 bd 5a 6d cc 3e 0b 09 47 be e1 34 2f bf
       -0.10986875 0.3992718 -0.19437043 -0.6844006
0000e0 5c 91 a9 be d6 80 1c 3e cb f0 2b 3e 98 4d f1 3d
       -0.33118713 0.15283522 0.16791074 0.11782378
0000f0 4c 17 95 be 6a 1e 80 3e d2 fd 4b bf 0a a0 e5 be
       -0.29119337 0.25023204 -0.79684174 -0.44848663
000100 97 c2 c3 bd d9 5d 30 bf 80 f7 c5 3e 80 af d5 3e
       -0.095585994 -0.688932 0.3866539 0.41735458
000110 82 85 e4 be 85 85 1e bd 5d c3 b5 3e 9f 19 0d 3d
       -0.44633108 -0.038701553 0.35500613 0.034448262
000120 0f 6c 7a be b6 48 ad 3e 33 2a 68 3e 21 65 17 3f
       -0.24455284 0.33844537 0.22672348 0.59138685
000130 e2 75 44 3e 04 61 34 bf f5 9a 50 bf 47 91 07 bf
       0.19185594 -0.70460534 -0.81486446 -0.5295605
000140 9a 2b 0b 3f b1 be ec 3d 9f 51 82 be 86 00 4c 3e
       0.54363406 0.11559809 -0.25452897 0.19922075
000150 0d 72 71 be 63 76 69 3d 55 6a 5a 3e f8 50 3b 3e
       -0.23578663 0.056997668 0.21329625 0.18292606
000160 63 87 10 3e a9 04 6d 3e a6 3f b8 3e b7 fd 37 3e
       0.14114146 0.23146309 0.3598606 0.17967878
000170 54 f5 a5 bf 2f 42 ec be 88 22 8a 3e 17 f6 a5 3d
       -1.2965493 -0.46144244 0.2697947 0.081035785
000180 0c c5 2d 3e d6 d2 71 3d 1b 25 a1 3e b0 1c 09 bf
       0.16969699 0.05903896 0.31473622 -0.535594
000190 16 cc 2c be 66 bc 03 3e 7a d0 c5 bd 4d 78 91 3e
       -0.16874728 0.12864837 -0.096589044 0.28412095
0001a0 db 47 2f 3e 68 e1 3d 3f 4c ba 04 bd 3c e5 44 be
       0.17117254 0.7417207 -0.03240423 -0.19228071
0001b0 14 ef 3e be 2c 4c 65 3e 6c b5 2e 3e 1c 00 10 bf
       -0.18645889 0.22392339 0.17061394 -0.56250167
0001c0 94 3f de 3d 67 ae 37 3f a9 f5 8f 3e 64 e1 d5 3e
       0.1085197 0.7175049 0.2811711 0.41773522
0001d0 e1 9a 21 bd d4 15 de 3d 6c c1 b0 3e cb 4d 59 bd
       -0.039454345 0.10844007 0.3452257 -0.053052705
0001e0 d9 ee 1e 3f 01 75 f1 bd f9 ee d2 be e0 4e f8 bd
       0.620832 -0.11789895 -0.41197947 -0.12124419
0001f0 f8 c2 98 3e 70 d7 ec 3d ff 56 e1 3e e5 e5 94 3e
       0.2983625 0.11564529 0.44011685 0.29081646
000200 ef ad 55 3f 00 b1 43 3f 44 f2 13 3e 87 ff 9d 3e
       0.83468527 0.76441956 0.14447886 0.30859014
000210 a2 74 6c be 59 fd 81 be d0 23 5d bc b0 f5 3e 3e
       -0.23091367 -0.253886 -0.013497308 0.1864841
000220 e3 68 5d be f9 72 bb 3e e0 bb 03 bf 51 7d cc be
       -0.21622042 0.36611155 -0.5145855 -0.3993936
000230 f8 77 2a 3e 0e 1b a0 3e 50 64 03 bb 0d 10 26 3f
       0.16647327 0.3127064 -0.0020048805 0.6486824
000240 e7 22 ad be 1a 98 eb 3e 0e 80 b1 3e 40 6e 00 3d
       -0.3381569 0.46014482 0.3466801 0.031355143
000250 2d 54 21 be 75 4f 76 3e 14 24 f7 3e bc c0 d6 3c
       -0.15754767 0.24053748 0.48269713 0.02621495
000260 77 91 94 be 29 f2 22 3f 0e 0c df 3c 92 db 31 3f
       -0.2901723 0.6365076 0.027227428 0.6947566
000270 4b b8 4d bf c3 e6 83 bf 8a 78 7d 3e 5d a6 00 3f
       -0.80359334 -1.0304798 0.24753013 0.5025385
000280 79 07 02 bf 66 32 97 3e 44 82 b4 3e 5a da 4f be
       -0.5079265 0.29530638 0.35255635 -0.20298138
000290 8e 78 99 bd 21 0f 56 3f f7 bb e4 be e7 0b d1 bd
       -0.07493697 0.83616835 -0.44674656 -0.10207348
0002a0 11 80 35 bf f4 e5 07 3f d1 3d a4 3d 6b 45 ab be
       -0.7089854 0.53085256 0.08019603 -0.334514
0002b0 8d 16 8b 3e e6 96 95 be 97 66 18 be 93 a9 c5 bc
       0.27165642 -0.2921669 -0.14882885 -0.02412871
0002c0 43 36 26 3e 51 78 f7 be fc 20 cc bd ac 91 48 3d
       0.16231637 -0.48333982 -0.09967229 0.04896705
0002d0 c2 66 9a bd c1 1e 50 bf b4 29 e4 3d af 36 2a be
       -0.07539131 -0.81296927 0.11140767 -0.16622423
0002e0 9f ac 46 bf 60 b1 d7 3e da 25 3e bf 17 4a 95 3e
       -0.7760715 0.42127514 -0.74276507 0.2915809
0002f0 26 fd 32 3f 2b f4 9b bf 78 27 6e 3e a4 ab 40 3e
       0.69917524 -1.2183889 0.23257244 0.18815476
000300 9d d6 42 3e e3 64 fd 3b 3b d4 7a 3e 77 5f 40 be
       0.19027181 0.007732974 0.24495022 -0.18786417
000310 43 5c e9 bd 8d b7 8f 3d 44 c9 cc 3e 93 6b f7 3e
       -0.11394551 0.070174314 0.39997303 0.4832426
000320 65 a8 1e 3f ca 9a 77 3e bd ea 8b bf 5b ad 9b 3e
       0.619757 0.24180141 -1.0931011 0.30405697
000330 33 1b b3 be ee a4 21 3f 29 63 33 3e 12 41 7a bf
       -0.3498169 0.6314229 0.17518295 -0.9775554
000340 69 8d a5 3c 42 e7 17 3e d2 e0 4d bd 3d 19 bd 3e
       0.020209031 0.14834312 -0.050263233 0.36933318
000350 b1 1b d8 3e 1f 46 e9 be fe 26 99 bf 0d 89 67 bf
       0.42208627 -0.4556131 -1.1965024 -0.904435
000360 62 88 c2 3e fa 48 83 bf 09 ac b0 3b 04 4a d1 be
       0.37994677 -1.0256646 0.005391602 -0.40876782
000370 c9 a2 d4 3e f7 a6 a6 3d b8 4d d1 3c 53 2f 4d 3d
       0.41530445 0.08137315 0.025549755 0.05009396
000380 c7 a5 02 bd 4b 92 11 3f 63 d4 58 bf 7e da 51 bf
       -0.03189638 0.5686385 -0.84699076 -0.8197402
000390 30 47 b1 bd c5 99 bc bf 99 97 1e 3e 04 e7 ba 3e
       -0.08656156 -1.4734427 0.15487517 0.36504376
0003a0 ce 1f 86 bd 24 61 39 bd 07 5b c5 3e c0 3d 03 3e
       -0.06549035 -0.045258656 0.3854601 0.12816525
0003b0 a4 23 3d be e2 61 f1 bd 3b 27 d4 3e 15 55 68 be
       -0.18470627 -0.11786248 0.4143618 -0.22688706
0003c0 b3 21 0e be e9 9d 5f 3e 9f 0f 87 3e 3e 3d b2 3e
       -0.13880043 0.21837582 0.26379105 0.3481235
0003d0 3b 45 4c be 16 e3 f6 3e 0a 22 64 be ca d5 80 bd
       -0.19948284 0.48220128 -0.2227861 -0.06290777
0003e0 fe 49 83 3d 14 fc 45 be 18 6d 16 3f a5 08 d0 be
       0.06410597 -0.19334441 0.58760214 -0.40631595
0003f0 f5 f6 c1 3d cd 70 6d 3e c4 4d f5 3d 56 6e a6 be
       0.094709314 0.23187561 0.11977723 -0.32506055

layer1.bias f4 [64]
000000 70 d5 14 bd b8 78 a6 3e b9 f5 eb bd 8e ff b3 bc
       -0.036336362 0.32513976 -0.11521477 -0.021972444
000010 ca d3 e6 bc ba 9e c4 3d f3 ee 01 bd af 38 2b 3e
       -0.02817716 0.09600587 -0.03172202 0.16720842
000020 32 41 1a 3d 1c e6 98 3e 9c 04 86 3d fe 64 5b 3d
       0.03765983 0.2986306 0.06543848 0.05356311
000030 8d d3 6a be 72 45 37 be 10 85 e9 3d 80 cf e0 bc
       -0.22932263 -0.17897585 0.11402333 -0.027442694
000040 ec 52 a3 3d 87 69 8f 3e 1b 82 65 3e fc 40 07 3e
       0.079748005 0.28010198 0.22412913 0.13208383
000050 a2 ec 3d 3e 7f 7c 46 be 56 9a 01 3e 09 01 87 3e
       0.185473 -0.19383429 0.1265653 0.26367977
000060 6e 7a bf bb 74 da 5a 3d b3 93 c8 3e ff 52 1b 3e
       -0.005843452 0.05343099 0.39175186 0.15168379
000070 99 fb a6 3d 58 e2 e0 3e e5 0d ed bd cb f7 47 be
       0.08153457 0.43922687 -0.11574916 -0.1952812
000080 35 24 6e 3b b4 9e f1 bb b1 64 97 bd 45 32 37 be
       0.00363375 -0.007373655 -0.07392252 -0.1789027
000090 1b 8d f1 3d 11 f1 97 3e f4 4e 27 3e 7d d7 0a be
       0.11794492 0.29676107 0.16338712 -0.13558765
0000a0 25 fe 11 3d c6 09 90 bd a0 47 67 3e 0c ac 94 3e
       0.03564276 -0.07033114 0.22585917 0.2903751
0000b0 03 02 8d 3d 60 3b 91 3e fc 18 99 3e 78 3f 15 3e
       0.06885149 0.28365612 0.29901874 0.14574993
0000c0 1b 84 94 3e 14 29 a0 3b 6c a8 45 3e dd b5 ab 3e
       0.29007038 0.0048877094 0.19302529 0.33537188
0000d0 79 03 01 3e 58 b0 16 3e 61 86 0d 3e ab 5c a0 3d
       0.12598981 0.14715707 0.13820793 0.07830175
0000e0 23 96 bc bd 7a b3 a2 3a bd c8 24 be 9f 0b 8c bd
       -0.09208324 0.0012413107 -0.160922 -0.06838154
0000f0 dd 3f 87 bd 0d e0 98 3e 06 53 2c 3a d9 34 0a 3e
       -0.06603978 0.29858437 0.0006573651 0.13496722

layer2.weight f4 [128, 64]
000000 64 a4 53 3c f0 fd 27 be 28 2c 40 bf ef c7 f9 be
       0.012917612 -0.16405463 -0.7506738 -0.4878535
000010 0d 2e 90 3e 3b 62 b9 3e 82 83 22 3f 51 4d 05 3c
       0.28160134 0.36207756 0.63481915 0.008136109
000020 33 c6 09 be e9 8f 03 bd 55 0d d3 3e 5f 85 31 be
       -0.13454513 -0.032119665 0.4122111 -0.17336033
000030 c1 a3 55 3f 5b 47 19 3e ec 8c fc bc 4a e5 c9 3e
       0.83452994 0.14968626 -0.030828916 0.39432746
000040 21 3c 29 be 71 c7 33 bd 2c b5 90 bd 7e b3 67 be
       -0.16526844 -0.043891374 -0.07065806 -0.22627065
000050 08 17 9e 3e 7f 52 c9 3d 15 48 c2 3e eb 15 0d 3d
       0.30876946 0.09830188 0.3794562 0.03444473
000060 14 d1 0c 3f 58 76 8b 3d 52 e0 a5 3c 4b d4 ae bd
       0.5500653 0.06809682 0.020248566 -0.085365854
000070 14 12 39 3e 49 73 0d 3e d1 c2 db 3e c3 3c f5 3e
       0.18073303 0.13813509 0.4292207 0.4789792
000080 3f 4d 62 be 93 07 83 be 41 7a 50 3f fb 5f d0 bd
       -0.2209978 -0.25591716 0.81436545 -0.10174557
000090 7b 19 9c 3e 99 12 45 be d0 4f 16 bc b2 d6 17 bf
       0.3048819 -0.19245376 -0.009174302 -0.59311974
0000a0 0c 7c 34 3e 55 5e ca bd af ab ad be e4 10 83 bc
       0.17625445 -0.09881274 -0.33920047 -0.015999265
0000b0 b2 99 bd 3d fd bf 57 3e e2 8a 04 3f 38 48 8a 3e
       0.09257831 0.21069331 0.5177442 0.27008224
0000c0 2f 36 dd 3c fe 5b ce 3e 31 0f 56 bd a0 cb 80 bd
       0.027003376 0.4030456 -0.05226058 -0.062888384
0000d0 e0 c0 e9 3d bb 27 70 3c 14 1f de bc f5 6f 1c 3d
       0.11413741 0.01465791 -0.027114429 0.038192708
0000e0 ac 17 fc bd 90 0a 0a bf 2f 73 c9 be 13 5b c7 be
       -0.123092026 -0.5392237 -0.3934569 -0.38936672
0000f0 ad 8a ba 3d 2e 5f ac be 12 4c b9 bc 34 41 a0 3e
       0.091084816 -0.33666366 -0.022619281 0.31299746
000100 5b 79 ea be b2 3c 93 3e 89 61 0e 3e c5 dd 67 3e
       -0.45795712 0.28757244 0.13904394 0.22643192
000110 7d e0 b2 3e e8 28 7a 3e 65 95 6d 3e 8f 9a 86 3d
       0.34936896 0.24429667 0.2320152 0.065724485
000120 63 2a 53 3e 26 d6 22 bd 3d 5a c2 3e 73 cc 5f 3e
       0.20621638 -0.03975501 0.3795947 0.21855335
000130 10 80 ff be 26 aa 05 3c 87 f0 0b be fc 63 13 3e
       -0.4990239 0.008158242 -0.13665973 0.1439361
000140 9b a1 a0 bd 03 25 0e be a7 40 80 3d 40 ea 82 be
       -0.07843324 -0.13881306 0.062623315 -0.25569344
000150 31 bf 5c bd b4 2a 38 bd 00 24 52 3e b4 f2 a9 bd
       -0.05389327 -0.0449626 0.20521545 -0.08298245
000160 3f 55 a3 be dc 5d 61 be 5d 7d d2 3d 7d 33 9b 3d
       -0.31900975 -0.22008461 0.102778174 0.0757818
000170 44 5f af 3e 9b 95 56 be a3 51 91 3e 0a bc 65 3d
       0.3425237 -0.20955507 0.28382596 0.05608753
000180 85 9f dc 3c d5 02 ee 3d c2 bd 98 3d 40 a9 c0 3b
       0.026931534 0.11621634 0.074580684 0.005879551
000190 5b 1c 59 be 03 a2 6b 3e 58 ae 85 3d 55 a5 bf 3e
       -0.21202223 0.23011021 0.06527394 0.37430826
0001a0 51 35 f9 bc e1 24 c4 bf f9 76 63 3d c0 9b c1 3c
       -0.030420931 -1.5323755 0.055533383 0.023633838
0001b0 1f 71 29 bd 21 ec 36 3e b7 25 cf 3d 93 56 8a be
       -0.041367646 0.17863514 0.101146154 -0.27019176
0001c0 18 66 bb be be 6b b4 3e 00 22 74 3e 20 a6 85 3e
       -0.3660133 0.3523845 0.23841095 0.26103306
0001d0 8c 9d 58 be 7c 0f 91 3a ba 7c 2d 3e 7c 9f 11 3d
       -0.2115385 0.0011067237 0.1694211 0.035552487
0001e0 e1 27 00 be 96 cf 96 bd 9b 75 90 bf 68 bd 46 3f
       -0.12515213 -0.073638126 -1.128589 0.7763276
0001f0 d8 7f 85 be 23 8f 08 3f 3c 99 aa 3e 84 76 e9 3d
       -0.260741 0.5334341 0.33320034 0.11399558
000200 d9 1d 17 bf 45 73 f6 3d b9 65 b6 3e d0 50 bc 3d
       -0.5902992 0.12033705 0.35624483 0.09195101
000210 3b 19 3c 3e 96 fd 5f 3b 02 93 3a be 5f 79 95 3d
       0.18369 0.0034178249 -0.18220142 0.0729854
000220 95 99 88 3e 95 8e 09 3e cc ed c8 3d d4 e8 3a 3e
       0.26679674 0.13433297 0.09810981 0.1825288
000230 cd 45 55 be 62 d1 b3 be 4d 56 d3 3c 07 47 06 3e
       -0.20827408 -0.35120684 0.025797987 0.13113032
000240 35 04 44 3d 22 a6 39 bd de 59 0b 3e 92 d2 08 be
       0.047855575 -0.045324452 0.136085 -0.13361576
000250 92 38 04 3d 75 f8 85 3d 12 45 10 be da 7b e0 bd
       0.032280512 0.0654153 -0.14088848 -0.10961123
000260 e1 0c 08 3d 5e c4 5a bc 3b 7e 60 3e f3 53 63 3e
       0.033215407 -0.013352482 0.21923153 0.22199993
000270 5d fd bb 3e d3 3b 12 3d d9 6d 0f bd 21 44 5b be
       0.36716738 0.035701584 -0.03501687 -0.21412708
000280 20 68 d2 3e ee 62 4f 3c fc f7 72 be f0 23 c2 3e
       0.41095066 0.012657864 -0.23727411 0.37918043
000290 f7 22 49 be ac 8c 37 3e f8 4d 4f bd 26 c3 bb 3e
       -0.19642244 0.17924756 -0.050611466 0.36672324
0002a0 2e d1 5a 3d 27 1c 61 bf 03 e6 d7 3e 9d 7e 91 3d
       0.053422146 -0.8793358 0.42167673 0.07104228
0002b0 da a7 ff 3d 5c 3e c3 bc 44 52 ac bd c3 74 06 be
       0.12483187 -0.023833446 -0.084141284 -0.13130479
0002c0 f6 19 5f bd 99 30 24 3e ce 00 a4 3e 5c 1d 08 3e
       -0.054468118 0.16034164 0.32031864 0.1329245
0002d0 43 47 4c 3e 66 ed 75 3e 01 dd ea bc be 0d 4f 3e
       0.19949059 0.24016342 -0.028669836 0.20220086
0002e0 32 b3 03 be fd 59 d1 bd dd 5e 43 bf 51 9b 15 3f
       -0.12861326 -0.10222242 -0.76316625 0.5844012
0002f0 39 75 cd bd 3b 6c b0 3e f6 90 a9 3e 88 d9 d8 bd
       -0.10032124 0.34457573 0.3311841 -0.10588366
000300 79 ac b6 be ed dc 3d 3d 39 cf a6 3d 1a d0 ed 3d
       -0.3567846 0.04635327 0.08144993 0.11611958
000310 36 ed 04 3e 00 b4 6d 3e f4 78 21 be 97 a3 24 3e
       0.12981114 0.23213196 -0.15768796 0.1607803
000320 16 5b 05 3d 00 17 12 3e 2d 44 24 3e 4c f1 76 be
       0.03255757 0.14266586 0.16041632 -0.24115485
000330 92 82 4c be 56 8a 04 3c 9f 5a 8d bd a8 6a 23 3e
       -0.19971684 0.0080896225 -0.0690205 0.15958655
000340 ac a9 7f 3c 7f 1b 3d 3e 23 7b e1 3e 46 fe 86 bd
       0.015604418 0.1846752 0.44039258 -0.065914676
000350 a4 ed 8e 3e 3d 3e b0 bc 8b de c2 bb d9 b7 e9 3d
       0.2791568 -0.021514053 -0.0059469393 0.11412019
000360 0d b1 aa bd 5d 60 cf 3e 86 ed d8 3d 85 ec 7a 3c
       -0.08334551 0.40503207 0.10592179 0.01531518
000370 fd 07 d1 bd d5 79 6f 3e 27 2f 46 be 3c 77 17 bd
       -0.10206602 0.23386319 -0.19353925 -0.036978945
000380 0c fd 82 3e 0a e4 9f 3d db 70 47 bf 72 de 1c bf
       0.25583684 0.07807167 -0.7790658 -0.61276925
000390 a9 88 a9 be ef 18 1e be 9d 82 23 be 60 ec 2f be
       -0.33112076 -0.15439199 -0.15967794 -0.17180014
0003a0 51 18 e1 3d 2c 6e 81 bf d4 d1 ea 3d 03 0f f4 3d
       0.10990966 -1.0111747 0.11465803 0.11916926
0003b0 47 ac 7b 3e 92 f8 11 3e eb db 63 3d 30 06 d8 bd
       0.24577437 0.14254978 0.055629652 -0.10548055
0003c0 08 20 e5 bd 9d f9 19 bf 33 49 e4 3e 0c b4 62 be
       -0.1118775 -0.60146505 0.44587097 -0.22138995
0003d0 f2 83 c6 bc 74 75 98 bd b2 49 50 bd 23 79 7f 3e
       -0.024232838 -0.074442774 -0.05085153 0.24948554
0003e0 c8 23 ff 3d 14 91 1e bd 95 fd 5b be 27 00 d1 3e
       0.124579966 -0.038712576 -0.21483453 0.4082043
0003f0 41 bc 46 be 6a 8d dd 3e 3d 71 49 bd ad bb 41 be
       -0.1940775 0.43271953 -0.049180258 -0.18919249

layer2.bias f4 [128]
000000 95 8a e8 bc 79 a3 9b 3d fd ff af 3d c3 6b e9 3c
       -0.028386394 0.07599539 0.08593748 0.028493768
000010 cd 0e 5d 3d 4d dc 79 3d b2 e1 c4 bd ec 95 7a bd
       0.053969193 0.06100111 -0.096133605 -0.061178133
000020 b0 f1 e6 bb e1 f2 32 3d 85 ed 76 3d bc a6 da 3d
       -0.0070478544 0.04368866 0.06028511 0.10676333
000030 6c 77 2f 3e 23 5b 3e 3e 7c 8f e6 3c 80 23 03 3e
       0.171354 0.18589453 0.02814459 0.12806511
000040 e4 af 16 3c 08 07 50 3d e5 88 61 3e e7 e1 c2 bd
       0.009197209 0.050787956 0.22024877 -0.09515744
000050 64 a0 41 3e ed b8 19 bd 57 a5 e0 3d a2 f6 f3 3d
       0.1890884 -0.037529875 0.10969036 0.11912276
000060 f6 8f bc 3d cc 7b d8 bd ec bd d4 3d 66 75 2e 3e
       0.09207146 -0.105704874 0.10387787 0.17036971
000070 14 46 e6 3c 51 c0 10 3e 98 1f 6b 3e d9 23 3b 3d
       0.028109588 0.14135863 0.22961271 0.045688484
000080 f9 f1 39 bb a7 4e 11 ba 65 cb 1e 3c 3e 06 2b 3e
       -0.0028372987 -0.0005543031 0.009692048 0.167016
000090 16 aa df 3d 40 40 d3 3b 09 75 a7 bd 38 79 09 3e
       0.10921113 0.006446868 -0.081766196 0.13425148
0000a0 da 4f 5c 3e 1a 08 65 bc 77 b6 cc bc 68 eb 9f bd
       0.21514836 -0.013978982 -0.02498935 -0.07808572
0000b0 e0 d7 a7 bc d7 80 ce bb 43 11 bb 3d 02 fd 74 3a
       -0.02048868 -0.00630198 0.09134152 0.00093455624
0000c0 5d c2 04 be fc 0a 01 3e 20 6f b0 3c 2f ab c2 3d
       -0.12964769 0.12601846 0.021537364 0.09505307
0000d0 cd ad c4 bc 1f ed 5f 3d e8 76 c0 3d bc 6b 65 bd
       -0.024008656 0.054669496 0.093976796 -0.056010947
0000e0 2c a9 c1 3d 44 a0 2b 3e ba 3a 8a bd 6e f1 c9 3d
       0.09456095 0.16760355 -0.067494825 0.09860502
0000f0 e2 f8 2a 3e 53 3b c9 3d 48 27 fa bd 7c e5 6d bd
       0.16696504 0.09825768 -0.122145236 -0.05808018
000100 8f f9 56 3e 1e 3c 1f bd 21 d6 70 3d 28 77 d3 3c
       0.20993637 -0.03887569 0.05879796 0.025813654
000110 2d 3a 56 bd 92 aa 09 bc ec 10 03 3c 34 b2 e6 3d
       -0.052301574 -0.008402484 0.00799964 0.11264458
000120 55 91 8e bd 39 fa e9 bd 86 30 5f 3d 89 cf 8c 3d
       -0.06961314 -0.11424679 0.054489635 0.06875522
000130 48 86 63 3e 05 9e d3 3d 13 3f 95 3d 85 7f 7e 3d
       0.22219193 0.10332874 0.07287421 0.06213333
000140 ca 41 3c bd 42 63 15 3d 90 c6 6d 3b 09 74 29 3e
       -0.04596118 0.036471613 0.0036281683 0.1654817
000150 a5 24 9d 3d 10 87 d5 3b 80 dd 84 3e e2 24 e3 3d
       0.07673005 0.006516345 0.2595024 0.11091019
000160 d4 18 4d 3d 55 65 6c bd 56 14 15 3d d4 5e c6 bd
       0.050072506 -0.057713825 0.036396347 -0.09686056
000170 c2 61 a8 bc 2c f2 c6 bd 55 89 1b be 15 98 cc bb
       -0.020554427 -0.09714159 -0.15189107 -0.0062437155
000180 2e 2e 9a 3d e0 da 01 3e 88 c2 08 bd 64 d3 a8 3c
       0.07528339 0.1268115 -0.033388644 0.020608611
000190 c7 9c ca bc 82 0a 2a 3d 10 1a 88 3d 20 fe f1 bd
       -0.02473296 0.041513927 0.06645596 -0.118160486
0001a0 3d d1 38 3d 6f d8 63 be f8 57 93 bd 9b 8c 27 3e
       0.04512142 -0.22250532 -0.07194513 0.1636223
0001b0 12 45 96 3d cb 82 94 3d d3 0e fd bd 2f 68 a4 3d
       0.07337393 0.07251509 -0.12356343 0.08027684
0001c0 17 1c 9e 3d d6 e6 0e 3e e8 54 c9 3c c6 6c 38 3d
       0.077202015 0.13955244 0.02457662 0.04502561
0001d0 ed f4 1a 3c f2 5b b6 bd 94 ea 8b 3d ad f1 8f 3d
       0.009457809 -0.08904256 0.068318516 0.07028518
0001e0 c9 10 45 bc 8e 6e e8 3d 36 c8 89 3d 6b 11 25 3e
       -0.012027928 0.11349212 0.0672764 0.16119926
0001f0 bf e3 a7 3d 41 e3 67 bc e4 cc a2 3d f1 c3 c7 3d
       0.08197736 -0.014153303 0.07949236 0.0975417

layer3.weight f4 [64, 128]
000000 8e d2 09 3c 92 22 c4 bd e2 cb f2 3b 1c bd 27 3c
       0.008412017 -0.09576906 0.0074095586 0.010237958
000010 30 59 3d bd e5 4c 71 3d 44 b6 5c bb 5e 12 af bc
       -0.046227634 0.058911223 -0.0033677975 -0.021371063
000020 7a e6 f2 bc 70 cd 74 bd 99 d7 da bc 1f 11 e2 3b
       -0.029650915 -0.059766233 -0.026714133 0.0068990136
000030 50 de 75 3b ef 22 c8 bd da 45 b7 bd 6e bf 6e bd
       0.0037516542 -0.09772288 -0.0894887 -0.05828803
000040 5b d1 4e 3d c5 ba e4 bc a7 a7 90 bd 32 de 55 bd
       0.050492626 -0.02792109 -0.07063227 -0.052213855
000050 83 73 b9 bc 85 2b b4 3c 40 7e 8f ba 01 a4 08 3d
       -0.022638088 0.021993408 -0.001094766 0.03335953
000060 d8 72 28 3d 73 3f 6e 3d 6e cf 97 bc 78 dd 92 bd
       0.04112515 0.05816598 -0.018531527 -0.07171148
000070 a0 e6 a1 bd a5 9b cd bd b9 bf a0 bd 40 1f d2 bd
       -0.07905316 -0.100394525 -0.07849068 -0.10259867
000080 d4 70 53 3d 65 f4 b7 bd 55 58 0e bd 8d d2 e3 3c
       0.051621273 -0.089821614 -0.03475221 0.02781036
000090 c9 5c 34 bd 89 66 cb 3c 75 42 dc bd d2 7a b7 bd
       -0.0440338 0.024829166 -0.10754863 -0.08958973
0000a0 9c 4b 1f bd e7 cb a6 3b a8 7d a0 3d 7f 9f 23 3d
       -0.038890466 0.005090225 0.07836467 0.03994703
0000b0 48 c4 a9 3a 35 ac 8b bd 36 d4 2a bc 28 01 7d bd
       0.0012952173 -0.06819955 -0.010426572 -0.06176868
0000c0 12 97 a1 bd d9 10 b5 bc 6d e6 ed bd 0e 75 25 bd
       -0.078901425 -0.02210276 -0.11616216 -0.040394835
0000d0 da 33 34 3d 7c ec 8f bd b4 8d 00 3c 8f 5b 1e 3d
       0.043994762 -0.07027528 0.007846285 0.038661536
0000e0 2e 2f b8 bd 1b 6c 01 3d 3e 88 9b bd 58 bf 95 bd
       -0.08993374 0.031597238 -0.075943455 -0.073118865
0000f0 c3 03 aa bd 0a b1 80 bd 4d 8e be bc 50 9f ae 3c
       -0.08301499 -0.062837675 -0.023261214 0.0213162
000100 ac 19 a3 bd 0f 4b 00 be 7e 80 8b bd 1a 7e 5e bd
       -0.07963881 -0.12528633 -0.06811617 -0.05431948
000110 5c 17 be bd 64 6f c0 bd 43 90 92 3d b7 f1 c6 bd
       -0.09281799 -0.09396246 0.07156422 -0.09714072
000120 86 27 72 bd 6b 39 42 bd 8d de fd 3c 6b 81 83 bd
       -0.059119724 -0.04741804 0.03098991 -0.06421169
000130 8d f8 71 3d 94 5d fa bc 37 80 2b 3d e7 42 21 3d
       0.059074927 -0.0305622 0.041870322 0.039370444
000140 8d 69 66 bd ee 98 74 3d 81 4b bb bc c6 5c cd 3c
       -0.056253005 0.059716158 -0.022863152 0.025068652
000150 20 6e 5a 3d 3b 22 95 bd e8 91 59 bb 5b c4 5d 3d
       0.05332768 -0.072819196 -0.003319854 0.054142337
000160 4c 57 32 3d e8 3f 30 3d 66 a7 c3 bd a3 1d 32 bd
       0.043540284 0.043029696 -0.09553413 -0.043485295
000170 5b 7b bf bd e0 40 46 3d 96 6d 4b bc de 9a 3b bd
       -0.093497 0.048401713 -0.012416264 -0.04580199
000180 da e9 fd 3a ba 14 e3 bc 82 f8 c8 bd 90 33 31 bd
       0.0019372061 -0.027719844 -0.09813024 -0.043262064
000190 b8 38 a3 3c 85 dd 0c bd e8 76 d4 3d c4 ee ab bc
       0.019924507 -0.034390945 0.10374242 -0.020987876
0001a0 d5 3a 7d bd 81 e0 03 bc 9a 20 9a bd ec 2e 97 bd
       -0.061823685 -0.008049131 -0.075257495 -0.073819965
0001b0 2a 04 bd bd 7f 47 83 3c 55 09 0e bd 70 07 56 bd
       -0.0922931 0.016025303 -0.03467687 -0.052253187
0001c0 30 38 ed 39 c2 be ce bd 14 a6 09 3d 2d 8f b0 bd
       0.00045246026 -0.10094978 0.03360565 -0.086210586
0001d0 16 cc 3f bc bd bc 3a bd 6e d2 f7 bc 4f ce 3b bd
       -0.011706373 -0.04559015 -0.030251708 -0.045851048
0001e0 70 c9 53 3c ed 5d 8a 3c ff 19 88 bd 37 18 3c 3d
       0.012926444 0.01689049 -0.06645583 0.04592153
0001f0 1e 2f 8a 3c a2 fa c4 bd 58 64 1a bd 71 db 5a 3d
       0.01686817 -0.09618117 -0.03769335 0.053431932
000200 99 56 be bc 44 dd a2 bd 97 db 3f bd 06 6a a6 be
       -0.023234652 -0.07952359 -0.046840277 -0.32502764
000210 92 4f cf 3d e4 7a bf 3b 56 08 2c 3e 85 b5 e2 3e
       0.10122599 0.005843507 0.16800055 0.44279113
000220 3b 5f 15 be 94 b0 2c 3f 51 c1 47 3d 19 cf d2 be
       -0.14587109 0.67456937 0.048768345 -0.41173628
000230 e1 92 b0 3d 72 35 17 bc f4 cd 95 3e d0 de 22 3d
       0.08621765 -0.009229051 0.29258692 0.03976327
000240 b2 4e 55 3f ea 28 7a 3e d5 ed 07 3e 5e 43 46 bd
       0.83323205 0.2442967 0.1327432 -0.04840409
000250 05 43 d6 be 49 dd 03 bd 90 7b f3 be 07 fe 9c 3d
       -0.41848007 -0.032193456 -0.47555208 0.07665639
000260 7a 34 7c 3c 1c f2 84 3d 2b 3b a2 3c a4 e1 76 3d
       0.015393371 0.06491491 0.019803604 0.06027378
000270 ea 6b 01 3e f2 57 a2 3e 8a 2b 76 bd 35 b3 9c 3e
       0.12638822 0.31707722 -0.060100116 0.30605474
000280 e6 5e 0a be cf 23 15 be c7 28 d8 3e 3b 00 8a be
       -0.13512763 -0.14564441 0.4221861 -0.269533
000290 07 3d 93 3e 61 85 c1 3e 00 88 a5 3e fc 4c 52 be
       0.28757498 0.37797073 0.32330322 -0.2053718
0002a0 d4 46 98 3e 28 c6 70 3e 13 a1 48 bd 2b 18 87 3e
       0.29741538 0.2351309 -0.048981737 0.26385626
0002b0 5b 0f 28 3e 93 6e 9f bd e1 76 70 3d e1 d4 e8 3d
       0.16412108 -0.07784762 0.05870712 0.113687284
0002c0 30 bf 00 bd 9b 2a 8c bd 53 6b 15 3d ce f6 95 3e
       -0.03143233 -0.06844064 0.036479305 0.2928986
0002d0 48 d7 5f 3d 5d c1 e4 be 3c 99 a0 3e 33 7d 88 bb
       0.054648668 -0.44678774 0.3136691 -0.0041653155
0002e0 a2 d0 28 bd 31 27 85 3d 5b f9 b7 3e 20 d9 8d 3e
       -0.041214593 0.06501616 0.3593243 0.27704716
0002f0 8c f2 99 3d 97 19 0d bd fe b4 65 bc e6 59 e1 3c
       0.07516965 -0.034448233 -0.014020203 0.027508687
000300 8d 92 63 3d cd b4 86 3f fa 4d c4 be c4 b8 94 be
       0.055559684 1.0523926 -0.3834074 -0.29047215
000310 56 96 cf 3e 0c a3 03 3f 52 ab 39 bf 94 84 41 3b
       0.40544385 0.51420665 -0.7252704 0.0029528486
000320 1b 46 a9 bd 4b 39 9a 3d c0 5c 3e be 69 18 0e 3d
       -0.08265325 0.07530459 -0.18590069 0.034691248
000330 9e 3c 96 3e c0 c0 85 3e 8e f8 17 bf fe b0 10 bd
       0.29343122 0.2612362 -0.5936364 -0.035325043
000340 09 98 e7 be 3f eb 03 bf 78 7b ad bc 51 d5 08 3e
       -0.4523318 -0.5153083 -0.021177039 0.13362624
000350 a4 5f b8 3e 0b 97 e2 bd 11 34 48 be 44 e3 bf 3c
       0.36010468 -0.110639654 -0.19551112 0.023423798
000360 72 c5 52 3d 7c bd d0 bd 32 c8 0d 3e fa a7 93 bd
       0.05145783 -0.10192391 0.138459 -0.07209773
000370 50 a4 33 3c 71 5e 8e 3d f0 da 5b 3e e1 ae 25 3f
       0.010964468 0.06951607 0.21470237 0.6471997
000380 85 c8 84 bd 3a f2 a5 3d 1f 8f 8b 3e 72 72 85 be
       -0.064835586 0.08102842 0.2725763 -0.26063877
000390 8e 1a bd 3e 37 0d 51 be 24 0f 94 3f 2f c6 22 bd
       0.36934322 -0.20415197 1.156712 -0.039739784
0003a0 d5 94 8d be a3 42 ac 3f 9d e0 53 bd 9d 2d ac 3d
       -0.27652612 1.3457836 -0.05172788 0.084071375
0003b0 a9 3c 86 bd 10 59 63 3e ee 74 c5 3d 27 b4 a0 be
       -0.06554539 0.22201943 0.09641443 -0.31387445
0003c0 cb b0 24 3d 86 68 61 3d 9b 77 81 3e c1 e7 17 be
       0.040207665 0.055031322 0.25286564 -0.14834501
0003d0 6f 85 5e 3e cf cb 2d 3f 6e ed 1e bd 6a d0 1d be
       0.21730588 0.6788911 -0.03880065 -0.15411535
0003e0 db 95 db 3e 77 90 71 3e 69 06 0d be 3e b9 2a 3e
       0.42887768 0.23590265 -0.13771977 0.16672227
0003f0 a0 47 6e 3d 77 b3 62 3f 56 92 aa 3e 04 d7 c7 3e
       0.058173776 0.8855509 0.3331477 0.3903123

layer3.bias f4 [64]
000000 d3 76 0b bd b2 af a5 3d a4 fc 7b 3d 8c 78 00 3c
       -0.034048866 0.08090152 0.061520234 0.007841241
000010 99 53 4c 3d c3 76 3c bd 89 72 3a 3d 45 81 4f bd
       0.049884412 -0.046011698 0.045519385 -0.05066039
000020 24 bf 2a bd af 81 d5 3c be c6 67 bd 04 c7 97 3c
       -0.041686192 0.026062815 -0.05658602 0.018527515
000030 42 71 28 bc 6c 9e 25 3e b7 d5 14 3c 90 c6 1c 3d
       -0.010280909 0.16173714 0.009084157 0.0382753
000040 c9 6e 04 3e 3d f3 90 bd 09 23 b9 3d ab 5e 1d bd
       0.12932886 -0.07077644 0.090398856 -0.03842036
000050 46 e3 3f 3b 59 03 84 3c b5 fb 0e 3e c3 9f b8 bd
       0.0029279753 0.016114878 0.13963206 -0.09014847
000060 78 8a 62 3e a9 f7 0d 3e 6e 89 18 3e fa 7a 86 3c
       0.22123134 0.13864006 0.14896175 0.016416062
000070 60 8e bf bd 60 59 3d be 2a 6c 1f 3d 09 49 a3 bd
       -0.09353328 -0.18491125 0.038921513 -0.07972915
000080 47 1b fa 3d e9 ca a0 3a c4 7a 7c bd bb 83 a6 3d
       0.12212234 0.0012267503 -0.061640516 0.08130594
000090 a1 7c 3a 3d 4a 57 a8 3d 89 c6 65 3d 8c e9 b8 bd
       0.04552901 0.08219774 0.05609754 -0.090289205
0000a0 34 7a 03 3e f7 d1 68 3c c2 66 17 bc 7c d0 53 bd
       0.12839586 0.014210216 -0.009240808 -0.051712498
0000b0 60 c7 7f 3c c4 6c 15 bd 5c 47 99 3d f4 43 06 bd
       0.0156115 -0.03648068 0.07484314 -0.03277965
0000c0 12 e6 8f bd dc c4 e9 bb 4d 2e 0b 3d e2 33 a9 ba
       -0.07026304 -0.007134063 0.033979703 -0.0012909139
0000d0 d6 fc fe bc 44 ad e0 3c 60 31 ce bc 24 1c 31 3d
       -0.031126421 0.02742637 -0.025170028 0.043239728
0000e0 d4 07 a0 3c e2 20 6f bd c2 8e a1 bc 82 fd ae bd
       0.019534983 -0.05838097 -0.019721393 -0.085444465
0000f0 d7 76 cc bd 11 d3 2b 3e 00 47 b0 3d 2d a1 6c bd
       -0.099836044 0.16779734 0.08607292 -0.057770897

slot_head.weight f4 [13, 64]
000000 3b c4 fb bc 99 64 9a be 8e cd 3f be ea 8f 10 3e
       -0.030733218 -0.30154875 -0.18730757 0.14117399
000010 cd fe 75 bd be a3 da 3e 1e 56 0e be ca 4b e5 bd
       -0.06005745 0.4270305 -0.13900039 -0.11196096
000020 a6 e9 f9 bd 0f 9f 71 3c de 42 be bd d3 4a 2f bd
       -0.12202768 0.014747395 -0.09290098 -0.042795967
000030 d8 31 79 bd 73 9e ad be ba b1 d6 3d 41 5b 11 bd
       -0.06083855 -0.3390995 0.104831174 -0.035487417
000040 df 3d 8e bf 8e 60 a5 3d c6 4d fd bc 90 56 71 3d
       -1.1112632 0.08075057 -0.030920874 0.058920443
000050 ce db ab 3d ab 0b dc bc ec ce 38 bf 6c 7c 85 bd
       0.08391534 -0.026861032 -0.7219074 -0.06517872
000060 a6 31 0e be 04 31 ea bb c6 75 c2 bd 35 9d 64 3e
       -0.13886127 -0.0071469564 -0.0949512 0.22325595
000070 77 2d d7 3d 76 c8 d5 3e 79 ff 13 3d 60 ea 7c 3d
       0.105067186 0.41754502 0.03613231 0.061746955
000080 fe 71 d6 3e 82 c3 00 3d af 4c 01 be 14 81 93 bc
       0.41883844 0.03143645 -0.12626909 -0.018005885
000090 72 c0 8a be 36 16 c9 bd a8 41 aa 3e 20 a7 dd bd
       -0.2709995 -0.098186895 0.33253217 -0.10822892
0000a0 7d 39 a7 3e 91 3f 74 3d e4 53 c9 bd 71 30 90 3e
       0.32661048 0.059630934 -0.09830454 0.28161958
0000b0 e3 67 b6 3e 38 f9 2d 3c f2 22 5e bf d7 26 9b be
       0.35626134 0.0106185 -0.8677207 -0.3030307
0000c0 20 73 10 bc 3a c4 95 3e e6 8d d4 bd fc 47 e8 bd
       -0.00881651 0.2925127 -0.103786275 -0.11341855
0000d0 38 86 fe 3e cb 4c 12 3d f2 5e c4 bd ac f9 6a 3e
       0.49711776 0.035717767 -0.09588422 0.22946805
0000e0 d1 2f 00 bc 7c 78 b8 3c ac eb 2e bd e3 fc a5 3e
       -0.0078239 0.022518389 -0.042705223 0.324195
0000f0 e9 e8 3b bd 0b 16 87 bf 6f ba 33 bd 19 98 46 3e
       -0.045876417 -1.0553602 -0.04387897 0.19393958
000100 0a bd 4a bd 3b ba eb be ca b9 c4 3d 15 6b cc 3d
       -0.049496688 -0.4604052 0.09605749 0.09981362
000110 73 e1 17 3e bb 93 54 bd e8 af 3e 3c 58 72 c9 be
       0.14832096 -0.0518987 0.011638619 -0.3934505
000120 8d a4 c6 bd aa 64 8b 3e 14 3f 00 be d4 44 4b 3d
       -0.09699354 0.27225238 -0.12524062 0.049626186
000130 1f dc 40 3d 27 08 a2 be 9c d4 a8 bd 3a fe 45 bd
       0.047084924 -0.31646845 -0.08243677 -0.048338152
000140 80 ff f2 be 08 fb 17 bd c0 2e 20 3d 9e d2 00 be
       -0.47460556 -0.037104636 0.039107084 -0.12580344
000150 e5 ea 05 3e 7c 3d bc bd 8d 8a 79 3e 97 35 f1 bd
       0.13077886 -0.09191415 0.24369259 -0.117777996
000160 9a d7 66 3e ca 04 35 bf b5 2d 32 3e f6 a8 a2 3e
       0.22543183 -0.7071043 0.17400248 0.31769532
000170 0a f4 bf bd e6 32 24 3d 73 f4 14 3c 21 53 a9 3d
       -0.09372719 0.040087603 0.009091484 0.08267809
000180 82 14 96 3e 6e 85 bd 3d 41 c2 50 3d 79 42 76 3e
       0.2931252 0.09253965 0.050966505 0.24048795
000190 64 36 2d be 2e 66 96 3c 5d 30 43 3e 76 16 ab bd
       -0.1691528 0.01835927 0.19061418 -0.083538935
0001a0 12 35 7d bf 23 ed d9 bd cb 2e fd be ad d1 ff be
       -0.98909104 -0.10640933 -0.49449763 -0.49964657
0001b0 ba 1a 13 3e c1 0c 1d bd dc 2a 5f 3d 72 d5 ea bd
       0.14365664 -0.03834224 0.054484233 -0.11466493
0001c0 b8 9e ba bd 7b 0f 0e 3e b4 ed f4 3d 7a 2d 4e bc
       -0.091123044 0.13873093 0.11959401 -0.012584085
0001d0 e8 24 a3 3e 54 78 ed 3d 4f 48 e2 bd 10 7b 7d 3d
       0.31864095 0.115952164 -0.11048948 0.06188494
0001e0 57 0e 0d 3d bf f5 c0 3c c9 95 fa 3c 06 f6 48 3e
       0.034437504 0.02355468 0.030589001 0.196251
0001f0 fe 3e 36 3d a8 26 2e bb 5f 8d ab 3d 93 42 0e bd
       0.044493668 -0.0026573334 0.08376574 -0.03473146
000200 f1 7b d0 3d c5 99 70 3e 54 b7 85 3d 43 9a 62 3f
       0.1017989 0.23496158 0.06529108 0.88516635
000210 67 e7 b9 bd 2a f4 83 3e ed d7 94 bd 6b 75 18 bf
       -0.090773396 0.2577222 -0.07267747 -0.59554166
000220 04 f2 84 bd a5 3a b7 be 45 18 d1 3d 9f fb fb bd
       -0.06491473 -0.3578693 0.10209707 -0.12303852
000230 62 13 2a bd 52 84 38 3e b4 c4 35 bd 84 49 a2 3d
       -0.04152239 0.18019226 -0.044377044 0.07924178
000240 9c e7 31 3e d0 27 6c bd a0 5b 28 3f 3e 50 f0 bd
       0.17373508 -0.057655156 0.6576481 -0.11734055
000250 5b 7e e5 3d fa 6b 0a 3c 95 4a 0a be ab ea e7 3d
       0.11205741 0.008448595 -0.13505013 0.11324056
000260 9e e8 f6 bd b3 bf ba 3e d2 f8 40 3e 42 e6 9a be
       -0.12056087 0.3647438 0.18844917 -0.30253798
000270 98 04 bf bd 93 a2 d9 bd 9f 94 88 3d 59 b6 89 bc
       -0.09327048 -0.10626712 0.06668972 -0.016810583
000280 49 b1 24 3e 4c 78 c9 3d eb 85 9d 3d 8c a1 9b be
       0.16083254 0.09837398 0.076915585 -0.30396688
000290 c2 48 33 bf 3e 08 3b be 0c cb 93 bd 10 34 7e 3d
       -0.70032895 -0.18264863 -0.072164625 0.06206137
0002a0 89 ab ff be 27 11 e8 bc ae be b8 3c 52 02 ee 3e
       -0.49935558 -0.028328491 0.02255186 0.46486145
0002b0 d1 dd 9d 3e 43 85 83 3d 16 5a ba bf 7d f3 58 3e
       0.30833295 0.06421902 -1.4558742 0.21186633
0002c0 46 c9 c7 3d 73 cf 3b 3e 83 8a c3 3d 0b f6 87 3b
       0.09755187 0.18340854 0.095479034 0.0041492037
0002d0 71 e4 a0 3d 0e 1f 2f 3d 61 84 59 be 6a b8 5a bf
       0.07856072 0.042754225 -0.21241905 -0.85437644
0002e0 7d fc 72 3d 0e 7e 19 3e 32 ac b1 3d a2 43 42 bf
       0.059322823 0.14989492 0.08675422 -0.7588445
0002f0 41 24 6f 3c a4 2b 0f bf e6 56 89 bd e6 8b 36 bf
       0.014596046 -0.55925965 -0.06706028 -0.7130722
000300 1c 7d 11 3d 02 88 ae be 6d a0 0b 3f c0 35 9d bd
       0.035519704 -0.3408814 0.54541665 -0.076762676
000310 fc 0b 8e 3d 69 ca 38 be a3 d7 9f 3d 23 4c 0e 3f
       0.069358796 -0.18045963 0.07804801 0.55584925
000320 09 bb 9d 3d da 38 8f 3e 4b ad 50 3d 46 d5 95 bd
       0.0770169 0.27973062 0.050946515 -0.07316069
000330 4a 83 fd 3d d8 ad 49 3e 58 f7 2d 3d 54 52 4a bd
       0.12378557 0.19695222 0.042472214 -0.04939492
000340 76 08 e5 be 27 d5 20 3d c8 5b 8f bc 0b 9c aa bc
       -0.44733018 0.039265778 -0.01749982 -0.02082636
000350 81 23 a6 bd 63 06 eb bd 7c 31 e4 be 87 7c d4 bd
       -0.081122406 -0.114758275 -0.44569004 -0.10375314
000360 b5 ad bf 3e 4b 85 24 bd 45 c5 2f bf dc f8 9d be
       0.37437215 -0.04016618 -0.68660384 -0.30853927
000370 00 5d 0a be 09 bf d6 be 88 ec b0 bd b7 a2 54 bc
       -0.13512039 -0.41942623 -0.08638865 -0.012978247
000380 00 6b 83 3e 5c 00 d4 3c 24 14 2b bd 81 f9 ae be
       0.25667572 0.025879078 -0.041767254 -0.3417473
000390 86 24 a7 bd e6 a4 c2 be 43 74 6c be 4a 00 b9 bd
       -0.08161263 -0.38016433 -0.23091225 -0.09033258
0003a0 c8 14 1d bf bb 55 a1 3d 9c d7 56 bb b3 56 d0 3c
       -0.61359835 0.0787768 -0.0032782322 0.025431966
0003b0 1f 31 05 be 37 1a 96 3e 09 d6 32 3e c9 7b 7c bd
       -0.1300702 0.29316875 0.1746446 -0.06164149
0003c0 00 78 eb 3d c4 5a f2 3d 32 8a 8b bd 99 75 45 bd
       0.114974976 0.118337184 -0.06813468 -0.048207853
0003d0 37 e7 c1 3e b8 80 d1 3e dc 92 c6 3e 7b 3b 17 bd
       0.37871715 0.40918517 0.3878392 -0.03692196
0003e0 34 eb 74 bd 25 60 b0 3e 78 4d c0 3d 36 36 8f be
       -0.05979462 0.34448352 0.09389776 -0.27971047
0003f0 ee f3 ef bd c2 22 4a be 42 c5 cd 3e d5 25 db be
       -0.11716448 -0.19739822 0.40189558 -0.428023

slot_head.bias f4 [13]
000000 0d 2a d5 bc 88 a8 00 bd 61 f1 83 3e 54 54 0a be
       -0.026021028 -0.031410724 0.25770095 -0.13508731
000010 8a a7 2c 3d 10 f0 57 3d f8 12 e9 3c 86 cd d4 3d
       0.042151965 0.052719176 0.028451428 0.10390763
000020 3d 17 2f 3d 47 0e 49 bd 73 53 8f 3c 02 e0 0f bd
       0.04274677 -0.04908588 0.017495846 -0.03512574
000030 ed da ab bd
       -0.08391366

rotation_head.weight f4 [3, 64]
000000 71 f9 c8 3d fd 19 d8 3c 0a 81 1c ba ea 10 66 3d
       0.09813202 0.02637958 -0.0005970156 0.056168474
000010 b6 99 ae bd 82 e6 ab bd 90 f2 01 bd ad eb 16 3c
       -0.08525412 -0.08393575 -0.031725466 0.009211463
000020 ec af 52 bd 81 77 a3 3e b0 82 b6 bd 0c 65 44 3c
       -0.051437303 0.31927112 -0.089116454 0.011986982
000030 d2 06 e6 bd 33 0c 37 bd a6 db b1 3b af 24 0c bd
       -0.112317696 -0.04468937 0.0054277955 -0.03421467
000040 90 9c 7d be 8e 3f df bc 15 59 6f be 77 f1 ea 3c
       -0.24766755 -0.027251985 -0.23373826 0.028679593
000050 5f f8 fe 3c 3b 86 95 bd 42 30 83 3e 7c c9 14 bc
       0.031124292 -0.07300993 0.25622755 -0.009081241
000060 ba dc ff bd df 1d a9 3d 16 9b 0b be fd 7e 21 be
       -0.12493272 0.082576506 -0.1363338 -0.15771098
000070 5e 15 c5 3d ba 27 52 3d c0 9f dc bd 63 72 d4 3d
       0.09623216 0.051307417 -0.107726574 0.1037338
000080 7a cc 00 3e 8a 95 3b bd fa c9 81 3d 55 b1 b1 bd
       0.12578002 -0.04579691 0.06337352 -0.086764015
000090 68 83 e9 bd b3 c9 47 3e 66 97 0e 3f 82 d6 da bd
       -0.11402017 0.19510536 0.55699766 -0.10685445
0000a0 61 eb 89 bd df 78 ca bd 0f 5b 0f 3e bc 4a 50 3c
       -0.06734348 -0.098863356 0.1399958 0.012713131
0000b0 4f aa 83 3e ca 11 34 be 1f d8 d1 bd 86 5d 91 3e
       0.25715873 -0.17584911 -0.102463 0.28391665
0000c0 ec 2e 2c 3d ab b7 dd 3e 27 51 66 bd 18 60 89 bd
       0.042036936 0.4330419 -0.056229737 -0.067077816
0000d0 ca 83 a5 3e 0e c9 93 3e 15 37 2b 3d 56 24 6c 3e
       0.3232711 0.2886433 0.041800577 0.23060736
0000e0 b8 d9 e3 bc c8 a1 a4 3e 0e 5f b5 bd 77 8a 82 be
       -0.027813777 0.3215468 -0.08856021 -0.25496265
0000f0 ee 80 e6 3d 5e 88 62 3e 60 08 c7 3d bb 2e 07 3e
       0.1125506 0.22122332 0.09718394 0.1320142
000100 32 14 f9 3d 7a bf 55 bd de a6 d0 3d ea 80 b9 3d
       0.12162055 -0.05218456 0.101880774 0.090577915
000110 64 b0 80 bd dc a2 68 3e 99 ea da bc e6 6e ec 3c
       -0.06283644 0.22718376 -0.026723193 0.028861474
000120 1e 43 d6 bd e3 1b 08 be 09 1c d1 3d dc 68 c2 bd
       -0.1046202 -0.13291888 0.102104254 -0.094926566
000130 ae 84 6e bd 25 87 3f 3b 57 a8 f7 bd 4c 4a c5 3d
       -0.058232002 0.002922484 -0.12092655 0.09633312
000140 a8 13 41 3e 84 83 84 bd 8a 38 6a 3e ee 03 a0 bd
       0.18855155 -0.06470397 0.2287313 -0.078132495
000150 58 a6 e1 3d e7 a8 59 bd 08 5b 64 be 7d 45 7d 3d
       0.11018056 -0.053139593 -0.2230035 0.061833847
000160 04 f2 89 3e 84 e1 04 3e 28 c3 62 3e a9 47 86 3e
       0.26942456 0.12976652 0.22144759 0.26226547
000170 fb 04 da bd 01 53 dc 3d dc 9e aa bd c9 c2 50 bd
       -0.10645481 0.10758019 -0.08331081 -0.05096701
000180 d5 aa 89 bd 27 88 42 bd 25 8d 4f 3d c3 49 86 3e
       -0.06722037 -0.047493126 0.050671715 0.2622815
000190 8a fe 82 3e 4d 6f 9f 3d a4 46 02 bf 72 1a d0 3d
       0.25584823 0.07784901 -0.5088904 0.10161294
0001a0 7e 68 59 3d 2d 2b ee bc 9d 03 61 bc b2 5e 30 be
       0.053078167 -0.029073322 -0.013733772 -0.17223623
0001b0 21 79 d5 3a f3 34 78 3e 1c f8 8c 3e 1c a0 8d be
       0.001628671 0.24238949 0.27533042 -0.27661216
0001c0 80 e7 f2 3b a7 f5 c2 be ed ed e8 3c 92 dd e1 3d
       0.007412851 -0.38078043 0.028433764 0.11028589
0001d0 c8 6b cf be 3a 81 9d be cc f8 43 3e 7b ad 08 be
       -0.40511918 -0.30762655 0.19137877 -0.13347428
0001e0 7b 47 de bd b5 8b 4d be 6a 3c 4e bd 2e 85 3d 3e
       -0.108534776 -0.20072825 -0.050350584 0.18507835
0001f0 07 45 69 3c 9f d8 d9 3a fc 4e a5 3d af 06 98 bc
       0.014237649 0.0016620344 0.08071706 -0.018557874
000200 de 2a 3d 3d 91 ad 37 be 62 84 17 be 34 10 bf 3d
       0.04618346 -0.17937304 -0.14796594 0.093292624
000210 86 7e 8c bc df ec 21 be 66 23 76 3d 7c 96 56 bd
       -0.017150175 -0.15813015 0.060092352 -0.052389607
000220 b8 5e 48 bd e6 01 ef bd 90 6d 15 bc ce 40 b8 3d
       -0.048918456 -0.11670284 -0.00912036 0.089967355
000230 ab 1c 41 3c 25 e7 3c be 30 16 6b 3d a8 78 3e 3d
       0.01178662 -0.1844755 0.057394207 0.046501786
000240 d1 c4 a1 be c6 ae bb 3d 28 01 a6 be 7d 51 c1 3d
       -0.31595472 0.09164195 -0.32422757 0.09439371
000250 d8 28 cf 3d c9 fa 9b 3c ec 9f 33 be a1 ac ea bb
       0.10115212 0.019040482 -0.17541474 -0.0071616923
000260 5e 5b 47 be ea 4b dc bd d7 09 1b be 54 37 3a be
       -0.19468448 -0.10756667 -0.15140472 -0.18185169
000270 3c b7 48 3d be 39 23 bd 3e e7 ed bd f4 1c 5e 3d
       0.04900287 -0.03984999 -0.116163716 0.05422683
000280 54 39 29 be 91 08 74 3d 89 9c ab 3d a0 d3 dd bd
       -0.16525775 0.059578482 0.08379466 -0.1083138
000290 4d 2e bd bd d2 e5 4a be 74 15 36 be 40 39 a5 bc
       -0.09237347 -0.19814232 -0.17781621 -0.0201689
0002a0 83 09 b1 bc 1d 86 ab bd 05 22 37 be 52 72 20 3d
       -0.02161098 -0.083751895 -0.17884071 0.039171524
0002b0 11 ad 03 be 03 df f2 bd 19 fe 91 bd 70 5f 38 be
       -0.12858988 -0.11858942 -0.071285434 -0.18005157
0002c0 a6 e6 fe bd a8 49 f9 bd 05 5c 12 bd 2e d8 5f 3d
       -0.124463364 -0.12172252 -0.035732288 0.054649524
0002d0 8f aa a6 be 91 73 0f be 6d 07 ac bd bf e0 03 be
       -0.32552 -0.14008929 -0.08399854 -0.12878703
0002e0 c1 4b 36 3d 37 33 f2 bd eb e2 85 3d b1 87 38 be
       0.04450584 -0.11826175 0.06537422 -0.18020512
0002f0 03 54 0f bd 40 39 38 bd b0 5c 40 be 95 69 d6 bd
       -0.03499223 -0.044976473 -0.18785357 -0.10469357

rotation_head.bias f4 [3]
000000 32 74 b0 3d 28 28 2e 3d 8e 8d 86 3c
       0.086159125 0.042518765 0.01642492
